{"format": "graph-model", "generatedBy": "1.15.0", "convertedBy": "TensorFlow.js Converter v3.9.0", "signature": {"inputs": {"input": {"name": "generator_input:0", "dtype": "DT_FLOAT", "tensorShape": {"dim": [{"size": "1"}, {"size": "-1"}, {"size": "-1"}, {"size": "3"}]}}}, "outputs": {"output": {"name": "generator/G_MODEL/Tanh:0", "dtype": "DT_FLOAT", "tensorShape": {"dim": [{"size": "1"}, {"size": "-1"}, {"size": "-1"}, {"size": "3"}]}}}}, "modelTopology": {"node": [{"name": "generator/G_MODEL/u1/InstanceNorm_1/beta", "op": "Const", "attr": {"dtype": {"type": "DT_FLOAT"}, "value": {"tensor": {"dtype": "DT_FLOAT", "tensorShape": {"dim": [{"size": "64"}]}}}}}, {"name": "generator/G_MODEL/u1/InstanceNorm/beta", "op": "Const", "attr": {"dtype": {"type": "DT_FLOAT"}, "value": {"tensor": {"dtype": "DT_FLOAT", "tensorShape": {"dim": [{"size": "64"}]}}}}}, {"name": "generator/G_MODEL/u1/SeparableConv2d/InstanceNorm/beta", "op": "Const", "attr": {"dtype": {"type": "DT_FLOAT"}, "value": {"tensor": {"dtype": "DT_FLOAT", "tensorShape": {"dim": [{"size": "128"}]}}}}}, {"name": "generator/G_MODEL/u1/mul/x", "op": "Const", "attr": {"dtype": {"type": "DT_INT32"}, "value": {"tensor": {"dtype": "DT_INT32", "tensorShape": {}}}}}, {"name": "generator/G_MODEL/u1/strided_slice/stack", "op": "Const", "attr": {"dtype": {"type": "DT_INT32"}, "value": {"tensor": {"dtype": "DT_INT32", "tensorShape": {"dim": [{"size": "1"}]}}}}}, {"name": "generator/G_MODEL/u1/strided_slice/stack_1", "op": "Const", "attr": {"dtype": {"type": "DT_INT32"}, "value": {"tensor": {"dtype": "DT_INT32", "tensorShape": {"dim": [{"size": "1"}]}}}}}, {"name": "generator/G_MODEL/u1/strided_slice/stack_2", "op": "Const", "attr": {"value": {"tensor": {"dtype": "DT_INT32", "tensorShape": {"dim": [{"size": "1"}]}}}, "dtype": {"type": "DT_INT32"}}}, {"name": "generator/G_MODEL/u1/mul_1/x", "op": "Const", "attr": {"value": {"tensor": {"dtype": "DT_INT32", "tensorShape": {}}}, "dtype": {"type": "DT_INT32"}}}, {"name": "generator/G_MODEL/u2/InstanceNorm/beta", "op": "Const", "attr": {"dtype": {"type": "DT_FLOAT"}, "value": {"tensor": {"dtype": "DT_FLOAT", "tensorShape": {"dim": [{"size": "128"}]}}}}}, {"name": "generator/G_MODEL/u2/SeparableConv2d_1/InstanceNorm/beta", "op": "Const", "attr": {"dtype": {"type": "DT_FLOAT"}, "value": {"tensor": {"dtype": "DT_FLOAT", "tensorShape": {"dim": [{"size": "128"}]}}}}}, {"name": "generator/G_MODEL/u2/SeparableConv2d/InstanceNorm/beta", "op": "Const", "attr": {"value": {"tensor": {"dtype": "DT_FLOAT", "tensorShape": {"dim": [{"size": "128"}]}}}, "dtype": {"type": "DT_FLOAT"}}}, {"name": "generator/G_MODEL/u2/mul/x", "op": "Const", "attr": {"dtype": {"type": "DT_INT32"}, "value": {"tensor": {"dtype": "DT_INT32", "tensorShape": {}}}}}, {"name": "generator/G_MODEL/u2/strided_slice/stack", "op": "Const", "attr": {"dtype": {"type": "DT_INT32"}, "value": {"tensor": {"dtype": "DT_INT32", "tensorShape": {"dim": [{"size": "1"}]}}}}}, {"name": "generator/G_MODEL/u2/strided_slice/stack_1", "op": "Const", "attr": {"value": {"tensor": {"dtype": "DT_INT32", "tensorShape": {"dim": [{"size": "1"}]}}}, "dtype": {"type": "DT_INT32"}}}, {"name": "generator/G_MODEL/u2/strided_slice/stack_2", "op": "Const", "attr": {"dtype": {"type": "DT_INT32"}, "value": {"tensor": {"dtype": "DT_INT32", "tensorShape": {"dim": [{"size": "1"}]}}}}}, {"name": "generator/G_MODEL/u2/mul_1/x", "op": "Const", "attr": {"value": {"tensor": {"dtype": "DT_INT32", "tensorShape": {}}}, "dtype": {"type": "DT_INT32"}}}, {"name": "generator/G_MODEL/m/InstanceNorm_1/beta", "op": "Const", "attr": {"value": {"tensor": {"dtype": "DT_FLOAT", "tensorShape": {"dim": [{"size": "256"}]}}}, "dtype": {"type": "DT_FLOAT"}}}, {"name": "generator/G_MODEL/m/r8/2/beta", "op": "Const", "attr": {"dtype": {"type": "DT_FLOAT"}, "value": {"tensor": {"dtype": "DT_FLOAT", "tensorShape": {"dim": [{"size": "256"}]}}}}}, {"name": "generator/G_MODEL/m/r8/1/beta", "op": "Const", "attr": {"dtype": {"type": "DT_FLOAT"}, "value": {"tensor": {"dtype": "DT_FLOAT", "tensorShape": {"dim": [{"size": "512"}]}}}}}, {"name": "generator/G_MODEL/m/r8/InstanceNorm/beta", "op": "Const", "attr": {"dtype": {"type": "DT_FLOAT"}, "value": {"tensor": {"dtype": "DT_FLOAT", "tensorShape": {"dim": [{"size": "512"}]}}}}}, {"name": "generator/G_MODEL/m/r7/2/beta", "op": "Const", "attr": {"value": {"tensor": {"dtype": "DT_FLOAT", "tensorShape": {"dim": [{"size": "256"}]}}}, "dtype": {"type": "DT_FLOAT"}}}, {"name": "generator/G_MODEL/m/r7/1/beta", "op": "Const", "attr": {"value": {"tensor": {"dtype": "DT_FLOAT", "tensorShape": {"dim": [{"size": "512"}]}}}, "dtype": {"type": "DT_FLOAT"}}}, {"name": "generator/G_MODEL/m/r7/InstanceNorm/beta", "op": "Const", "attr": {"dtype": {"type": "DT_FLOAT"}, "value": {"tensor": {"dtype": "DT_FLOAT", "tensorShape": {"dim": [{"size": "512"}]}}}}}, {"name": "generator/G_MODEL/m/r6/2/beta", "op": "Const", "attr": {"dtype": {"type": "DT_FLOAT"}, "value": {"tensor": {"dtype": "DT_FLOAT", "tensorShape": {"dim": [{"size": "256"}]}}}}}, {"name": "generator/G_MODEL/m/r6/1/beta", "op": "Const", "attr": {"value": {"tensor": {"dtype": "DT_FLOAT", "tensorShape": {"dim": [{"size": "512"}]}}}, "dtype": {"type": "DT_FLOAT"}}}, {"name": "generator/G_MODEL/m/r6/InstanceNorm/beta", "op": "Const", "attr": {"value": {"tensor": {"dtype": "DT_FLOAT", "tensorShape": {"dim": [{"size": "512"}]}}}, "dtype": {"type": "DT_FLOAT"}}}, {"name": "generator/G_MODEL/m/r5/2/beta", "op": "Const", "attr": {"dtype": {"type": "DT_FLOAT"}, "value": {"tensor": {"dtype": "DT_FLOAT", "tensorShape": {"dim": [{"size": "256"}]}}}}}, {"name": "generator/G_MODEL/m/r5/1/beta", "op": "Const", "attr": {"dtype": {"type": "DT_FLOAT"}, "value": {"tensor": {"dtype": "DT_FLOAT", "tensorShape": {"dim": [{"size": "512"}]}}}}}, {"name": "generator/G_MODEL/m/r5/InstanceNorm/beta", "op": "Const", "attr": {"value": {"tensor": {"dtype": "DT_FLOAT", "tensorShape": {"dim": [{"size": "512"}]}}}, "dtype": {"type": "DT_FLOAT"}}}, {"name": "generator/G_MODEL/m/r4/2/beta", "op": "Const", "attr": {"value": {"tensor": {"dtype": "DT_FLOAT", "tensorShape": {"dim": [{"size": "256"}]}}}, "dtype": {"type": "DT_FLOAT"}}}, {"name": "generator/G_MODEL/m/r4/1/beta", "op": "Const", "attr": {"value": {"tensor": {"dtype": "DT_FLOAT", "tensorShape": {"dim": [{"size": "512"}]}}}, "dtype": {"type": "DT_FLOAT"}}}, {"name": "generator/G_MODEL/m/r4/InstanceNorm/beta", "op": "Const", "attr": {"value": {"tensor": {"dtype": "DT_FLOAT", "tensorShape": {"dim": [{"size": "512"}]}}}, "dtype": {"type": "DT_FLOAT"}}}, {"name": "generator/G_MODEL/m/r3/2/beta", "op": "Const", "attr": {"dtype": {"type": "DT_FLOAT"}, "value": {"tensor": {"dtype": "DT_FLOAT", "tensorShape": {"dim": [{"size": "256"}]}}}}}, {"name": "generator/G_MODEL/m/r3/1/beta", "op": "Const", "attr": {"value": {"tensor": {"dtype": "DT_FLOAT", "tensorShape": {"dim": [{"size": "512"}]}}}, "dtype": {"type": "DT_FLOAT"}}}, {"name": "generator/G_MODEL/m/r3/InstanceNorm/beta", "op": "Const", "attr": {"value": {"tensor": {"dtype": "DT_FLOAT", "tensorShape": {"dim": [{"size": "512"}]}}}, "dtype": {"type": "DT_FLOAT"}}}, {"name": "generator/G_MODEL/m/r2/2/beta", "op": "Const", "attr": {"dtype": {"type": "DT_FLOAT"}, "value": {"tensor": {"dtype": "DT_FLOAT", "tensorShape": {"dim": [{"size": "256"}]}}}}}, {"name": "generator/G_MODEL/m/r2/1/beta", "op": "Const", "attr": {"value": {"tensor": {"dtype": "DT_FLOAT", "tensorShape": {"dim": [{"size": "512"}]}}}, "dtype": {"type": "DT_FLOAT"}}}, {"name": "generator/G_MODEL/m/r2/InstanceNorm/beta", "op": "Const", "attr": {"dtype": {"type": "DT_FLOAT"}, "value": {"tensor": {"dtype": "DT_FLOAT", "tensorShape": {"dim": [{"size": "512"}]}}}}}, {"name": "generator/G_MODEL/m/r1/2/beta", "op": "Const", "attr": {"value": {"tensor": {"dtype": "DT_FLOAT", "tensorShape": {"dim": [{"size": "256"}]}}}, "dtype": {"type": "DT_FLOAT"}}}, {"name": "generator/G_MODEL/m/r1/1/beta", "op": "Const", "attr": {"dtype": {"type": "DT_FLOAT"}, "value": {"tensor": {"dtype": "DT_FLOAT", "tensorShape": {"dim": [{"size": "512"}]}}}}}, {"name": "generator/G_MODEL/m/r1/InstanceNorm/beta", "op": "Const", "attr": {"dtype": {"type": "DT_FLOAT"}, "value": {"tensor": {"dtype": "DT_FLOAT", "tensorShape": {"dim": [{"size": "512"}]}}}}}, {"name": "generator/G_MODEL/m/InstanceNorm/beta", "op": "Const", "attr": {"dtype": {"type": "DT_FLOAT"}, "value": {"tensor": {"dtype": "DT_FLOAT", "tensorShape": {"dim": [{"size": "256"}]}}}}}, {"name": "generator/G_MODEL/b2/SeparableConv2d_1/InstanceNorm/beta", "op": "Const", "attr": {"value": {"tensor": {"dtype": "DT_FLOAT", "tensorShape": {"dim": [{"size": "256"}]}}}, "dtype": {"type": "DT_FLOAT"}}}, {"name": "generator/G_MODEL/b2/MirrorPad_2/paddings", "op": "Const", "attr": {"dtype": {"type": "DT_INT32"}, "value": {"tensor": {"dtype": "DT_INT32", "tensorShape": {"dim": [{"size": "4"}, {"size": "2"}]}}}}}, {"name": "generator/G_MODEL/b2/SeparableConv2d_1/depthwise_weights", "op": "Const", "attr": {"value": {"tensor": {"dtype": "DT_FLOAT", "tensorShape": {"dim": [{"size": "3"}, {"size": "3"}, {"size": "128"}, {"size": "1"}]}}}, "dtype": {"type": "DT_FLOAT"}}}, {"name": "generator/G_MODEL/b2/SeparableConv2d_1/pointwise_weights", "op": "Const", "attr": {"dtype": {"type": "DT_FLOAT"}, "value": {"tensor": {"dtype": "DT_FLOAT", "tensorShape": {"dim": [{"size": "1"}, {"size": "1"}, {"size": "128"}, {"size": "256"}]}}}}}, {"name": "generator/G_MODEL/b2/SeparableConv2d_1/InstanceNorm/moments/mean/reduction_indices", "op": "Const", "attr": {"value": {"tensor": {"dtype": "DT_INT32", "tensorShape": {"dim": [{"size": "2"}]}}}, "dtype": {"type": "DT_INT32"}}}, {"name": "generator/G_MODEL/b2/SeparableConv2d_1/InstanceNorm/moments/variance/reduction_indices", "op": "Const", "attr": {"value": {"tensor": {"dtype": "DT_INT32", "tensorShape": {"dim": [{"size": "2"}]}}}, "dtype": {"type": "DT_INT32"}}}, {"name": "generator/G_MODEL/b2/SeparableConv2d_1/InstanceNorm/instancenorm/add/y", "op": "Const", "attr": {"value": {"tensor": {"dtype": "DT_FLOAT", "tensorShape": {}}}, "dtype": {"type": "DT_FLOAT"}}}, {"name": "generator/G_MODEL/b2/SeparableConv2d_1/InstanceNorm/gamma", "op": "Const", "attr": {"value": {"tensor": {"dtype": "DT_FLOAT", "tensorShape": {"dim": [{"size": "256"}]}}}, "dtype": {"type": "DT_FLOAT"}}}, {"name": "generator/G_MODEL/b2/SeparableConv2d_2/InstanceNorm/beta", "op": "Const", "attr": {"dtype": {"type": "DT_FLOAT"}, "value": {"tensor": {"dtype": "DT_FLOAT", "tensorShape": {"dim": [{"size": "256"}]}}}}}, {"name": "generator/G_MODEL/b2/strided_slice/stack", "op": "Const", "attr": {"value": {"tensor": {"dtype": "DT_INT32", "tensorShape": {"dim": [{"size": "1"}]}}}, "dtype": {"type": "DT_INT32"}}}, {"name": "generator/G_MODEL/b2/strided_slice/stack_1", "op": "Const", "attr": {"value": {"tensor": {"dtype": "DT_INT32", "tensorShape": {"dim": [{"size": "1"}]}}}, "dtype": {"type": "DT_INT32"}}}, {"name": "generator/G_MODEL/b2/strided_slice/stack_2", "op": "Const", "attr": {"dtype": {"type": "DT_INT32"}, "value": {"tensor": {"dtype": "DT_INT32", "tensorShape": {"dim": [{"size": "1"}]}}}}}, {"name": "generator/G_MODEL/b2/floordiv/y", "op": "Const", "attr": {"dtype": {"type": "DT_INT32"}, "value": {"tensor": {"dtype": "DT_INT32", "tensorShape": {}}}}}, {"name": "generator/G_MODEL/b2/SeparableConv2d/InstanceNorm/beta", "op": "Const", "attr": {"dtype": {"type": "DT_FLOAT"}, "value": {"tensor": {"dtype": "DT_FLOAT", "tensorShape": {"dim": [{"size": "128"}]}}}}}, {"name": "generator/G_MODEL/b2/InstanceNorm/beta", "op": "Const", "attr": {"value": {"tensor": {"dtype": "DT_FLOAT", "tensorShape": {"dim": [{"size": "128"}]}}}, "dtype": {"type": "DT_FLOAT"}}}, {"name": "generator/G_MODEL/b1/SeparableConv2d/InstanceNorm/beta", "op": "Const", "attr": {"value": {"tensor": {"dtype": "DT_FLOAT", "tensorShape": {"dim": [{"size": "128"}]}}}, "dtype": {"type": "DT_FLOAT"}}}, {"name": "generator/G_MODEL/b1/MirrorPad_2/paddings", "op": "Const", "attr": {"value": {"tensor": {"dtype": "DT_INT32", "tensorShape": {"dim": [{"size": "4"}, {"size": "2"}]}}}, "dtype": {"type": "DT_INT32"}}}, {"name": "generator/G_MODEL/b1/SeparableConv2d/depthwise_weights", "op": "Const", "attr": {"value": {"tensor": {"dtype": "DT_FLOAT", "tensorShape": {"dim": [{"size": "3"}, {"size": "3"}, {"size": "64"}, {"size": "1"}]}}}, "dtype": {"type": "DT_FLOAT"}}}, {"name": "generator/G_MODEL/b1/SeparableConv2d/pointwise_weights", "op": "Const", "attr": {"dtype": {"type": "DT_FLOAT"}, "value": {"tensor": {"dtype": "DT_FLOAT", "tensorShape": {"dim": [{"size": "1"}, {"size": "1"}, {"size": "64"}, {"size": "128"}]}}}}}, {"name": "generator/G_MODEL/b1/SeparableConv2d/InstanceNorm/moments/mean/reduction_indices", "op": "Const", "attr": {"dtype": {"type": "DT_INT32"}, "value": {"tensor": {"dtype": "DT_INT32", "tensorShape": {"dim": [{"size": "2"}]}}}}}, {"name": "generator/G_MODEL/b1/SeparableConv2d/InstanceNorm/moments/variance/reduction_indices", "op": "Const", "attr": {"value": {"tensor": {"dtype": "DT_INT32", "tensorShape": {"dim": [{"size": "2"}]}}}, "dtype": {"type": "DT_INT32"}}}, {"name": "generator/G_MODEL/b1/SeparableConv2d/InstanceNorm/instancenorm/add/y", "op": "Const", "attr": {"value": {"tensor": {"dtype": "DT_FLOAT", "tensorShape": {}}}, "dtype": {"type": "DT_FLOAT"}}}, {"name": "generator/G_MODEL/b1/SeparableConv2d/InstanceNorm/gamma", "op": "Const", "attr": {"value": {"tensor": {"dtype": "DT_FLOAT", "tensorShape": {"dim": [{"size": "128"}]}}}, "dtype": {"type": "DT_FLOAT"}}}, {"name": "generator/G_MODEL/b1/SeparableConv2d_1/InstanceNorm/beta", "op": "Const", "attr": {"value": {"tensor": {"dtype": "DT_FLOAT", "tensorShape": {"dim": [{"size": "128"}]}}}, "dtype": {"type": "DT_FLOAT"}}}, {"name": "generator/G_MODEL/b1/strided_slice/stack", "op": "Const", "attr": {"dtype": {"type": "DT_INT32"}, "value": {"tensor": {"dtype": "DT_INT32", "tensorShape": {"dim": [{"size": "1"}]}}}}}, {"name": "generator/G_MODEL/b1/strided_slice/stack_1", "op": "Const", "attr": {"value": {"tensor": {"dtype": "DT_INT32", "tensorShape": {"dim": [{"size": "1"}]}}}, "dtype": {"type": "DT_INT32"}}}, {"name": "generator/G_MODEL/b1/strided_slice/stack_2", "op": "Const", "attr": {"value": {"tensor": {"dtype": "DT_INT32", "tensorShape": {"dim": [{"size": "1"}]}}}, "dtype": {"type": "DT_INT32"}}}, {"name": "generator/G_MODEL/b1/floordiv/y", "op": "Const", "attr": {"dtype": {"type": "DT_INT32"}, "value": {"tensor": {"dtype": "DT_INT32", "tensorShape": {}}}}}, {"name": "generator/G_MODEL/b1/InstanceNorm_1/beta", "op": "Const", "attr": {"dtype": {"type": "DT_FLOAT"}, "value": {"tensor": {"dtype": "DT_FLOAT", "tensorShape": {"dim": [{"size": "64"}]}}}}}, {"name": "generator/G_MODEL/b1/InstanceNorm/beta", "op": "Const", "attr": {"value": {"tensor": {"dtype": "DT_FLOAT", "tensorShape": {"dim": [{"size": "64"}]}}}, "dtype": {"type": "DT_FLOAT"}}}, {"name": "generator/G_MODEL/b1/MirrorPad/paddings", "op": "Const", "attr": {"value": {"tensor": {"dtype": "DT_INT32", "tensorShape": {"dim": [{"size": "4"}, {"size": "2"}]}}}, "dtype": {"type": "DT_INT32"}}}, {"name": "generator/G_MODEL/b1/Conv/weights", "op": "Const", "attr": {"dtype": {"type": "DT_FLOAT"}, "value": {"tensor": {"dtype": "DT_FLOAT", "tensorShape": {"dim": [{"size": "3"}, {"size": "3"}, {"size": "3"}, {"size": "64"}]}}}}}, {"name": "generator/G_MODEL/b1/InstanceNorm/moments/mean/reduction_indices", "op": "Const", "attr": {"dtype": {"type": "DT_INT32"}, "value": {"tensor": {"dtype": "DT_INT32", "tensorShape": {"dim": [{"size": "2"}]}}}}}, {"name": "generator/G_MODEL/b1/InstanceNorm/moments/variance/reduction_indices", "op": "Const", "attr": {"value": {"tensor": {"dtype": "DT_INT32", "tensorShape": {"dim": [{"size": "2"}]}}}, "dtype": {"type": "DT_INT32"}}}, {"name": "generator/G_MODEL/b1/InstanceNorm/instancenorm/add/y", "op": "Const", "attr": {"dtype": {"type": "DT_FLOAT"}, "value": {"tensor": {"dtype": "DT_FLOAT", "tensorShape": {}}}}}, {"name": "generator/G_MODEL/b1/InstanceNorm/gamma", "op": "Const", "attr": {"value": {"tensor": {"dtype": "DT_FLOAT", "tensorShape": {"dim": [{"size": "64"}]}}}, "dtype": {"type": "DT_FLOAT"}}}, {"name": "generator/G_MODEL/b1/MirrorPad_1/paddings", "op": "Const", "attr": {"dtype": {"type": "DT_INT32"}, "value": {"tensor": {"dtype": "DT_INT32", "tensorShape": {"dim": [{"size": "4"}, {"size": "2"}]}}}}}, {"name": "generator/G_MODEL/b1/Conv_1/weights", "op": "Const", "attr": {"value": {"tensor": {"dtype": "DT_FLOAT", "tensorShape": {"dim": [{"size": "3"}, {"size": "3"}, {"size": "64"}, {"size": "64"}]}}}, "dtype": {"type": "DT_FLOAT"}}}, {"name": "generator/G_MODEL/b1/InstanceNorm_1/moments/mean/reduction_indices", "op": "Const", "attr": {"dtype": {"type": "DT_INT32"}, "value": {"tensor": {"dtype": "DT_INT32", "tensorShape": {"dim": [{"size": "2"}]}}}}}, {"name": "generator/G_MODEL/b1/InstanceNorm_1/moments/variance/reduction_indices", "op": "Const", "attr": {"value": {"tensor": {"dtype": "DT_INT32", "tensorShape": {"dim": [{"size": "2"}]}}}, "dtype": {"type": "DT_INT32"}}}, {"name": "generator/G_MODEL/b1/InstanceNorm_1/instancenorm/add/y", "op": "Const", "attr": {"value": {"tensor": {"dtype": "DT_FLOAT", "tensorShape": {}}}, "dtype": {"type": "DT_FLOAT"}}}, {"name": "generator/G_MODEL/b1/InstanceNorm_1/gamma", "op": "Const", "attr": {"value": {"tensor": {"dtype": "DT_FLOAT", "tensorShape": {"dim": [{"size": "64"}]}}}, "dtype": {"type": "DT_FLOAT"}}}, {"name": "generator/G_MODEL/b1/strided_slice_1/stack", "op": "Const", "attr": {"dtype": {"type": "DT_INT32"}, "value": {"tensor": {"dtype": "DT_INT32", "tensorShape": {"dim": [{"size": "1"}]}}}}}, {"name": "generator/G_MODEL/b1/strided_slice_1/stack_1", "op": "Const", "attr": {"value": {"tensor": {"dtype": "DT_INT32", "tensorShape": {"dim": [{"size": "1"}]}}}, "dtype": {"type": "DT_INT32"}}}, {"name": "generator/G_MODEL/b1/strided_slice_1/stack_2", "op": "Const", "attr": {"dtype": {"type": "DT_INT32"}, "value": {"tensor": {"dtype": "DT_INT32", "tensorShape": {"dim": [{"size": "1"}]}}}}}, {"name": "generator/G_MODEL/b1/floordiv_1/y", "op": "Const", "attr": {"value": {"tensor": {"dtype": "DT_INT32", "tensorShape": {}}}, "dtype": {"type": "DT_INT32"}}}, {"name": "generator/G_MODEL/b1/MirrorPad_3/paddings", "op": "Const", "attr": {"value": {"tensor": {"dtype": "DT_INT32", "tensorShape": {"dim": [{"size": "4"}, {"size": "2"}]}}}, "dtype": {"type": "DT_INT32"}}}, {"name": "generator/G_MODEL/b1/SeparableConv2d_1/depthwise_weights", "op": "Const", "attr": {"value": {"tensor": {"dtype": "DT_FLOAT", "tensorShape": {"dim": [{"size": "3"}, {"size": "3"}, {"size": "64"}, {"size": "1"}]}}}, "dtype": {"type": "DT_FLOAT"}}}, {"name": "generator/G_MODEL/b1/SeparableConv2d_1/pointwise_weights", "op": "Const", "attr": {"dtype": {"type": "DT_FLOAT"}, "value": {"tensor": {"dtype": "DT_FLOAT", "tensorShape": {"dim": [{"size": "1"}, {"size": "1"}, {"size": "64"}, {"size": "128"}]}}}}}, {"name": "generator/G_MODEL/b1/SeparableConv2d_1/InstanceNorm/moments/mean/reduction_indices", "op": "Const", "attr": {"value": {"tensor": {"dtype": "DT_INT32", "tensorShape": {"dim": [{"size": "2"}]}}}, "dtype": {"type": "DT_INT32"}}}, {"name": "generator/G_MODEL/b1/SeparableConv2d_1/InstanceNorm/moments/variance/reduction_indices", "op": "Const", "attr": {"dtype": {"type": "DT_INT32"}, "value": {"tensor": {"dtype": "DT_INT32", "tensorShape": {"dim": [{"size": "2"}]}}}}}, {"name": "generator/G_MODEL/b1/SeparableConv2d_1/InstanceNorm/instancenorm/add/y", "op": "Const", "attr": {"dtype": {"type": "DT_FLOAT"}, "value": {"tensor": {"dtype": "DT_FLOAT", "tensorShape": {}}}}}, {"name": "generator/G_MODEL/b1/SeparableConv2d_1/InstanceNorm/gamma", "op": "Const", "attr": {"dtype": {"type": "DT_FLOAT"}, "value": {"tensor": {"dtype": "DT_FLOAT", "tensorShape": {"dim": [{"size": "128"}]}}}}}, {"name": "generator/G_MODEL/b2/MirrorPad/paddings", "op": "Const", "attr": {"value": {"tensor": {"dtype": "DT_INT32", "tensorShape": {"dim": [{"size": "4"}, {"size": "2"}]}}}, "dtype": {"type": "DT_INT32"}}}, {"name": "generator/G_MODEL/b2/Conv/weights", "op": "Const", "attr": {"value": {"tensor": {"dtype": "DT_FLOAT", "tensorShape": {"dim": [{"size": "3"}, {"size": "3"}, {"size": "128"}, {"size": "128"}]}}}, "dtype": {"type": "DT_FLOAT"}}}, {"name": "generator/G_MODEL/b2/InstanceNorm/moments/mean/reduction_indices", "op": "Const", "attr": {"value": {"tensor": {"dtype": "DT_INT32", "tensorShape": {"dim": [{"size": "2"}]}}}, "dtype": {"type": "DT_INT32"}}}, {"name": "generator/G_MODEL/b2/InstanceNorm/moments/variance/reduction_indices", "op": "Const", "attr": {"dtype": {"type": "DT_INT32"}, "value": {"tensor": {"dtype": "DT_INT32", "tensorShape": {"dim": [{"size": "2"}]}}}}}, {"name": "generator/G_MODEL/b2/InstanceNorm/instancenorm/add/y", "op": "Const", "attr": {"value": {"tensor": {"dtype": "DT_FLOAT", "tensorShape": {}}}, "dtype": {"type": "DT_FLOAT"}}}, {"name": "generator/G_MODEL/b2/InstanceNorm/gamma", "op": "Const", "attr": {"dtype": {"type": "DT_FLOAT"}, "value": {"tensor": {"dtype": "DT_FLOAT", "tensorShape": {"dim": [{"size": "128"}]}}}}}, {"name": "generator/G_MODEL/b2/MirrorPad_1/paddings", "op": "Const", "attr": {"dtype": {"type": "DT_INT32"}, "value": {"tensor": {"dtype": "DT_INT32", "tensorShape": {"dim": [{"size": "4"}, {"size": "2"}]}}}}}, {"name": "generator/G_MODEL/b2/SeparableConv2d/depthwise_weights", "op": "Const", "attr": {"dtype": {"type": "DT_FLOAT"}, "value": {"tensor": {"dtype": "DT_FLOAT", "tensorShape": {"dim": [{"size": "3"}, {"size": "3"}, {"size": "128"}, {"size": "1"}]}}}}}, {"name": "generator/G_MODEL/b2/SeparableConv2d/pointwise_weights", "op": "Const", "attr": {"value": {"tensor": {"dtype": "DT_FLOAT", "tensorShape": {"dim": [{"size": "1"}, {"size": "1"}, {"size": "128"}, {"size": "128"}]}}}, "dtype": {"type": "DT_FLOAT"}}}, {"name": "generator/G_MODEL/b2/SeparableConv2d/InstanceNorm/moments/mean/reduction_indices", "op": "Const", "attr": {"value": {"tensor": {"dtype": "DT_INT32", "tensorShape": {"dim": [{"size": "2"}]}}}, "dtype": {"type": "DT_INT32"}}}, {"name": "generator/G_MODEL/b2/SeparableConv2d/InstanceNorm/moments/variance/reduction_indices", "op": "Const", "attr": {"dtype": {"type": "DT_INT32"}, "value": {"tensor": {"dtype": "DT_INT32", "tensorShape": {"dim": [{"size": "2"}]}}}}}, {"name": "generator/G_MODEL/b2/SeparableConv2d/InstanceNorm/instancenorm/add/y", "op": "Const", "attr": {"value": {"tensor": {"dtype": "DT_FLOAT", "tensorShape": {}}}, "dtype": {"type": "DT_FLOAT"}}}, {"name": "generator/G_MODEL/b2/SeparableConv2d/InstanceNorm/gamma", "op": "Const", "attr": {"value": {"tensor": {"dtype": "DT_FLOAT", "tensorShape": {"dim": [{"size": "128"}]}}}, "dtype": {"type": "DT_FLOAT"}}}, {"name": "generator/G_MODEL/b2/strided_slice_1/stack", "op": "Const", "attr": {"value": {"tensor": {"dtype": "DT_INT32", "tensorShape": {"dim": [{"size": "1"}]}}}, "dtype": {"type": "DT_INT32"}}}, {"name": "generator/G_MODEL/b2/strided_slice_1/stack_1", "op": "Const", "attr": {"dtype": {"type": "DT_INT32"}, "value": {"tensor": {"dtype": "DT_INT32", "tensorShape": {"dim": [{"size": "1"}]}}}}}, {"name": "generator/G_MODEL/b2/strided_slice_1/stack_2", "op": "Const", "attr": {"dtype": {"type": "DT_INT32"}, "value": {"tensor": {"dtype": "DT_INT32", "tensorShape": {"dim": [{"size": "1"}]}}}}}, {"name": "generator/G_MODEL/b2/floordiv_1/y", "op": "Const", "attr": {"value": {"tensor": {"dtype": "DT_INT32", "tensorShape": {}}}, "dtype": {"type": "DT_INT32"}}}, {"name": "generator/G_MODEL/b2/MirrorPad_3/paddings", "op": "Const", "attr": {"value": {"tensor": {"dtype": "DT_INT32", "tensorShape": {"dim": [{"size": "4"}, {"size": "2"}]}}}, "dtype": {"type": "DT_INT32"}}}, {"name": "generator/G_MODEL/b2/SeparableConv2d_2/depthwise_weights", "op": "Const", "attr": {"value": {"tensor": {"dtype": "DT_FLOAT", "tensorShape": {"dim": [{"size": "3"}, {"size": "3"}, {"size": "128"}, {"size": "1"}]}}}, "dtype": {"type": "DT_FLOAT"}}}, {"name": "generator/G_MODEL/b2/SeparableConv2d_2/pointwise_weights", "op": "Const", "attr": {"value": {"tensor": {"dtype": "DT_FLOAT", "tensorShape": {"dim": [{"size": "1"}, {"size": "1"}, {"size": "128"}, {"size": "256"}]}}}, "dtype": {"type": "DT_FLOAT"}}}, {"name": "generator/G_MODEL/b2/SeparableConv2d_2/InstanceNorm/moments/mean/reduction_indices", "op": "Const", "attr": {"dtype": {"type": "DT_INT32"}, "value": {"tensor": {"dtype": "DT_INT32", "tensorShape": {"dim": [{"size": "2"}]}}}}}, {"name": "generator/G_MODEL/b2/SeparableConv2d_2/InstanceNorm/moments/variance/reduction_indices", "op": "Const", "attr": {"dtype": {"type": "DT_INT32"}, "value": {"tensor": {"dtype": "DT_INT32", "tensorShape": {"dim": [{"size": "2"}]}}}}}, {"name": "generator/G_MODEL/b2/SeparableConv2d_2/InstanceNorm/instancenorm/add/y", "op": "Const", "attr": {"value": {"tensor": {"dtype": "DT_FLOAT", "tensorShape": {}}}, "dtype": {"type": "DT_FLOAT"}}}, {"name": "generator/G_MODEL/b2/SeparableConv2d_2/InstanceNorm/gamma", "op": "Const", "attr": {"dtype": {"type": "DT_FLOAT"}, "value": {"tensor": {"dtype": "DT_FLOAT", "tensorShape": {"dim": [{"size": "256"}]}}}}}, {"name": "generator/G_MODEL/m/MirrorPad/paddings", "op": "Const", "attr": {"dtype": {"type": "DT_INT32"}, "value": {"tensor": {"dtype": "DT_INT32", "tensorShape": {"dim": [{"size": "4"}, {"size": "2"}]}}}}}, {"name": "generator/G_MODEL/m/Conv/weights", "op": "Const", "attr": {"dtype": {"type": "DT_FLOAT"}, "value": {"tensor": {"dtype": "DT_FLOAT", "tensorShape": {"dim": [{"size": "3"}, {"size": "3"}, {"size": "256"}, {"size": "256"}]}}}}}, {"name": "generator/G_MODEL/m/InstanceNorm/moments/mean/reduction_indices", "op": "Const", "attr": {"dtype": {"type": "DT_INT32"}, "value": {"tensor": {"dtype": "DT_INT32", "tensorShape": {"dim": [{"size": "2"}]}}}}}, {"name": "generator/G_MODEL/m/InstanceNorm/moments/variance/reduction_indices", "op": "Const", "attr": {"value": {"tensor": {"dtype": "DT_INT32", "tensorShape": {"dim": [{"size": "2"}]}}}, "dtype": {"type": "DT_INT32"}}}, {"name": "generator/G_MODEL/m/InstanceNorm/instancenorm/add/y", "op": "Const", "attr": {"dtype": {"type": "DT_FLOAT"}, "value": {"tensor": {"dtype": "DT_FLOAT", "tensorShape": {}}}}}, {"name": "generator/G_MODEL/m/InstanceNorm/gamma", "op": "Const", "attr": {"value": {"tensor": {"dtype": "DT_FLOAT", "tensorShape": {"dim": [{"size": "256"}]}}}, "dtype": {"type": "DT_FLOAT"}}}, {"name": "generator/G_MODEL/m/r1/Conv/weights", "op": "Const", "attr": {"dtype": {"type": "DT_FLOAT"}, "value": {"tensor": {"dtype": "DT_FLOAT", "tensorShape": {"dim": [{"size": "1"}, {"size": "1"}, {"size": "256"}, {"size": "512"}]}}}}}, {"name": "generator/G_MODEL/m/r1/InstanceNorm/moments/mean/reduction_indices", "op": "Const", "attr": {"dtype": {"type": "DT_INT32"}, "value": {"tensor": {"dtype": "DT_INT32", "tensorShape": {"dim": [{"size": "2"}]}}}}}, {"name": "generator/G_MODEL/m/r1/InstanceNorm/moments/variance/reduction_indices", "op": "Const", "attr": {"value": {"tensor": {"dtype": "DT_INT32", "tensorShape": {"dim": [{"size": "2"}]}}}, "dtype": {"type": "DT_INT32"}}}, {"name": "generator/G_MODEL/m/r1/InstanceNorm/instancenorm/add/y", "op": "Const", "attr": {"dtype": {"type": "DT_FLOAT"}, "value": {"tensor": {"dtype": "DT_FLOAT", "tensorShape": {}}}}}, {"name": "generator/G_MODEL/m/r1/InstanceNorm/gamma", "op": "Const", "attr": {"value": {"tensor": {"dtype": "DT_FLOAT", "tensorShape": {"dim": [{"size": "512"}]}}}, "dtype": {"type": "DT_FLOAT"}}}, {"name": "generator/G_MODEL/m/r1/MirrorPad/paddings", "op": "Const", "attr": {"dtype": {"type": "DT_INT32"}, "value": {"tensor": {"dtype": "DT_INT32", "tensorShape": {"dim": [{"size": "4"}, {"size": "2"}]}}}}}, {"name": "generator/G_MODEL/m/r1/r1/w", "op": "Const", "attr": {"dtype": {"type": "DT_FLOAT"}, "value": {"tensor": {"dtype": "DT_FLOAT", "tensorShape": {"dim": [{"size": "3"}, {"size": "3"}, {"size": "512"}, {"size": "1"}]}}}}}, {"name": "generator/G_MODEL/m/r1/1/moments/mean/reduction_indices", "op": "Const", "attr": {"value": {"tensor": {"dtype": "DT_INT32", "tensorShape": {"dim": [{"size": "2"}]}}}, "dtype": {"type": "DT_INT32"}}}, {"name": "generator/G_MODEL/m/r1/1/moments/variance/reduction_indices", "op": "Const", "attr": {"dtype": {"type": "DT_INT32"}, "value": {"tensor": {"dtype": "DT_INT32", "tensorShape": {"dim": [{"size": "2"}]}}}}}, {"name": "generator/G_MODEL/m/r1/1/instancenorm/add/y", "op": "Const", "attr": {"dtype": {"type": "DT_FLOAT"}, "value": {"tensor": {"dtype": "DT_FLOAT", "tensorShape": {}}}}}, {"name": "generator/G_MODEL/m/r1/1/gamma", "op": "Const", "attr": {"value": {"tensor": {"dtype": "DT_FLOAT", "tensorShape": {"dim": [{"size": "512"}]}}}, "dtype": {"type": "DT_FLOAT"}}}, {"name": "generator/G_MODEL/m/r1/Conv_1/weights", "op": "Const", "attr": {"value": {"tensor": {"dtype": "DT_FLOAT", "tensorShape": {"dim": [{"size": "1"}, {"size": "1"}, {"size": "512"}, {"size": "256"}]}}}, "dtype": {"type": "DT_FLOAT"}}}, {"name": "generator/G_MODEL/m/r1/2/moments/mean/reduction_indices", "op": "Const", "attr": {"dtype": {"type": "DT_INT32"}, "value": {"tensor": {"dtype": "DT_INT32", "tensorShape": {"dim": [{"size": "2"}]}}}}}, {"name": "generator/G_MODEL/m/r1/2/moments/variance/reduction_indices", "op": "Const", "attr": {"value": {"tensor": {"dtype": "DT_INT32", "tensorShape": {"dim": [{"size": "2"}]}}}, "dtype": {"type": "DT_INT32"}}}, {"name": "generator/G_MODEL/m/r1/2/instancenorm/add/y", "op": "Const", "attr": {"value": {"tensor": {"dtype": "DT_FLOAT", "tensorShape": {}}}, "dtype": {"type": "DT_FLOAT"}}}, {"name": "generator/G_MODEL/m/r1/2/gamma", "op": "Const", "attr": {"dtype": {"type": "DT_FLOAT"}, "value": {"tensor": {"dtype": "DT_FLOAT", "tensorShape": {"dim": [{"size": "256"}]}}}}}, {"name": "generator/G_MODEL/m/r2/Conv/weights", "op": "Const", "attr": {"dtype": {"type": "DT_FLOAT"}, "value": {"tensor": {"dtype": "DT_FLOAT", "tensorShape": {"dim": [{"size": "1"}, {"size": "1"}, {"size": "256"}, {"size": "512"}]}}}}}, {"name": "generator/G_MODEL/m/r2/InstanceNorm/moments/mean/reduction_indices", "op": "Const", "attr": {"dtype": {"type": "DT_INT32"}, "value": {"tensor": {"dtype": "DT_INT32", "tensorShape": {"dim": [{"size": "2"}]}}}}}, {"name": "generator/G_MODEL/m/r2/InstanceNorm/moments/variance/reduction_indices", "op": "Const", "attr": {"dtype": {"type": "DT_INT32"}, "value": {"tensor": {"dtype": "DT_INT32", "tensorShape": {"dim": [{"size": "2"}]}}}}}, {"name": "generator/G_MODEL/m/r2/InstanceNorm/instancenorm/add/y", "op": "Const", "attr": {"dtype": {"type": "DT_FLOAT"}, "value": {"tensor": {"dtype": "DT_FLOAT", "tensorShape": {}}}}}, {"name": "generator/G_MODEL/m/r2/InstanceNorm/gamma", "op": "Const", "attr": {"value": {"tensor": {"dtype": "DT_FLOAT", "tensorShape": {"dim": [{"size": "512"}]}}}, "dtype": {"type": "DT_FLOAT"}}}, {"name": "generator/G_MODEL/m/r2/MirrorPad/paddings", "op": "Const", "attr": {"value": {"tensor": {"dtype": "DT_INT32", "tensorShape": {"dim": [{"size": "4"}, {"size": "2"}]}}}, "dtype": {"type": "DT_INT32"}}}, {"name": "generator/G_MODEL/m/r2/r2/w", "op": "Const", "attr": {"dtype": {"type": "DT_FLOAT"}, "value": {"tensor": {"dtype": "DT_FLOAT", "tensorShape": {"dim": [{"size": "3"}, {"size": "3"}, {"size": "512"}, {"size": "1"}]}}}}}, {"name": "generator/G_MODEL/m/r2/1/moments/mean/reduction_indices", "op": "Const", "attr": {"dtype": {"type": "DT_INT32"}, "value": {"tensor": {"dtype": "DT_INT32", "tensorShape": {"dim": [{"size": "2"}]}}}}}, {"name": "generator/G_MODEL/m/r2/1/moments/variance/reduction_indices", "op": "Const", "attr": {"dtype": {"type": "DT_INT32"}, "value": {"tensor": {"dtype": "DT_INT32", "tensorShape": {"dim": [{"size": "2"}]}}}}}, {"name": "generator/G_MODEL/m/r2/1/instancenorm/add/y", "op": "Const", "attr": {"value": {"tensor": {"dtype": "DT_FLOAT", "tensorShape": {}}}, "dtype": {"type": "DT_FLOAT"}}}, {"name": "generator/G_MODEL/m/r2/1/gamma", "op": "Const", "attr": {"value": {"tensor": {"dtype": "DT_FLOAT", "tensorShape": {"dim": [{"size": "512"}]}}}, "dtype": {"type": "DT_FLOAT"}}}, {"name": "generator/G_MODEL/m/r2/Conv_1/weights", "op": "Const", "attr": {"value": {"tensor": {"dtype": "DT_FLOAT", "tensorShape": {"dim": [{"size": "1"}, {"size": "1"}, {"size": "512"}, {"size": "256"}]}}}, "dtype": {"type": "DT_FLOAT"}}}, {"name": "generator/G_MODEL/m/r2/2/moments/mean/reduction_indices", "op": "Const", "attr": {"value": {"tensor": {"dtype": "DT_INT32", "tensorShape": {"dim": [{"size": "2"}]}}}, "dtype": {"type": "DT_INT32"}}}, {"name": "generator/G_MODEL/m/r2/2/moments/variance/reduction_indices", "op": "Const", "attr": {"value": {"tensor": {"dtype": "DT_INT32", "tensorShape": {"dim": [{"size": "2"}]}}}, "dtype": {"type": "DT_INT32"}}}, {"name": "generator/G_MODEL/m/r2/2/instancenorm/add/y", "op": "Const", "attr": {"dtype": {"type": "DT_FLOAT"}, "value": {"tensor": {"dtype": "DT_FLOAT", "tensorShape": {}}}}}, {"name": "generator/G_MODEL/m/r2/2/gamma", "op": "Const", "attr": {"dtype": {"type": "DT_FLOAT"}, "value": {"tensor": {"dtype": "DT_FLOAT", "tensorShape": {"dim": [{"size": "256"}]}}}}}, {"name": "generator/G_MODEL/m/r3/Conv/weights", "op": "Const", "attr": {"value": {"tensor": {"dtype": "DT_FLOAT", "tensorShape": {"dim": [{"size": "1"}, {"size": "1"}, {"size": "256"}, {"size": "512"}]}}}, "dtype": {"type": "DT_FLOAT"}}}, {"name": "generator/G_MODEL/m/r3/InstanceNorm/moments/mean/reduction_indices", "op": "Const", "attr": {"dtype": {"type": "DT_INT32"}, "value": {"tensor": {"dtype": "DT_INT32", "tensorShape": {"dim": [{"size": "2"}]}}}}}, {"name": "generator/G_MODEL/m/r3/InstanceNorm/moments/variance/reduction_indices", "op": "Const", "attr": {"dtype": {"type": "DT_INT32"}, "value": {"tensor": {"dtype": "DT_INT32", "tensorShape": {"dim": [{"size": "2"}]}}}}}, {"name": "generator/G_MODEL/m/r3/InstanceNorm/instancenorm/add/y", "op": "Const", "attr": {"value": {"tensor": {"dtype": "DT_FLOAT", "tensorShape": {}}}, "dtype": {"type": "DT_FLOAT"}}}, {"name": "generator/G_MODEL/m/r3/InstanceNorm/gamma", "op": "Const", "attr": {"value": {"tensor": {"dtype": "DT_FLOAT", "tensorShape": {"dim": [{"size": "512"}]}}}, "dtype": {"type": "DT_FLOAT"}}}, {"name": "generator/G_MODEL/m/r3/MirrorPad/paddings", "op": "Const", "attr": {"dtype": {"type": "DT_INT32"}, "value": {"tensor": {"dtype": "DT_INT32", "tensorShape": {"dim": [{"size": "4"}, {"size": "2"}]}}}}}, {"name": "generator/G_MODEL/m/r3/r3/w", "op": "Const", "attr": {"dtype": {"type": "DT_FLOAT"}, "value": {"tensor": {"dtype": "DT_FLOAT", "tensorShape": {"dim": [{"size": "3"}, {"size": "3"}, {"size": "512"}, {"size": "1"}]}}}}}, {"name": "generator/G_MODEL/m/r3/1/moments/mean/reduction_indices", "op": "Const", "attr": {"value": {"tensor": {"dtype": "DT_INT32", "tensorShape": {"dim": [{"size": "2"}]}}}, "dtype": {"type": "DT_INT32"}}}, {"name": "generator/G_MODEL/m/r3/1/moments/variance/reduction_indices", "op": "Const", "attr": {"dtype": {"type": "DT_INT32"}, "value": {"tensor": {"dtype": "DT_INT32", "tensorShape": {"dim": [{"size": "2"}]}}}}}, {"name": "generator/G_MODEL/m/r3/1/instancenorm/add/y", "op": "Const", "attr": {"dtype": {"type": "DT_FLOAT"}, "value": {"tensor": {"dtype": "DT_FLOAT", "tensorShape": {}}}}}, {"name": "generator/G_MODEL/m/r3/1/gamma", "op": "Const", "attr": {"value": {"tensor": {"dtype": "DT_FLOAT", "tensorShape": {"dim": [{"size": "512"}]}}}, "dtype": {"type": "DT_FLOAT"}}}, {"name": "generator/G_MODEL/m/r3/Conv_1/weights", "op": "Const", "attr": {"dtype": {"type": "DT_FLOAT"}, "value": {"tensor": {"dtype": "DT_FLOAT", "tensorShape": {"dim": [{"size": "1"}, {"size": "1"}, {"size": "512"}, {"size": "256"}]}}}}}, {"name": "generator/G_MODEL/m/r3/2/moments/mean/reduction_indices", "op": "Const", "attr": {"dtype": {"type": "DT_INT32"}, "value": {"tensor": {"dtype": "DT_INT32", "tensorShape": {"dim": [{"size": "2"}]}}}}}, {"name": "generator/G_MODEL/m/r3/2/moments/variance/reduction_indices", "op": "Const", "attr": {"dtype": {"type": "DT_INT32"}, "value": {"tensor": {"dtype": "DT_INT32", "tensorShape": {"dim": [{"size": "2"}]}}}}}, {"name": "generator/G_MODEL/m/r3/2/instancenorm/add/y", "op": "Const", "attr": {"dtype": {"type": "DT_FLOAT"}, "value": {"tensor": {"dtype": "DT_FLOAT", "tensorShape": {}}}}}, {"name": "generator/G_MODEL/m/r3/2/gamma", "op": "Const", "attr": {"value": {"tensor": {"dtype": "DT_FLOAT", "tensorShape": {"dim": [{"size": "256"}]}}}, "dtype": {"type": "DT_FLOAT"}}}, {"name": "generator/G_MODEL/m/r4/Conv/weights", "op": "Const", "attr": {"value": {"tensor": {"dtype": "DT_FLOAT", "tensorShape": {"dim": [{"size": "1"}, {"size": "1"}, {"size": "256"}, {"size": "512"}]}}}, "dtype": {"type": "DT_FLOAT"}}}, {"name": "generator/G_MODEL/m/r4/InstanceNorm/moments/mean/reduction_indices", "op": "Const", "attr": {"dtype": {"type": "DT_INT32"}, "value": {"tensor": {"dtype": "DT_INT32", "tensorShape": {"dim": [{"size": "2"}]}}}}}, {"name": "generator/G_MODEL/m/r4/InstanceNorm/moments/variance/reduction_indices", "op": "Const", "attr": {"value": {"tensor": {"dtype": "DT_INT32", "tensorShape": {"dim": [{"size": "2"}]}}}, "dtype": {"type": "DT_INT32"}}}, {"name": "generator/G_MODEL/m/r4/InstanceNorm/instancenorm/add/y", "op": "Const", "attr": {"dtype": {"type": "DT_FLOAT"}, "value": {"tensor": {"dtype": "DT_FLOAT", "tensorShape": {}}}}}, {"name": "generator/G_MODEL/m/r4/InstanceNorm/gamma", "op": "Const", "attr": {"value": {"tensor": {"dtype": "DT_FLOAT", "tensorShape": {"dim": [{"size": "512"}]}}}, "dtype": {"type": "DT_FLOAT"}}}, {"name": "generator/G_MODEL/m/r4/MirrorPad/paddings", "op": "Const", "attr": {"dtype": {"type": "DT_INT32"}, "value": {"tensor": {"dtype": "DT_INT32", "tensorShape": {"dim": [{"size": "4"}, {"size": "2"}]}}}}}, {"name": "generator/G_MODEL/m/r4/r4/w", "op": "Const", "attr": {"dtype": {"type": "DT_FLOAT"}, "value": {"tensor": {"dtype": "DT_FLOAT", "tensorShape": {"dim": [{"size": "3"}, {"size": "3"}, {"size": "512"}, {"size": "1"}]}}}}}, {"name": "generator/G_MODEL/m/r4/1/moments/mean/reduction_indices", "op": "Const", "attr": {"dtype": {"type": "DT_INT32"}, "value": {"tensor": {"dtype": "DT_INT32", "tensorShape": {"dim": [{"size": "2"}]}}}}}, {"name": "generator/G_MODEL/m/r4/1/moments/variance/reduction_indices", "op": "Const", "attr": {"value": {"tensor": {"dtype": "DT_INT32", "tensorShape": {"dim": [{"size": "2"}]}}}, "dtype": {"type": "DT_INT32"}}}, {"name": "generator/G_MODEL/m/r4/1/instancenorm/add/y", "op": "Const", "attr": {"value": {"tensor": {"dtype": "DT_FLOAT", "tensorShape": {}}}, "dtype": {"type": "DT_FLOAT"}}}, {"name": "generator/G_MODEL/m/r4/1/gamma", "op": "Const", "attr": {"value": {"tensor": {"dtype": "DT_FLOAT", "tensorShape": {"dim": [{"size": "512"}]}}}, "dtype": {"type": "DT_FLOAT"}}}, {"name": "generator/G_MODEL/m/r4/Conv_1/weights", "op": "Const", "attr": {"value": {"tensor": {"dtype": "DT_FLOAT", "tensorShape": {"dim": [{"size": "1"}, {"size": "1"}, {"size": "512"}, {"size": "256"}]}}}, "dtype": {"type": "DT_FLOAT"}}}, {"name": "generator/G_MODEL/m/r4/2/moments/mean/reduction_indices", "op": "Const", "attr": {"value": {"tensor": {"dtype": "DT_INT32", "tensorShape": {"dim": [{"size": "2"}]}}}, "dtype": {"type": "DT_INT32"}}}, {"name": "generator/G_MODEL/m/r4/2/moments/variance/reduction_indices", "op": "Const", "attr": {"value": {"tensor": {"dtype": "DT_INT32", "tensorShape": {"dim": [{"size": "2"}]}}}, "dtype": {"type": "DT_INT32"}}}, {"name": "generator/G_MODEL/m/r4/2/instancenorm/add/y", "op": "Const", "attr": {"value": {"tensor": {"dtype": "DT_FLOAT", "tensorShape": {}}}, "dtype": {"type": "DT_FLOAT"}}}, {"name": "generator/G_MODEL/m/r4/2/gamma", "op": "Const", "attr": {"value": {"tensor": {"dtype": "DT_FLOAT", "tensorShape": {"dim": [{"size": "256"}]}}}, "dtype": {"type": "DT_FLOAT"}}}, {"name": "generator/G_MODEL/m/r5/Conv/weights", "op": "Const", "attr": {"dtype": {"type": "DT_FLOAT"}, "value": {"tensor": {"dtype": "DT_FLOAT", "tensorShape": {"dim": [{"size": "1"}, {"size": "1"}, {"size": "256"}, {"size": "512"}]}}}}}, {"name": "generator/G_MODEL/m/r5/InstanceNorm/moments/mean/reduction_indices", "op": "Const", "attr": {"dtype": {"type": "DT_INT32"}, "value": {"tensor": {"dtype": "DT_INT32", "tensorShape": {"dim": [{"size": "2"}]}}}}}, {"name": "generator/G_MODEL/m/r5/InstanceNorm/moments/variance/reduction_indices", "op": "Const", "attr": {"dtype": {"type": "DT_INT32"}, "value": {"tensor": {"dtype": "DT_INT32", "tensorShape": {"dim": [{"size": "2"}]}}}}}, {"name": "generator/G_MODEL/m/r5/InstanceNorm/instancenorm/add/y", "op": "Const", "attr": {"dtype": {"type": "DT_FLOAT"}, "value": {"tensor": {"dtype": "DT_FLOAT", "tensorShape": {}}}}}, {"name": "generator/G_MODEL/m/r5/InstanceNorm/gamma", "op": "Const", "attr": {"dtype": {"type": "DT_FLOAT"}, "value": {"tensor": {"dtype": "DT_FLOAT", "tensorShape": {"dim": [{"size": "512"}]}}}}}, {"name": "generator/G_MODEL/m/r5/MirrorPad/paddings", "op": "Const", "attr": {"value": {"tensor": {"dtype": "DT_INT32", "tensorShape": {"dim": [{"size": "4"}, {"size": "2"}]}}}, "dtype": {"type": "DT_INT32"}}}, {"name": "generator/G_MODEL/m/r5/r5/w", "op": "Const", "attr": {"value": {"tensor": {"dtype": "DT_FLOAT", "tensorShape": {"dim": [{"size": "3"}, {"size": "3"}, {"size": "512"}, {"size": "1"}]}}}, "dtype": {"type": "DT_FLOAT"}}}, {"name": "generator/G_MODEL/m/r5/1/moments/mean/reduction_indices", "op": "Const", "attr": {"dtype": {"type": "DT_INT32"}, "value": {"tensor": {"dtype": "DT_INT32", "tensorShape": {"dim": [{"size": "2"}]}}}}}, {"name": "generator/G_MODEL/m/r5/1/moments/variance/reduction_indices", "op": "Const", "attr": {"value": {"tensor": {"dtype": "DT_INT32", "tensorShape": {"dim": [{"size": "2"}]}}}, "dtype": {"type": "DT_INT32"}}}, {"name": "generator/G_MODEL/m/r5/1/instancenorm/add/y", "op": "Const", "attr": {"dtype": {"type": "DT_FLOAT"}, "value": {"tensor": {"dtype": "DT_FLOAT", "tensorShape": {}}}}}, {"name": "generator/G_MODEL/m/r5/1/gamma", "op": "Const", "attr": {"dtype": {"type": "DT_FLOAT"}, "value": {"tensor": {"dtype": "DT_FLOAT", "tensorShape": {"dim": [{"size": "512"}]}}}}}, {"name": "generator/G_MODEL/m/r5/Conv_1/weights", "op": "Const", "attr": {"dtype": {"type": "DT_FLOAT"}, "value": {"tensor": {"dtype": "DT_FLOAT", "tensorShape": {"dim": [{"size": "1"}, {"size": "1"}, {"size": "512"}, {"size": "256"}]}}}}}, {"name": "generator/G_MODEL/m/r5/2/moments/mean/reduction_indices", "op": "Const", "attr": {"dtype": {"type": "DT_INT32"}, "value": {"tensor": {"dtype": "DT_INT32", "tensorShape": {"dim": [{"size": "2"}]}}}}}, {"name": "generator/G_MODEL/m/r5/2/moments/variance/reduction_indices", "op": "Const", "attr": {"value": {"tensor": {"dtype": "DT_INT32", "tensorShape": {"dim": [{"size": "2"}]}}}, "dtype": {"type": "DT_INT32"}}}, {"name": "generator/G_MODEL/m/r5/2/instancenorm/add/y", "op": "Const", "attr": {"value": {"tensor": {"dtype": "DT_FLOAT", "tensorShape": {}}}, "dtype": {"type": "DT_FLOAT"}}}, {"name": "generator/G_MODEL/m/r5/2/gamma", "op": "Const", "attr": {"value": {"tensor": {"dtype": "DT_FLOAT", "tensorShape": {"dim": [{"size": "256"}]}}}, "dtype": {"type": "DT_FLOAT"}}}, {"name": "generator/G_MODEL/m/r6/Conv/weights", "op": "Const", "attr": {"dtype": {"type": "DT_FLOAT"}, "value": {"tensor": {"dtype": "DT_FLOAT", "tensorShape": {"dim": [{"size": "1"}, {"size": "1"}, {"size": "256"}, {"size": "512"}]}}}}}, {"name": "generator/G_MODEL/m/r6/InstanceNorm/moments/mean/reduction_indices", "op": "Const", "attr": {"value": {"tensor": {"dtype": "DT_INT32", "tensorShape": {"dim": [{"size": "2"}]}}}, "dtype": {"type": "DT_INT32"}}}, {"name": "generator/G_MODEL/m/r6/InstanceNorm/moments/variance/reduction_indices", "op": "Const", "attr": {"value": {"tensor": {"dtype": "DT_INT32", "tensorShape": {"dim": [{"size": "2"}]}}}, "dtype": {"type": "DT_INT32"}}}, {"name": "generator/G_MODEL/m/r6/InstanceNorm/instancenorm/add/y", "op": "Const", "attr": {"dtype": {"type": "DT_FLOAT"}, "value": {"tensor": {"dtype": "DT_FLOAT", "tensorShape": {}}}}}, {"name": "generator/G_MODEL/m/r6/InstanceNorm/gamma", "op": "Const", "attr": {"value": {"tensor": {"dtype": "DT_FLOAT", "tensorShape": {"dim": [{"size": "512"}]}}}, "dtype": {"type": "DT_FLOAT"}}}, {"name": "generator/G_MODEL/m/r6/MirrorPad/paddings", "op": "Const", "attr": {"dtype": {"type": "DT_INT32"}, "value": {"tensor": {"dtype": "DT_INT32", "tensorShape": {"dim": [{"size": "4"}, {"size": "2"}]}}}}}, {"name": "generator/G_MODEL/m/r6/r6/w", "op": "Const", "attr": {"dtype": {"type": "DT_FLOAT"}, "value": {"tensor": {"dtype": "DT_FLOAT", "tensorShape": {"dim": [{"size": "3"}, {"size": "3"}, {"size": "512"}, {"size": "1"}]}}}}}, {"name": "generator/G_MODEL/m/r6/1/moments/mean/reduction_indices", "op": "Const", "attr": {"dtype": {"type": "DT_INT32"}, "value": {"tensor": {"dtype": "DT_INT32", "tensorShape": {"dim": [{"size": "2"}]}}}}}, {"name": "generator/G_MODEL/m/r6/1/moments/variance/reduction_indices", "op": "Const", "attr": {"value": {"tensor": {"dtype": "DT_INT32", "tensorShape": {"dim": [{"size": "2"}]}}}, "dtype": {"type": "DT_INT32"}}}, {"name": "generator/G_MODEL/m/r6/1/instancenorm/add/y", "op": "Const", "attr": {"dtype": {"type": "DT_FLOAT"}, "value": {"tensor": {"dtype": "DT_FLOAT", "tensorShape": {}}}}}, {"name": "generator/G_MODEL/m/r6/1/gamma", "op": "Const", "attr": {"value": {"tensor": {"dtype": "DT_FLOAT", "tensorShape": {"dim": [{"size": "512"}]}}}, "dtype": {"type": "DT_FLOAT"}}}, {"name": "generator/G_MODEL/m/r6/Conv_1/weights", "op": "Const", "attr": {"dtype": {"type": "DT_FLOAT"}, "value": {"tensor": {"dtype": "DT_FLOAT", "tensorShape": {"dim": [{"size": "1"}, {"size": "1"}, {"size": "512"}, {"size": "256"}]}}}}}, {"name": "generator/G_MODEL/m/r6/2/moments/mean/reduction_indices", "op": "Const", "attr": {"dtype": {"type": "DT_INT32"}, "value": {"tensor": {"dtype": "DT_INT32", "tensorShape": {"dim": [{"size": "2"}]}}}}}, {"name": "generator/G_MODEL/m/r6/2/moments/variance/reduction_indices", "op": "Const", "attr": {"dtype": {"type": "DT_INT32"}, "value": {"tensor": {"dtype": "DT_INT32", "tensorShape": {"dim": [{"size": "2"}]}}}}}, {"name": "generator/G_MODEL/m/r6/2/instancenorm/add/y", "op": "Const", "attr": {"dtype": {"type": "DT_FLOAT"}, "value": {"tensor": {"dtype": "DT_FLOAT", "tensorShape": {}}}}}, {"name": "generator/G_MODEL/m/r6/2/gamma", "op": "Const", "attr": {"value": {"tensor": {"dtype": "DT_FLOAT", "tensorShape": {"dim": [{"size": "256"}]}}}, "dtype": {"type": "DT_FLOAT"}}}, {"name": "generator/G_MODEL/m/r7/Conv/weights", "op": "Const", "attr": {"dtype": {"type": "DT_FLOAT"}, "value": {"tensor": {"dtype": "DT_FLOAT", "tensorShape": {"dim": [{"size": "1"}, {"size": "1"}, {"size": "256"}, {"size": "512"}]}}}}}, {"name": "generator/G_MODEL/m/r7/InstanceNorm/moments/mean/reduction_indices", "op": "Const", "attr": {"value": {"tensor": {"dtype": "DT_INT32", "tensorShape": {"dim": [{"size": "2"}]}}}, "dtype": {"type": "DT_INT32"}}}, {"name": "generator/G_MODEL/m/r7/InstanceNorm/moments/variance/reduction_indices", "op": "Const", "attr": {"dtype": {"type": "DT_INT32"}, "value": {"tensor": {"dtype": "DT_INT32", "tensorShape": {"dim": [{"size": "2"}]}}}}}, {"name": "generator/G_MODEL/m/r7/InstanceNorm/instancenorm/add/y", "op": "Const", "attr": {"dtype": {"type": "DT_FLOAT"}, "value": {"tensor": {"dtype": "DT_FLOAT", "tensorShape": {}}}}}, {"name": "generator/G_MODEL/m/r7/InstanceNorm/gamma", "op": "Const", "attr": {"dtype": {"type": "DT_FLOAT"}, "value": {"tensor": {"dtype": "DT_FLOAT", "tensorShape": {"dim": [{"size": "512"}]}}}}}, {"name": "generator/G_MODEL/m/r7/MirrorPad/paddings", "op": "Const", "attr": {"dtype": {"type": "DT_INT32"}, "value": {"tensor": {"dtype": "DT_INT32", "tensorShape": {"dim": [{"size": "4"}, {"size": "2"}]}}}}}, {"name": "generator/G_MODEL/m/r7/r7/w", "op": "Const", "attr": {"dtype": {"type": "DT_FLOAT"}, "value": {"tensor": {"dtype": "DT_FLOAT", "tensorShape": {"dim": [{"size": "3"}, {"size": "3"}, {"size": "512"}, {"size": "1"}]}}}}}, {"name": "generator/G_MODEL/m/r7/1/moments/mean/reduction_indices", "op": "Const", "attr": {"value": {"tensor": {"dtype": "DT_INT32", "tensorShape": {"dim": [{"size": "2"}]}}}, "dtype": {"type": "DT_INT32"}}}, {"name": "generator/G_MODEL/m/r7/1/moments/variance/reduction_indices", "op": "Const", "attr": {"value": {"tensor": {"dtype": "DT_INT32", "tensorShape": {"dim": [{"size": "2"}]}}}, "dtype": {"type": "DT_INT32"}}}, {"name": "generator/G_MODEL/m/r7/1/instancenorm/add/y", "op": "Const", "attr": {"dtype": {"type": "DT_FLOAT"}, "value": {"tensor": {"dtype": "DT_FLOAT", "tensorShape": {}}}}}, {"name": "generator/G_MODEL/m/r7/1/gamma", "op": "Const", "attr": {"value": {"tensor": {"dtype": "DT_FLOAT", "tensorShape": {"dim": [{"size": "512"}]}}}, "dtype": {"type": "DT_FLOAT"}}}, {"name": "generator/G_MODEL/m/r7/Conv_1/weights", "op": "Const", "attr": {"dtype": {"type": "DT_FLOAT"}, "value": {"tensor": {"dtype": "DT_FLOAT", "tensorShape": {"dim": [{"size": "1"}, {"size": "1"}, {"size": "512"}, {"size": "256"}]}}}}}, {"name": "generator/G_MODEL/m/r7/2/moments/mean/reduction_indices", "op": "Const", "attr": {"dtype": {"type": "DT_INT32"}, "value": {"tensor": {"dtype": "DT_INT32", "tensorShape": {"dim": [{"size": "2"}]}}}}}, {"name": "generator/G_MODEL/m/r7/2/moments/variance/reduction_indices", "op": "Const", "attr": {"dtype": {"type": "DT_INT32"}, "value": {"tensor": {"dtype": "DT_INT32", "tensorShape": {"dim": [{"size": "2"}]}}}}}, {"name": "generator/G_MODEL/m/r7/2/instancenorm/add/y", "op": "Const", "attr": {"value": {"tensor": {"dtype": "DT_FLOAT", "tensorShape": {}}}, "dtype": {"type": "DT_FLOAT"}}}, {"name": "generator/G_MODEL/m/r7/2/gamma", "op": "Const", "attr": {"dtype": {"type": "DT_FLOAT"}, "value": {"tensor": {"dtype": "DT_FLOAT", "tensorShape": {"dim": [{"size": "256"}]}}}}}, {"name": "generator/G_MODEL/m/r8/Conv/weights", "op": "Const", "attr": {"dtype": {"type": "DT_FLOAT"}, "value": {"tensor": {"dtype": "DT_FLOAT", "tensorShape": {"dim": [{"size": "1"}, {"size": "1"}, {"size": "256"}, {"size": "512"}]}}}}}, {"name": "generator/G_MODEL/m/r8/InstanceNorm/moments/mean/reduction_indices", "op": "Const", "attr": {"dtype": {"type": "DT_INT32"}, "value": {"tensor": {"dtype": "DT_INT32", "tensorShape": {"dim": [{"size": "2"}]}}}}}, {"name": "generator/G_MODEL/m/r8/InstanceNorm/moments/variance/reduction_indices", "op": "Const", "attr": {"value": {"tensor": {"dtype": "DT_INT32", "tensorShape": {"dim": [{"size": "2"}]}}}, "dtype": {"type": "DT_INT32"}}}, {"name": "generator/G_MODEL/m/r8/InstanceNorm/instancenorm/add/y", "op": "Const", "attr": {"dtype": {"type": "DT_FLOAT"}, "value": {"tensor": {"dtype": "DT_FLOAT", "tensorShape": {}}}}}, {"name": "generator/G_MODEL/m/r8/InstanceNorm/gamma", "op": "Const", "attr": {"value": {"tensor": {"dtype": "DT_FLOAT", "tensorShape": {"dim": [{"size": "512"}]}}}, "dtype": {"type": "DT_FLOAT"}}}, {"name": "generator/G_MODEL/m/r8/MirrorPad/paddings", "op": "Const", "attr": {"value": {"tensor": {"dtype": "DT_INT32", "tensorShape": {"dim": [{"size": "4"}, {"size": "2"}]}}}, "dtype": {"type": "DT_INT32"}}}, {"name": "generator/G_MODEL/m/r8/r8/w", "op": "Const", "attr": {"value": {"tensor": {"dtype": "DT_FLOAT", "tensorShape": {"dim": [{"size": "3"}, {"size": "3"}, {"size": "512"}, {"size": "1"}]}}}, "dtype": {"type": "DT_FLOAT"}}}, {"name": "generator/G_MODEL/m/r8/1/moments/mean/reduction_indices", "op": "Const", "attr": {"value": {"tensor": {"dtype": "DT_INT32", "tensorShape": {"dim": [{"size": "2"}]}}}, "dtype": {"type": "DT_INT32"}}}, {"name": "generator/G_MODEL/m/r8/1/moments/variance/reduction_indices", "op": "Const", "attr": {"value": {"tensor": {"dtype": "DT_INT32", "tensorShape": {"dim": [{"size": "2"}]}}}, "dtype": {"type": "DT_INT32"}}}, {"name": "generator/G_MODEL/m/r8/1/instancenorm/add/y", "op": "Const", "attr": {"value": {"tensor": {"dtype": "DT_FLOAT", "tensorShape": {}}}, "dtype": {"type": "DT_FLOAT"}}}, {"name": "generator/G_MODEL/m/r8/1/gamma", "op": "Const", "attr": {"dtype": {"type": "DT_FLOAT"}, "value": {"tensor": {"dtype": "DT_FLOAT", "tensorShape": {"dim": [{"size": "512"}]}}}}}, {"name": "generator/G_MODEL/m/r8/Conv_1/weights", "op": "Const", "attr": {"dtype": {"type": "DT_FLOAT"}, "value": {"tensor": {"dtype": "DT_FLOAT", "tensorShape": {"dim": [{"size": "1"}, {"size": "1"}, {"size": "512"}, {"size": "256"}]}}}}}, {"name": "generator/G_MODEL/m/r8/2/moments/mean/reduction_indices", "op": "Const", "attr": {"dtype": {"type": "DT_INT32"}, "value": {"tensor": {"dtype": "DT_INT32", "tensorShape": {"dim": [{"size": "2"}]}}}}}, {"name": "generator/G_MODEL/m/r8/2/moments/variance/reduction_indices", "op": "Const", "attr": {"value": {"tensor": {"dtype": "DT_INT32", "tensorShape": {"dim": [{"size": "2"}]}}}, "dtype": {"type": "DT_INT32"}}}, {"name": "generator/G_MODEL/m/r8/2/instancenorm/add/y", "op": "Const", "attr": {"dtype": {"type": "DT_FLOAT"}, "value": {"tensor": {"dtype": "DT_FLOAT", "tensorShape": {}}}}}, {"name": "generator/G_MODEL/m/r8/2/gamma", "op": "Const", "attr": {"dtype": {"type": "DT_FLOAT"}, "value": {"tensor": {"dtype": "DT_FLOAT", "tensorShape": {"dim": [{"size": "256"}]}}}}}, {"name": "generator/G_MODEL/m/MirrorPad_1/paddings", "op": "Const", "attr": {"dtype": {"type": "DT_INT32"}, "value": {"tensor": {"dtype": "DT_INT32", "tensorShape": {"dim": [{"size": "4"}, {"size": "2"}]}}}}}, {"name": "generator/G_MODEL/m/Conv_1/weights", "op": "Const", "attr": {"dtype": {"type": "DT_FLOAT"}, "value": {"tensor": {"dtype": "DT_FLOAT", "tensorShape": {"dim": [{"size": "3"}, {"size": "3"}, {"size": "256"}, {"size": "256"}]}}}}}, {"name": "generator/G_MODEL/m/InstanceNorm_1/moments/mean/reduction_indices", "op": "Const", "attr": {"dtype": {"type": "DT_INT32"}, "value": {"tensor": {"dtype": "DT_INT32", "tensorShape": {"dim": [{"size": "2"}]}}}}}, {"name": "generator/G_MODEL/m/InstanceNorm_1/moments/variance/reduction_indices", "op": "Const", "attr": {"dtype": {"type": "DT_INT32"}, "value": {"tensor": {"dtype": "DT_INT32", "tensorShape": {"dim": [{"size": "2"}]}}}}}, {"name": "generator/G_MODEL/m/InstanceNorm_1/instancenorm/add/y", "op": "Const", "attr": {"dtype": {"type": "DT_FLOAT"}, "value": {"tensor": {"dtype": "DT_FLOAT", "tensorShape": {}}}}}, {"name": "generator/G_MODEL/m/InstanceNorm_1/gamma", "op": "Const", "attr": {"value": {"tensor": {"dtype": "DT_FLOAT", "tensorShape": {"dim": [{"size": "256"}]}}}, "dtype": {"type": "DT_FLOAT"}}}, {"name": "generator/G_MODEL/u2/strided_slice_1/stack", "op": "Const", "attr": {"dtype": {"type": "DT_INT32"}, "value": {"tensor": {"dtype": "DT_INT32", "tensorShape": {"dim": [{"size": "1"}]}}}}}, {"name": "generator/G_MODEL/u2/strided_slice_1/stack_1", "op": "Const", "attr": {"dtype": {"type": "DT_INT32"}, "value": {"tensor": {"dtype": "DT_INT32", "tensorShape": {"dim": [{"size": "1"}]}}}}}, {"name": "generator/G_MODEL/u2/strided_slice_1/stack_2", "op": "Const", "attr": {"dtype": {"type": "DT_INT32"}, "value": {"tensor": {"dtype": "DT_INT32", "tensorShape": {"dim": [{"size": "1"}]}}}}}, {"name": "generator/G_MODEL/u2/MirrorPad/paddings", "op": "Const", "attr": {"dtype": {"type": "DT_INT32"}, "value": {"tensor": {"dtype": "DT_INT32", "tensorShape": {"dim": [{"size": "4"}, {"size": "2"}]}}}}}, {"name": "generator/G_MODEL/u2/SeparableConv2d/depthwise_weights", "op": "Const", "attr": {"value": {"tensor": {"dtype": "DT_FLOAT", "tensorShape": {"dim": [{"size": "3"}, {"size": "3"}, {"size": "256"}, {"size": "1"}]}}}, "dtype": {"type": "DT_FLOAT"}}}, {"name": "generator/G_MODEL/u2/SeparableConv2d/pointwise_weights", "op": "Const", "attr": {"dtype": {"type": "DT_FLOAT"}, "value": {"tensor": {"dtype": "DT_FLOAT", "tensorShape": {"dim": [{"size": "1"}, {"size": "1"}, {"size": "256"}, {"size": "128"}]}}}}}, {"name": "generator/G_MODEL/u2/SeparableConv2d/InstanceNorm/moments/mean/reduction_indices", "op": "Const", "attr": {"value": {"tensor": {"dtype": "DT_INT32", "tensorShape": {"dim": [{"size": "2"}]}}}, "dtype": {"type": "DT_INT32"}}}, {"name": "generator/G_MODEL/u2/SeparableConv2d/InstanceNorm/moments/variance/reduction_indices", "op": "Const", "attr": {"value": {"tensor": {"dtype": "DT_INT32", "tensorShape": {"dim": [{"size": "2"}]}}}, "dtype": {"type": "DT_INT32"}}}, {"name": "generator/G_MODEL/u2/SeparableConv2d/InstanceNorm/instancenorm/add/y", "op": "Const", "attr": {"dtype": {"type": "DT_FLOAT"}, "value": {"tensor": {"dtype": "DT_FLOAT", "tensorShape": {}}}}}, {"name": "generator/G_MODEL/u2/SeparableConv2d/InstanceNorm/gamma", "op": "Const", "attr": {"dtype": {"type": "DT_FLOAT"}, "value": {"tensor": {"dtype": "DT_FLOAT", "tensorShape": {"dim": [{"size": "128"}]}}}}}, {"name": "generator/G_MODEL/u2/MirrorPad_1/paddings", "op": "Const", "attr": {"dtype": {"type": "DT_INT32"}, "value": {"tensor": {"dtype": "DT_INT32", "tensorShape": {"dim": [{"size": "4"}, {"size": "2"}]}}}}}, {"name": "generator/G_MODEL/u2/SeparableConv2d_1/depthwise_weights", "op": "Const", "attr": {"value": {"tensor": {"dtype": "DT_FLOAT", "tensorShape": {"dim": [{"size": "3"}, {"size": "3"}, {"size": "128"}, {"size": "1"}]}}}, "dtype": {"type": "DT_FLOAT"}}}, {"name": "generator/G_MODEL/u2/SeparableConv2d_1/pointwise_weights", "op": "Const", "attr": {"dtype": {"type": "DT_FLOAT"}, "value": {"tensor": {"dtype": "DT_FLOAT", "tensorShape": {"dim": [{"size": "1"}, {"size": "1"}, {"size": "128"}, {"size": "128"}]}}}}}, {"name": "generator/G_MODEL/u2/SeparableConv2d_1/InstanceNorm/moments/mean/reduction_indices", "op": "Const", "attr": {"value": {"tensor": {"dtype": "DT_INT32", "tensorShape": {"dim": [{"size": "2"}]}}}, "dtype": {"type": "DT_INT32"}}}, {"name": "generator/G_MODEL/u2/SeparableConv2d_1/InstanceNorm/moments/variance/reduction_indices", "op": "Const", "attr": {"value": {"tensor": {"dtype": "DT_INT32", "tensorShape": {"dim": [{"size": "2"}]}}}, "dtype": {"type": "DT_INT32"}}}, {"name": "generator/G_MODEL/u2/SeparableConv2d_1/InstanceNorm/instancenorm/add/y", "op": "Const", "attr": {"dtype": {"type": "DT_FLOAT"}, "value": {"tensor": {"dtype": "DT_FLOAT", "tensorShape": {}}}}}, {"name": "generator/G_MODEL/u2/SeparableConv2d_1/InstanceNorm/gamma", "op": "Const", "attr": {"value": {"tensor": {"dtype": "DT_FLOAT", "tensorShape": {"dim": [{"size": "128"}]}}}, "dtype": {"type": "DT_FLOAT"}}}, {"name": "generator/G_MODEL/u2/MirrorPad_2/paddings", "op": "Const", "attr": {"dtype": {"type": "DT_INT32"}, "value": {"tensor": {"dtype": "DT_INT32", "tensorShape": {"dim": [{"size": "4"}, {"size": "2"}]}}}}}, {"name": "generator/G_MODEL/u2/Conv/weights", "op": "Const", "attr": {"value": {"tensor": {"dtype": "DT_FLOAT", "tensorShape": {"dim": [{"size": "3"}, {"size": "3"}, {"size": "128"}, {"size": "128"}]}}}, "dtype": {"type": "DT_FLOAT"}}}, {"name": "generator/G_MODEL/u2/InstanceNorm/moments/mean/reduction_indices", "op": "Const", "attr": {"value": {"tensor": {"dtype": "DT_INT32", "tensorShape": {"dim": [{"size": "2"}]}}}, "dtype": {"type": "DT_INT32"}}}, {"name": "generator/G_MODEL/u2/InstanceNorm/moments/variance/reduction_indices", "op": "Const", "attr": {"dtype": {"type": "DT_INT32"}, "value": {"tensor": {"dtype": "DT_INT32", "tensorShape": {"dim": [{"size": "2"}]}}}}}, {"name": "generator/G_MODEL/u2/InstanceNorm/instancenorm/add/y", "op": "Const", "attr": {"value": {"tensor": {"dtype": "DT_FLOAT", "tensorShape": {}}}, "dtype": {"type": "DT_FLOAT"}}}, {"name": "generator/G_MODEL/u2/InstanceNorm/gamma", "op": "Const", "attr": {"value": {"tensor": {"dtype": "DT_FLOAT", "tensorShape": {"dim": [{"size": "128"}]}}}, "dtype": {"type": "DT_FLOAT"}}}, {"name": "generator/G_MODEL/u1/strided_slice_1/stack", "op": "Const", "attr": {"dtype": {"type": "DT_INT32"}, "value": {"tensor": {"dtype": "DT_INT32", "tensorShape": {"dim": [{"size": "1"}]}}}}}, {"name": "generator/G_MODEL/u1/strided_slice_1/stack_1", "op": "Const", "attr": {"value": {"tensor": {"dtype": "DT_INT32", "tensorShape": {"dim": [{"size": "1"}]}}}, "dtype": {"type": "DT_INT32"}}}, {"name": "generator/G_MODEL/u1/strided_slice_1/stack_2", "op": "Const", "attr": {"dtype": {"type": "DT_INT32"}, "value": {"tensor": {"dtype": "DT_INT32", "tensorShape": {"dim": [{"size": "1"}]}}}}}, {"name": "generator/G_MODEL/u1/MirrorPad/paddings", "op": "Const", "attr": {"dtype": {"type": "DT_INT32"}, "value": {"tensor": {"dtype": "DT_INT32", "tensorShape": {"dim": [{"size": "4"}, {"size": "2"}]}}}}}, {"name": "generator/G_MODEL/u1/SeparableConv2d/depthwise_weights", "op": "Const", "attr": {"value": {"tensor": {"dtype": "DT_FLOAT", "tensorShape": {"dim": [{"size": "3"}, {"size": "3"}, {"size": "128"}, {"size": "1"}]}}}, "dtype": {"type": "DT_FLOAT"}}}, {"name": "generator/G_MODEL/u1/SeparableConv2d/pointwise_weights", "op": "Const", "attr": {"value": {"tensor": {"dtype": "DT_FLOAT", "tensorShape": {"dim": [{"size": "1"}, {"size": "1"}, {"size": "128"}, {"size": "128"}]}}}, "dtype": {"type": "DT_FLOAT"}}}, {"name": "generator/G_MODEL/u1/SeparableConv2d/InstanceNorm/moments/mean/reduction_indices", "op": "Const", "attr": {"value": {"tensor": {"dtype": "DT_INT32", "tensorShape": {"dim": [{"size": "2"}]}}}, "dtype": {"type": "DT_INT32"}}}, {"name": "generator/G_MODEL/u1/SeparableConv2d/InstanceNorm/moments/variance/reduction_indices", "op": "Const", "attr": {"value": {"tensor": {"dtype": "DT_INT32", "tensorShape": {"dim": [{"size": "2"}]}}}, "dtype": {"type": "DT_INT32"}}}, {"name": "generator/G_MODEL/u1/SeparableConv2d/InstanceNorm/instancenorm/add/y", "op": "Const", "attr": {"value": {"tensor": {"dtype": "DT_FLOAT", "tensorShape": {}}}, "dtype": {"type": "DT_FLOAT"}}}, {"name": "generator/G_MODEL/u1/SeparableConv2d/InstanceNorm/gamma", "op": "Const", "attr": {"dtype": {"type": "DT_FLOAT"}, "value": {"tensor": {"dtype": "DT_FLOAT", "tensorShape": {"dim": [{"size": "128"}]}}}}}, {"name": "generator/G_MODEL/u1/MirrorPad_1/paddings", "op": "Const", "attr": {"value": {"tensor": {"dtype": "DT_INT32", "tensorShape": {"dim": [{"size": "4"}, {"size": "2"}]}}}, "dtype": {"type": "DT_INT32"}}}, {"name": "generator/G_MODEL/u1/Conv/weights", "op": "Const", "attr": {"value": {"tensor": {"dtype": "DT_FLOAT", "tensorShape": {"dim": [{"size": "3"}, {"size": "3"}, {"size": "128"}, {"size": "64"}]}}}, "dtype": {"type": "DT_FLOAT"}}}, {"name": "generator/G_MODEL/u1/InstanceNorm/moments/mean/reduction_indices", "op": "Const", "attr": {"value": {"tensor": {"dtype": "DT_INT32", "tensorShape": {"dim": [{"size": "2"}]}}}, "dtype": {"type": "DT_INT32"}}}, {"name": "generator/G_MODEL/u1/InstanceNorm/moments/variance/reduction_indices", "op": "Const", "attr": {"dtype": {"type": "DT_INT32"}, "value": {"tensor": {"dtype": "DT_INT32", "tensorShape": {"dim": [{"size": "2"}]}}}}}, {"name": "generator/G_MODEL/u1/InstanceNorm/instancenorm/add/y", "op": "Const", "attr": {"value": {"tensor": {"dtype": "DT_FLOAT", "tensorShape": {}}}, "dtype": {"type": "DT_FLOAT"}}}, {"name": "generator/G_MODEL/u1/InstanceNorm/gamma", "op": "Const", "attr": {"value": {"tensor": {"dtype": "DT_FLOAT", "tensorShape": {"dim": [{"size": "64"}]}}}, "dtype": {"type": "DT_FLOAT"}}}, {"name": "generator/G_MODEL/u1/MirrorPad_2/paddings", "op": "Const", "attr": {"dtype": {"type": "DT_INT32"}, "value": {"tensor": {"dtype": "DT_INT32", "tensorShape": {"dim": [{"size": "4"}, {"size": "2"}]}}}}}, {"name": "generator/G_MODEL/u1/Conv_1/weights", "op": "Const", "attr": {"dtype": {"type": "DT_FLOAT"}, "value": {"tensor": {"dtype": "DT_FLOAT", "tensorShape": {"dim": [{"size": "3"}, {"size": "3"}, {"size": "64"}, {"size": "64"}]}}}}}, {"name": "generator/G_MODEL/u1/InstanceNorm_1/moments/mean/reduction_indices", "op": "Const", "attr": {"value": {"tensor": {"dtype": "DT_INT32", "tensorShape": {"dim": [{"size": "2"}]}}}, "dtype": {"type": "DT_INT32"}}}, {"name": "generator/G_MODEL/u1/InstanceNorm_1/moments/variance/reduction_indices", "op": "Const", "attr": {"dtype": {"type": "DT_INT32"}, "value": {"tensor": {"dtype": "DT_INT32", "tensorShape": {"dim": [{"size": "2"}]}}}}}, {"name": "generator/G_MODEL/u1/InstanceNorm_1/instancenorm/add/y", "op": "Const", "attr": {"dtype": {"type": "DT_FLOAT"}, "value": {"tensor": {"dtype": "DT_FLOAT", "tensorShape": {}}}}}, {"name": "generator/G_MODEL/u1/InstanceNorm_1/gamma", "op": "Const", "attr": {"dtype": {"type": "DT_FLOAT"}, "value": {"tensor": {"dtype": "DT_FLOAT", "tensorShape": {"dim": [{"size": "64"}]}}}}}, {"name": "generator/G_MODEL/Conv/weights", "op": "Const", "attr": {"value": {"tensor": {"dtype": "DT_FLOAT", "tensorShape": {"dim": [{"size": "1"}, {"size": "1"}, {"size": "64"}, {"size": "3"}]}}}, "dtype": {"type": "DT_FLOAT"}}}, {"name": "generator_input", "op": "Placeholder", "attr": {"dtype": {"type": "DT_FLOAT"}, "shape": {"shape": {"dim": [{"size": "1"}, {"size": "-1"}, {"size": "-1"}, {"size": "3"}]}}}}, {"name": "generator/G_MODEL/b1/MirrorPad", "op": "MirrorPad", "input": ["generator_input", "generator/G_MODEL/b1/MirrorPad/paddings"], "attr": {"T": {"type": "DT_FLOAT"}, "Tpaddings": {"type": "DT_INT32"}, "mode": {"s": "UkVGTEVDVA=="}}}, {"name": "generator/G_MODEL/b1/Conv/Conv2D", "op": "Conv2D", "input": ["generator/G_MODEL/b1/MirrorPad", "generator/G_MODEL/b1/Conv/weights"], "device": "/device:CPU:0", "attr": {"padding": {"s": "VkFMSUQ="}, "use_cudnn_on_gpu": {"b": true}, "strides": {"list": {"i": ["1", "1", "1", "1"]}}, "explicit_paddings": {"list": {}}, "dilations": {"list": {"i": ["1", "1", "1", "1"]}}, "T": {"type": "DT_FLOAT"}, "data_format": {"s": "TkhXQw=="}}}, {"name": "generator/G_MODEL/b1/InstanceNorm/moments/mean", "op": "Mean", "input": ["generator/G_MODEL/b1/Conv/Conv2D", "generator/G_MODEL/b1/InstanceNorm/moments/mean/reduction_indices"], "attr": {"T": {"type": "DT_FLOAT"}, "Tidx": {"type": "DT_INT32"}, "keep_dims": {"b": true}}}, {"name": "generator/G_MODEL/b1/InstanceNorm/moments/SquaredDifference", "op": "SquaredDifference", "input": ["generator/G_MODEL/b1/Conv/Conv2D", "generator/G_MODEL/b1/InstanceNorm/moments/mean"], "attr": {"T": {"type": "DT_FLOAT"}}}, {"name": "generator/G_MODEL/b1/InstanceNorm/moments/variance", "op": "Mean", "input": ["generator/G_MODEL/b1/InstanceNorm/moments/SquaredDifference", "generator/G_MODEL/b1/InstanceNorm/moments/variance/reduction_indices"], "attr": {"keep_dims": {"b": true}, "T": {"type": "DT_FLOAT"}, "Tidx": {"type": "DT_INT32"}}}, {"name": "generator/G_MODEL/b1/InstanceNorm/instancenorm/add", "op": "AddV2", "input": ["generator/G_MODEL/b1/InstanceNorm/moments/variance", "generator/G_MODEL/b1/InstanceNorm/instancenorm/add/y"], "attr": {"T": {"type": "DT_FLOAT"}}}, {"name": "generator/G_MODEL/b1/InstanceNorm/instancenorm/Rsqrt", "op": "Rsqrt", "input": ["generator/G_MODEL/b1/InstanceNorm/instancenorm/add"], "attr": {"T": {"type": "DT_FLOAT"}}}, {"name": "generator/G_MODEL/b1/InstanceNorm/instancenorm/mul", "op": "Mul", "input": ["generator/G_MODEL/b1/InstanceNorm/instancenorm/Rsqrt", "generator/G_MODEL/b1/InstanceNorm/gamma"], "attr": {"T": {"type": "DT_FLOAT"}}}, {"name": "generator/G_MODEL/b1/InstanceNorm/instancenorm/mul_2", "op": "Mul", "input": ["generator/G_MODEL/b1/InstanceNorm/moments/mean", "generator/G_MODEL/b1/InstanceNorm/instancenorm/mul"], "attr": {"T": {"type": "DT_FLOAT"}}}, {"name": "generator/G_MODEL/b1/InstanceNorm/instancenorm/mul_1", "op": "Mul", "input": ["generator/G_MODEL/b1/Conv/Conv2D", "generator/G_MODEL/b1/InstanceNorm/instancenorm/mul"], "attr": {"T": {"type": "DT_FLOAT"}}}, {"name": "generator/G_MODEL/b1/InstanceNorm/instancenorm/sub", "op": "Sub", "input": ["generator/G_MODEL/b1/InstanceNorm/beta", "generator/G_MODEL/b1/InstanceNorm/instancenorm/mul_2"], "attr": {"T": {"type": "DT_FLOAT"}}}, {"name": "generator/G_MODEL/b1/InstanceNorm/instancenorm/add_1", "op": "AddV2", "input": ["generator/G_MODEL/b1/InstanceNorm/instancenorm/mul_1", "generator/G_MODEL/b1/InstanceNorm/instancenorm/sub"], "attr": {"T": {"type": "DT_FLOAT"}}}, {"name": "generator/G_MODEL/b1/LeakyRelu", "op": "LeakyRelu", "input": ["generator/G_MODEL/b1/InstanceNorm/instancenorm/add_1"], "attr": {"alpha": {"f": 0.2}, "T": {"type": "DT_FLOAT"}}}, {"name": "generator/G_MODEL/b1/MirrorPad_1", "op": "MirrorPad", "input": ["generator/G_MODEL/b1/LeakyRelu", "generator/G_MODEL/b1/MirrorPad_1/paddings"], "attr": {"Tpaddings": {"type": "DT_INT32"}, "mode": {"s": "UkVGTEVDVA=="}, "T": {"type": "DT_FLOAT"}}}, {"name": "generator/G_MODEL/b1/Conv_1/Conv2D", "op": "Conv2D", "input": ["generator/G_MODEL/b1/MirrorPad_1", "generator/G_MODEL/b1/Conv_1/weights"], "device": "/device:CPU:0", "attr": {"T": {"type": "DT_FLOAT"}, "data_format": {"s": "TkhXQw=="}, "explicit_paddings": {"list": {}}, "dilations": {"list": {"i": ["1", "1", "1", "1"]}}, "padding": {"s": "VkFMSUQ="}, "use_cudnn_on_gpu": {"b": true}, "strides": {"list": {"i": ["1", "1", "1", "1"]}}}}, {"name": "generator/G_MODEL/b1/InstanceNorm_1/moments/mean", "op": "Mean", "input": ["generator/G_MODEL/b1/Conv_1/Conv2D", "generator/G_MODEL/b1/InstanceNorm_1/moments/mean/reduction_indices"], "attr": {"T": {"type": "DT_FLOAT"}, "Tidx": {"type": "DT_INT32"}, "keep_dims": {"b": true}}}, {"name": "generator/G_MODEL/b1/InstanceNorm_1/moments/SquaredDifference", "op": "SquaredDifference", "input": ["generator/G_MODEL/b1/Conv_1/Conv2D", "generator/G_MODEL/b1/InstanceNorm_1/moments/mean"], "attr": {"T": {"type": "DT_FLOAT"}}}, {"name": "generator/G_MODEL/b1/InstanceNorm_1/moments/variance", "op": "Mean", "input": ["generator/G_MODEL/b1/InstanceNorm_1/moments/SquaredDifference", "generator/G_MODEL/b1/InstanceNorm_1/moments/variance/reduction_indices"], "attr": {"keep_dims": {"b": true}, "T": {"type": "DT_FLOAT"}, "Tidx": {"type": "DT_INT32"}}}, {"name": "generator/G_MODEL/b1/InstanceNorm_1/instancenorm/add", "op": "AddV2", "input": ["generator/G_MODEL/b1/InstanceNorm_1/moments/variance", "generator/G_MODEL/b1/InstanceNorm_1/instancenorm/add/y"], "attr": {"T": {"type": "DT_FLOAT"}}}, {"name": "generator/G_MODEL/b1/InstanceNorm_1/instancenorm/Rsqrt", "op": "Rsqrt", "input": ["generator/G_MODEL/b1/InstanceNorm_1/instancenorm/add"], "attr": {"T": {"type": "DT_FLOAT"}}}, {"name": "generator/G_MODEL/b1/InstanceNorm_1/instancenorm/mul", "op": "Mul", "input": ["generator/G_MODEL/b1/InstanceNorm_1/instancenorm/Rsqrt", "generator/G_MODEL/b1/InstanceNorm_1/gamma"], "attr": {"T": {"type": "DT_FLOAT"}}}, {"name": "generator/G_MODEL/b1/InstanceNorm_1/instancenorm/mul_2", "op": "Mul", "input": ["generator/G_MODEL/b1/InstanceNorm_1/moments/mean", "generator/G_MODEL/b1/InstanceNorm_1/instancenorm/mul"], "attr": {"T": {"type": "DT_FLOAT"}}}, {"name": "generator/G_MODEL/b1/InstanceNorm_1/instancenorm/mul_1", "op": "Mul", "input": ["generator/G_MODEL/b1/Conv_1/Conv2D", "generator/G_MODEL/b1/InstanceNorm_1/instancenorm/mul"], "attr": {"T": {"type": "DT_FLOAT"}}}, {"name": "generator/G_MODEL/b1/InstanceNorm_1/instancenorm/sub", "op": "Sub", "input": ["generator/G_MODEL/b1/InstanceNorm_1/beta", "generator/G_MODEL/b1/InstanceNorm_1/instancenorm/mul_2"], "attr": {"T": {"type": "DT_FLOAT"}}}, {"name": "generator/G_MODEL/b1/InstanceNorm_1/instancenorm/add_1", "op": "AddV2", "input": ["generator/G_MODEL/b1/InstanceNorm_1/instancenorm/mul_1", "generator/G_MODEL/b1/InstanceNorm_1/instancenorm/sub"], "attr": {"T": {"type": "DT_FLOAT"}}}, {"name": "generator/G_MODEL/b1/LeakyRelu_1", "op": "LeakyRelu", "input": ["generator/G_MODEL/b1/InstanceNorm_1/instancenorm/add_1"], "attr": {"alpha": {"f": 0.2}, "T": {"type": "DT_FLOAT"}}}, {"name": "generator/G_MODEL/b1/MirrorPad_2", "op": "MirrorPad", "input": ["generator/G_MODEL/b1/LeakyRelu_1", "generator/G_MODEL/b1/MirrorPad_2/paddings"], "attr": {"Tpaddings": {"type": "DT_INT32"}, "T": {"type": "DT_FLOAT"}, "mode": {"s": "UkVGTEVDVA=="}}}, {"name": "generator/G_MODEL/b1/Shape", "op": "Shape", "input": ["generator/G_MODEL/b1/LeakyRelu_1"], "attr": {"out_type": {"type": "DT_INT32"}, "T": {"type": "DT_FLOAT"}}}, {"name": "generator/G_MODEL/b1/Shape_1", "op": "Shape", "input": ["generator/G_MODEL/b1/LeakyRelu_1"], "attr": {"T": {"type": "DT_FLOAT"}, "out_type": {"type": "DT_INT32"}}}, {"name": "generator/G_MODEL/b1/SeparableConv2d/separable_conv2d/depthwise", "op": "DepthwiseConv2dNative", "input": ["generator/G_MODEL/b1/MirrorPad_2", "generator/G_MODEL/b1/SeparableConv2d/depthwise_weights"], "attr": {"data_format": {"s": "TkhXQw=="}, "explicit_paddings": {"list": {}}, "padding": {"s": "VkFMSUQ="}, "strides": {"list": {"i": ["1", "2", "2", "1"]}}, "dilations": {"list": {"i": ["1", "1", "1", "1"]}}, "T": {"type": "DT_FLOAT"}}}, {"name": "generator/G_MODEL/b1/strided_slice", "op": "StridedSlice", "input": ["generator/G_MODEL/b1/Shape", "generator/G_MODEL/b1/strided_slice/stack", "generator/G_MODEL/b1/strided_slice/stack_1", "generator/G_MODEL/b1/strided_slice/stack_2"], "attr": {"end_mask": {"i": "0"}, "new_axis_mask": {"i": "0"}, "T": {"type": "DT_INT32"}, "ellipsis_mask": {"i": "0"}, "shrink_axis_mask": {"i": "1"}, "begin_mask": {"i": "0"}, "Index": {"type": "DT_INT32"}}}, {"name": "generator/G_MODEL/b1/strided_slice_1", "op": "StridedSlice", "input": ["generator/G_MODEL/b1/Shape_1", "generator/G_MODEL/b1/strided_slice_1/stack", "generator/G_MODEL/b1/strided_slice_1/stack_1", "generator/G_MODEL/b1/strided_slice_1/stack_2"], "attr": {"Index": {"type": "DT_INT32"}, "end_mask": {"i": "0"}, "T": {"type": "DT_INT32"}, "shrink_axis_mask": {"i": "1"}, "ellipsis_mask": {"i": "0"}, "new_axis_mask": {"i": "0"}, "begin_mask": {"i": "0"}}}, {"name": "generator/G_MODEL/b1/SeparableConv2d/separable_conv2d", "op": "Conv2D", "input": ["generator/G_MODEL/b1/SeparableConv2d/separable_conv2d/depthwise", "generator/G_MODEL/b1/SeparableConv2d/pointwise_weights"], "device": "/device:CPU:0", "attr": {"use_cudnn_on_gpu": {"b": true}, "explicit_paddings": {"list": {}}, "dilations": {"list": {"i": ["1", "1", "1", "1"]}}, "data_format": {"s": "TkhXQw=="}, "padding": {"s": "VkFMSUQ="}, "T": {"type": "DT_FLOAT"}, "strides": {"list": {"i": ["1", "1", "1", "1"]}}}}, {"name": "generator/G_MODEL/b1/floordiv", "op": "FloorDiv", "input": ["generator/G_MODEL/b1/strided_slice", "generator/G_MODEL/b1/floordiv/y"], "attr": {"T": {"type": "DT_INT32"}}}, {"name": "generator/G_MODEL/b1/floordiv_1", "op": "FloorDiv", "input": ["generator/G_MODEL/b1/strided_slice_1", "generator/G_MODEL/b1/floordiv_1/y"], "attr": {"T": {"type": "DT_INT32"}}}, {"name": "generator/G_MODEL/b1/SeparableConv2d/InstanceNorm/moments/mean", "op": "Mean", "input": ["generator/G_MODEL/b1/SeparableConv2d/separable_conv2d", "generator/G_MODEL/b1/SeparableConv2d/InstanceNorm/moments/mean/reduction_indices"], "attr": {"keep_dims": {"b": true}, "Tidx": {"type": "DT_INT32"}, "T": {"type": "DT_FLOAT"}}}, {"name": "generator/G_MODEL/b1/resize/size", "op": "Pack", "input": ["generator/G_MODEL/b1/floordiv", "generator/G_MODEL/b1/floordiv_1"], "attr": {"N": {"i": "2"}, "T": {"type": "DT_INT32"}, "axis": {"i": "0"}}}, {"name": "generator/G_MODEL/b1/SeparableConv2d/InstanceNorm/moments/SquaredDifference", "op": "SquaredDifference", "input": ["generator/G_MODEL/b1/SeparableConv2d/separable_conv2d", "generator/G_MODEL/b1/SeparableConv2d/InstanceNorm/moments/mean"], "attr": {"T": {"type": "DT_FLOAT"}}}, {"name": "generator/G_MODEL/b1/resize/ResizeBilinear", "op": "ResizeBilinear", "input": ["generator/G_MODEL/b1/LeakyRelu_1", "generator/G_MODEL/b1/resize/size"], "attr": {"align_corners": {"b": false}, "T": {"type": "DT_FLOAT"}, "half_pixel_centers": {"b": false}}}, {"name": "generator/G_MODEL/b1/SeparableConv2d/InstanceNorm/moments/variance", "op": "Mean", "input": ["generator/G_MODEL/b1/SeparableConv2d/InstanceNorm/moments/SquaredDifference", "generator/G_MODEL/b1/SeparableConv2d/InstanceNorm/moments/variance/reduction_indices"], "attr": {"Tidx": {"type": "DT_INT32"}, "keep_dims": {"b": true}, "T": {"type": "DT_FLOAT"}}}, {"name": "generator/G_MODEL/b1/MirrorPad_3", "op": "MirrorPad", "input": ["generator/G_MODEL/b1/resize/ResizeBilinear", "generator/G_MODEL/b1/MirrorPad_3/paddings"], "attr": {"Tpaddings": {"type": "DT_INT32"}, "T": {"type": "DT_FLOAT"}, "mode": {"s": "UkVGTEVDVA=="}}}, {"name": "generator/G_MODEL/b1/SeparableConv2d/InstanceNorm/instancenorm/add", "op": "AddV2", "input": ["generator/G_MODEL/b1/SeparableConv2d/InstanceNorm/moments/variance", "generator/G_MODEL/b1/SeparableConv2d/InstanceNorm/instancenorm/add/y"], "attr": {"T": {"type": "DT_FLOAT"}}}, {"name": "generator/G_MODEL/b1/SeparableConv2d_1/separable_conv2d/depthwise", "op": "DepthwiseConv2dNative", "input": ["generator/G_MODEL/b1/MirrorPad_3", "generator/G_MODEL/b1/SeparableConv2d_1/depthwise_weights"], "attr": {"dilations": {"list": {"i": ["1", "1", "1", "1"]}}, "data_format": {"s": "TkhXQw=="}, "strides": {"list": {"i": ["1", "1", "1", "1"]}}, "T": {"type": "DT_FLOAT"}, "padding": {"s": "VkFMSUQ="}, "explicit_paddings": {"list": {}}}}, {"name": "generator/G_MODEL/b1/SeparableConv2d/InstanceNorm/instancenorm/Rsqrt", "op": "Rsqrt", "input": ["generator/G_MODEL/b1/SeparableConv2d/InstanceNorm/instancenorm/add"], "attr": {"T": {"type": "DT_FLOAT"}}}, {"name": "generator/G_MODEL/b1/SeparableConv2d_1/separable_conv2d", "op": "Conv2D", "input": ["generator/G_MODEL/b1/SeparableConv2d_1/separable_conv2d/depthwise", "generator/G_MODEL/b1/SeparableConv2d_1/pointwise_weights"], "device": "/device:CPU:0", "attr": {"strides": {"list": {"i": ["1", "1", "1", "1"]}}, "T": {"type": "DT_FLOAT"}, "use_cudnn_on_gpu": {"b": true}, "explicit_paddings": {"list": {}}, "data_format": {"s": "TkhXQw=="}, "padding": {"s": "VkFMSUQ="}, "dilations": {"list": {"i": ["1", "1", "1", "1"]}}}}, {"name": "generator/G_MODEL/b1/SeparableConv2d/InstanceNorm/instancenorm/mul", "op": "Mul", "input": ["generator/G_MODEL/b1/SeparableConv2d/InstanceNorm/instancenorm/Rsqrt", "generator/G_MODEL/b1/SeparableConv2d/InstanceNorm/gamma"], "attr": {"T": {"type": "DT_FLOAT"}}}, {"name": "generator/G_MODEL/b1/SeparableConv2d_1/InstanceNorm/moments/mean", "op": "Mean", "input": ["generator/G_MODEL/b1/SeparableConv2d_1/separable_conv2d", "generator/G_MODEL/b1/SeparableConv2d_1/InstanceNorm/moments/mean/reduction_indices"], "attr": {"keep_dims": {"b": true}, "Tidx": {"type": "DT_INT32"}, "T": {"type": "DT_FLOAT"}}}, {"name": "generator/G_MODEL/b1/SeparableConv2d/InstanceNorm/instancenorm/mul_2", "op": "Mul", "input": ["generator/G_MODEL/b1/SeparableConv2d/InstanceNorm/moments/mean", "generator/G_MODEL/b1/SeparableConv2d/InstanceNorm/instancenorm/mul"], "attr": {"T": {"type": "DT_FLOAT"}}}, {"name": "generator/G_MODEL/b1/SeparableConv2d/InstanceNorm/instancenorm/mul_1", "op": "Mul", "input": ["generator/G_MODEL/b1/SeparableConv2d/separable_conv2d", "generator/G_MODEL/b1/SeparableConv2d/InstanceNorm/instancenorm/mul"], "attr": {"T": {"type": "DT_FLOAT"}}}, {"name": "generator/G_MODEL/b1/SeparableConv2d_1/InstanceNorm/moments/SquaredDifference", "op": "SquaredDifference", "input": ["generator/G_MODEL/b1/SeparableConv2d_1/separable_conv2d", "generator/G_MODEL/b1/SeparableConv2d_1/InstanceNorm/moments/mean"], "attr": {"T": {"type": "DT_FLOAT"}}}, {"name": "generator/G_MODEL/b1/SeparableConv2d/InstanceNorm/instancenorm/sub", "op": "Sub", "input": ["generator/G_MODEL/b1/SeparableConv2d/InstanceNorm/beta", "generator/G_MODEL/b1/SeparableConv2d/InstanceNorm/instancenorm/mul_2"], "attr": {"T": {"type": "DT_FLOAT"}}}, {"name": "generator/G_MODEL/b1/SeparableConv2d_1/InstanceNorm/moments/variance", "op": "Mean", "input": ["generator/G_MODEL/b1/SeparableConv2d_1/InstanceNorm/moments/SquaredDifference", "generator/G_MODEL/b1/SeparableConv2d_1/InstanceNorm/moments/variance/reduction_indices"], "attr": {"T": {"type": "DT_FLOAT"}, "keep_dims": {"b": true}, "Tidx": {"type": "DT_INT32"}}}, {"name": "generator/G_MODEL/b1/SeparableConv2d/InstanceNorm/instancenorm/add_1", "op": "AddV2", "input": ["generator/G_MODEL/b1/SeparableConv2d/InstanceNorm/instancenorm/mul_1", "generator/G_MODEL/b1/SeparableConv2d/InstanceNorm/instancenorm/sub"], "attr": {"T": {"type": "DT_FLOAT"}}}, {"name": "generator/G_MODEL/b1/SeparableConv2d_1/InstanceNorm/instancenorm/add", "op": "AddV2", "input": ["generator/G_MODEL/b1/SeparableConv2d_1/InstanceNorm/moments/variance", "generator/G_MODEL/b1/SeparableConv2d_1/InstanceNorm/instancenorm/add/y"], "attr": {"T": {"type": "DT_FLOAT"}}}, {"name": "generator/G_MODEL/b1/SeparableConv2d/LeakyRelu", "op": "LeakyRelu", "input": ["generator/G_MODEL/b1/SeparableConv2d/InstanceNorm/instancenorm/add_1"], "attr": {"T": {"type": "DT_FLOAT"}, "alpha": {"f": 0.2}}}, {"name": "generator/G_MODEL/b1/SeparableConv2d_1/InstanceNorm/instancenorm/Rsqrt", "op": "Rsqrt", "input": ["generator/G_MODEL/b1/SeparableConv2d_1/InstanceNorm/instancenorm/add"], "attr": {"T": {"type": "DT_FLOAT"}}}, {"name": "generator/G_MODEL/b1/SeparableConv2d_1/InstanceNorm/instancenorm/mul", "op": "Mul", "input": ["generator/G_MODEL/b1/SeparableConv2d_1/InstanceNorm/instancenorm/Rsqrt", "generator/G_MODEL/b1/SeparableConv2d_1/InstanceNorm/gamma"], "attr": {"T": {"type": "DT_FLOAT"}}}, {"name": "generator/G_MODEL/b1/SeparableConv2d_1/InstanceNorm/instancenorm/mul_2", "op": "Mul", "input": ["generator/G_MODEL/b1/SeparableConv2d_1/InstanceNorm/moments/mean", "generator/G_MODEL/b1/SeparableConv2d_1/InstanceNorm/instancenorm/mul"], "attr": {"T": {"type": "DT_FLOAT"}}}, {"name": "generator/G_MODEL/b1/SeparableConv2d_1/InstanceNorm/instancenorm/mul_1", "op": "Mul", "input": ["generator/G_MODEL/b1/SeparableConv2d_1/separable_conv2d", "generator/G_MODEL/b1/SeparableConv2d_1/InstanceNorm/instancenorm/mul"], "attr": {"T": {"type": "DT_FLOAT"}}}, {"name": "generator/G_MODEL/b1/SeparableConv2d_1/InstanceNorm/instancenorm/sub", "op": "Sub", "input": ["generator/G_MODEL/b1/SeparableConv2d_1/InstanceNorm/beta", "generator/G_MODEL/b1/SeparableConv2d_1/InstanceNorm/instancenorm/mul_2"], "attr": {"T": {"type": "DT_FLOAT"}}}, {"name": "generator/G_MODEL/b1/SeparableConv2d_1/InstanceNorm/instancenorm/add_1", "op": "AddV2", "input": ["generator/G_MODEL/b1/SeparableConv2d_1/InstanceNorm/instancenorm/mul_1", "generator/G_MODEL/b1/SeparableConv2d_1/InstanceNorm/instancenorm/sub"], "attr": {"T": {"type": "DT_FLOAT"}}}, {"name": "generator/G_MODEL/b1/SeparableConv2d_1/LeakyRelu", "op": "LeakyRelu", "input": ["generator/G_MODEL/b1/SeparableConv2d_1/InstanceNorm/instancenorm/add_1"], "attr": {"alpha": {"f": 0.2}, "T": {"type": "DT_FLOAT"}}}, {"name": "generator/G_MODEL/b1/add", "op": "AddV2", "input": ["generator/G_MODEL/b1/SeparableConv2d/LeakyRelu", "generator/G_MODEL/b1/SeparableConv2d_1/LeakyRelu"], "attr": {"T": {"type": "DT_FLOAT"}}}, {"name": "generator/G_MODEL/b2/MirrorPad", "op": "MirrorPad", "input": ["generator/G_MODEL/b1/add", "generator/G_MODEL/b2/MirrorPad/paddings"], "attr": {"Tpaddings": {"type": "DT_INT32"}, "T": {"type": "DT_FLOAT"}, "mode": {"s": "UkVGTEVDVA=="}}}, {"name": "generator/G_MODEL/b2/Conv/Conv2D", "op": "Conv2D", "input": ["generator/G_MODEL/b2/MirrorPad", "generator/G_MODEL/b2/Conv/weights"], "device": "/device:CPU:0", "attr": {"use_cudnn_on_gpu": {"b": true}, "T": {"type": "DT_FLOAT"}, "data_format": {"s": "TkhXQw=="}, "explicit_paddings": {"list": {}}, "dilations": {"list": {"i": ["1", "1", "1", "1"]}}, "padding": {"s": "VkFMSUQ="}, "strides": {"list": {"i": ["1", "1", "1", "1"]}}}}, {"name": "generator/G_MODEL/b2/InstanceNorm/moments/mean", "op": "Mean", "input": ["generator/G_MODEL/b2/Conv/Conv2D", "generator/G_MODEL/b2/InstanceNorm/moments/mean/reduction_indices"], "attr": {"T": {"type": "DT_FLOAT"}, "Tidx": {"type": "DT_INT32"}, "keep_dims": {"b": true}}}, {"name": "generator/G_MODEL/b2/InstanceNorm/moments/SquaredDifference", "op": "SquaredDifference", "input": ["generator/G_MODEL/b2/Conv/Conv2D", "generator/G_MODEL/b2/InstanceNorm/moments/mean"], "attr": {"T": {"type": "DT_FLOAT"}}}, {"name": "generator/G_MODEL/b2/InstanceNorm/moments/variance", "op": "Mean", "input": ["generator/G_MODEL/b2/InstanceNorm/moments/SquaredDifference", "generator/G_MODEL/b2/InstanceNorm/moments/variance/reduction_indices"], "attr": {"T": {"type": "DT_FLOAT"}, "Tidx": {"type": "DT_INT32"}, "keep_dims": {"b": true}}}, {"name": "generator/G_MODEL/b2/InstanceNorm/instancenorm/add", "op": "AddV2", "input": ["generator/G_MODEL/b2/InstanceNorm/moments/variance", "generator/G_MODEL/b2/InstanceNorm/instancenorm/add/y"], "attr": {"T": {"type": "DT_FLOAT"}}}, {"name": "generator/G_MODEL/b2/InstanceNorm/instancenorm/Rsqrt", "op": "Rsqrt", "input": ["generator/G_MODEL/b2/InstanceNorm/instancenorm/add"], "attr": {"T": {"type": "DT_FLOAT"}}}, {"name": "generator/G_MODEL/b2/InstanceNorm/instancenorm/mul", "op": "Mul", "input": ["generator/G_MODEL/b2/InstanceNorm/instancenorm/Rsqrt", "generator/G_MODEL/b2/InstanceNorm/gamma"], "attr": {"T": {"type": "DT_FLOAT"}}}, {"name": "generator/G_MODEL/b2/InstanceNorm/instancenorm/mul_2", "op": "Mul", "input": ["generator/G_MODEL/b2/InstanceNorm/moments/mean", "generator/G_MODEL/b2/InstanceNorm/instancenorm/mul"], "attr": {"T": {"type": "DT_FLOAT"}}}, {"name": "generator/G_MODEL/b2/InstanceNorm/instancenorm/mul_1", "op": "Mul", "input": ["generator/G_MODEL/b2/Conv/Conv2D", "generator/G_MODEL/b2/InstanceNorm/instancenorm/mul"], "attr": {"T": {"type": "DT_FLOAT"}}}, {"name": "generator/G_MODEL/b2/InstanceNorm/instancenorm/sub", "op": "Sub", "input": ["generator/G_MODEL/b2/InstanceNorm/beta", "generator/G_MODEL/b2/InstanceNorm/instancenorm/mul_2"], "attr": {"T": {"type": "DT_FLOAT"}}}, {"name": "generator/G_MODEL/b2/InstanceNorm/instancenorm/add_1", "op": "AddV2", "input": ["generator/G_MODEL/b2/InstanceNorm/instancenorm/mul_1", "generator/G_MODEL/b2/InstanceNorm/instancenorm/sub"], "attr": {"T": {"type": "DT_FLOAT"}}}, {"name": "generator/G_MODEL/b2/LeakyRelu", "op": "LeakyRelu", "input": ["generator/G_MODEL/b2/InstanceNorm/instancenorm/add_1"], "attr": {"T": {"type": "DT_FLOAT"}, "alpha": {"f": 0.2}}}, {"name": "generator/G_MODEL/b2/MirrorPad_1", "op": "MirrorPad", "input": ["generator/G_MODEL/b2/LeakyRelu", "generator/G_MODEL/b2/MirrorPad_1/paddings"], "attr": {"mode": {"s": "UkVGTEVDVA=="}, "Tpaddings": {"type": "DT_INT32"}, "T": {"type": "DT_FLOAT"}}}, {"name": "generator/G_MODEL/b2/SeparableConv2d/separable_conv2d/depthwise", "op": "DepthwiseConv2dNative", "input": ["generator/G_MODEL/b2/MirrorPad_1", "generator/G_MODEL/b2/SeparableConv2d/depthwise_weights"], "attr": {"data_format": {"s": "TkhXQw=="}, "dilations": {"list": {"i": ["1", "1", "1", "1"]}}, "T": {"type": "DT_FLOAT"}, "explicit_paddings": {"list": {}}, "padding": {"s": "VkFMSUQ="}, "strides": {"list": {"i": ["1", "1", "1", "1"]}}}}, {"name": "generator/G_MODEL/b2/SeparableConv2d/separable_conv2d", "op": "Conv2D", "input": ["generator/G_MODEL/b2/SeparableConv2d/separable_conv2d/depthwise", "generator/G_MODEL/b2/SeparableConv2d/pointwise_weights"], "device": "/device:CPU:0", "attr": {"padding": {"s": "VkFMSUQ="}, "strides": {"list": {"i": ["1", "1", "1", "1"]}}, "dilations": {"list": {"i": ["1", "1", "1", "1"]}}, "use_cudnn_on_gpu": {"b": true}, "T": {"type": "DT_FLOAT"}, "data_format": {"s": "TkhXQw=="}, "explicit_paddings": {"list": {}}}}, {"name": "generator/G_MODEL/b2/SeparableConv2d/InstanceNorm/moments/mean", "op": "Mean", "input": ["generator/G_MODEL/b2/SeparableConv2d/separable_conv2d", "generator/G_MODEL/b2/SeparableConv2d/InstanceNorm/moments/mean/reduction_indices"], "attr": {"Tidx": {"type": "DT_INT32"}, "T": {"type": "DT_FLOAT"}, "keep_dims": {"b": true}}}, {"name": "generator/G_MODEL/b2/SeparableConv2d/InstanceNorm/moments/SquaredDifference", "op": "SquaredDifference", "input": ["generator/G_MODEL/b2/SeparableConv2d/separable_conv2d", "generator/G_MODEL/b2/SeparableConv2d/InstanceNorm/moments/mean"], "attr": {"T": {"type": "DT_FLOAT"}}}, {"name": "generator/G_MODEL/b2/SeparableConv2d/InstanceNorm/moments/variance", "op": "Mean", "input": ["generator/G_MODEL/b2/SeparableConv2d/InstanceNorm/moments/SquaredDifference", "generator/G_MODEL/b2/SeparableConv2d/InstanceNorm/moments/variance/reduction_indices"], "attr": {"Tidx": {"type": "DT_INT32"}, "keep_dims": {"b": true}, "T": {"type": "DT_FLOAT"}}}, {"name": "generator/G_MODEL/b2/SeparableConv2d/InstanceNorm/instancenorm/add", "op": "AddV2", "input": ["generator/G_MODEL/b2/SeparableConv2d/InstanceNorm/moments/variance", "generator/G_MODEL/b2/SeparableConv2d/InstanceNorm/instancenorm/add/y"], "attr": {"T": {"type": "DT_FLOAT"}}}, {"name": "generator/G_MODEL/b2/SeparableConv2d/InstanceNorm/instancenorm/Rsqrt", "op": "Rsqrt", "input": ["generator/G_MODEL/b2/SeparableConv2d/InstanceNorm/instancenorm/add"], "attr": {"T": {"type": "DT_FLOAT"}}}, {"name": "generator/G_MODEL/b2/SeparableConv2d/InstanceNorm/instancenorm/mul", "op": "Mul", "input": ["generator/G_MODEL/b2/SeparableConv2d/InstanceNorm/instancenorm/Rsqrt", "generator/G_MODEL/b2/SeparableConv2d/InstanceNorm/gamma"], "attr": {"T": {"type": "DT_FLOAT"}}}, {"name": "generator/G_MODEL/b2/SeparableConv2d/InstanceNorm/instancenorm/mul_2", "op": "Mul", "input": ["generator/G_MODEL/b2/SeparableConv2d/InstanceNorm/moments/mean", "generator/G_MODEL/b2/SeparableConv2d/InstanceNorm/instancenorm/mul"], "attr": {"T": {"type": "DT_FLOAT"}}}, {"name": "generator/G_MODEL/b2/SeparableConv2d/InstanceNorm/instancenorm/mul_1", "op": "Mul", "input": ["generator/G_MODEL/b2/SeparableConv2d/separable_conv2d", "generator/G_MODEL/b2/SeparableConv2d/InstanceNorm/instancenorm/mul"], "attr": {"T": {"type": "DT_FLOAT"}}}, {"name": "generator/G_MODEL/b2/SeparableConv2d/InstanceNorm/instancenorm/sub", "op": "Sub", "input": ["generator/G_MODEL/b2/SeparableConv2d/InstanceNorm/beta", "generator/G_MODEL/b2/SeparableConv2d/InstanceNorm/instancenorm/mul_2"], "attr": {"T": {"type": "DT_FLOAT"}}}, {"name": "generator/G_MODEL/b2/SeparableConv2d/InstanceNorm/instancenorm/add_1", "op": "AddV2", "input": ["generator/G_MODEL/b2/SeparableConv2d/InstanceNorm/instancenorm/mul_1", "generator/G_MODEL/b2/SeparableConv2d/InstanceNorm/instancenorm/sub"], "attr": {"T": {"type": "DT_FLOAT"}}}, {"name": "generator/G_MODEL/b2/SeparableConv2d/LeakyRelu", "op": "LeakyRelu", "input": ["generator/G_MODEL/b2/SeparableConv2d/InstanceNorm/instancenorm/add_1"], "attr": {"alpha": {"f": 0.2}, "T": {"type": "DT_FLOAT"}}}, {"name": "generator/G_MODEL/b2/MirrorPad_2", "op": "MirrorPad", "input": ["generator/G_MODEL/b2/SeparableConv2d/LeakyRelu", "generator/G_MODEL/b2/MirrorPad_2/paddings"], "attr": {"T": {"type": "DT_FLOAT"}, "Tpaddings": {"type": "DT_INT32"}, "mode": {"s": "UkVGTEVDVA=="}}}, {"name": "generator/G_MODEL/b2/Shape", "op": "Shape", "input": ["generator/G_MODEL/b2/SeparableConv2d/LeakyRelu"], "attr": {"T": {"type": "DT_FLOAT"}, "out_type": {"type": "DT_INT32"}}}, {"name": "generator/G_MODEL/b2/Shape_1", "op": "Shape", "input": ["generator/G_MODEL/b2/SeparableConv2d/LeakyRelu"], "attr": {"out_type": {"type": "DT_INT32"}, "T": {"type": "DT_FLOAT"}}}, {"name": "generator/G_MODEL/b2/SeparableConv2d_1/separable_conv2d/depthwise", "op": "DepthwiseConv2dNative", "input": ["generator/G_MODEL/b2/MirrorPad_2", "generator/G_MODEL/b2/SeparableConv2d_1/depthwise_weights"], "attr": {"explicit_paddings": {"list": {}}, "T": {"type": "DT_FLOAT"}, "padding": {"s": "VkFMSUQ="}, "dilations": {"list": {"i": ["1", "1", "1", "1"]}}, "data_format": {"s": "TkhXQw=="}, "strides": {"list": {"i": ["1", "2", "2", "1"]}}}}, {"name": "generator/G_MODEL/b2/strided_slice", "op": "StridedSlice", "input": ["generator/G_MODEL/b2/Shape", "generator/G_MODEL/b2/strided_slice/stack", "generator/G_MODEL/b2/strided_slice/stack_1", "generator/G_MODEL/b2/strided_slice/stack_2"], "attr": {"shrink_axis_mask": {"i": "1"}, "Index": {"type": "DT_INT32"}, "new_axis_mask": {"i": "0"}, "begin_mask": {"i": "0"}, "T": {"type": "DT_INT32"}, "end_mask": {"i": "0"}, "ellipsis_mask": {"i": "0"}}}, {"name": "generator/G_MODEL/b2/strided_slice_1", "op": "StridedSlice", "input": ["generator/G_MODEL/b2/Shape_1", "generator/G_MODEL/b2/strided_slice_1/stack", "generator/G_MODEL/b2/strided_slice_1/stack_1", "generator/G_MODEL/b2/strided_slice_1/stack_2"], "attr": {"ellipsis_mask": {"i": "0"}, "end_mask": {"i": "0"}, "begin_mask": {"i": "0"}, "Index": {"type": "DT_INT32"}, "T": {"type": "DT_INT32"}, "shrink_axis_mask": {"i": "1"}, "new_axis_mask": {"i": "0"}}}, {"name": "generator/G_MODEL/b2/SeparableConv2d_1/separable_conv2d", "op": "Conv2D", "input": ["generator/G_MODEL/b2/SeparableConv2d_1/separable_conv2d/depthwise", "generator/G_MODEL/b2/SeparableConv2d_1/pointwise_weights"], "device": "/device:CPU:0", "attr": {"use_cudnn_on_gpu": {"b": true}, "dilations": {"list": {"i": ["1", "1", "1", "1"]}}, "padding": {"s": "VkFMSUQ="}, "strides": {"list": {"i": ["1", "1", "1", "1"]}}, "explicit_paddings": {"list": {}}, "data_format": {"s": "TkhXQw=="}, "T": {"type": "DT_FLOAT"}}}, {"name": "generator/G_MODEL/b2/floordiv", "op": "FloorDiv", "input": ["generator/G_MODEL/b2/strided_slice", "generator/G_MODEL/b2/floordiv/y"], "attr": {"T": {"type": "DT_INT32"}}}, {"name": "generator/G_MODEL/b2/floordiv_1", "op": "FloorDiv", "input": ["generator/G_MODEL/b2/strided_slice_1", "generator/G_MODEL/b2/floordiv_1/y"], "attr": {"T": {"type": "DT_INT32"}}}, {"name": "generator/G_MODEL/b2/SeparableConv2d_1/InstanceNorm/moments/mean", "op": "Mean", "input": ["generator/G_MODEL/b2/SeparableConv2d_1/separable_conv2d", "generator/G_MODEL/b2/SeparableConv2d_1/InstanceNorm/moments/mean/reduction_indices"], "attr": {"Tidx": {"type": "DT_INT32"}, "T": {"type": "DT_FLOAT"}, "keep_dims": {"b": true}}}, {"name": "generator/G_MODEL/b2/resize/size", "op": "Pack", "input": ["generator/G_MODEL/b2/floordiv", "generator/G_MODEL/b2/floordiv_1"], "attr": {"axis": {"i": "0"}, "T": {"type": "DT_INT32"}, "N": {"i": "2"}}}, {"name": "generator/G_MODEL/b2/SeparableConv2d_1/InstanceNorm/moments/SquaredDifference", "op": "SquaredDifference", "input": ["generator/G_MODEL/b2/SeparableConv2d_1/separable_conv2d", "generator/G_MODEL/b2/SeparableConv2d_1/InstanceNorm/moments/mean"], "attr": {"T": {"type": "DT_FLOAT"}}}, {"name": "generator/G_MODEL/b2/resize/ResizeBilinear", "op": "ResizeBilinear", "input": ["generator/G_MODEL/b2/SeparableConv2d/LeakyRelu", "generator/G_MODEL/b2/resize/size"], "attr": {"align_corners": {"b": false}, "T": {"type": "DT_FLOAT"}, "half_pixel_centers": {"b": false}}}, {"name": "generator/G_MODEL/b2/SeparableConv2d_1/InstanceNorm/moments/variance", "op": "Mean", "input": ["generator/G_MODEL/b2/SeparableConv2d_1/InstanceNorm/moments/SquaredDifference", "generator/G_MODEL/b2/SeparableConv2d_1/InstanceNorm/moments/variance/reduction_indices"], "attr": {"T": {"type": "DT_FLOAT"}, "Tidx": {"type": "DT_INT32"}, "keep_dims": {"b": true}}}, {"name": "generator/G_MODEL/b2/MirrorPad_3", "op": "MirrorPad", "input": ["generator/G_MODEL/b2/resize/ResizeBilinear", "generator/G_MODEL/b2/MirrorPad_3/paddings"], "attr": {"Tpaddings": {"type": "DT_INT32"}, "mode": {"s": "UkVGTEVDVA=="}, "T": {"type": "DT_FLOAT"}}}, {"name": "generator/G_MODEL/b2/SeparableConv2d_1/InstanceNorm/instancenorm/add", "op": "AddV2", "input": ["generator/G_MODEL/b2/SeparableConv2d_1/InstanceNorm/moments/variance", "generator/G_MODEL/b2/SeparableConv2d_1/InstanceNorm/instancenorm/add/y"], "attr": {"T": {"type": "DT_FLOAT"}}}, {"name": "generator/G_MODEL/b2/SeparableConv2d_2/separable_conv2d/depthwise", "op": "DepthwiseConv2dNative", "input": ["generator/G_MODEL/b2/MirrorPad_3", "generator/G_MODEL/b2/SeparableConv2d_2/depthwise_weights"], "attr": {"data_format": {"s": "TkhXQw=="}, "explicit_paddings": {"list": {}}, "padding": {"s": "VkFMSUQ="}, "dilations": {"list": {"i": ["1", "1", "1", "1"]}}, "strides": {"list": {"i": ["1", "1", "1", "1"]}}, "T": {"type": "DT_FLOAT"}}}, {"name": "generator/G_MODEL/b2/SeparableConv2d_1/InstanceNorm/instancenorm/Rsqrt", "op": "Rsqrt", "input": ["generator/G_MODEL/b2/SeparableConv2d_1/InstanceNorm/instancenorm/add"], "attr": {"T": {"type": "DT_FLOAT"}}}, {"name": "generator/G_MODEL/b2/SeparableConv2d_2/separable_conv2d", "op": "Conv2D", "input": ["generator/G_MODEL/b2/SeparableConv2d_2/separable_conv2d/depthwise", "generator/G_MODEL/b2/SeparableConv2d_2/pointwise_weights"], "device": "/device:CPU:0", "attr": {"use_cudnn_on_gpu": {"b": true}, "data_format": {"s": "TkhXQw=="}, "dilations": {"list": {"i": ["1", "1", "1", "1"]}}, "explicit_paddings": {"list": {}}, "T": {"type": "DT_FLOAT"}, "strides": {"list": {"i": ["1", "1", "1", "1"]}}, "padding": {"s": "VkFMSUQ="}}}, {"name": "generator/G_MODEL/b2/SeparableConv2d_1/InstanceNorm/instancenorm/mul", "op": "Mul", "input": ["generator/G_MODEL/b2/SeparableConv2d_1/InstanceNorm/instancenorm/Rsqrt", "generator/G_MODEL/b2/SeparableConv2d_1/InstanceNorm/gamma"], "attr": {"T": {"type": "DT_FLOAT"}}}, {"name": "generator/G_MODEL/b2/SeparableConv2d_2/InstanceNorm/moments/mean", "op": "Mean", "input": ["generator/G_MODEL/b2/SeparableConv2d_2/separable_conv2d", "generator/G_MODEL/b2/SeparableConv2d_2/InstanceNorm/moments/mean/reduction_indices"], "attr": {"keep_dims": {"b": true}, "Tidx": {"type": "DT_INT32"}, "T": {"type": "DT_FLOAT"}}}, {"name": "generator/G_MODEL/b2/SeparableConv2d_1/InstanceNorm/instancenorm/mul_2", "op": "Mul", "input": ["generator/G_MODEL/b2/SeparableConv2d_1/InstanceNorm/moments/mean", "generator/G_MODEL/b2/SeparableConv2d_1/InstanceNorm/instancenorm/mul"], "attr": {"T": {"type": "DT_FLOAT"}}}, {"name": "generator/G_MODEL/b2/SeparableConv2d_1/InstanceNorm/instancenorm/mul_1", "op": "Mul", "input": ["generator/G_MODEL/b2/SeparableConv2d_1/separable_conv2d", "generator/G_MODEL/b2/SeparableConv2d_1/InstanceNorm/instancenorm/mul"], "attr": {"T": {"type": "DT_FLOAT"}}}, {"name": "generator/G_MODEL/b2/SeparableConv2d_2/InstanceNorm/moments/SquaredDifference", "op": "SquaredDifference", "input": ["generator/G_MODEL/b2/SeparableConv2d_2/separable_conv2d", "generator/G_MODEL/b2/SeparableConv2d_2/InstanceNorm/moments/mean"], "attr": {"T": {"type": "DT_FLOAT"}}}, {"name": "generator/G_MODEL/b2/SeparableConv2d_1/InstanceNorm/instancenorm/sub", "op": "Sub", "input": ["generator/G_MODEL/b2/SeparableConv2d_1/InstanceNorm/beta", "generator/G_MODEL/b2/SeparableConv2d_1/InstanceNorm/instancenorm/mul_2"], "attr": {"T": {"type": "DT_FLOAT"}}}, {"name": "generator/G_MODEL/b2/SeparableConv2d_2/InstanceNorm/moments/variance", "op": "Mean", "input": ["generator/G_MODEL/b2/SeparableConv2d_2/InstanceNorm/moments/SquaredDifference", "generator/G_MODEL/b2/SeparableConv2d_2/InstanceNorm/moments/variance/reduction_indices"], "attr": {"keep_dims": {"b": true}, "Tidx": {"type": "DT_INT32"}, "T": {"type": "DT_FLOAT"}}}, {"name": "generator/G_MODEL/b2/SeparableConv2d_1/InstanceNorm/instancenorm/add_1", "op": "AddV2", "input": ["generator/G_MODEL/b2/SeparableConv2d_1/InstanceNorm/instancenorm/mul_1", "generator/G_MODEL/b2/SeparableConv2d_1/InstanceNorm/instancenorm/sub"], "attr": {"T": {"type": "DT_FLOAT"}}}, {"name": "generator/G_MODEL/b2/SeparableConv2d_2/InstanceNorm/instancenorm/add", "op": "AddV2", "input": ["generator/G_MODEL/b2/SeparableConv2d_2/InstanceNorm/moments/variance", "generator/G_MODEL/b2/SeparableConv2d_2/InstanceNorm/instancenorm/add/y"], "attr": {"T": {"type": "DT_FLOAT"}}}, {"name": "generator/G_MODEL/b2/SeparableConv2d_1/LeakyRelu", "op": "LeakyRelu", "input": ["generator/G_MODEL/b2/SeparableConv2d_1/InstanceNorm/instancenorm/add_1"], "attr": {"T": {"type": "DT_FLOAT"}, "alpha": {"f": 0.2}}}, {"name": "generator/G_MODEL/b2/SeparableConv2d_2/InstanceNorm/instancenorm/Rsqrt", "op": "Rsqrt", "input": ["generator/G_MODEL/b2/SeparableConv2d_2/InstanceNorm/instancenorm/add"], "attr": {"T": {"type": "DT_FLOAT"}}}, {"name": "generator/G_MODEL/b2/SeparableConv2d_2/InstanceNorm/instancenorm/mul", "op": "Mul", "input": ["generator/G_MODEL/b2/SeparableConv2d_2/InstanceNorm/instancenorm/Rsqrt", "generator/G_MODEL/b2/SeparableConv2d_2/InstanceNorm/gamma"], "attr": {"T": {"type": "DT_FLOAT"}}}, {"name": "generator/G_MODEL/b2/SeparableConv2d_2/InstanceNorm/instancenorm/mul_2", "op": "Mul", "input": ["generator/G_MODEL/b2/SeparableConv2d_2/InstanceNorm/moments/mean", "generator/G_MODEL/b2/SeparableConv2d_2/InstanceNorm/instancenorm/mul"], "attr": {"T": {"type": "DT_FLOAT"}}}, {"name": "generator/G_MODEL/b2/SeparableConv2d_2/InstanceNorm/instancenorm/mul_1", "op": "Mul", "input": ["generator/G_MODEL/b2/SeparableConv2d_2/separable_conv2d", "generator/G_MODEL/b2/SeparableConv2d_2/InstanceNorm/instancenorm/mul"], "attr": {"T": {"type": "DT_FLOAT"}}}, {"name": "generator/G_MODEL/b2/SeparableConv2d_2/InstanceNorm/instancenorm/sub", "op": "Sub", "input": ["generator/G_MODEL/b2/SeparableConv2d_2/InstanceNorm/beta", "generator/G_MODEL/b2/SeparableConv2d_2/InstanceNorm/instancenorm/mul_2"], "attr": {"T": {"type": "DT_FLOAT"}}}, {"name": "generator/G_MODEL/b2/SeparableConv2d_2/InstanceNorm/instancenorm/add_1", "op": "AddV2", "input": ["generator/G_MODEL/b2/SeparableConv2d_2/InstanceNorm/instancenorm/mul_1", "generator/G_MODEL/b2/SeparableConv2d_2/InstanceNorm/instancenorm/sub"], "attr": {"T": {"type": "DT_FLOAT"}}}, {"name": "generator/G_MODEL/b2/SeparableConv2d_2/LeakyRelu", "op": "LeakyRelu", "input": ["generator/G_MODEL/b2/SeparableConv2d_2/InstanceNorm/instancenorm/add_1"], "attr": {"alpha": {"f": 0.2}, "T": {"type": "DT_FLOAT"}}}, {"name": "generator/G_MODEL/b2/add", "op": "AddV2", "input": ["generator/G_MODEL/b2/SeparableConv2d_1/LeakyRelu", "generator/G_MODEL/b2/SeparableConv2d_2/LeakyRelu"], "attr": {"T": {"type": "DT_FLOAT"}}}, {"name": "generator/G_MODEL/m/MirrorPad", "op": "MirrorPad", "input": ["generator/G_MODEL/b2/add", "generator/G_MODEL/m/MirrorPad/paddings"], "attr": {"Tpaddings": {"type": "DT_INT32"}, "mode": {"s": "UkVGTEVDVA=="}, "T": {"type": "DT_FLOAT"}}}, {"name": "generator/G_MODEL/m/Conv/Conv2D", "op": "Conv2D", "input": ["generator/G_MODEL/m/MirrorPad", "generator/G_MODEL/m/Conv/weights"], "device": "/device:CPU:0", "attr": {"padding": {"s": "VkFMSUQ="}, "data_format": {"s": "TkhXQw=="}, "T": {"type": "DT_FLOAT"}, "dilations": {"list": {"i": ["1", "1", "1", "1"]}}, "strides": {"list": {"i": ["1", "1", "1", "1"]}}, "use_cudnn_on_gpu": {"b": true}, "explicit_paddings": {"list": {}}}}, {"name": "generator/G_MODEL/m/InstanceNorm/moments/mean", "op": "Mean", "input": ["generator/G_MODEL/m/Conv/Conv2D", "generator/G_MODEL/m/InstanceNorm/moments/mean/reduction_indices"], "attr": {"Tidx": {"type": "DT_INT32"}, "T": {"type": "DT_FLOAT"}, "keep_dims": {"b": true}}}, {"name": "generator/G_MODEL/m/InstanceNorm/moments/SquaredDifference", "op": "SquaredDifference", "input": ["generator/G_MODEL/m/Conv/Conv2D", "generator/G_MODEL/m/InstanceNorm/moments/mean"], "attr": {"T": {"type": "DT_FLOAT"}}}, {"name": "generator/G_MODEL/m/InstanceNorm/moments/variance", "op": "Mean", "input": ["generator/G_MODEL/m/InstanceNorm/moments/SquaredDifference", "generator/G_MODEL/m/InstanceNorm/moments/variance/reduction_indices"], "attr": {"keep_dims": {"b": true}, "Tidx": {"type": "DT_INT32"}, "T": {"type": "DT_FLOAT"}}}, {"name": "generator/G_MODEL/m/InstanceNorm/instancenorm/add", "op": "AddV2", "input": ["generator/G_MODEL/m/InstanceNorm/moments/variance", "generator/G_MODEL/m/InstanceNorm/instancenorm/add/y"], "attr": {"T": {"type": "DT_FLOAT"}}}, {"name": "generator/G_MODEL/m/InstanceNorm/instancenorm/Rsqrt", "op": "Rsqrt", "input": ["generator/G_MODEL/m/InstanceNorm/instancenorm/add"], "attr": {"T": {"type": "DT_FLOAT"}}}, {"name": "generator/G_MODEL/m/InstanceNorm/instancenorm/mul", "op": "Mul", "input": ["generator/G_MODEL/m/InstanceNorm/instancenorm/Rsqrt", "generator/G_MODEL/m/InstanceNorm/gamma"], "attr": {"T": {"type": "DT_FLOAT"}}}, {"name": "generator/G_MODEL/m/InstanceNorm/instancenorm/mul_2", "op": "Mul", "input": ["generator/G_MODEL/m/InstanceNorm/moments/mean", "generator/G_MODEL/m/InstanceNorm/instancenorm/mul"], "attr": {"T": {"type": "DT_FLOAT"}}}, {"name": "generator/G_MODEL/m/InstanceNorm/instancenorm/mul_1", "op": "Mul", "input": ["generator/G_MODEL/m/Conv/Conv2D", "generator/G_MODEL/m/InstanceNorm/instancenorm/mul"], "attr": {"T": {"type": "DT_FLOAT"}}}, {"name": "generator/G_MODEL/m/InstanceNorm/instancenorm/sub", "op": "Sub", "input": ["generator/G_MODEL/m/InstanceNorm/beta", "generator/G_MODEL/m/InstanceNorm/instancenorm/mul_2"], "attr": {"T": {"type": "DT_FLOAT"}}}, {"name": "generator/G_MODEL/m/InstanceNorm/instancenorm/add_1", "op": "AddV2", "input": ["generator/G_MODEL/m/InstanceNorm/instancenorm/mul_1", "generator/G_MODEL/m/InstanceNorm/instancenorm/sub"], "attr": {"T": {"type": "DT_FLOAT"}}}, {"name": "generator/G_MODEL/m/LeakyRelu", "op": "LeakyRelu", "input": ["generator/G_MODEL/m/InstanceNorm/instancenorm/add_1"], "attr": {"alpha": {"f": 0.2}, "T": {"type": "DT_FLOAT"}}}, {"name": "generator/G_MODEL/m/r1/Conv/Conv2D", "op": "Conv2D", "input": ["generator/G_MODEL/m/LeakyRelu", "generator/G_MODEL/m/r1/Conv/weights"], "device": "/device:CPU:0", "attr": {"use_cudnn_on_gpu": {"b": true}, "dilations": {"list": {"i": ["1", "1", "1", "1"]}}, "strides": {"list": {"i": ["1", "1", "1", "1"]}}, "T": {"type": "DT_FLOAT"}, "explicit_paddings": {"list": {}}, "data_format": {"s": "TkhXQw=="}, "padding": {"s": "VkFMSUQ="}}}, {"name": "generator/G_MODEL/m/r1/InstanceNorm/moments/mean", "op": "Mean", "input": ["generator/G_MODEL/m/r1/Conv/Conv2D", "generator/G_MODEL/m/r1/InstanceNorm/moments/mean/reduction_indices"], "attr": {"T": {"type": "DT_FLOAT"}, "keep_dims": {"b": true}, "Tidx": {"type": "DT_INT32"}}}, {"name": "generator/G_MODEL/m/r1/InstanceNorm/moments/SquaredDifference", "op": "SquaredDifference", "input": ["generator/G_MODEL/m/r1/Conv/Conv2D", "generator/G_MODEL/m/r1/InstanceNorm/moments/mean"], "attr": {"T": {"type": "DT_FLOAT"}}}, {"name": "generator/G_MODEL/m/r1/InstanceNorm/moments/variance", "op": "Mean", "input": ["generator/G_MODEL/m/r1/InstanceNorm/moments/SquaredDifference", "generator/G_MODEL/m/r1/InstanceNorm/moments/variance/reduction_indices"], "attr": {"keep_dims": {"b": true}, "T": {"type": "DT_FLOAT"}, "Tidx": {"type": "DT_INT32"}}}, {"name": "generator/G_MODEL/m/r1/InstanceNorm/instancenorm/add", "op": "AddV2", "input": ["generator/G_MODEL/m/r1/InstanceNorm/moments/variance", "generator/G_MODEL/m/r1/InstanceNorm/instancenorm/add/y"], "attr": {"T": {"type": "DT_FLOAT"}}}, {"name": "generator/G_MODEL/m/r1/InstanceNorm/instancenorm/Rsqrt", "op": "Rsqrt", "input": ["generator/G_MODEL/m/r1/InstanceNorm/instancenorm/add"], "attr": {"T": {"type": "DT_FLOAT"}}}, {"name": "generator/G_MODEL/m/r1/InstanceNorm/instancenorm/mul", "op": "Mul", "input": ["generator/G_MODEL/m/r1/InstanceNorm/instancenorm/Rsqrt", "generator/G_MODEL/m/r1/InstanceNorm/gamma"], "attr": {"T": {"type": "DT_FLOAT"}}}, {"name": "generator/G_MODEL/m/r1/InstanceNorm/instancenorm/mul_2", "op": "Mul", "input": ["generator/G_MODEL/m/r1/InstanceNorm/moments/mean", "generator/G_MODEL/m/r1/InstanceNorm/instancenorm/mul"], "attr": {"T": {"type": "DT_FLOAT"}}}, {"name": "generator/G_MODEL/m/r1/InstanceNorm/instancenorm/mul_1", "op": "Mul", "input": ["generator/G_MODEL/m/r1/Conv/Conv2D", "generator/G_MODEL/m/r1/InstanceNorm/instancenorm/mul"], "attr": {"T": {"type": "DT_FLOAT"}}}, {"name": "generator/G_MODEL/m/r1/InstanceNorm/instancenorm/sub", "op": "Sub", "input": ["generator/G_MODEL/m/r1/InstanceNorm/beta", "generator/G_MODEL/m/r1/InstanceNorm/instancenorm/mul_2"], "attr": {"T": {"type": "DT_FLOAT"}}}, {"name": "generator/G_MODEL/m/r1/InstanceNorm/instancenorm/add_1", "op": "AddV2", "input": ["generator/G_MODEL/m/r1/InstanceNorm/instancenorm/mul_1", "generator/G_MODEL/m/r1/InstanceNorm/instancenorm/sub"], "attr": {"T": {"type": "DT_FLOAT"}}}, {"name": "generator/G_MODEL/m/r1/LeakyRelu", "op": "LeakyRelu", "input": ["generator/G_MODEL/m/r1/InstanceNorm/instancenorm/add_1"], "attr": {"alpha": {"f": 0.2}, "T": {"type": "DT_FLOAT"}}}, {"name": "generator/G_MODEL/m/r1/MirrorPad", "op": "MirrorPad", "input": ["generator/G_MODEL/m/r1/LeakyRelu", "generator/G_MODEL/m/r1/MirrorPad/paddings"], "attr": {"Tpaddings": {"type": "DT_INT32"}, "mode": {"s": "UkVGTEVDVA=="}, "T": {"type": "DT_FLOAT"}}}, {"name": "generator/G_MODEL/m/r1/r1/r1", "op": "DepthwiseConv2dNative", "input": ["generator/G_MODEL/m/r1/MirrorPad", "generator/G_MODEL/m/r1/r1/w"], "attr": {"data_format": {"s": "TkhXQw=="}, "padding": {"s": "VkFMSUQ="}, "strides": {"list": {"i": ["1", "1", "1", "1"]}}, "T": {"type": "DT_FLOAT"}, "dilations": {"list": {"i": ["1", "1", "1", "1"]}}, "explicit_paddings": {"list": {}}}}, {"name": "generator/G_MODEL/m/r1/1/moments/mean", "op": "Mean", "input": ["generator/G_MODEL/m/r1/r1/r1", "generator/G_MODEL/m/r1/1/moments/mean/reduction_indices"], "attr": {"T": {"type": "DT_FLOAT"}, "Tidx": {"type": "DT_INT32"}, "keep_dims": {"b": true}}}, {"name": "generator/G_MODEL/m/r1/1/moments/SquaredDifference", "op": "SquaredDifference", "input": ["generator/G_MODEL/m/r1/r1/r1", "generator/G_MODEL/m/r1/1/moments/mean"], "attr": {"T": {"type": "DT_FLOAT"}}}, {"name": "generator/G_MODEL/m/r1/1/moments/variance", "op": "Mean", "input": ["generator/G_MODEL/m/r1/1/moments/SquaredDifference", "generator/G_MODEL/m/r1/1/moments/variance/reduction_indices"], "attr": {"T": {"type": "DT_FLOAT"}, "keep_dims": {"b": true}, "Tidx": {"type": "DT_INT32"}}}, {"name": "generator/G_MODEL/m/r1/1/instancenorm/add", "op": "AddV2", "input": ["generator/G_MODEL/m/r1/1/moments/variance", "generator/G_MODEL/m/r1/1/instancenorm/add/y"], "attr": {"T": {"type": "DT_FLOAT"}}}, {"name": "generator/G_MODEL/m/r1/1/instancenorm/Rsqrt", "op": "Rsqrt", "input": ["generator/G_MODEL/m/r1/1/instancenorm/add"], "attr": {"T": {"type": "DT_FLOAT"}}}, {"name": "generator/G_MODEL/m/r1/1/instancenorm/mul", "op": "Mul", "input": ["generator/G_MODEL/m/r1/1/instancenorm/Rsqrt", "generator/G_MODEL/m/r1/1/gamma"], "attr": {"T": {"type": "DT_FLOAT"}}}, {"name": "generator/G_MODEL/m/r1/1/instancenorm/mul_2", "op": "Mul", "input": ["generator/G_MODEL/m/r1/1/moments/mean", "generator/G_MODEL/m/r1/1/instancenorm/mul"], "attr": {"T": {"type": "DT_FLOAT"}}}, {"name": "generator/G_MODEL/m/r1/1/instancenorm/mul_1", "op": "Mul", "input": ["generator/G_MODEL/m/r1/r1/r1", "generator/G_MODEL/m/r1/1/instancenorm/mul"], "attr": {"T": {"type": "DT_FLOAT"}}}, {"name": "generator/G_MODEL/m/r1/1/instancenorm/sub", "op": "Sub", "input": ["generator/G_MODEL/m/r1/1/beta", "generator/G_MODEL/m/r1/1/instancenorm/mul_2"], "attr": {"T": {"type": "DT_FLOAT"}}}, {"name": "generator/G_MODEL/m/r1/1/instancenorm/add_1", "op": "AddV2", "input": ["generator/G_MODEL/m/r1/1/instancenorm/mul_1", "generator/G_MODEL/m/r1/1/instancenorm/sub"], "attr": {"T": {"type": "DT_FLOAT"}}}, {"name": "generator/G_MODEL/m/r1/LeakyRelu_1", "op": "LeakyRelu", "input": ["generator/G_MODEL/m/r1/1/instancenorm/add_1"], "attr": {"alpha": {"f": 0.2}, "T": {"type": "DT_FLOAT"}}}, {"name": "generator/G_MODEL/m/r1/Conv_1/Conv2D", "op": "Conv2D", "input": ["generator/G_MODEL/m/r1/LeakyRelu_1", "generator/G_MODEL/m/r1/Conv_1/weights"], "device": "/device:CPU:0", "attr": {"padding": {"s": "VkFMSUQ="}, "strides": {"list": {"i": ["1", "1", "1", "1"]}}, "explicit_paddings": {"list": {}}, "use_cudnn_on_gpu": {"b": true}, "data_format": {"s": "TkhXQw=="}, "dilations": {"list": {"i": ["1", "1", "1", "1"]}}, "T": {"type": "DT_FLOAT"}}}, {"name": "generator/G_MODEL/m/r1/2/moments/mean", "op": "Mean", "input": ["generator/G_MODEL/m/r1/Conv_1/Conv2D", "generator/G_MODEL/m/r1/2/moments/mean/reduction_indices"], "attr": {"Tidx": {"type": "DT_INT32"}, "T": {"type": "DT_FLOAT"}, "keep_dims": {"b": true}}}, {"name": "generator/G_MODEL/m/r1/2/moments/SquaredDifference", "op": "SquaredDifference", "input": ["generator/G_MODEL/m/r1/Conv_1/Conv2D", "generator/G_MODEL/m/r1/2/moments/mean"], "attr": {"T": {"type": "DT_FLOAT"}}}, {"name": "generator/G_MODEL/m/r1/2/moments/variance", "op": "Mean", "input": ["generator/G_MODEL/m/r1/2/moments/SquaredDifference", "generator/G_MODEL/m/r1/2/moments/variance/reduction_indices"], "attr": {"keep_dims": {"b": true}, "T": {"type": "DT_FLOAT"}, "Tidx": {"type": "DT_INT32"}}}, {"name": "generator/G_MODEL/m/r1/2/instancenorm/add", "op": "AddV2", "input": ["generator/G_MODEL/m/r1/2/moments/variance", "generator/G_MODEL/m/r1/2/instancenorm/add/y"], "attr": {"T": {"type": "DT_FLOAT"}}}, {"name": "generator/G_MODEL/m/r1/2/instancenorm/Rsqrt", "op": "Rsqrt", "input": ["generator/G_MODEL/m/r1/2/instancenorm/add"], "attr": {"T": {"type": "DT_FLOAT"}}}, {"name": "generator/G_MODEL/m/r1/2/instancenorm/mul", "op": "Mul", "input": ["generator/G_MODEL/m/r1/2/instancenorm/Rsqrt", "generator/G_MODEL/m/r1/2/gamma"], "attr": {"T": {"type": "DT_FLOAT"}}}, {"name": "generator/G_MODEL/m/r1/2/instancenorm/mul_2", "op": "Mul", "input": ["generator/G_MODEL/m/r1/2/moments/mean", "generator/G_MODEL/m/r1/2/instancenorm/mul"], "attr": {"T": {"type": "DT_FLOAT"}}}, {"name": "generator/G_MODEL/m/r1/2/instancenorm/mul_1", "op": "Mul", "input": ["generator/G_MODEL/m/r1/Conv_1/Conv2D", "generator/G_MODEL/m/r1/2/instancenorm/mul"], "attr": {"T": {"type": "DT_FLOAT"}}}, {"name": "generator/G_MODEL/m/r1/2/instancenorm/sub", "op": "Sub", "input": ["generator/G_MODEL/m/r1/2/beta", "generator/G_MODEL/m/r1/2/instancenorm/mul_2"], "attr": {"T": {"type": "DT_FLOAT"}}}, {"name": "generator/G_MODEL/m/r1/2/instancenorm/add_1", "op": "AddV2", "input": ["generator/G_MODEL/m/r1/2/instancenorm/mul_1", "generator/G_MODEL/m/r1/2/instancenorm/sub"], "attr": {"T": {"type": "DT_FLOAT"}}}, {"name": "generator/G_MODEL/m/r1/add", "op": "AddV2", "input": ["generator/G_MODEL/m/LeakyRelu", "generator/G_MODEL/m/r1/2/instancenorm/add_1"], "attr": {"T": {"type": "DT_FLOAT"}}}, {"name": "generator/G_MODEL/m/r2/Conv/Conv2D", "op": "Conv2D", "input": ["generator/G_MODEL/m/r1/add", "generator/G_MODEL/m/r2/Conv/weights"], "device": "/device:CPU:0", "attr": {"strides": {"list": {"i": ["1", "1", "1", "1"]}}, "explicit_paddings": {"list": {}}, "data_format": {"s": "TkhXQw=="}, "T": {"type": "DT_FLOAT"}, "padding": {"s": "VkFMSUQ="}, "use_cudnn_on_gpu": {"b": true}, "dilations": {"list": {"i": ["1", "1", "1", "1"]}}}}, {"name": "generator/G_MODEL/m/r2/InstanceNorm/moments/mean", "op": "Mean", "input": ["generator/G_MODEL/m/r2/Conv/Conv2D", "generator/G_MODEL/m/r2/InstanceNorm/moments/mean/reduction_indices"], "attr": {"keep_dims": {"b": true}, "T": {"type": "DT_FLOAT"}, "Tidx": {"type": "DT_INT32"}}}, {"name": "generator/G_MODEL/m/r2/InstanceNorm/moments/SquaredDifference", "op": "SquaredDifference", "input": ["generator/G_MODEL/m/r2/Conv/Conv2D", "generator/G_MODEL/m/r2/InstanceNorm/moments/mean"], "attr": {"T": {"type": "DT_FLOAT"}}}, {"name": "generator/G_MODEL/m/r2/InstanceNorm/moments/variance", "op": "Mean", "input": ["generator/G_MODEL/m/r2/InstanceNorm/moments/SquaredDifference", "generator/G_MODEL/m/r2/InstanceNorm/moments/variance/reduction_indices"], "attr": {"Tidx": {"type": "DT_INT32"}, "keep_dims": {"b": true}, "T": {"type": "DT_FLOAT"}}}, {"name": "generator/G_MODEL/m/r2/InstanceNorm/instancenorm/add", "op": "AddV2", "input": ["generator/G_MODEL/m/r2/InstanceNorm/moments/variance", "generator/G_MODEL/m/r2/InstanceNorm/instancenorm/add/y"], "attr": {"T": {"type": "DT_FLOAT"}}}, {"name": "generator/G_MODEL/m/r2/InstanceNorm/instancenorm/Rsqrt", "op": "Rsqrt", "input": ["generator/G_MODEL/m/r2/InstanceNorm/instancenorm/add"], "attr": {"T": {"type": "DT_FLOAT"}}}, {"name": "generator/G_MODEL/m/r2/InstanceNorm/instancenorm/mul", "op": "Mul", "input": ["generator/G_MODEL/m/r2/InstanceNorm/instancenorm/Rsqrt", "generator/G_MODEL/m/r2/InstanceNorm/gamma"], "attr": {"T": {"type": "DT_FLOAT"}}}, {"name": "generator/G_MODEL/m/r2/InstanceNorm/instancenorm/mul_2", "op": "Mul", "input": ["generator/G_MODEL/m/r2/InstanceNorm/moments/mean", "generator/G_MODEL/m/r2/InstanceNorm/instancenorm/mul"], "attr": {"T": {"type": "DT_FLOAT"}}}, {"name": "generator/G_MODEL/m/r2/InstanceNorm/instancenorm/mul_1", "op": "Mul", "input": ["generator/G_MODEL/m/r2/Conv/Conv2D", "generator/G_MODEL/m/r2/InstanceNorm/instancenorm/mul"], "attr": {"T": {"type": "DT_FLOAT"}}}, {"name": "generator/G_MODEL/m/r2/InstanceNorm/instancenorm/sub", "op": "Sub", "input": ["generator/G_MODEL/m/r2/InstanceNorm/beta", "generator/G_MODEL/m/r2/InstanceNorm/instancenorm/mul_2"], "attr": {"T": {"type": "DT_FLOAT"}}}, {"name": "generator/G_MODEL/m/r2/InstanceNorm/instancenorm/add_1", "op": "AddV2", "input": ["generator/G_MODEL/m/r2/InstanceNorm/instancenorm/mul_1", "generator/G_MODEL/m/r2/InstanceNorm/instancenorm/sub"], "attr": {"T": {"type": "DT_FLOAT"}}}, {"name": "generator/G_MODEL/m/r2/LeakyRelu", "op": "LeakyRelu", "input": ["generator/G_MODEL/m/r2/InstanceNorm/instancenorm/add_1"], "attr": {"alpha": {"f": 0.2}, "T": {"type": "DT_FLOAT"}}}, {"name": "generator/G_MODEL/m/r2/MirrorPad", "op": "MirrorPad", "input": ["generator/G_MODEL/m/r2/LeakyRelu", "generator/G_MODEL/m/r2/MirrorPad/paddings"], "attr": {"T": {"type": "DT_FLOAT"}, "mode": {"s": "UkVGTEVDVA=="}, "Tpaddings": {"type": "DT_INT32"}}}, {"name": "generator/G_MODEL/m/r2/r2/r2", "op": "DepthwiseConv2dNative", "input": ["generator/G_MODEL/m/r2/MirrorPad", "generator/G_MODEL/m/r2/r2/w"], "attr": {"padding": {"s": "VkFMSUQ="}, "explicit_paddings": {"list": {}}, "dilations": {"list": {"i": ["1", "1", "1", "1"]}}, "T": {"type": "DT_FLOAT"}, "strides": {"list": {"i": ["1", "1", "1", "1"]}}, "data_format": {"s": "TkhXQw=="}}}, {"name": "generator/G_MODEL/m/r2/1/moments/mean", "op": "Mean", "input": ["generator/G_MODEL/m/r2/r2/r2", "generator/G_MODEL/m/r2/1/moments/mean/reduction_indices"], "attr": {"keep_dims": {"b": true}, "T": {"type": "DT_FLOAT"}, "Tidx": {"type": "DT_INT32"}}}, {"name": "generator/G_MODEL/m/r2/1/moments/SquaredDifference", "op": "SquaredDifference", "input": ["generator/G_MODEL/m/r2/r2/r2", "generator/G_MODEL/m/r2/1/moments/mean"], "attr": {"T": {"type": "DT_FLOAT"}}}, {"name": "generator/G_MODEL/m/r2/1/moments/variance", "op": "Mean", "input": ["generator/G_MODEL/m/r2/1/moments/SquaredDifference", "generator/G_MODEL/m/r2/1/moments/variance/reduction_indices"], "attr": {"T": {"type": "DT_FLOAT"}, "keep_dims": {"b": true}, "Tidx": {"type": "DT_INT32"}}}, {"name": "generator/G_MODEL/m/r2/1/instancenorm/add", "op": "AddV2", "input": ["generator/G_MODEL/m/r2/1/moments/variance", "generator/G_MODEL/m/r2/1/instancenorm/add/y"], "attr": {"T": {"type": "DT_FLOAT"}}}, {"name": "generator/G_MODEL/m/r2/1/instancenorm/Rsqrt", "op": "Rsqrt", "input": ["generator/G_MODEL/m/r2/1/instancenorm/add"], "attr": {"T": {"type": "DT_FLOAT"}}}, {"name": "generator/G_MODEL/m/r2/1/instancenorm/mul", "op": "Mul", "input": ["generator/G_MODEL/m/r2/1/instancenorm/Rsqrt", "generator/G_MODEL/m/r2/1/gamma"], "attr": {"T": {"type": "DT_FLOAT"}}}, {"name": "generator/G_MODEL/m/r2/1/instancenorm/mul_2", "op": "Mul", "input": ["generator/G_MODEL/m/r2/1/moments/mean", "generator/G_MODEL/m/r2/1/instancenorm/mul"], "attr": {"T": {"type": "DT_FLOAT"}}}, {"name": "generator/G_MODEL/m/r2/1/instancenorm/mul_1", "op": "Mul", "input": ["generator/G_MODEL/m/r2/r2/r2", "generator/G_MODEL/m/r2/1/instancenorm/mul"], "attr": {"T": {"type": "DT_FLOAT"}}}, {"name": "generator/G_MODEL/m/r2/1/instancenorm/sub", "op": "Sub", "input": ["generator/G_MODEL/m/r2/1/beta", "generator/G_MODEL/m/r2/1/instancenorm/mul_2"], "attr": {"T": {"type": "DT_FLOAT"}}}, {"name": "generator/G_MODEL/m/r2/1/instancenorm/add_1", "op": "AddV2", "input": ["generator/G_MODEL/m/r2/1/instancenorm/mul_1", "generator/G_MODEL/m/r2/1/instancenorm/sub"], "attr": {"T": {"type": "DT_FLOAT"}}}, {"name": "generator/G_MODEL/m/r2/LeakyRelu_1", "op": "LeakyRelu", "input": ["generator/G_MODEL/m/r2/1/instancenorm/add_1"], "attr": {"T": {"type": "DT_FLOAT"}, "alpha": {"f": 0.2}}}, {"name": "generator/G_MODEL/m/r2/Conv_1/Conv2D", "op": "Conv2D", "input": ["generator/G_MODEL/m/r2/LeakyRelu_1", "generator/G_MODEL/m/r2/Conv_1/weights"], "device": "/device:CPU:0", "attr": {"T": {"type": "DT_FLOAT"}, "padding": {"s": "VkFMSUQ="}, "dilations": {"list": {"i": ["1", "1", "1", "1"]}}, "use_cudnn_on_gpu": {"b": true}, "explicit_paddings": {"list": {}}, "strides": {"list": {"i": ["1", "1", "1", "1"]}}, "data_format": {"s": "TkhXQw=="}}}, {"name": "generator/G_MODEL/m/r2/2/moments/mean", "op": "Mean", "input": ["generator/G_MODEL/m/r2/Conv_1/Conv2D", "generator/G_MODEL/m/r2/2/moments/mean/reduction_indices"], "attr": {"T": {"type": "DT_FLOAT"}, "Tidx": {"type": "DT_INT32"}, "keep_dims": {"b": true}}}, {"name": "generator/G_MODEL/m/r2/2/moments/SquaredDifference", "op": "SquaredDifference", "input": ["generator/G_MODEL/m/r2/Conv_1/Conv2D", "generator/G_MODEL/m/r2/2/moments/mean"], "attr": {"T": {"type": "DT_FLOAT"}}}, {"name": "generator/G_MODEL/m/r2/2/moments/variance", "op": "Mean", "input": ["generator/G_MODEL/m/r2/2/moments/SquaredDifference", "generator/G_MODEL/m/r2/2/moments/variance/reduction_indices"], "attr": {"keep_dims": {"b": true}, "T": {"type": "DT_FLOAT"}, "Tidx": {"type": "DT_INT32"}}}, {"name": "generator/G_MODEL/m/r2/2/instancenorm/add", "op": "AddV2", "input": ["generator/G_MODEL/m/r2/2/moments/variance", "generator/G_MODEL/m/r2/2/instancenorm/add/y"], "attr": {"T": {"type": "DT_FLOAT"}}}, {"name": "generator/G_MODEL/m/r2/2/instancenorm/Rsqrt", "op": "Rsqrt", "input": ["generator/G_MODEL/m/r2/2/instancenorm/add"], "attr": {"T": {"type": "DT_FLOAT"}}}, {"name": "generator/G_MODEL/m/r2/2/instancenorm/mul", "op": "Mul", "input": ["generator/G_MODEL/m/r2/2/instancenorm/Rsqrt", "generator/G_MODEL/m/r2/2/gamma"], "attr": {"T": {"type": "DT_FLOAT"}}}, {"name": "generator/G_MODEL/m/r2/2/instancenorm/mul_2", "op": "Mul", "input": ["generator/G_MODEL/m/r2/2/moments/mean", "generator/G_MODEL/m/r2/2/instancenorm/mul"], "attr": {"T": {"type": "DT_FLOAT"}}}, {"name": "generator/G_MODEL/m/r2/2/instancenorm/mul_1", "op": "Mul", "input": ["generator/G_MODEL/m/r2/Conv_1/Conv2D", "generator/G_MODEL/m/r2/2/instancenorm/mul"], "attr": {"T": {"type": "DT_FLOAT"}}}, {"name": "generator/G_MODEL/m/r2/2/instancenorm/sub", "op": "Sub", "input": ["generator/G_MODEL/m/r2/2/beta", "generator/G_MODEL/m/r2/2/instancenorm/mul_2"], "attr": {"T": {"type": "DT_FLOAT"}}}, {"name": "generator/G_MODEL/m/r2/2/instancenorm/add_1", "op": "AddV2", "input": ["generator/G_MODEL/m/r2/2/instancenorm/mul_1", "generator/G_MODEL/m/r2/2/instancenorm/sub"], "attr": {"T": {"type": "DT_FLOAT"}}}, {"name": "generator/G_MODEL/m/r2/add", "op": "AddV2", "input": ["generator/G_MODEL/m/r1/add", "generator/G_MODEL/m/r2/2/instancenorm/add_1"], "attr": {"T": {"type": "DT_FLOAT"}}}, {"name": "generator/G_MODEL/m/r3/Conv/Conv2D", "op": "Conv2D", "input": ["generator/G_MODEL/m/r2/add", "generator/G_MODEL/m/r3/Conv/weights"], "device": "/device:CPU:0", "attr": {"data_format": {"s": "TkhXQw=="}, "dilations": {"list": {"i": ["1", "1", "1", "1"]}}, "padding": {"s": "VkFMSUQ="}, "T": {"type": "DT_FLOAT"}, "strides": {"list": {"i": ["1", "1", "1", "1"]}}, "explicit_paddings": {"list": {}}, "use_cudnn_on_gpu": {"b": true}}}, {"name": "generator/G_MODEL/m/r3/InstanceNorm/moments/mean", "op": "Mean", "input": ["generator/G_MODEL/m/r3/Conv/Conv2D", "generator/G_MODEL/m/r3/InstanceNorm/moments/mean/reduction_indices"], "attr": {"Tidx": {"type": "DT_INT32"}, "T": {"type": "DT_FLOAT"}, "keep_dims": {"b": true}}}, {"name": "generator/G_MODEL/m/r3/InstanceNorm/moments/SquaredDifference", "op": "SquaredDifference", "input": ["generator/G_MODEL/m/r3/Conv/Conv2D", "generator/G_MODEL/m/r3/InstanceNorm/moments/mean"], "attr": {"T": {"type": "DT_FLOAT"}}}, {"name": "generator/G_MODEL/m/r3/InstanceNorm/moments/variance", "op": "Mean", "input": ["generator/G_MODEL/m/r3/InstanceNorm/moments/SquaredDifference", "generator/G_MODEL/m/r3/InstanceNorm/moments/variance/reduction_indices"], "attr": {"T": {"type": "DT_FLOAT"}, "keep_dims": {"b": true}, "Tidx": {"type": "DT_INT32"}}}, {"name": "generator/G_MODEL/m/r3/InstanceNorm/instancenorm/add", "op": "AddV2", "input": ["generator/G_MODEL/m/r3/InstanceNorm/moments/variance", "generator/G_MODEL/m/r3/InstanceNorm/instancenorm/add/y"], "attr": {"T": {"type": "DT_FLOAT"}}}, {"name": "generator/G_MODEL/m/r3/InstanceNorm/instancenorm/Rsqrt", "op": "Rsqrt", "input": ["generator/G_MODEL/m/r3/InstanceNorm/instancenorm/add"], "attr": {"T": {"type": "DT_FLOAT"}}}, {"name": "generator/G_MODEL/m/r3/InstanceNorm/instancenorm/mul", "op": "Mul", "input": ["generator/G_MODEL/m/r3/InstanceNorm/instancenorm/Rsqrt", "generator/G_MODEL/m/r3/InstanceNorm/gamma"], "attr": {"T": {"type": "DT_FLOAT"}}}, {"name": "generator/G_MODEL/m/r3/InstanceNorm/instancenorm/mul_2", "op": "Mul", "input": ["generator/G_MODEL/m/r3/InstanceNorm/moments/mean", "generator/G_MODEL/m/r3/InstanceNorm/instancenorm/mul"], "attr": {"T": {"type": "DT_FLOAT"}}}, {"name": "generator/G_MODEL/m/r3/InstanceNorm/instancenorm/mul_1", "op": "Mul", "input": ["generator/G_MODEL/m/r3/Conv/Conv2D", "generator/G_MODEL/m/r3/InstanceNorm/instancenorm/mul"], "attr": {"T": {"type": "DT_FLOAT"}}}, {"name": "generator/G_MODEL/m/r3/InstanceNorm/instancenorm/sub", "op": "Sub", "input": ["generator/G_MODEL/m/r3/InstanceNorm/beta", "generator/G_MODEL/m/r3/InstanceNorm/instancenorm/mul_2"], "attr": {"T": {"type": "DT_FLOAT"}}}, {"name": "generator/G_MODEL/m/r3/InstanceNorm/instancenorm/add_1", "op": "AddV2", "input": ["generator/G_MODEL/m/r3/InstanceNorm/instancenorm/mul_1", "generator/G_MODEL/m/r3/InstanceNorm/instancenorm/sub"], "attr": {"T": {"type": "DT_FLOAT"}}}, {"name": "generator/G_MODEL/m/r3/LeakyRelu", "op": "LeakyRelu", "input": ["generator/G_MODEL/m/r3/InstanceNorm/instancenorm/add_1"], "attr": {"alpha": {"f": 0.2}, "T": {"type": "DT_FLOAT"}}}, {"name": "generator/G_MODEL/m/r3/MirrorPad", "op": "MirrorPad", "input": ["generator/G_MODEL/m/r3/LeakyRelu", "generator/G_MODEL/m/r3/MirrorPad/paddings"], "attr": {"mode": {"s": "UkVGTEVDVA=="}, "T": {"type": "DT_FLOAT"}, "Tpaddings": {"type": "DT_INT32"}}}, {"name": "generator/G_MODEL/m/r3/r3/r3", "op": "DepthwiseConv2dNative", "input": ["generator/G_MODEL/m/r3/MirrorPad", "generator/G_MODEL/m/r3/r3/w"], "attr": {"data_format": {"s": "TkhXQw=="}, "dilations": {"list": {"i": ["1", "1", "1", "1"]}}, "padding": {"s": "VkFMSUQ="}, "explicit_paddings": {"list": {}}, "strides": {"list": {"i": ["1", "1", "1", "1"]}}, "T": {"type": "DT_FLOAT"}}}, {"name": "generator/G_MODEL/m/r3/1/moments/mean", "op": "Mean", "input": ["generator/G_MODEL/m/r3/r3/r3", "generator/G_MODEL/m/r3/1/moments/mean/reduction_indices"], "attr": {"keep_dims": {"b": true}, "T": {"type": "DT_FLOAT"}, "Tidx": {"type": "DT_INT32"}}}, {"name": "generator/G_MODEL/m/r3/1/moments/SquaredDifference", "op": "SquaredDifference", "input": ["generator/G_MODEL/m/r3/r3/r3", "generator/G_MODEL/m/r3/1/moments/mean"], "attr": {"T": {"type": "DT_FLOAT"}}}, {"name": "generator/G_MODEL/m/r3/1/moments/variance", "op": "Mean", "input": ["generator/G_MODEL/m/r3/1/moments/SquaredDifference", "generator/G_MODEL/m/r3/1/moments/variance/reduction_indices"], "attr": {"Tidx": {"type": "DT_INT32"}, "keep_dims": {"b": true}, "T": {"type": "DT_FLOAT"}}}, {"name": "generator/G_MODEL/m/r3/1/instancenorm/add", "op": "AddV2", "input": ["generator/G_MODEL/m/r3/1/moments/variance", "generator/G_MODEL/m/r3/1/instancenorm/add/y"], "attr": {"T": {"type": "DT_FLOAT"}}}, {"name": "generator/G_MODEL/m/r3/1/instancenorm/Rsqrt", "op": "Rsqrt", "input": ["generator/G_MODEL/m/r3/1/instancenorm/add"], "attr": {"T": {"type": "DT_FLOAT"}}}, {"name": "generator/G_MODEL/m/r3/1/instancenorm/mul", "op": "Mul", "input": ["generator/G_MODEL/m/r3/1/instancenorm/Rsqrt", "generator/G_MODEL/m/r3/1/gamma"], "attr": {"T": {"type": "DT_FLOAT"}}}, {"name": "generator/G_MODEL/m/r3/1/instancenorm/mul_2", "op": "Mul", "input": ["generator/G_MODEL/m/r3/1/moments/mean", "generator/G_MODEL/m/r3/1/instancenorm/mul"], "attr": {"T": {"type": "DT_FLOAT"}}}, {"name": "generator/G_MODEL/m/r3/1/instancenorm/mul_1", "op": "Mul", "input": ["generator/G_MODEL/m/r3/r3/r3", "generator/G_MODEL/m/r3/1/instancenorm/mul"], "attr": {"T": {"type": "DT_FLOAT"}}}, {"name": "generator/G_MODEL/m/r3/1/instancenorm/sub", "op": "Sub", "input": ["generator/G_MODEL/m/r3/1/beta", "generator/G_MODEL/m/r3/1/instancenorm/mul_2"], "attr": {"T": {"type": "DT_FLOAT"}}}, {"name": "generator/G_MODEL/m/r3/1/instancenorm/add_1", "op": "AddV2", "input": ["generator/G_MODEL/m/r3/1/instancenorm/mul_1", "generator/G_MODEL/m/r3/1/instancenorm/sub"], "attr": {"T": {"type": "DT_FLOAT"}}}, {"name": "generator/G_MODEL/m/r3/LeakyRelu_1", "op": "LeakyRelu", "input": ["generator/G_MODEL/m/r3/1/instancenorm/add_1"], "attr": {"T": {"type": "DT_FLOAT"}, "alpha": {"f": 0.2}}}, {"name": "generator/G_MODEL/m/r3/Conv_1/Conv2D", "op": "Conv2D", "input": ["generator/G_MODEL/m/r3/LeakyRelu_1", "generator/G_MODEL/m/r3/Conv_1/weights"], "device": "/device:CPU:0", "attr": {"use_cudnn_on_gpu": {"b": true}, "dilations": {"list": {"i": ["1", "1", "1", "1"]}}, "strides": {"list": {"i": ["1", "1", "1", "1"]}}, "T": {"type": "DT_FLOAT"}, "data_format": {"s": "TkhXQw=="}, "padding": {"s": "VkFMSUQ="}, "explicit_paddings": {"list": {}}}}, {"name": "generator/G_MODEL/m/r3/2/moments/mean", "op": "Mean", "input": ["generator/G_MODEL/m/r3/Conv_1/Conv2D", "generator/G_MODEL/m/r3/2/moments/mean/reduction_indices"], "attr": {"T": {"type": "DT_FLOAT"}, "Tidx": {"type": "DT_INT32"}, "keep_dims": {"b": true}}}, {"name": "generator/G_MODEL/m/r3/2/moments/SquaredDifference", "op": "SquaredDifference", "input": ["generator/G_MODEL/m/r3/Conv_1/Conv2D", "generator/G_MODEL/m/r3/2/moments/mean"], "attr": {"T": {"type": "DT_FLOAT"}}}, {"name": "generator/G_MODEL/m/r3/2/moments/variance", "op": "Mean", "input": ["generator/G_MODEL/m/r3/2/moments/SquaredDifference", "generator/G_MODEL/m/r3/2/moments/variance/reduction_indices"], "attr": {"T": {"type": "DT_FLOAT"}, "keep_dims": {"b": true}, "Tidx": {"type": "DT_INT32"}}}, {"name": "generator/G_MODEL/m/r3/2/instancenorm/add", "op": "AddV2", "input": ["generator/G_MODEL/m/r3/2/moments/variance", "generator/G_MODEL/m/r3/2/instancenorm/add/y"], "attr": {"T": {"type": "DT_FLOAT"}}}, {"name": "generator/G_MODEL/m/r3/2/instancenorm/Rsqrt", "op": "Rsqrt", "input": ["generator/G_MODEL/m/r3/2/instancenorm/add"], "attr": {"T": {"type": "DT_FLOAT"}}}, {"name": "generator/G_MODEL/m/r3/2/instancenorm/mul", "op": "Mul", "input": ["generator/G_MODEL/m/r3/2/instancenorm/Rsqrt", "generator/G_MODEL/m/r3/2/gamma"], "attr": {"T": {"type": "DT_FLOAT"}}}, {"name": "generator/G_MODEL/m/r3/2/instancenorm/mul_2", "op": "Mul", "input": ["generator/G_MODEL/m/r3/2/moments/mean", "generator/G_MODEL/m/r3/2/instancenorm/mul"], "attr": {"T": {"type": "DT_FLOAT"}}}, {"name": "generator/G_MODEL/m/r3/2/instancenorm/mul_1", "op": "Mul", "input": ["generator/G_MODEL/m/r3/Conv_1/Conv2D", "generator/G_MODEL/m/r3/2/instancenorm/mul"], "attr": {"T": {"type": "DT_FLOAT"}}}, {"name": "generator/G_MODEL/m/r3/2/instancenorm/sub", "op": "Sub", "input": ["generator/G_MODEL/m/r3/2/beta", "generator/G_MODEL/m/r3/2/instancenorm/mul_2"], "attr": {"T": {"type": "DT_FLOAT"}}}, {"name": "generator/G_MODEL/m/r3/2/instancenorm/add_1", "op": "AddV2", "input": ["generator/G_MODEL/m/r3/2/instancenorm/mul_1", "generator/G_MODEL/m/r3/2/instancenorm/sub"], "attr": {"T": {"type": "DT_FLOAT"}}}, {"name": "generator/G_MODEL/m/r3/add", "op": "AddV2", "input": ["generator/G_MODEL/m/r2/add", "generator/G_MODEL/m/r3/2/instancenorm/add_1"], "attr": {"T": {"type": "DT_FLOAT"}}}, {"name": "generator/G_MODEL/m/r4/Conv/Conv2D", "op": "Conv2D", "input": ["generator/G_MODEL/m/r3/add", "generator/G_MODEL/m/r4/Conv/weights"], "device": "/device:CPU:0", "attr": {"explicit_paddings": {"list": {}}, "dilations": {"list": {"i": ["1", "1", "1", "1"]}}, "strides": {"list": {"i": ["1", "1", "1", "1"]}}, "padding": {"s": "VkFMSUQ="}, "data_format": {"s": "TkhXQw=="}, "T": {"type": "DT_FLOAT"}, "use_cudnn_on_gpu": {"b": true}}}, {"name": "generator/G_MODEL/m/r4/InstanceNorm/moments/mean", "op": "Mean", "input": ["generator/G_MODEL/m/r4/Conv/Conv2D", "generator/G_MODEL/m/r4/InstanceNorm/moments/mean/reduction_indices"], "attr": {"T": {"type": "DT_FLOAT"}, "Tidx": {"type": "DT_INT32"}, "keep_dims": {"b": true}}}, {"name": "generator/G_MODEL/m/r4/InstanceNorm/moments/SquaredDifference", "op": "SquaredDifference", "input": ["generator/G_MODEL/m/r4/Conv/Conv2D", "generator/G_MODEL/m/r4/InstanceNorm/moments/mean"], "attr": {"T": {"type": "DT_FLOAT"}}}, {"name": "generator/G_MODEL/m/r4/InstanceNorm/moments/variance", "op": "Mean", "input": ["generator/G_MODEL/m/r4/InstanceNorm/moments/SquaredDifference", "generator/G_MODEL/m/r4/InstanceNorm/moments/variance/reduction_indices"], "attr": {"Tidx": {"type": "DT_INT32"}, "T": {"type": "DT_FLOAT"}, "keep_dims": {"b": true}}}, {"name": "generator/G_MODEL/m/r4/InstanceNorm/instancenorm/add", "op": "AddV2", "input": ["generator/G_MODEL/m/r4/InstanceNorm/moments/variance", "generator/G_MODEL/m/r4/InstanceNorm/instancenorm/add/y"], "attr": {"T": {"type": "DT_FLOAT"}}}, {"name": "generator/G_MODEL/m/r4/InstanceNorm/instancenorm/Rsqrt", "op": "Rsqrt", "input": ["generator/G_MODEL/m/r4/InstanceNorm/instancenorm/add"], "attr": {"T": {"type": "DT_FLOAT"}}}, {"name": "generator/G_MODEL/m/r4/InstanceNorm/instancenorm/mul", "op": "Mul", "input": ["generator/G_MODEL/m/r4/InstanceNorm/instancenorm/Rsqrt", "generator/G_MODEL/m/r4/InstanceNorm/gamma"], "attr": {"T": {"type": "DT_FLOAT"}}}, {"name": "generator/G_MODEL/m/r4/InstanceNorm/instancenorm/mul_2", "op": "Mul", "input": ["generator/G_MODEL/m/r4/InstanceNorm/moments/mean", "generator/G_MODEL/m/r4/InstanceNorm/instancenorm/mul"], "attr": {"T": {"type": "DT_FLOAT"}}}, {"name": "generator/G_MODEL/m/r4/InstanceNorm/instancenorm/mul_1", "op": "Mul", "input": ["generator/G_MODEL/m/r4/Conv/Conv2D", "generator/G_MODEL/m/r4/InstanceNorm/instancenorm/mul"], "attr": {"T": {"type": "DT_FLOAT"}}}, {"name": "generator/G_MODEL/m/r4/InstanceNorm/instancenorm/sub", "op": "Sub", "input": ["generator/G_MODEL/m/r4/InstanceNorm/beta", "generator/G_MODEL/m/r4/InstanceNorm/instancenorm/mul_2"], "attr": {"T": {"type": "DT_FLOAT"}}}, {"name": "generator/G_MODEL/m/r4/InstanceNorm/instancenorm/add_1", "op": "AddV2", "input": ["generator/G_MODEL/m/r4/InstanceNorm/instancenorm/mul_1", "generator/G_MODEL/m/r4/InstanceNorm/instancenorm/sub"], "attr": {"T": {"type": "DT_FLOAT"}}}, {"name": "generator/G_MODEL/m/r4/LeakyRelu", "op": "LeakyRelu", "input": ["generator/G_MODEL/m/r4/InstanceNorm/instancenorm/add_1"], "attr": {"alpha": {"f": 0.2}, "T": {"type": "DT_FLOAT"}}}, {"name": "generator/G_MODEL/m/r4/MirrorPad", "op": "MirrorPad", "input": ["generator/G_MODEL/m/r4/LeakyRelu", "generator/G_MODEL/m/r4/MirrorPad/paddings"], "attr": {"mode": {"s": "UkVGTEVDVA=="}, "Tpaddings": {"type": "DT_INT32"}, "T": {"type": "DT_FLOAT"}}}, {"name": "generator/G_MODEL/m/r4/r4/r4", "op": "DepthwiseConv2dNative", "input": ["generator/G_MODEL/m/r4/MirrorPad", "generator/G_MODEL/m/r4/r4/w"], "attr": {"dilations": {"list": {"i": ["1", "1", "1", "1"]}}, "T": {"type": "DT_FLOAT"}, "strides": {"list": {"i": ["1", "1", "1", "1"]}}, "data_format": {"s": "TkhXQw=="}, "explicit_paddings": {"list": {}}, "padding": {"s": "VkFMSUQ="}}}, {"name": "generator/G_MODEL/m/r4/1/moments/mean", "op": "Mean", "input": ["generator/G_MODEL/m/r4/r4/r4", "generator/G_MODEL/m/r4/1/moments/mean/reduction_indices"], "attr": {"keep_dims": {"b": true}, "T": {"type": "DT_FLOAT"}, "Tidx": {"type": "DT_INT32"}}}, {"name": "generator/G_MODEL/m/r4/1/moments/SquaredDifference", "op": "SquaredDifference", "input": ["generator/G_MODEL/m/r4/r4/r4", "generator/G_MODEL/m/r4/1/moments/mean"], "attr": {"T": {"type": "DT_FLOAT"}}}, {"name": "generator/G_MODEL/m/r4/1/moments/variance", "op": "Mean", "input": ["generator/G_MODEL/m/r4/1/moments/SquaredDifference", "generator/G_MODEL/m/r4/1/moments/variance/reduction_indices"], "attr": {"T": {"type": "DT_FLOAT"}, "keep_dims": {"b": true}, "Tidx": {"type": "DT_INT32"}}}, {"name": "generator/G_MODEL/m/r4/1/instancenorm/add", "op": "AddV2", "input": ["generator/G_MODEL/m/r4/1/moments/variance", "generator/G_MODEL/m/r4/1/instancenorm/add/y"], "attr": {"T": {"type": "DT_FLOAT"}}}, {"name": "generator/G_MODEL/m/r4/1/instancenorm/Rsqrt", "op": "Rsqrt", "input": ["generator/G_MODEL/m/r4/1/instancenorm/add"], "attr": {"T": {"type": "DT_FLOAT"}}}, {"name": "generator/G_MODEL/m/r4/1/instancenorm/mul", "op": "Mul", "input": ["generator/G_MODEL/m/r4/1/instancenorm/Rsqrt", "generator/G_MODEL/m/r4/1/gamma"], "attr": {"T": {"type": "DT_FLOAT"}}}, {"name": "generator/G_MODEL/m/r4/1/instancenorm/mul_2", "op": "Mul", "input": ["generator/G_MODEL/m/r4/1/moments/mean", "generator/G_MODEL/m/r4/1/instancenorm/mul"], "attr": {"T": {"type": "DT_FLOAT"}}}, {"name": "generator/G_MODEL/m/r4/1/instancenorm/mul_1", "op": "Mul", "input": ["generator/G_MODEL/m/r4/r4/r4", "generator/G_MODEL/m/r4/1/instancenorm/mul"], "attr": {"T": {"type": "DT_FLOAT"}}}, {"name": "generator/G_MODEL/m/r4/1/instancenorm/sub", "op": "Sub", "input": ["generator/G_MODEL/m/r4/1/beta", "generator/G_MODEL/m/r4/1/instancenorm/mul_2"], "attr": {"T": {"type": "DT_FLOAT"}}}, {"name": "generator/G_MODEL/m/r4/1/instancenorm/add_1", "op": "AddV2", "input": ["generator/G_MODEL/m/r4/1/instancenorm/mul_1", "generator/G_MODEL/m/r4/1/instancenorm/sub"], "attr": {"T": {"type": "DT_FLOAT"}}}, {"name": "generator/G_MODEL/m/r4/LeakyRelu_1", "op": "LeakyRelu", "input": ["generator/G_MODEL/m/r4/1/instancenorm/add_1"], "attr": {"T": {"type": "DT_FLOAT"}, "alpha": {"f": 0.2}}}, {"name": "generator/G_MODEL/m/r4/Conv_1/Conv2D", "op": "Conv2D", "input": ["generator/G_MODEL/m/r4/LeakyRelu_1", "generator/G_MODEL/m/r4/Conv_1/weights"], "device": "/device:CPU:0", "attr": {"explicit_paddings": {"list": {}}, "use_cudnn_on_gpu": {"b": true}, "dilations": {"list": {"i": ["1", "1", "1", "1"]}}, "strides": {"list": {"i": ["1", "1", "1", "1"]}}, "T": {"type": "DT_FLOAT"}, "padding": {"s": "VkFMSUQ="}, "data_format": {"s": "TkhXQw=="}}}, {"name": "generator/G_MODEL/m/r4/2/moments/mean", "op": "Mean", "input": ["generator/G_MODEL/m/r4/Conv_1/Conv2D", "generator/G_MODEL/m/r4/2/moments/mean/reduction_indices"], "attr": {"T": {"type": "DT_FLOAT"}, "Tidx": {"type": "DT_INT32"}, "keep_dims": {"b": true}}}, {"name": "generator/G_MODEL/m/r4/2/moments/SquaredDifference", "op": "SquaredDifference", "input": ["generator/G_MODEL/m/r4/Conv_1/Conv2D", "generator/G_MODEL/m/r4/2/moments/mean"], "attr": {"T": {"type": "DT_FLOAT"}}}, {"name": "generator/G_MODEL/m/r4/2/moments/variance", "op": "Mean", "input": ["generator/G_MODEL/m/r4/2/moments/SquaredDifference", "generator/G_MODEL/m/r4/2/moments/variance/reduction_indices"], "attr": {"Tidx": {"type": "DT_INT32"}, "T": {"type": "DT_FLOAT"}, "keep_dims": {"b": true}}}, {"name": "generator/G_MODEL/m/r4/2/instancenorm/add", "op": "AddV2", "input": ["generator/G_MODEL/m/r4/2/moments/variance", "generator/G_MODEL/m/r4/2/instancenorm/add/y"], "attr": {"T": {"type": "DT_FLOAT"}}}, {"name": "generator/G_MODEL/m/r4/2/instancenorm/Rsqrt", "op": "Rsqrt", "input": ["generator/G_MODEL/m/r4/2/instancenorm/add"], "attr": {"T": {"type": "DT_FLOAT"}}}, {"name": "generator/G_MODEL/m/r4/2/instancenorm/mul", "op": "Mul", "input": ["generator/G_MODEL/m/r4/2/instancenorm/Rsqrt", "generator/G_MODEL/m/r4/2/gamma"], "attr": {"T": {"type": "DT_FLOAT"}}}, {"name": "generator/G_MODEL/m/r4/2/instancenorm/mul_2", "op": "Mul", "input": ["generator/G_MODEL/m/r4/2/moments/mean", "generator/G_MODEL/m/r4/2/instancenorm/mul"], "attr": {"T": {"type": "DT_FLOAT"}}}, {"name": "generator/G_MODEL/m/r4/2/instancenorm/mul_1", "op": "Mul", "input": ["generator/G_MODEL/m/r4/Conv_1/Conv2D", "generator/G_MODEL/m/r4/2/instancenorm/mul"], "attr": {"T": {"type": "DT_FLOAT"}}}, {"name": "generator/G_MODEL/m/r4/2/instancenorm/sub", "op": "Sub", "input": ["generator/G_MODEL/m/r4/2/beta", "generator/G_MODEL/m/r4/2/instancenorm/mul_2"], "attr": {"T": {"type": "DT_FLOAT"}}}, {"name": "generator/G_MODEL/m/r4/2/instancenorm/add_1", "op": "AddV2", "input": ["generator/G_MODEL/m/r4/2/instancenorm/mul_1", "generator/G_MODEL/m/r4/2/instancenorm/sub"], "attr": {"T": {"type": "DT_FLOAT"}}}, {"name": "generator/G_MODEL/m/r4/add", "op": "AddV2", "input": ["generator/G_MODEL/m/r3/add", "generator/G_MODEL/m/r4/2/instancenorm/add_1"], "attr": {"T": {"type": "DT_FLOAT"}}}, {"name": "generator/G_MODEL/m/r5/Conv/Conv2D", "op": "Conv2D", "input": ["generator/G_MODEL/m/r4/add", "generator/G_MODEL/m/r5/Conv/weights"], "device": "/device:CPU:0", "attr": {"strides": {"list": {"i": ["1", "1", "1", "1"]}}, "dilations": {"list": {"i": ["1", "1", "1", "1"]}}, "padding": {"s": "VkFMSUQ="}, "T": {"type": "DT_FLOAT"}, "explicit_paddings": {"list": {}}, "data_format": {"s": "TkhXQw=="}, "use_cudnn_on_gpu": {"b": true}}}, {"name": "generator/G_MODEL/m/r5/InstanceNorm/moments/mean", "op": "Mean", "input": ["generator/G_MODEL/m/r5/Conv/Conv2D", "generator/G_MODEL/m/r5/InstanceNorm/moments/mean/reduction_indices"], "attr": {"T": {"type": "DT_FLOAT"}, "keep_dims": {"b": true}, "Tidx": {"type": "DT_INT32"}}}, {"name": "generator/G_MODEL/m/r5/InstanceNorm/moments/SquaredDifference", "op": "SquaredDifference", "input": ["generator/G_MODEL/m/r5/Conv/Conv2D", "generator/G_MODEL/m/r5/InstanceNorm/moments/mean"], "attr": {"T": {"type": "DT_FLOAT"}}}, {"name": "generator/G_MODEL/m/r5/InstanceNorm/moments/variance", "op": "Mean", "input": ["generator/G_MODEL/m/r5/InstanceNorm/moments/SquaredDifference", "generator/G_MODEL/m/r5/InstanceNorm/moments/variance/reduction_indices"], "attr": {"T": {"type": "DT_FLOAT"}, "Tidx": {"type": "DT_INT32"}, "keep_dims": {"b": true}}}, {"name": "generator/G_MODEL/m/r5/InstanceNorm/instancenorm/add", "op": "AddV2", "input": ["generator/G_MODEL/m/r5/InstanceNorm/moments/variance", "generator/G_MODEL/m/r5/InstanceNorm/instancenorm/add/y"], "attr": {"T": {"type": "DT_FLOAT"}}}, {"name": "generator/G_MODEL/m/r5/InstanceNorm/instancenorm/Rsqrt", "op": "Rsqrt", "input": ["generator/G_MODEL/m/r5/InstanceNorm/instancenorm/add"], "attr": {"T": {"type": "DT_FLOAT"}}}, {"name": "generator/G_MODEL/m/r5/InstanceNorm/instancenorm/mul", "op": "Mul", "input": ["generator/G_MODEL/m/r5/InstanceNorm/instancenorm/Rsqrt", "generator/G_MODEL/m/r5/InstanceNorm/gamma"], "attr": {"T": {"type": "DT_FLOAT"}}}, {"name": "generator/G_MODEL/m/r5/InstanceNorm/instancenorm/mul_2", "op": "Mul", "input": ["generator/G_MODEL/m/r5/InstanceNorm/moments/mean", "generator/G_MODEL/m/r5/InstanceNorm/instancenorm/mul"], "attr": {"T": {"type": "DT_FLOAT"}}}, {"name": "generator/G_MODEL/m/r5/InstanceNorm/instancenorm/mul_1", "op": "Mul", "input": ["generator/G_MODEL/m/r5/Conv/Conv2D", "generator/G_MODEL/m/r5/InstanceNorm/instancenorm/mul"], "attr": {"T": {"type": "DT_FLOAT"}}}, {"name": "generator/G_MODEL/m/r5/InstanceNorm/instancenorm/sub", "op": "Sub", "input": ["generator/G_MODEL/m/r5/InstanceNorm/beta", "generator/G_MODEL/m/r5/InstanceNorm/instancenorm/mul_2"], "attr": {"T": {"type": "DT_FLOAT"}}}, {"name": "generator/G_MODEL/m/r5/InstanceNorm/instancenorm/add_1", "op": "AddV2", "input": ["generator/G_MODEL/m/r5/InstanceNorm/instancenorm/mul_1", "generator/G_MODEL/m/r5/InstanceNorm/instancenorm/sub"], "attr": {"T": {"type": "DT_FLOAT"}}}, {"name": "generator/G_MODEL/m/r5/LeakyRelu", "op": "LeakyRelu", "input": ["generator/G_MODEL/m/r5/InstanceNorm/instancenorm/add_1"], "attr": {"alpha": {"f": 0.2}, "T": {"type": "DT_FLOAT"}}}, {"name": "generator/G_MODEL/m/r5/MirrorPad", "op": "MirrorPad", "input": ["generator/G_MODEL/m/r5/LeakyRelu", "generator/G_MODEL/m/r5/MirrorPad/paddings"], "attr": {"Tpaddings": {"type": "DT_INT32"}, "mode": {"s": "UkVGTEVDVA=="}, "T": {"type": "DT_FLOAT"}}}, {"name": "generator/G_MODEL/m/r5/r5/r5", "op": "DepthwiseConv2dNative", "input": ["generator/G_MODEL/m/r5/MirrorPad", "generator/G_MODEL/m/r5/r5/w"], "attr": {"explicit_paddings": {"list": {}}, "strides": {"list": {"i": ["1", "1", "1", "1"]}}, "T": {"type": "DT_FLOAT"}, "data_format": {"s": "TkhXQw=="}, "dilations": {"list": {"i": ["1", "1", "1", "1"]}}, "padding": {"s": "VkFMSUQ="}}}, {"name": "generator/G_MODEL/m/r5/1/moments/mean", "op": "Mean", "input": ["generator/G_MODEL/m/r5/r5/r5", "generator/G_MODEL/m/r5/1/moments/mean/reduction_indices"], "attr": {"keep_dims": {"b": true}, "Tidx": {"type": "DT_INT32"}, "T": {"type": "DT_FLOAT"}}}, {"name": "generator/G_MODEL/m/r5/1/moments/SquaredDifference", "op": "SquaredDifference", "input": ["generator/G_MODEL/m/r5/r5/r5", "generator/G_MODEL/m/r5/1/moments/mean"], "attr": {"T": {"type": "DT_FLOAT"}}}, {"name": "generator/G_MODEL/m/r5/1/moments/variance", "op": "Mean", "input": ["generator/G_MODEL/m/r5/1/moments/SquaredDifference", "generator/G_MODEL/m/r5/1/moments/variance/reduction_indices"], "attr": {"T": {"type": "DT_FLOAT"}, "keep_dims": {"b": true}, "Tidx": {"type": "DT_INT32"}}}, {"name": "generator/G_MODEL/m/r5/1/instancenorm/add", "op": "AddV2", "input": ["generator/G_MODEL/m/r5/1/moments/variance", "generator/G_MODEL/m/r5/1/instancenorm/add/y"], "attr": {"T": {"type": "DT_FLOAT"}}}, {"name": "generator/G_MODEL/m/r5/1/instancenorm/Rsqrt", "op": "Rsqrt", "input": ["generator/G_MODEL/m/r5/1/instancenorm/add"], "attr": {"T": {"type": "DT_FLOAT"}}}, {"name": "generator/G_MODEL/m/r5/1/instancenorm/mul", "op": "Mul", "input": ["generator/G_MODEL/m/r5/1/instancenorm/Rsqrt", "generator/G_MODEL/m/r5/1/gamma"], "attr": {"T": {"type": "DT_FLOAT"}}}, {"name": "generator/G_MODEL/m/r5/1/instancenorm/mul_2", "op": "Mul", "input": ["generator/G_MODEL/m/r5/1/moments/mean", "generator/G_MODEL/m/r5/1/instancenorm/mul"], "attr": {"T": {"type": "DT_FLOAT"}}}, {"name": "generator/G_MODEL/m/r5/1/instancenorm/mul_1", "op": "Mul", "input": ["generator/G_MODEL/m/r5/r5/r5", "generator/G_MODEL/m/r5/1/instancenorm/mul"], "attr": {"T": {"type": "DT_FLOAT"}}}, {"name": "generator/G_MODEL/m/r5/1/instancenorm/sub", "op": "Sub", "input": ["generator/G_MODEL/m/r5/1/beta", "generator/G_MODEL/m/r5/1/instancenorm/mul_2"], "attr": {"T": {"type": "DT_FLOAT"}}}, {"name": "generator/G_MODEL/m/r5/1/instancenorm/add_1", "op": "AddV2", "input": ["generator/G_MODEL/m/r5/1/instancenorm/mul_1", "generator/G_MODEL/m/r5/1/instancenorm/sub"], "attr": {"T": {"type": "DT_FLOAT"}}}, {"name": "generator/G_MODEL/m/r5/LeakyRelu_1", "op": "LeakyRelu", "input": ["generator/G_MODEL/m/r5/1/instancenorm/add_1"], "attr": {"alpha": {"f": 0.2}, "T": {"type": "DT_FLOAT"}}}, {"name": "generator/G_MODEL/m/r5/Conv_1/Conv2D", "op": "Conv2D", "input": ["generator/G_MODEL/m/r5/LeakyRelu_1", "generator/G_MODEL/m/r5/Conv_1/weights"], "device": "/device:CPU:0", "attr": {"strides": {"list": {"i": ["1", "1", "1", "1"]}}, "padding": {"s": "VkFMSUQ="}, "use_cudnn_on_gpu": {"b": true}, "explicit_paddings": {"list": {}}, "data_format": {"s": "TkhXQw=="}, "T": {"type": "DT_FLOAT"}, "dilations": {"list": {"i": ["1", "1", "1", "1"]}}}}, {"name": "generator/G_MODEL/m/r5/2/moments/mean", "op": "Mean", "input": ["generator/G_MODEL/m/r5/Conv_1/Conv2D", "generator/G_MODEL/m/r5/2/moments/mean/reduction_indices"], "attr": {"keep_dims": {"b": true}, "Tidx": {"type": "DT_INT32"}, "T": {"type": "DT_FLOAT"}}}, {"name": "generator/G_MODEL/m/r5/2/moments/SquaredDifference", "op": "SquaredDifference", "input": ["generator/G_MODEL/m/r5/Conv_1/Conv2D", "generator/G_MODEL/m/r5/2/moments/mean"], "attr": {"T": {"type": "DT_FLOAT"}}}, {"name": "generator/G_MODEL/m/r5/2/moments/variance", "op": "Mean", "input": ["generator/G_MODEL/m/r5/2/moments/SquaredDifference", "generator/G_MODEL/m/r5/2/moments/variance/reduction_indices"], "attr": {"Tidx": {"type": "DT_INT32"}, "T": {"type": "DT_FLOAT"}, "keep_dims": {"b": true}}}, {"name": "generator/G_MODEL/m/r5/2/instancenorm/add", "op": "AddV2", "input": ["generator/G_MODEL/m/r5/2/moments/variance", "generator/G_MODEL/m/r5/2/instancenorm/add/y"], "attr": {"T": {"type": "DT_FLOAT"}}}, {"name": "generator/G_MODEL/m/r5/2/instancenorm/Rsqrt", "op": "Rsqrt", "input": ["generator/G_MODEL/m/r5/2/instancenorm/add"], "attr": {"T": {"type": "DT_FLOAT"}}}, {"name": "generator/G_MODEL/m/r5/2/instancenorm/mul", "op": "Mul", "input": ["generator/G_MODEL/m/r5/2/instancenorm/Rsqrt", "generator/G_MODEL/m/r5/2/gamma"], "attr": {"T": {"type": "DT_FLOAT"}}}, {"name": "generator/G_MODEL/m/r5/2/instancenorm/mul_2", "op": "Mul", "input": ["generator/G_MODEL/m/r5/2/moments/mean", "generator/G_MODEL/m/r5/2/instancenorm/mul"], "attr": {"T": {"type": "DT_FLOAT"}}}, {"name": "generator/G_MODEL/m/r5/2/instancenorm/mul_1", "op": "Mul", "input": ["generator/G_MODEL/m/r5/Conv_1/Conv2D", "generator/G_MODEL/m/r5/2/instancenorm/mul"], "attr": {"T": {"type": "DT_FLOAT"}}}, {"name": "generator/G_MODEL/m/r5/2/instancenorm/sub", "op": "Sub", "input": ["generator/G_MODEL/m/r5/2/beta", "generator/G_MODEL/m/r5/2/instancenorm/mul_2"], "attr": {"T": {"type": "DT_FLOAT"}}}, {"name": "generator/G_MODEL/m/r5/2/instancenorm/add_1", "op": "AddV2", "input": ["generator/G_MODEL/m/r5/2/instancenorm/mul_1", "generator/G_MODEL/m/r5/2/instancenorm/sub"], "attr": {"T": {"type": "DT_FLOAT"}}}, {"name": "generator/G_MODEL/m/r5/add", "op": "AddV2", "input": ["generator/G_MODEL/m/r4/add", "generator/G_MODEL/m/r5/2/instancenorm/add_1"], "attr": {"T": {"type": "DT_FLOAT"}}}, {"name": "generator/G_MODEL/m/r6/Conv/Conv2D", "op": "Conv2D", "input": ["generator/G_MODEL/m/r5/add", "generator/G_MODEL/m/r6/Conv/weights"], "device": "/device:CPU:0", "attr": {"use_cudnn_on_gpu": {"b": true}, "T": {"type": "DT_FLOAT"}, "data_format": {"s": "TkhXQw=="}, "padding": {"s": "VkFMSUQ="}, "dilations": {"list": {"i": ["1", "1", "1", "1"]}}, "explicit_paddings": {"list": {}}, "strides": {"list": {"i": ["1", "1", "1", "1"]}}}}, {"name": "generator/G_MODEL/m/r6/InstanceNorm/moments/mean", "op": "Mean", "input": ["generator/G_MODEL/m/r6/Conv/Conv2D", "generator/G_MODEL/m/r6/InstanceNorm/moments/mean/reduction_indices"], "attr": {"keep_dims": {"b": true}, "Tidx": {"type": "DT_INT32"}, "T": {"type": "DT_FLOAT"}}}, {"name": "generator/G_MODEL/m/r6/InstanceNorm/moments/SquaredDifference", "op": "SquaredDifference", "input": ["generator/G_MODEL/m/r6/Conv/Conv2D", "generator/G_MODEL/m/r6/InstanceNorm/moments/mean"], "attr": {"T": {"type": "DT_FLOAT"}}}, {"name": "generator/G_MODEL/m/r6/InstanceNorm/moments/variance", "op": "Mean", "input": ["generator/G_MODEL/m/r6/InstanceNorm/moments/SquaredDifference", "generator/G_MODEL/m/r6/InstanceNorm/moments/variance/reduction_indices"], "attr": {"Tidx": {"type": "DT_INT32"}, "T": {"type": "DT_FLOAT"}, "keep_dims": {"b": true}}}, {"name": "generator/G_MODEL/m/r6/InstanceNorm/instancenorm/add", "op": "AddV2", "input": ["generator/G_MODEL/m/r6/InstanceNorm/moments/variance", "generator/G_MODEL/m/r6/InstanceNorm/instancenorm/add/y"], "attr": {"T": {"type": "DT_FLOAT"}}}, {"name": "generator/G_MODEL/m/r6/InstanceNorm/instancenorm/Rsqrt", "op": "Rsqrt", "input": ["generator/G_MODEL/m/r6/InstanceNorm/instancenorm/add"], "attr": {"T": {"type"…
8", "min": -0.11539781108206393, "scale": 0.0007958469729797512, "original_dtype": "float32"}}, {"name": "generator/G_MODEL/u1/SeparableConv2d/InstanceNorm/beta", "shape": [128], "dtype": "float32", "quantization": {"dtype": "uint8", "min": -0.10464773797521404, "scale": 0.0008439333707678552, "original_dtype": "float32"}}, {"name": "generator/G_MODEL/u1/mul/x", "shape": [], "dtype": "int32"}, {"name": "generator/G_MODEL/u1/strided_slice/stack", "shape": [1], "dtype": "int32"}, {"name": "generator/G_MODEL/u1/strided_slice/stack_1", "shape": [1], "dtype": "int32"}, {"name": "generator/G_MODEL/u1/strided_slice/stack_2", "shape": [1], "dtype": "int32"}, {"name": "generator/G_MODEL/u1/mul_1/x", "shape": [], "dtype": "int32"}, {"name": "generator/G_MODEL/u2/InstanceNorm/beta", "shape": [128], "dtype": "float32", "quantization": {"dtype": "uint8", "min": -0.17141344383651136, "scale": 0.0011277200252402062, "original_dtype": "float32"}}, {"name": "generator/G_MODEL/u2/SeparableConv2d_1/InstanceNorm/beta", "shape": [128], "dtype": "float32", "quantization": {"dtype": "uint8", "min": -0.11198955698340546, "scale": 0.0008818075353024052, "original_dtype": "float32"}}, {"name": "generator/G_MODEL/u2/SeparableConv2d/InstanceNorm/beta", "shape": [128], "dtype": "float32", "quantization": {"dtype": "uint8", "min": -0.12591407141264746, "scale": 0.0008930075986712586, "original_dtype": "float32"}}, {"name": "generator/G_MODEL/u2/mul/x", "shape": [], "dtype": "int32"}, {"name": "generator/G_MODEL/u2/strided_slice/stack", "shape": [1], "dtype": "int32"}, {"name": "generator/G_MODEL/u2/strided_slice/stack_1", "shape": [1], "dtype": "int32"}, {"name": "generator/G_MODEL/u2/strided_slice/stack_2", "shape": [1], "dtype": "int32"}, {"name": "generator/G_MODEL/u2/mul_1/x", "shape": [], "dtype": "int32"}, {"name": "generator/G_MODEL/m/InstanceNorm_1/beta", "shape": [256], "dtype": "float32", "quantization": {"dtype": "uint8", "min": -0.11575407140395219, "scale": 0.0009978799258961396, "original_dtype": "float32"}}, {"name": "generator/G_MODEL/m/r8/2/beta", "shape": [256], "dtype": "float32", "quantization": {"dtype": "uint8", "min": -0.03302756495335523, "scale": 0.0002847203875289244, "original_dtype": "float32"}}, {"name": "generator/G_MODEL/m/r8/1/beta", "shape": [512], "dtype": "float32", "quantization": {"dtype": "uint8", "min": -0.18869830618302028, "scale": 0.0010907416542371114, "original_dtype": "float32"}}, {"name": "generator/G_MODEL/m/r8/InstanceNorm/beta", "shape": [512], "dtype": "float32", "quantization": {"dtype": "uint8", "min": -0.21759367120616577, "scale": 0.0013187495224616108, "original_dtype": "float32"}}, {"name": "generator/G_MODEL/m/r7/2/beta", "shape": [256], "dtype": "float32", "quantization": {"dtype": "uint8", "min": -0.04143838882446289, "scale": 0.00032373741269111635, "original_dtype": "float32"}}, {"name": "generator/G_MODEL/m/r7/1/beta", "shape": [512], "dtype": "float32", "quantization": {"dtype": "uint8", "min": -0.21896185363624612, "scale": 0.0012956322700369593, "original_dtype": "float32"}}, {"name": "generator/G_MODEL/m/r7/InstanceNorm/beta", "shape": [512], "dtype": "float32", "quantization": {"dtype": "uint8", "min": -0.20138433610691744, "scale": 0.0013076904942007626, "original_dtype": "float32"}}, {"name": "generator/G_MODEL/m/r6/2/beta", "shape": [256], "dtype": "float32", "quantization": {"dtype": "uint8", "min": -0.031014991259458016, "scale": 0.0003164795026475308, "original_dtype": "float32"}}, {"name": "generator/G_MODEL/m/r6/1/beta", "shape": [512], "dtype": "float32", "quantization": {"dtype": "uint8", "min": -0.23523989144493554, "scale": 0.0013068882858051974, "original_dtype": "float32"}}, {"name": "generator/G_MODEL/m/r6/InstanceNorm/beta", "shape": [512], "dtype": "float32", "quantization": {"dtype": "uint8", "min": -0.20462012302641774, "scale": 0.001232651343532637, "original_dtype": "float32"}}, {"name": "generator/G_MODEL/m/r5/2/beta", "shape": [256], "dtype": "float32", "quantization": {"dtype": "uint8", "min": -0.030793879926204682, "scale": 0.000301900783590242, "original_dtype": "float32"}}, {"name": "generator/G_MODEL/m/r5/1/beta", "shape": [512], "dtype": "float32", "quantization": {"dtype": "uint8", "min": -0.2691087402841624, "scale": 0.001423855768699272, "original_dtype": "float32"}}, {"name": "generator/G_MODEL/m/r5/InstanceNorm/beta", "shape": [512], "dtype": "float32", "quantization": {"dtype": "uint8", "min": -0.2313500693615745, "scale": 0.0012642080292982214, "original_dtype": "float32"}}, {"name": "generator/G_MODEL/m/r4/2/beta", "shape": [256], "dtype": "float32", "quantization": {"dtype": "uint8", "min": -0.03380926114087011, "scale": 0.00028651916221076365, "original_dtype": "float32"}}, {"name": "generator/G_MODEL/m/r4/1/beta", "shape": [512], "dtype": "float32", "quantization": {"dtype": "uint8", "min": -0.2790611187616984, "scale": 0.001641535992715873, "original_dtype": "float32"}}, {"name": "generator/G_MODEL/m/r4/InstanceNorm/beta", "shape": [512], "dtype": "float32", "quantization": {"dtype": "uint8", "min": -0.2031684296388252, "scale": 0.0012239062026435253, "original_dtype": "float32"}}, {"name": "generator/G_MODEL/m/r3/2/beta", "shape": [256], "dtype": "float32", "quantization": {"dtype": "uint8", "min": -0.03410728743263319, "scale": 0.00024362348166166568, "original_dtype": "float32"}}, {"name": "generator/G_MODEL/m/r3/1/beta", "shape": [512], "dtype": "float32", "quantization": {"dtype": "uint8", "min": -0.17396949827671052, "scale": 0.0009998247027397157, "original_dtype": "float32"}}, {"name": "generator/G_MODEL/m/r3/InstanceNorm/beta", "shape": [512], "dtype": "float32", "quantization": {"dtype": "uint8", "min": -0.180192652081742, "scale": 0.0010537581993084327, "original_dtype": "float32"}}, {"name": "generator/G_MODEL/m/r2/2/beta", "shape": [256], "dtype": "float32", "quantization": {"dtype": "uint8", "min": -0.04011060098807017, "scale": 0.00026388553281625113, "original_dtype": "float32"}}, {"name": "generator/G_MODEL/m/r2/1/beta", "shape": [512], "dtype": "float32", "quantization": {"dtype": "uint8", "min": -0.1818623145421346, "scale": 0.0009830395380655925, "original_dtype": "float32"}}, {"name": "generator/G_MODEL/m/r2/InstanceNorm/beta", "shape": [512], "dtype": "float32", "quantization": {"dtype": "uint8", "min": -0.14388622419506897, "scale": 0.0010737777925005146, "original_dtype": "float32"}}, {"name": "generator/G_MODEL/m/r1/2/beta", "shape": [256], "dtype": "float32", "quantization": {"dtype": "uint8", "min": -0.03425864579484743, "scale": 0.0002537677466284995, "original_dtype": "float32"}}, {"name": "generator/G_MODEL/m/r1/1/beta", "shape": [512], "dtype": "float32", "quantization": {"dtype": "uint8", "min": -0.13257333168796465, "scale": 0.0010197948591381895, "original_dtype": "float32"}}, {"name": "generator/G_MODEL/m/r1/InstanceNorm/beta", "shape": [512], "dtype": "float32", "quantization": {"dtype": "uint8", "min": -0.11292606188970453, "scale": 0.0008753958286023607, "original_dtype": "float32"}}, {"name": "generator/G_MODEL/m/InstanceNorm/beta", "shape": [256], "dtype": "float32", "quantization": {"dtype": "uint8", "min": -0.07089823659728556, "scale": 0.0007877581844142839, "original_dtype": "float32"}}, {"name": "generator/G_MODEL/b2/SeparableConv2d_1/InstanceNorm/beta", "shape": [256], "dtype": "float32", "quantization": {"dtype": "uint8", "min": -0.05996968512441598, "scale": 0.0006814736945956361, "original_dtype": "float32"}}, {"name": "generator/G_MODEL/b2/MirrorPad_2/paddings", "shape": [4, 2], "dtype": "int32"}, {"name": "generator/G_MODEL/b2/SeparableConv2d_1/depthwise_weights", "shape": [3, 3, 128, 1], "dtype": "float32", "quantization": {"dtype": "uint8", "min": -0.11559295011501686, "scale": 0.0008891765393462835, "original_dtype": "float32"}}, {"name": "generator/G_MODEL/b2/SeparableConv2d_1/pointwise_weights", "shape": [1, 1, 128, 256], "dtype": "float32", "quantization": {"dtype": "uint8", "min": -0.18355354608273974, "scale": 0.0014340120787714042, "original_dtype": "float32"}}, {"name": "generator/G_MODEL/b2/SeparableConv2d_1/InstanceNorm/moments/mean/reduction_indices", "shape": [2], "dtype": "int32"}, {"name": "generator/G_MODEL/b2/SeparableConv2d_1/InstanceNorm/moments/variance/reduction_indices", "shape": [2], "dtype": "int32"}, {"name": "generator/G_MODEL/b2/SeparableConv2d_1/InstanceNorm/instancenorm/add/y", "shape": [], "dtype": "float32", "quantization": {"dtype": "uint8", "min": 9.999999974752427e-07, "scale": 1.0, "original_dtype": "float32"}}, {"name": "generator/G_MODEL/b2/SeparableConv2d_1/InstanceNorm/gamma", "shape": [256], "dtype": "float32", "quantization": {"dtype": "uint8", "min": 0.9623427987098694, "scale": 0.0004339342023812088, "original_dtype": "float32"}}, {"name": "generator/G_MODEL/b2/SeparableConv2d_2/InstanceNorm/beta", "shape": [256], "dtype": "float32", "quantization": {"dtype": "uint8", "min": -0.07970666651632272, "scale": 0.0006131282039717132, "original_dtype": "float32"}}, {"name": "generator/G_MODEL/b2/strided_slice/stack", "shape": [1], "dtype": "int32"}, {"name": "generator/G_MODEL/b2/strided_slice/stack_1", "shape": [1], "dtype": "int32"}, {"name": "generator/G_MODEL/b2/strided_slice/stack_2", "shape": [1], "dtype": "int32"}, {"name": "generator/G_MODEL/b2/floordiv/y", "shape": [], "dtype": "int32"}, {"name": "generator/G_MODEL/b2/SeparableConv2d/InstanceNorm/beta", "shape": [128], "dtype": "float32", "quantization": {"dtype": "uint8", "min": -0.06464552294974234, "scale": 0.0009235074707106048, "original_dtype": "float32"}}, {"name": "generator/G_MODEL/b2/InstanceNorm/beta", "shape": [128], "dtype": "float32", "quantization": {"dtype": "uint8", "min": -0.059291020459404174, "scale": 0.0006112476336021049, "original_dtype": "float32"}}, {"name": "generator/G_MODEL/b1/SeparableConv2d/InstanceNorm/beta", "shape": [128], "dtype": "float32", "quantization": {"dtype": "uint8", "min": -0.06905815390979543, "scale": 0.0006394273510166243, "original_dtype": "float32"}}, {"name": "generator/G_MODEL/b1/MirrorPad_2/paddings", "shape": [4, 2], "dtype": "int32"}, {"name": "generator/G_MODEL/b1/SeparableConv2d/depthwise_weights", "shape": [3, 3, 64, 1], "dtype": "float32", "quantization": {"dtype": "uint8", "min": -0.12589394450187683, "scale": 0.0010579323067384607, "original_dtype": "float32"}}, {"name": "generator/G_MODEL/b1/SeparableConv2d/pointwise_weights", "shape": [1, 1, 64, 128], "dtype": "float32", "quantization": {"dtype": "uint8", "min": -0.269291827024198, "scale": 0.0019373512735553816, "original_dtype": "float32"}}, {"name": "generator/G_MODEL/b1/SeparableConv2d/InstanceNorm/moments/mean/reduction_indices", "shape": [2], "dtype": "int32"}, {"name": "generator/G_MODEL/b1/SeparableConv2d/InstanceNorm/moments/variance/reduction_indices", "shape": [2], "dtype": "int32"}, {"name": "generator/G_MODEL/b1/SeparableConv2d/InstanceNorm/instancenorm/add/y", "shape": [], "dtype": "float32", "quantization": {"dtype": "uint8", "min": 9.999999974752427e-07, "scale": 1.0, "original_dtype": "float32"}}, {"name": "generator/G_MODEL/b1/SeparableConv2d/InstanceNorm/gamma", "shape": [128], "dtype": "float32", "quantization": {"dtype": "uint8", "min": 0.9524186253547668, "scale": 0.0004102770019980038, "original_dtype": "float32"}}, {"name": "generator/G_MODEL/b1/SeparableConv2d_1/InstanceNorm/beta", "shape": [128], "dtype": "float32", "quantization": {"dtype": "uint8", "min": -0.09361568864654092, "scale": 0.0007146235774545108, "original_dtype": "float32"}}, {"name": "generator/G_MODEL/b1/strided_slice/stack", "shape": [1], "dtype": "int32"}, {"name": "generator/G_MODEL/b1/strided_slice/stack_1", "shape": [1], "dtype": "int32"}, {"name": "generator/G_MODEL/b1/strided_slice/stack_2", "shape": [1], "dtype": "int32"}, {"name": "generator/G_MODEL/b1/floordiv/y", "shape": [], "dtype": "int32"}, {"name": "generator/G_MODEL/b1/InstanceNorm_1/beta", "shape": [64], "dtype": "float32", "quantization": {"dtype": "uint8", "min": -0.045197090798733276, "scale": 0.00043880670678381824, "original_dtype": "float32"}}, {"name": "generator/G_MODEL/b1/InstanceNorm/beta", "shape": [64], "dtype": "float32", "quantization": {"dtype": "uint8", "min": -0.05957892402714374, "scale": 0.0006475970002950407, "original_dtype": "float32"}}, {"name": "generator/G_MODEL/b1/MirrorPad/paddings", "shape": [4, 2], "dtype": "int32"}, {"name": "generator/G_MODEL/b1/Conv/weights", "shape": [3, 3, 3, 64], "dtype": "float32", "quantization": {"dtype": "uint8", "min": -0.1334893382063099, "scale": 0.0010268410631254607, "original_dtype": "float32"}}, {"name": "generator/G_MODEL/b1/InstanceNorm/moments/mean/reduction_indices", "shape": [2], "dtype": "int32"}, {"name": "generator/G_MODEL/b1/InstanceNorm/moments/variance/reduction_indices", "shape": [2], "dtype": "int32"}, {"name": "generator/G_MODEL/b1/InstanceNorm/instancenorm/add/y", "shape": [], "dtype": "float32", "quantization": {"dtype": "uint8", "min": 9.999999747378752e-06, "scale": 1.0, "original_dtype": "float32"}}, {"name": "generator/G_MODEL/b1/InstanceNorm/gamma", "shape": [64], "dtype": "float32", "quantization": {"dtype": "uint8", "min": 0.9410042762756348, "scale": 0.0004671643762027516, "original_dtype": "float32"}}, {"name": "generator/G_MODEL/b1/MirrorPad_1/paddings", "shape": [4, 2], "dtype": "int32"}, {"name": "generator/G_MODEL/b1/Conv_1/weights", "shape": [3, 3, 64, 64], "dtype": "float32", "quantization": {"dtype": "uint8", "min": -0.13850838974410415, "scale": 0.0010336446995828667, "original_dtype": "float32"}}, {"name": "generator/G_MODEL/b1/InstanceNorm_1/moments/mean/reduction_indices", "shape": [2], "dtype": "int32"}, {"name": "generator/G_MODEL/b1/InstanceNorm_1/moments/variance/reduction_indices", "shape": [2], "dtype": "int32"}, {"name": "generator/G_MODEL/b1/InstanceNorm_1/instancenorm/add/y", "shape": [], "dtype": "float32", "quantization": {"dtype": "uint8", "min": 9.999999747378752e-06, "scale": 1.0, "original_dtype": "float32"}}, {"name": "generator/G_MODEL/b1/InstanceNorm_1/gamma", "shape": [64], "dtype": "float32", "quantization": {"dtype": "uint8", "min": 0.9685477614402771, "scale": 0.00026363040886673273, "original_dtype": "float32"}}, {"name": "generator/G_MODEL/b1/strided_slice_1/stack", "shape": [1], "dtype": "int32"}, {"name": "generator/G_MODEL/b1/strided_slice_1/stack_1", "shape": [1], "dtype": "int32"}, {"name": "generator/G_MODEL/b1/strided_slice_1/stack_2", "shape": [1], "dtype": "int32"}, {"name": "generator/G_MODEL/b1/floordiv_1/y", "shape": [], "dtype": "int32"}, {"name": "generator/G_MODEL/b1/MirrorPad_3/paddings", "shape": [4, 2], "dtype": "int32"}, {"name": "generator/G_MODEL/b1/SeparableConv2d_1/depthwise_weights", "shape": [3, 3, 64, 1], "dtype": "float32", "quantization": {"dtype": "uint8", "min": -0.1322237556471544, "scale": 0.000994163576294394, "original_dtype": "float32"}}, {"name": "generator/G_MODEL/b1/SeparableConv2d_1/pointwise_weights", "shape": [1, 1, 64, 128], "dtype": "float32", "quantization": {"dtype": "uint8", "min": -0.232117573186463, "scale": 0.001827697426665063, "original_dtype": "float32"}}, {"name": "generator/G_MODEL/b1/SeparableConv2d_1/InstanceNorm/moments/mean/reduction_indices", "shape": [2], "dtype": "int32"}, {"name": "generator/G_MODEL/b1/SeparableConv2d_1/InstanceNorm/moments/variance/reduction_indices", "shape": [2], "dtype": "int32"}, {"name": "generator/G_MODEL/b1/SeparableConv2d_1/InstanceNorm/instancenorm/add/y", "shape": [], "dtype": "float32", "quantization": {"dtype": "uint8", "min": 9.999999974752427e-07, "scale": 1.0, "original_dtype": "float32"}}, {"name": "generator/G_MODEL/b1/SeparableConv2d_1/InstanceNorm/gamma", "shape": [128], "dtype": "float32", "quantization": {"dtype": "uint8", "min": 0.9512723088264465, "scale": 0.0003193824898962881, "original_dtype": "float32"}}, {"name": "generator/G_MODEL/b2/MirrorPad/paddings", "shape": [4, 2], "dtype": "int32"}, {"name": "generator/G_MODEL/b2/Conv/weights", "shape": [3, 3, 128, 128], "dtype": "float32", "quantization": {"dtype": "uint8", "min": -0.12650463204173482, "scale": 0.0009656842140590443, "original_dtype": "float32"}}, {"name": "generator/G_MODEL/b2/InstanceNorm/moments/mean/reduction_indices", "shape": [2], "dtype": "int32"}, {"name": "generator/G_MODEL/b2/InstanceNorm/moments/variance/reduction_indices", "shape": [2], "dtype": "int32"}, {"name": "generator/G_MODEL/b2/InstanceNorm/instancenorm/add/y", "shape": [], "dtype": "float32", "quantization": {"dtype": "uint8", "min": 9.999999747378752e-06, "scale": 1.0, "original_dtype": "float32"}}, {"name": "generator/G_MODEL/b2/InstanceNorm/gamma", "shape": [128], "dtype": "float32", "quantization": {"dtype": "uint8", "min": 0.9586114287376404, "scale": 0.0003807229154250201, "original_dtype": "float32"}}, {"name": "generator/G_MODEL/b2/MirrorPad_1/paddings", "shape": [4, 2], "dtype": "int32"}, {"name": "generator/G_MODEL/b2/SeparableConv2d/depthwise_weights", "shape": [3, 3, 128, 1], "dtype": "float32", "quantization": {"dtype": "uint8", "min": -0.10332513653180178, "scale": 0.0008009700506341224, "original_dtype": "float32"}}, {"name": "generator/G_MODEL/b2/SeparableConv2d/pointwise_weights", "shape": [1, 1, 128, 128], "dtype": "float32", "quantization": {"dtype": "uint8", "min": -0.21717885732650757, "scale": 0.0016835570335388184, "original_dtype": "float32"}}, {"name": "generator/G_MODEL/b2/SeparableConv2d/InstanceNorm/moments/mean/reduction_indices", "shape": [2], "dtype": "int32"}, {"name": "generator/G_MODEL/b2/SeparableConv2d/InstanceNorm/moments/variance/reduction_indices", "shape": [2], "dtype": "int32"}, {"name": "generator/G_MODEL/b2/SeparableConv2d/InstanceNorm/instancenorm/add/y", "shape": [], "dtype": "float32", "quantization": {"dtype": "uint8", "min": 9.999999974752427e-07, "scale": 1.0, "original_dtype": "float32"}}, {"name": "generator/G_MODEL/b2/SeparableConv2d/InstanceNorm/gamma", "shape": [128], "dtype": "float32", "quantization": {"dtype": "uint8", "min": 0.9540279507637024, "scale": 0.00037727893567552755, "original_dtype": "float32"}}, {"name": "generator/G_MODEL/b2/strided_slice_1/stack", "shape": [1], "dtype": "int32"}, {"name": "generator/G_MODEL/b2/strided_slice_1/stack_1", "shape": [1], "dtype": "int32"}, {"name": "generator/G_MODEL/b2/strided_slice_1/stack_2", "shape": [1], "dtype": "int32"}, {"name": "generator/G_MODEL/b2/floordiv_1/y", "shape": [], "dtype": "int32"}, {"name": "generator/G_MODEL/b2/MirrorPad_3/paddings", "shape": [4, 2], "dtype": "int32"}, {"name": "generator/G_MODEL/b2/SeparableConv2d_2/depthwise_weights", "shape": [3, 3, 128, 1], "dtype": "float32", "quantization": {"dtype": "uint8", "min": -0.10442620071710323, "scale": 0.000842146779976639, "original_dtype": "float32"}}, {"name": "generator/G_MODEL/b2/SeparableConv2d_2/pointwise_weights", "shape": [1, 1, 128, 256], "dtype": "float32", "quantization": {"dtype": "uint8", "min": -0.1938256846923454, "scale": 0.0014464603335249658, "original_dtype": "float32"}}, {"name": "generator/G_MODEL/b2/SeparableConv2d_2/InstanceNorm/moments/mean/reduction_indices", "shape": [2], "dtype": "int32"}, {"name": "generator/G_MODEL/b2/SeparableConv2d_2/InstanceNorm/moments/variance/reduction_indices", "shape": [2], "dtype": "int32"}, {"name": "generator/G_MODEL/b2/SeparableConv2d_2/InstanceNorm/instancenorm/add/y", "shape": [], "dtype": "float32", "quantization": {"dtype": "uint8", "min": 9.999999974752427e-07, "scale": 1.0, "original_dtype": "float32"}}, {"name": "generator/G_MODEL/b2/SeparableConv2d_2/InstanceNorm/gamma", "shape": [256], "dtype": "float32", "quantization": {"dtype": "uint8", "min": 0.9404187798500061, "scale": 0.00035730740603278667, "original_dtype": "float32"}}, {"name": "generator/G_MODEL/m/MirrorPad/paddings", "shape": [4, 2], "dtype": "int32"}, {"name": "generator/G_MODEL/m/Conv/weights", "shape": [3, 3, 256, 256], "dtype": "float32", "quantization": {"dtype": "uint8", "min": -0.1100850596147425, "scale": 0.0008533725551530427, "original_dtype": "float32"}}, {"name": "generator/G_MODEL/m/InstanceNorm/moments/mean/reduction_indices", "shape": [2], "dtype": "int32"}, {"name": "generator/G_MODEL/m/InstanceNorm/moments/variance/reduction_indices", "shape": [2], "dtype": "int32"}, {"name": "generator/G_MODEL/m/InstanceNorm/instancenorm/add/y", "shape": [], "dtype": "float32", "quantization": {"dtype": "uint8", "min": 9.999999747378752e-06, "scale": 1.0, "original_dtype": "float32"}}, {"name": "generator/G_MODEL/m/InstanceNorm/gamma", "shape": [256], "dtype": "float32", "quantization": {"dtype": "uint8", "min": 0.9841426610946655, "scale": 0.0003315116844925226, "original_dtype": "float32"}}, {"name": "generator/G_MODEL/m/r1/Conv/weights", "shape": [1, 1, 256, 512], "dtype": "float32", "quantization": {"dtype": "uint8", "min": -0.1499065069591298, "scale": 0.0011620659454196108, "original_dtype": "float32"}}, {"name": "generator/G_MODEL/m/r1/InstanceNorm/moments/mean/reduction_indices", "shape": [2], "dtype": "int32"}, {"name": "generator/G_MODEL/m/r1/InstanceNorm/moments/variance/reduction_indices", "shape": [2], "dtype": "int32"}, {"name": "generator/G_MODEL/m/r1/InstanceNorm/instancenorm/add/y", "shape": [], "dtype": "float32", "quantization": {"dtype": "uint8", "min": 9.999999747378752e-06, "scale": 1.0, "original_dtype": "float32"}}, {"name": "generator/G_MODEL/m/r1/InstanceNorm/gamma", "shape": [512], "dtype": "float32", "quantization": {"dtype": "uint8", "min": 0.8701468110084534, "scale": 0.0009070202416064692, "original_dtype": "float32"}}, {"name": "generator/G_MODEL/m/r1/MirrorPad/paddings", "shape": [4, 2], "dtype": "int32"}, {"name": "generator/G_MODEL/m/r1/r1/w", "shape": [3, 3, 512, 1], "dtype": "float32", "quantization": {"dtype": "uint8", "min": -0.09627706490310968, "scale": 0.0007521645695555444, "original_dtype": "float32"}}, {"name": "generator/G_MODEL/m/r1/1/moments/mean/reduction_indices", "shape": [2], "dtype": "int32"}, {"name": "generator/G_MODEL/m/r1/1/moments/variance/reduction_indices", "shape": [2], "dtype": "int32"}, {"name": "generator/G_MODEL/m/r1/1/instancenorm/add/y", "shape": [], "dtype": "float32", "quantization": {"dtype": "uint8", "min": 9.999999747378752e-06, "scale": 1.0, "original_dtype": "float32"}}, {"name": "generator/G_MODEL/m/r1/1/gamma", "shape": [512], "dtype": "float32", "quantization": {"dtype": "uint8", "min": 0.945114016532898, "scale": 0.00048258585088393265, "original_dtype": "float32"}}, {"name": "generator/G_MODEL/m/r1/Conv_1/weights", "shape": [1, 1, 512, 256], "dtype": "float32", "quantization": {"dtype": "uint8", "min": -0.16639555049877539, "scale": 0.0012510943646524466, "original_dtype": "float32"}}, {"name": "generator/G_MODEL/m/r1/2/moments/mean/reduction_indices", "shape": [2], "dtype": "int32"}, {"name": "generator/G_MODEL/m/r1/2/moments/variance/reduction_indices", "shape": [2], "dtype": "int32"}, {"name": "generator/G_MODEL/m/r1/2/instancenorm/add/y", "shape": [], "dtype": "float32", "quantization": {"dtype": "uint8", "min": 9.999999747378752e-06, "scale": 1.0, "original_dtype": "float32"}}, {"name": "generator/G_MODEL/m/r1/2/gamma", "shape": [256], "dtype": "float32", "quantization": {"dtype": "uint8", "min": 0.9453383684158325, "scale": 0.00030928593055874694, "original_dtype": "float32"}}, {"name": "generator/G_MODEL/m/r2/Conv/weights", "shape": [1, 1, 256, 512], "dtype": "float32", "quantization": {"dtype": "uint8", "min": -0.14248788041227006, "scale": 0.001130856193748175, "original_dtype": "float32"}}, {"name": "generator/G_MODEL/m/r2/InstanceNorm/moments/mean/reduction_indices", "shape": [2], "dtype": "int32"}, {"name": "generator/G_MODEL/m/r2/InstanceNorm/moments/variance/reduction_indices", "shape": [2], "dtype": "int32"}, {"name": "generator/G_MODEL/m/r2/InstanceNorm/instancenorm/add/y", "shape": [], "dtype": "float32", "quantization": {"dtype": "uint8", "min": 9.999999747378752e-06, "scale": 1.0, "original_dtype": "float32"}}, {"name": "generator/G_MODEL/m/r2/InstanceNorm/gamma", "shape": [512], "dtype": "float32", "quantization": {"dtype": "uint8", "min": 0.8462940454483032, "scale": 0.0008656113755469228, "original_dtype": "float32"}}, {"name": "generator/G_MODEL/m/r2/MirrorPad/paddings", "shape": [4, 2], "dtype": "int32"}, {"name": "generator/G_MODEL/m/r2/r2/w", "shape": [3, 3, 512, 1], "dtype": "float32", "quantization": {"dtype": "uint8", "min": -0.07719169224009793, "scale": 0.0006275747336593328, "original_dtype": "float32"}}, {"name": "generator/G_MODEL/m/r2/1/moments/mean/reduction_indices", "shape": [2], "dtype": "int32"}, {"name": "generator/G_MODEL/m/r2/1/moments/variance/reduction_indices", "shape": [2], "dtype": "int32"}, {"name": "generator/G_MODEL/m/r2/1/instancenorm/add/y", "shape": [], "dtype": "float32", "quantization": {"dtype": "uint8", "min": 9.999999747378752e-06, "scale": 1.0, "original_dtype": "float32"}}, {"name": "generator/G_MODEL/m/r2/1/gamma", "shape": [512], "dtype": "float32", "quantization": {"dtype": "uint8", "min": 0.9373223185539246, "scale": 0.0005584462016236548, "original_dtype": "float32"}}, {"name": "generator/G_MODEL/m/r2/Conv_1/weights", "shape": [1, 1, 512, 256], "dtype": "float32", "quantization": {"dtype": "uint8", "min": -0.1522194814448263, "scale": 0.001258012243345672, "original_dtype": "float32"}}, {"name": "generator/G_MODEL/m/r2/2/moments/mean/reduction_indices", "shape": [2], "dtype": "int32"}, {"name": "generator/G_MODEL/m/r2/2/moments/variance/reduction_indices", "shape": [2], "dtype": "int32"}, {"name": "generator/G_MODEL/m/r2/2/instancenorm/add/y", "shape": [], "dtype": "float32", "quantization": {"dtype": "uint8", "min": 9.999999747378752e-06, "scale": 1.0, "original_dtype": "float32"}}, {"name": "generator/G_MODEL/m/r2/2/gamma", "shape": [256], "dtype": "float32", "quantization": {"dtype": "uint8", "min": 0.9442867636680603, "scale": 0.00030461830251357137, "original_dtype": "float32"}}, {"name": "generator/G_MODEL/m/r3/Conv/weights", "shape": [1, 1, 256, 512], "dtype": "float32", "quantization": {"dtype": "uint8", "min": -0.15150762936648202, "scale": 0.0011565467890571146, "original_dtype": "float32"}}, {"name": "generator/G_MODEL/m/r3/InstanceNorm/moments/mean/reduction_indices", "shape": [2], "dtype": "int32"}, {"name": "generator/G_MODEL/m/r3/InstanceNorm/moments/variance/reduction_indices", "shape": [2], "dtype": "int32"}, {"name": "generator/G_MODEL/m/r3/InstanceNorm/instancenorm/add/y", "shape": [], "dtype": "float32", "quantization": {"dtype": "uint8", "min": 9.999999747378752e-06, "scale": 1.0, "original_dtype": "float32"}}, {"name": "generator/G_MODEL/m/r3/InstanceNorm/gamma", "shape": [512], "dtype": "float32", "quantization": {"dtype": "uint8", "min": 0.7951279282569885, "scale": 0.0010898213760525573, "original_dtype": "float32"}}, {"name": "generator/G_MODEL/m/r3/MirrorPad/paddings", "shape": [4, 2], "dtype": "int32"}, {"name": "generator/G_MODEL/m/r3/r3/w", "shape": [3, 3, 512, 1], "dtype": "float32", "quantization": {"dtype": "uint8", "min": -0.08454696790260427, "scale": 0.0006171311525737538, "original_dtype": "float32"}}, {"name": "generator/G_MODEL/m/r3/1/moments/mean/reduction_indices", "shape": [2], "dtype": "int32"}, {"name": "generator/G_MODEL/m/r3/1/moments/variance/reduction_indices", "shape": [2], "dtype": "int32"}, {"name": "generator/G_MODEL/m/r3/1/instancenorm/add/y", "shape": [], "dtype": "float32", "quantization": {"dtype": "uint8", "min": 9.999999747378752e-06, "scale": 1.0, "original_dtype": "float32"}}, {"name": "generator/G_MODEL/m/r3/1/gamma", "shape": [512], "dtype": "float32", "quantization": {"dtype": "uint8", "min": 0.9410295486450195, "scale": 0.0005949698242486692, "original_dtype": "float32"}}, {"name": "generator/G_MODEL/m/r3/Conv_1/weights", "shape": [1, 1, 512, 256], "dtype": "float32", "quantization": {"dtype": "uint8", "min": -0.1582083245118459, "scale": 0.0013294817185869404, "original_dtype": "float32"}}, {"name": "generator/G_MODEL/m/r3/2/moments/mean/reduction_indices", "shape": [2], "dtype": "int32"}, {"name": "generator/G_MODEL/m/r3/2/moments/variance/reduction_indices", "shape": [2], "dtype": "int32"}, {"name": "generator/G_MODEL/m/r3/2/instancenorm/add/y", "shape": [], "dtype": "float32", "quantization": {"dtype": "uint8", "min": 9.999999747378752e-06, "scale": 1.0, "original_dtype": "float32"}}, {"name": "generator/G_MODEL/m/r3/2/gamma", "shape": [256], "dtype": "float32", "quantization": {"dtype": "uint8", "min": 0.9413889050483704, "scale": 0.0003319808081084607, "original_dtype": "float32"}}, {"name": "generator/G_MODEL/m/r4/Conv/weights", "shape": [1, 1, 256, 512], "dtype": "float32", "quantization": {"dtype": "uint8", "min": -0.14515666774674957, "scale": 0.0011898087520225374, "original_dtype": "float32"}}, {"name": "generator/G_MODEL/m/r4/InstanceNorm/moments/mean/reduction_indices", "shape": [2], "dtype": "int32"}, {"name": "generator/G_MODEL/m/r4/InstanceNorm/moments/variance/reduction_indices", "shape": [2], "dtype": "int32"}, {"name": "generator/G_MODEL/m/r4/InstanceNorm/instancenorm/add/y", "shape": [], "dtype": "float32", "quantization": {"dtype": "uint8", "min": 9.999999747378752e-06, "scale": 1.0, "original_dtype": "float32"}}, {"name": "generator/G_MODEL/m/r4/InstanceNorm/gamma", "shape": [512], "dtype": "float32", "quantization": {"dtype": "uint8", "min": 0.7644800543785095, "scale": 0.0012383299715378706, "original_dtype": "float32"}}, {"name": "generator/G_MODEL/m/r4/MirrorPad/paddings", "shape": [4, 2], "dtype": "int32"}, {"name": "generator/G_MODEL/m/r4/r4/w", "shape": [3, 3, 512, 1], "dtype": "float32", "quantization": {"dtype": "uint8", "min": -0.07229200741823982, "scale": 0.0005877398977092668, "original_dtype": "float32"}}, {"name": "generator/G_MODEL/m/r4/1/moments/mean/reduction_indices", "shape": [2], "dtype": "int32"}, {"name": "generator/G_MODEL/m/r4/1/moments/variance/reduction_indices", "shape": [2], "dtype": "int32"}, {"name": "generator/G_MODEL/m/r4/1/instancenorm/add/y", "shape": [], "dtype": "float32", "quantization": {"dtype": "uint8", "min": 9.999999747378752e-06, "scale": 1.0, "original_dtype": "float32"}}, {"name": "generator/G_MODEL/m/r4/1/gamma", "shape": [512], "dtype": "float32", "quantization": {"dtype": "uint8", "min": 0.9373289942741394, "scale": 0.0006676012394475002, "original_dtype": "float32"}}, {"name": "generator/G_MODEL/m/r4/Conv_1/weights", "shape": [1, 1, 512, 256], "dtype": "float32", "quantization": {"dtype": "uint8", "min": -0.16666186510347852, "scale": 0.0012530967301013422, "original_dtype": "float32"}}, {"name": "generator/G_MODEL/m/r4/2/moments/mean/reduction_indices", "shape": [2], "dtype": "int32"}, {"name": "generator/G_MODEL/m/r4/2/moments/variance/reduction_indices", "shape": [2], "dtype": "int32"}, {"name": "generator/G_MODEL/m/r4/2/instancenorm/add/y", "shape": [], "dtype": "float32", "quantization": {"dtype": "uint8", "min": 9.999999747378752e-06, "scale": 1.0, "original_dtype": "float32"}}, {"name": "generator/G_MODEL/m/r4/2/gamma", "shape": [256], "dtype": "float32", "quantization": {"dtype": "uint8", "min": 0.9473584294319153, "scale": 0.000305790760937859, "original_dtype": "float32"}}, {"name": "generator/G_MODEL/m/r5/Conv/weights", "shape": [1, 1, 256, 512], "dtype": "float32", "quantization": {"dtype": "uint8", "min": -0.15457434934728284, "scale": 0.0012465673334458294, "original_dtype": "float32"}}, {"name": "generator/G_MODEL/m/r5/InstanceNorm/moments/mean/reduction_indices", "shape": [2], "dtype": "int32"}, {"name": "generator/G_MODEL/m/r5/InstanceNorm/moments/variance/reduction_indices", "shape": [2], "dtype": "int32"}, {"name": "generator/G_MODEL/m/r5/InstanceNorm/instancenorm/add/y", "shape": [], "dtype": "float32", "quantization": {"dtype": "uint8", "min": 9.999999747378752e-06, "scale": 1.0, "original_dtype": "float32"}}, {"name": "generator/G_MODEL/m/r5/InstanceNorm/gamma", "shape": [512], "dtype": "float32", "quantization": {"dtype": "uint8", "min": 0.7354808449745178, "scale": 0.0012912294443915872, "original_dtype": "float32"}}, {"name": "generator/G_MODEL/m/r5/MirrorPad/paddings", "shape": [4, 2], "dtype": "int32"}, {"name": "generator/G_MODEL/m/r5/r5/w", "shape": [3, 3, 512, 1], "dtype": "float32", "quantization": {"dtype": "uint8", "min": -0.08601600796568627, "scale": 0.0007415173100490196, "original_dtype": "float32"}}, {"name": "generator/G_MODEL/m/r5/1/moments/mean/reduction_indices", "shape": [2], "dtype": "int32"}, {"name": "generator/G_MODEL/m/r5/1/moments/variance/reduction_indices", "shape": [2], "dtype": "int32"}, {"name": "generator/G_MODEL/m/r5/1/instancenorm/add/y", "shape": [], "dtype": "float32", "quantization": {"dtype": "uint8", "min": 9.999999747378752e-06, "scale": 1.0, "original_dtype": "float32"}}, {"name": "generator/G_MODEL/m/r5/1/gamma", "shape": [512], "dtype": "float32", "quantization": {"dtype": "uint8", "min": 0.8880842924118042, "scale": 0.0006608841465968712, "original_dtype": "float32"}}, {"name": "generator/G_MODEL/m/r5/Conv_1/weights", "shape": [1, 1, 512, 256], "dtype": "float32", "quantization": {"dtype": "uint8", "min": -0.1713273466802111, "scale": 0.0012785622886582917, "original_dtype": "float32"}}, {"name": "generator/G_MODEL/m/r5/2/moments/mean/reduction_indices", "shape": [2], "dtype": "int32"}, {"name": "generator/G_MODEL/m/r5/2/moments/variance/reduction_indices", "shape": [2], "dtype": "int32"}, {"name": "generator/G_MODEL/m/r5/2/instancenorm/add/y", "shape": [], "dtype": "float32", "quantization": {"dtype": "uint8", "min": 9.999999747378752e-06, "scale": 1.0, "original_dtype": "float32"}}, {"name": "generator/G_MODEL/m/r5/2/gamma", "shape": [256], "dtype": "float32", "quantization": {"dtype": "uint8", "min": 0.9570342898368835, "scale": 0.0003721735056708841, "original_dtype": "float32"}}, {"name": "generator/G_MODEL/m/r6/Conv/weights", "shape": [1, 1, 256, 512], "dtype": "float32", "quantization": {"dtype": "uint8", "min": -0.15183891262493882, "scale": 0.0012548670464870976, "original_dtype": "float32"}}, {"name": "generator/G_MODEL/m/r6/InstanceNorm/moments/mean/reduction_indices", "shape": [2], "dtype": "int32"}, {"name": "generator/G_MODEL/m/r6/InstanceNorm/moments/variance/reduction_indices", "shape": [2], "dtype": "int32"}, {"name": "generator/G_MODEL/m/r6/InstanceNorm/instancenorm/add/y", "shape": [], "dtype": "float32", "quantization": {"dtype": "uint8", "min": 9.999999747378752e-06, "scale": 1.0, "original_dtype": "float32"}}, {"name": "generator/G_MODEL/m/r6/InstanceNorm/gamma", "shape": [512], "dtype": "float32", "quantization": {"dtype": "uint8", "min": 0.7556924223899841, "scale": 0.001228169132681454, "original_dtype": "float32"}}, {"name": "generator/G_MODEL/m/r6/MirrorPad/paddings", "shape": [4, 2], "dtype": "int32"}, {"name": "generator/G_MODEL/m/r6/r6/w", "shape": [3, 3, 512, 1], "dtype": "float32", "quantization": {"dtype": "uint8", "min": -0.08613709608713785, "scale": 0.0006333610006407195, "original_dtype": "float32"}}, {"name": "generator/G_MODEL/m/r6/1/moments/mean/reduction_indices", "shape": [2], "dtype": "int32"}, {"name": "generator/G_MODEL/m/r6/1/moments/variance/reduction_indices", "shape": [2], "dtype": "int32"}, {"name": "generator/G_MODEL/m/r6/1/instancenorm/add/y", "shape": [], "dtype": "float32", "quantization": {"dtype": "uint8", "min": 9.999999747378752e-06, "scale": 1.0, "original_dtype": "float32"}}, {"name": "generator/G_MODEL/m/r6/1/gamma", "shape": [512], "dtype": "float32", "quantization": {"dtype": "uint8", "min": 0.9386494159698486, "scale": 0.0005524284699383904, "original_dtype": "float32"}}, {"name": "generator/G_MODEL/m/r6/Conv_1/weights", "shape": [1, 1, 512, 256], "dtype": "float32", "quantization": {"dtype": "uint8", "min": -0.16509738973542756, "scale": 0.0012699799210417505, "original_dtype": "float32"}}, {"name": "generator/G_MODEL/m/r6/2/moments/mean/reduction_indices", "shape": [2], "dtype": "int32"}, {"name": "generator/G_MODEL/m/r6/2/moments/variance/reduction_indices", "shape": [2], "dtype": "int32"}, {"name": "generator/G_MODEL/m/r6/2/instancenorm/add/y", "shape": [], "dtype": "float32", "quantization": {"dtype": "uint8", "min": 9.999999747378752e-06, "scale": 1.0, "original_dtype": "float32"}}, {"name": "generator/G_MODEL/m/r6/2/gamma", "shape": [256], "dtype": "float32", "quantization": {"dtype": "uint8", "min": 0.9487996101379395, "scale": 0.000402068624309465, "original_dtype": "float32"}}, {"name": "generator/G_MODEL/m/r7/Conv/weights", "shape": [1, 1, 256, 512], "dtype": "float32", "quantization": {"dtype": "uint8", "min": -0.14731554143569048, "scale": 0.0011880285599652459, "original_dtype": "float32"}}, {"name": "generator/G_MODEL/m/r7/InstanceNorm/moments/mean/reduction_indices", "shape": [2], "dtype": "int32"}, {"name": "generator/G_MODEL/m/r7/InstanceNorm/moments/variance/reduction_indices", "shape": [2], "dtype": "int32"}, {"name": "generator/G_MODEL/m/r7/InstanceNorm/instancenorm/add/y", "shape": [], "dtype": "float32", "quantization": {"dtype": "uint8", "min": 9.999999747378752e-06, "scale": 1.0, "original_dtype": "float32"}}, {"name": "generator/G_MODEL/m/r7/InstanceNorm/gamma", "shape": [512], "dtype": "float32", "quantization": {"dtype": "uint8", "min": 0.7764981389045715, "scale": 0.0011414829422445858, "original_dtype": "float32"}}, {"name": "generator/G_MODEL/m/r7/MirrorPad/paddings", "shape": [4, 2], "dtype": "int32"}, {"name": "generator/G_MODEL/m/r7/r7/w", "shape": [3, 3, 512, 1], "dtype": "float32", "quantization": {"dtype": "uint8", "min": -0.10071231047896778, "scale": 0.0007142717055245942, "original_dtype": "float32"}}, {"name": "generator/G_MODEL/m/r7/1/moments/mean/reduction_indices", "shape": [2], "dtype": "int32"}, {"name": "generator/G_MODEL/m/r7/1/moments/variance/reduction_indices", "shape": [2], "dtype": "int32"}, {"name": "generator/G_MODEL/m/r7/1/instancenorm/add/y", "shape": [], "dtype": "float32", "quantization": {"dtype": "uint8", "min": 9.999999747378752e-06, "scale": 1.0, "original_dtype": "float32"}}, {"name": "generator/G_MODEL/m/r7/1/gamma", "shape": [512], "dtype": "float32", "quantization": {"dtype": "uint8", "min": 0.936417818069458, "scale": 0.000494997641619514, "original_dtype": "float32"}}, {"name": "generator/G_MODEL/m/r7/Conv_1/weights", "shape": [1, 1, 512, 256], "dtype": "float32", "quantization": {"dtype": "uint8", "min": -0.1482942878031263, "scale": 0.0011959216758316638, "original_dtype": "float32"}}, {"name": "generator/G_MODEL/m/r7/2/moments/mean/reduction_indices", "shape": [2], "dtype": "int32"}, {"name": "generator/G_MODEL/m/r7/2/moments/variance/reduction_indices", "shape": [2], "dtype": "int32"}, {"name": "generator/G_MODEL/m/r7/2/instancenorm/add/y", "shape": [], "dtype": "float32", "quantization": {"dtype": "uint8", "min": 9.999999747378752e-06, "scale": 1.0, "original_dtype": "float32"}}, {"name": "generator/G_MODEL/m/r7/2/gamma", "shape": [256], "dtype": "float32", "quantization": {"dtype": "uint8", "min": 0.9618545174598694, "scale": 0.0005243041936089011, "original_dtype": "float32"}}, {"name": "generator/G_MODEL/m/r8/Conv/weights", "shape": [1, 1, 256, 512], "dtype": "float32", "quantization": {"dtype": "uint8", "min": -0.16038882662268245, "scale": 0.0012729271954181147, "original_dtype": "float32"}}, {"name": "generator/G_MODEL/m/r8/InstanceNorm/moments/mean/reduction_indices", "shape": [2], "dtype": "int32"}, {"name": "generator/G_MODEL/m/r8/InstanceNorm/moments/variance/reduction_indices", "shape": [2], "dtype": "int32"}, {"name": "generator/G_MODEL/m/r8/InstanceNorm/instancenorm/add/y", "shape": [], "dtype": "float32", "quantization": {"dtype": "uint8", "min": 9.999999747378752e-06, "scale": 1.0, "original_dtype": "float32"}}, {"name": "generator/G_MODEL/m/r8/InstanceNorm/gamma", "shape": [512], "dtype": "float32", "quantization": {"dtype": "uint8", "min": 0.7512204051017761, "scale": 0.0013135075569152832, "original_dtype": "float32"}}, {"name": "generator/G_MODEL/m/r8/MirrorPad/paddings", "shape": [4, 2], "dtype": "int32"}, {"name": "generator/G_MODEL/m/r8/r8/w", "shape": [3, 3, 512, 1], "dtype": "float32", "quantization": {"dtype": "uint8", "min": -0.08490447945454542, "scale": 0.0007447761355661879, "original_dtype": "float32"}}, {"name": "generator/G_MODEL/m/r8/1/moments/mean/reduction_indices", "shape": [2], "dtype": "int32"}, {"name": "generator/G_MODEL/m/r8/1/moments/variance/reduction_indices", "shape": [2], "dtype": "int32"}, {"name": "generator/G_MODEL/m/r8/1/instancenorm/add/y", "shape": [], "dtype": "float32", "quantization": {"dtype": "uint8", "min": 9.999999747378752e-06, "scale": 1.0, "original_dtype": "float32"}}, {"name": "generator/G_MODEL/m/r8/1/gamma", "shape": [512], "dtype": "float32", "quantization": {"dtype": "uint8", "min": 0.9214532971382141, "scale": 0.0006016560629302381, "original_dtype": "float32"}}, {"name": "generator/G_MODEL/m/r8/Conv_1/weights", "shape": [1, 1, 512, 256], "dtype": "float32", "quantization": {"dtype": "uint8", "min": -0.16591803887311152, "scale": 0.001306441250969382, "original_dtype": "float32"}}, {"name": "generator/G_MODEL/m/r8/2/moments/mean/reduction_indices", "shape": [2], "dtype": "int32"}, {"name": "generator/G_MODEL/m/r8/2/moments/variance/reduction_indices", "shape": [2], "dtype": "int32"}, {"name": "generator/G_MODEL/m/r8/2/instancenorm/add/y", "shape": [], "dtype": "float32", "quantization": {"dtype": "uint8", "min": 9.999999747378752e-06, "scale": 1.0, "original_dtype": "float32"}}, {"name": "generator/G_MODEL/m/r8/2/gamma", "shape": [256], "dtype": "float32", "quantization": {"dtype": "uint8", "min": 0.9664921760559082, "scale": 0.0005369462218939089, "original_dtype": "float32"}}, {"name": "generator/G_MODEL/m/MirrorPad_1/paddings", "shape": [4, 2], "dtype": "int32"}, {"name": "generator/G_MODEL/m/Conv_1/weights", "shape": [3, 3, 256, 256], "dtype": "float32", "quantization": {"dtype": "uint8", "min": -0.13125531930549472, "scale": 0.000937537995039248, "original_dtype": "float32"}}, {"name": "generator/G_MODEL/m/InstanceNorm_1/moments/mean/reduction_indices", "shape": [2], "dtype": "int32"}, {"name": "generator/G_MODEL/m/InstanceNorm_1/moments/variance/reduction_indices", "shape": [2], "dtype": "int32"}, {"name": "generator/G_MODEL/m/InstanceNorm_1/instancenorm/add/y", "shape": [], "dtype": "float32", "quantization": {"dtype": "uint8", "min": 9.999999747378752e-06, "scale": 1.0, "original_dtype": "float32"}}, {"name": "generator/G_MODEL/m/InstanceNorm_1/gamma", "shape": [256], "dtype": "float32", "quantization": {"dtype": "uint8", "min": 0.9635822176933289, "scale": 0.000703741756140017, "original_dtype": "float32"}}, {"name": "generator/G_MODEL/u2/strided_slice_1/stack", "shape": [1], "dtype": "int32"}, {"name": "generator/G_MODEL/u2/strided_slice_1/stack_1", "shape": [1], "dtype": "int32"}, {"name": "generator/G_MODEL/u2/strided_slice_1/stack_2", "shape": [1], "dtype": "int32"}, {"name": "generator/G_MODEL/u2/MirrorPad/paddings", "shape": [4, 2], "dtype": "int32"}, {"name": "generator/G_MODEL/u2/SeparableConv2d/depthwise_weights", "shape": [3, 3, 256, 1], "dtype": "float32", "quantization": {"dtype": "uint8", "min": -0.091571064731654, "scale": 0.0008032549537864386, "original_dtype": "float32"}}, {"name": "generator/G_MODEL/u2/SeparableConv2d/pointwise_weights", "shape": [1, 1, 256, 128], "dtype": "float32", "quantization": {"dtype": "uint8", "min": -0.279486465921589, "scale": 0.002253923112270879, "original_dtype": "float32"}}, {"name": "generator/G_MODEL/u2/SeparableConv2d/InstanceNorm/moments/mean/reduction_indices", "shape": [2], "dtype": "int32"}, {"name": "generator/G_MODEL/u2/SeparableConv2d/InstanceNorm/moments/variance/reduction_indices", "shape": [2], "dtype": "int32"}, {"name": "generator/G_MODEL/u2/SeparableConv2d/InstanceNorm/instancenorm/add/y", "shape": [], "dtype": "float32", "quantization": {"dtype": "uint8", "min": 9.999999974752427e-07, "scale": 1.0, "original_dtype": "float32"}}, {"name": "generator/G_MODEL/u2/SeparableConv2d/InstanceNorm/gamma", "shape": [128], "dtype": "float32", "quantization": {"dtype": "uint8", "min": 0.9617236256599426, "scale": 0.0005108947847403732, "original_dtype": "float32"}}, {"name": "generator/G_MODEL/u2/MirrorPad_1/paddings", "shape": [4, 2], "dtype": "int32"}, {"name": "generator/G_MODEL/u2/SeparableConv2d_1/depthwise_weights", "shape": [3, 3, 128, 1], "dtype": "float32", "quantization": {"dtype": "uint8", "min": -0.14433553642502017, "scale": 0.0010093394155595817, "original_dtype": "float32"}}, {"name": "generator/G_MODEL/u2/SeparableConv2d_1/pointwise_weights", "shape": [1, 1, 128, 128], "dtype": "float32", "quantization": {"dtype": "uint8", "min": -0.24097170058418724, "scale": 0.001912473814160216, "original_dtype": "float32"}}, {"name": "generator/G_MODEL/u2/SeparableConv2d_1/InstanceNorm/moments/mean/reduction_indices", "shape": [2], "dtype": "int32"}, {"name": "generator/G_MODEL/u2/SeparableConv2d_1/InstanceNorm/moments/variance/reduction_indices", "shape": [2], "dtype": "int32"}, {"name": "generator/G_MODEL/u2/SeparableConv2d_1/InstanceNorm/instancenorm/add/y", "shape": [], "dtype": "float32", "quantization": {"dtype": "uint8", "min": 9.999999974752427e-07, "scale": 1.0, "original_dtype": "float32"}}, {"name": "generator/G_MODEL/u2/SeparableConv2d_1/InstanceNorm/gamma", "shape": [128], "dtype": "float32", "quantization": {"dtype": "uint8", "min": 0.9618955254554749, "scale": 0.00033587123833450617, "original_dtype": "float32"}}, {"name": "generator/G_MODEL/u2/MirrorPad_2/paddings", "shape": [4, 2], "dtype": "int32"}, {"name": "generator/G_MODEL/u2/Conv/weights", "shape": [3, 3, 128, 128], "dtype": "float32", "quantization": {"dtype": "uint8", "min": -0.12421742221888372, "scale": 0.0010098977416169409, "original_dtype": "float32"}}, {"name": "generator/G_MODEL/u2/InstanceNorm/moments/mean/reduction_indices", "shape": [2], "dtype": "int32"}, {"name": "generator/G_MODEL/u2/InstanceNorm/moments/variance/reduction_indices", "shape": [2], "dtype": "int32"}, {"name": "generator/G_MODEL/u2/InstanceNorm/instancenorm/add/y", "shape": [], "dtype": "float32", "quantization": {"dtype": "uint8", "min": 9.999999747378752e-06, "scale": 1.0, "original_dtype": "float32"}}, {"name": "generator/G_MODEL/u2/InstanceNorm/gamma", "shape": [128], "dtype": "float32", "quantization": {"dtype": "uint8", "min": 0.9677164554595947, "scale": 0.00047237171846277573, "original_dtype": "float32"}}, {"name": "generator/G_MODEL/u1/strided_slice_1/stack", "shape": [1], "dtype": "int32"}, {"name": "generator/G_MODEL/u1/strided_slice_1/stack_1", "shape": [1], "dtype": "int32"}, {"name": "generator/G_MODEL/u1/strided_slice_1/stack_2", "shape": [1], "dtype": "int32"}, {"name": "generator/G_MODEL/u1/MirrorPad/paddings", "shape": [4, 2], "dtype": "int32"}, {"name": "generator/G_MODEL/u1/SeparableConv2d/depthwise_weights", "shape": [3, 3, 128, 1], "dtype": "float32", "quantization": {"dtype": "uint8", "min": -0.10198028411935357, "scale": 0.0008291080009703543, "original_dtype": "float32"}}, {"name": "generator/G_MODEL/u1/SeparableConv2d/pointwise_weights", "shape": [1, 1, 128, 128], "dtype": "float32", "quantization": {"dtype": "uint8", "min": -0.23375021038102167, "scale": 0.0017575203788046743, "original_dtype": "float32"}}, {"name": "generator/G_MODEL/u1/SeparableConv2d/InstanceNorm/moments/mean/reduction_indices", "shape": [2], "dtype": "int32"}, {"name": "generator/G_MODEL/u1/SeparableConv2d/InstanceNorm/moments/variance/reduction_indices", "shape": [2], "dtype": "int32"}, {"name": "generator/G_MODEL/u1/SeparableConv2d/InstanceNorm/instancenorm/add/y", "shape": [], "dtype": "float32", "quantization": {"dtype": "uint8", "min": 9.999999974752427e-07, "scale": 1.0, "original_dtype": "float32"}}, {"name": "generator/G_MODEL/u1/SeparableConv2d/InstanceNorm/gamma", "shape": [128], "dtype": "float32", "quantization": {"dtype": "uint8", "min": 0.9573061466217041, "scale": 0.000488436455820121, "original_dtype": "float32"}}, {"name": "generator/G_MODEL/u1/MirrorPad_1/paddings", "shape": [4, 2], "dtype": "int32"}, {"name": "generator/G_MODEL/u1/Conv/weights", "shape": [3, 3, 128, 64], "dtype": "float32", "quantization": {"dtype": "uint8", "min": -0.13316307289927612, "scale": 0.001065304583194209, "original_dtype": "float32"}}, {"name": "generator/G_MODEL/u1/InstanceNorm/moments/mean/reduction_indices", "shape": [2], "dtype": "int32"}, {"name": "generator/G_MODEL/u1/InstanceNorm/moments/variance/reduction_indices", "shape": [2], "dtype": "int32"}, {"name": "generator/G_MODEL/u1/InstanceNorm/instancenorm/add/y", "shape": [], "dtype": "float32", "quantization": {"dtype": "uint8", "min": 9.999999747378752e-06, "scale": 1.0, "original_dtype": "float32"}}, {"name": "generator/G_MODEL/u1/InstanceNorm/gamma", "shape": [64], "dtype": "float32", "quantization": {"dtype": "uint8", "min": 0.964640736579895, "scale": 0.00036617634343165975, "original_dtype": "float32"}}, {"name": "generator/G_MODEL/u1/MirrorPad_2/paddings", "shape": [4, 2], "dtype": "int32"}, {"name": "generator/G_MODEL/u1/Conv_1/weights", "shape": [3, 3, 64, 64], "dtype": "float32", "quantization": {"dtype": "uint8", "min": -0.16901526264115876, "scale": 0.0012072518760082769, "original_dtype": "float32"}}, {"name": "generator/G_MODEL/u1/InstanceNorm_1/moments/mean/reduction_indices", "shape": [2], "dtype": "int32"}, {"name": "generator/G_MODEL/u1/InstanceNorm_1/moments/variance/reduction_indices", "shape": [2], "dtype": "int32"}, {"name": "generator/G_MODEL/u1/InstanceNorm_1/instancenorm/add/y", "shape": [], "dtype": "float32", "quantization": {"dtype": "uint8", "min": 9.999999747378752e-06, "scale": 1.0, "original_dtype": "float32"}}, {"name": "generator/G_MODEL/u1/InstanceNorm_1/gamma", "shape": [64], "dtype": "float32", "quantization": {"dtype": "uint8", "min": 0.9330816864967346, "scale": 0.000727228323618571, "original_dtype": "float32"}}, {"name": "generator/G_MODEL/Conv/weights", "shape": [1, 1, 64, 3], "dtype": "float32", "quantization": {"dtype": "uint8", "min": -0.31053778190238807, "scale": 0.00250433695082571, "original_dtype": "float32"}}]}]}