{"format": "graph-model", "generatedBy": "1.15.0", "convertedBy": "TensorFlow.js Converter v3.9.0", "signature": {"inputs": {"input": {"name": "generator_input:0", "dtype": "DT_FLOAT", "tensorShape": {"dim": [{"size": "1"}, {"size": "-1"}, {"size": "-1"}, {"size": "3"}]}}}, "outputs": {"output": {"name": "generator/G_MODEL/Tanh:0", "dtype": "DT_FLOAT", "tensorShape": {"dim": [{"size": "1"}, {"size": "-1"}, {"size": "-1"}, {"size": "3"}]}}}}, "modelTopology": {"node": [{"name": "generator/G_MODEL/u1/InstanceNorm_1/beta", "op": "Const", "attr": {"value": {"tensor": {"dtype": "DT_FLOAT", "tensorShape": {"dim": [{"size": "64"}]}}}, "dtype": {"type": "DT_FLOAT"}}}, {"name": "generator/G_MODEL/u1/InstanceNorm/beta", "op": "Const", "attr": {"value": {"tensor": {"dtype": "DT_FLOAT", "tensorShape": {"dim": [{"size": "64"}]}}}, "dtype": {"type": "DT_FLOAT"}}}, {"name": "generator/G_MODEL/u1/SeparableConv2d/InstanceNorm/beta", "op": "Const", "attr": {"dtype": {"type": "DT_FLOAT"}, "value": {"tensor": {"dtype": "DT_FLOAT", "tensorShape": {"dim": [{"size": "128"}]}}}}}, {"name": "generator/G_MODEL/u1/mul/x", "op": "Const", "attr": {"dtype": {"type": "DT_INT32"}, "value": {"tensor": {"dtype": "DT_INT32", "tensorShape": {}}}}}, {"name": "generator/G_MODEL/u1/strided_slice/stack", "op": "Const", "attr": {"dtype": {"type": "DT_INT32"}, "value": {"tensor": {"dtype": "DT_INT32", "tensorShape": {"dim": [{"size": "1"}]}}}}}, {"name": "generator/G_MODEL/u1/strided_slice/stack_1", "op": "Const", "attr": {"dtype": {"type": "DT_INT32"}, "value": {"tensor": {"dtype": "DT_INT32", "tensorShape": {"dim": [{"size": "1"}]}}}}}, {"name": "generator/G_MODEL/u1/strided_slice/stack_2", "op": "Const", "attr": {"value": {"tensor": {"dtype": "DT_INT32", "tensorShape": {"dim": [{"size": "1"}]}}}, "dtype": {"type": "DT_INT32"}}}, {"name": "generator/G_MODEL/u1/mul_1/x", "op": "Const", "attr": {"dtype": {"type": "DT_INT32"}, "value": {"tensor": {"dtype": "DT_INT32", "tensorShape": {}}}}}, {"name": "generator/G_MODEL/u2/InstanceNorm/beta", "op": "Const", "attr": {"dtype": {"type": "DT_FLOAT"}, "value": {"tensor": {"dtype": "DT_FLOAT", "tensorShape": {"dim": [{"size": "128"}]}}}}}, {"name": "generator/G_MODEL/u2/SeparableConv2d_1/InstanceNorm/beta", "op": "Const", "attr": {"value": {"tensor": {"dtype": "DT_FLOAT", "tensorShape": {"dim": [{"size": "128"}]}}}, "dtype": {"type": "DT_FLOAT"}}}, {"name": "generator/G_MODEL/u2/SeparableConv2d/InstanceNorm/beta", "op": "Const", "attr": {"dtype": {"type": "DT_FLOAT"}, "value": {"tensor": {"dtype": "DT_FLOAT", "tensorShape": {"dim": [{"size": "128"}]}}}}}, {"name": "generator/G_MODEL/u2/mul/x", "op": "Const", "attr": {"dtype": {"type": "DT_INT32"}, "value": {"tensor": {"dtype": "DT_INT32", "tensorShape": {}}}}}, {"name": "generator/G_MODEL/u2/strided_slice/stack", "op": "Const", "attr": {"value": {"tensor": {"dtype": "DT_INT32", "tensorShape": {"dim": [{"size": "1"}]}}}, "dtype": {"type": "DT_INT32"}}}, {"name": "generator/G_MODEL/u2/strided_slice/stack_1", "op": "Const", "attr": {"value": {"tensor": {"dtype": "DT_INT32", "tensorShape": {"dim": [{"size": "1"}]}}}, "dtype": {"type": "DT_INT32"}}}, {"name": "generator/G_MODEL/u2/strided_slice/stack_2", "op": "Const", "attr": {"dtype": {"type": "DT_INT32"}, "value": {"tensor": {"dtype": "DT_INT32", "tensorShape": {"dim": [{"size": "1"}]}}}}}, {"name": "generator/G_MODEL/u2/mul_1/x", "op": "Const", "attr": {"value": {"tensor": {"dtype": "DT_INT32", "tensorShape": {}}}, "dtype": {"type": "DT_INT32"}}}, {"name": "generator/G_MODEL/m/InstanceNorm_1/beta", "op": "Const", "attr": {"value": {"tensor": {"dtype": "DT_FLOAT", "tensorShape": {"dim": [{"size": "256"}]}}}, "dtype": {"type": "DT_FLOAT"}}}, {"name": "generator/G_MODEL/m/r8/2/beta", "op": "Const", "attr": {"dtype": {"type": "DT_FLOAT"}, "value": {"tensor": {"dtype": "DT_FLOAT", "tensorShape": {"dim": [{"size": "256"}]}}}}}, {"name": "generator/G_MODEL/m/r8/1/beta", "op": "Const", "attr": {"value": {"tensor": {"dtype": "DT_FLOAT", "tensorShape": {"dim": [{"size": "512"}]}}}, "dtype": {"type": "DT_FLOAT"}}}, {"name": "generator/G_MODEL/m/r8/InstanceNorm/beta", "op": "Const", "attr": {"dtype": {"type": "DT_FLOAT"}, "value": {"tensor": {"dtype": "DT_FLOAT", "tensorShape": {"dim": [{"size": "512"}]}}}}}, {"name": "generator/G_MODEL/m/r7/2/beta", "op": "Const", "attr": {"value": {"tensor": {"dtype": "DT_FLOAT", "tensorShape": {"dim": [{"size": "256"}]}}}, "dtype": {"type": "DT_FLOAT"}}}, {"name": "generator/G_MODEL/m/r7/1/beta", "op": "Const", "attr": {"dtype": {"type": "DT_FLOAT"}, "value": {"tensor": {"dtype": "DT_FLOAT", "tensorShape": {"dim": [{"size": "512"}]}}}}}, {"name": "generator/G_MODEL/m/r7/InstanceNorm/beta", "op": "Const", "attr": {"value": {"tensor": {"dtype": "DT_FLOAT", "tensorShape": {"dim": [{"size": "512"}]}}}, "dtype": {"type": "DT_FLOAT"}}}, {"name": "generator/G_MODEL/m/r6/2/beta", "op": "Const", "attr": {"value": {"tensor": {"dtype": "DT_FLOAT", "tensorShape": {"dim": [{"size": "256"}]}}}, "dtype": {"type": "DT_FLOAT"}}}, {"name": "generator/G_MODEL/m/r6/1/beta", "op": "Const", "attr": {"dtype": {"type": "DT_FLOAT"}, "value": {"tensor": {"dtype": "DT_FLOAT", "tensorShape": {"dim": [{"size": "512"}]}}}}}, {"name": "generator/G_MODEL/m/r6/InstanceNorm/beta", "op": "Const", "attr": {"value": {"tensor": {"dtype": "DT_FLOAT", "tensorShape": {"dim": [{"size": "512"}]}}}, "dtype": {"type": "DT_FLOAT"}}}, {"name": "generator/G_MODEL/m/r5/2/beta", "op": "Const", "attr": {"value": {"tensor": {"dtype": "DT_FLOAT", "tensorShape": {"dim": [{"size": "256"}]}}}, "dtype": {"type": "DT_FLOAT"}}}, {"name": "generator/G_MODEL/m/r5/1/beta", "op": "Const", "attr": {"dtype": {"type": "DT_FLOAT"}, "value": {"tensor": {"dtype": "DT_FLOAT", "tensorShape": {"dim": [{"size": "512"}]}}}}}, {"name": "generator/G_MODEL/m/r5/InstanceNorm/beta", "op": "Const", "attr": {"dtype": {"type": "DT_FLOAT"}, "value": {"tensor": {"dtype": "DT_FLOAT", "tensorShape": {"dim": [{"size": "512"}]}}}}}, {"name": "generator/G_MODEL/m/r4/2/beta", "op": "Const", "attr": {"dtype": {"type": "DT_FLOAT"}, "value": {"tensor": {"dtype": "DT_FLOAT", "tensorShape": {"dim": [{"size": "256"}]}}}}}, {"name": "generator/G_MODEL/m/r4/1/beta", "op": "Const", "attr": {"dtype": {"type": "DT_FLOAT"}, "value": {"tensor": {"dtype": "DT_FLOAT", "tensorShape": {"dim": [{"size": "512"}]}}}}}, {"name": "generator/G_MODEL/m/r4/InstanceNorm/beta", "op": "Const", "attr": {"value": {"tensor": {"dtype": "DT_FLOAT", "tensorShape": {"dim": [{"size": "512"}]}}}, "dtype": {"type": "DT_FLOAT"}}}, {"name": "generator/G_MODEL/m/r3/2/beta", "op": "Const", "attr": {"value": {"tensor": {"dtype": "DT_FLOAT", "tensorShape": {"dim": [{"size": "256"}]}}}, "dtype": {"type": "DT_FLOAT"}}}, {"name": "generator/G_MODEL/m/r3/1/beta", "op": "Const", "attr": {"dtype": {"type": "DT_FLOAT"}, "value": {"tensor": {"dtype": "DT_FLOAT", "tensorShape": {"dim": [{"size": "512"}]}}}}}, {"name": "generator/G_MODEL/m/r3/InstanceNorm/beta", "op": "Const", "attr": {"value": {"tensor": {"dtype": "DT_FLOAT", "tensorShape": {"dim": [{"size": "512"}]}}}, "dtype": {"type": "DT_FLOAT"}}}, {"name": "generator/G_MODEL/m/r2/2/beta", "op": "Const", "attr": {"dtype": {"type": "DT_FLOAT"}, "value": {"tensor": {"dtype": "DT_FLOAT", "tensorShape": {"dim": [{"size": "256"}]}}}}}, {"name": "generator/G_MODEL/m/r2/1/beta", "op": "Const", "attr": {"value": {"tensor": {"dtype": "DT_FLOAT", "tensorShape": {"dim": [{"size": "512"}]}}}, "dtype": {"type": "DT_FLOAT"}}}, {"name": "generator/G_MODEL/m/r2/InstanceNorm/beta", "op": "Const", "attr": {"dtype": {"type": "DT_FLOAT"}, "value": {"tensor": {"dtype": "DT_FLOAT", "tensorShape": {"dim": [{"size": "512"}]}}}}}, {"name": "generator/G_MODEL/m/r1/2/beta", "op": "Const", "attr": {"dtype": {"type": "DT_FLOAT"}, "value": {"tensor": {"dtype": "DT_FLOAT", "tensorShape": {"dim": [{"size": "256"}]}}}}}, {"name": "generator/G_MODEL/m/r1/1/beta", "op": "Const", "attr": {"value": {"tensor": {"dtype": "DT_FLOAT", "tensorShape": {"dim": [{"size": "512"}]}}}, "dtype": {"type": "DT_FLOAT"}}}, {"name": "generator/G_MODEL/m/r1/InstanceNorm/beta", "op": "Const", "attr": {"value": {"tensor": {"dtype": "DT_FLOAT", "tensorShape": {"dim": [{"size": "512"}]}}}, "dtype": {"type": "DT_FLOAT"}}}, {"name": "generator/G_MODEL/m/InstanceNorm/beta", "op": "Const", "attr": {"value": {"tensor": {"dtype": "DT_FLOAT", "tensorShape": {"dim": [{"size": "256"}]}}}, "dtype": {"type": "DT_FLOAT"}}}, {"name": "generator/G_MODEL/b2/SeparableConv2d_1/InstanceNorm/beta", "op": "Const", "attr": {"value": {"tensor": {"dtype": "DT_FLOAT", "tensorShape": {"dim": [{"size": "256"}]}}}, "dtype": {"type": "DT_FLOAT"}}}, {"name": "generator/G_MODEL/b2/MirrorPad_2/paddings", "op": "Const", "attr": {"value": {"tensor": {"dtype": "DT_INT32", "tensorShape": {"dim": [{"size": "4"}, {"size": "2"}]}}}, "dtype": {"type": "DT_INT32"}}}, {"name": "generator/G_MODEL/b2/SeparableConv2d_1/depthwise_weights", "op": "Const", "attr": {"dtype": {"type": "DT_FLOAT"}, "value": {"tensor": {"dtype": "DT_FLOAT", "tensorShape": {"dim": [{"size": "3"}, {"size": "3"}, {"size": "128"}, {"size": "1"}]}}}}}, {"name": "generator/G_MODEL/b2/SeparableConv2d_1/pointwise_weights", "op": "Const", "attr": {"dtype": {"type": "DT_FLOAT"}, "value": {"tensor": {"dtype": "DT_FLOAT", "tensorShape": {"dim": [{"size": "1"}, {"size": "1"}, {"size": "128"}, {"size": "256"}]}}}}}, {"name": "generator/G_MODEL/b2/SeparableConv2d_1/InstanceNorm/moments/mean/reduction_indices", "op": "Const", "attr": {"dtype": {"type": "DT_INT32"}, "value": {"tensor": {"dtype": "DT_INT32", "tensorShape": {"dim": [{"size": "2"}]}}}}}, {"name": "generator/G_MODEL/b2/SeparableConv2d_1/InstanceNorm/moments/variance/reduction_indices", "op": "Const", "attr": {"value": {"tensor": {"dtype": "DT_INT32", "tensorShape": {"dim": [{"size": "2"}]}}}, "dtype": {"type": "DT_INT32"}}}, {"name": "generator/G_MODEL/b2/SeparableConv2d_1/InstanceNorm/instancenorm/add/y", "op": "Const", "attr": {"value": {"tensor": {"dtype": "DT_FLOAT", "tensorShape": {}}}, "dtype": {"type": "DT_FLOAT"}}}, {"name": "generator/G_MODEL/b2/SeparableConv2d_1/InstanceNorm/gamma", "op": "Const", "attr": {"dtype": {"type": "DT_FLOAT"}, "value": {"tensor": {"dtype": "DT_FLOAT", "tensorShape": {"dim": [{"size": "256"}]}}}}}, {"name": "generator/G_MODEL/b2/SeparableConv2d_2/InstanceNorm/beta", "op": "Const", "attr": {"value": {"tensor": {"dtype": "DT_FLOAT", "tensorShape": {"dim": [{"size": "256"}]}}}, "dtype": {"type": "DT_FLOAT"}}}, {"name": "generator/G_MODEL/b2/strided_slice/stack", "op": "Const", "attr": {"value": {"tensor": {"dtype": "DT_INT32", "tensorShape": {"dim": [{"size": "1"}]}}}, "dtype": {"type": "DT_INT32"}}}, {"name": "generator/G_MODEL/b2/strided_slice/stack_1", "op": "Const", "attr": {"dtype": {"type": "DT_INT32"}, "value": {"tensor": {"dtype": "DT_INT32", "tensorShape": {"dim": [{"size": "1"}]}}}}}, {"name": "generator/G_MODEL/b2/strided_slice/stack_2", "op": "Const", "attr": {"value": {"tensor": {"dtype": "DT_INT32", "tensorShape": {"dim": [{"size": "1"}]}}}, "dtype": {"type": "DT_INT32"}}}, {"name": "generator/G_MODEL/b2/floordiv/y", "op": "Const", "attr": {"value": {"tensor": {"dtype": "DT_INT32", "tensorShape": {}}}, "dtype": {"type": "DT_INT32"}}}, {"name": "generator/G_MODEL/b2/SeparableConv2d/InstanceNorm/beta", "op": "Const", "attr": {"value": {"tensor": {"dtype": "DT_FLOAT", "tensorShape": {"dim": [{"size": "128"}]}}}, "dtype": {"type": "DT_FLOAT"}}}, {"name": "generator/G_MODEL/b2/InstanceNorm/beta", "op": "Const", "attr": {"dtype": {"type": "DT_FLOAT"}, "value": {"tensor": {"dtype": "DT_FLOAT", "tensorShape": {"dim": [{"size": "128"}]}}}}}, {"name": "generator/G_MODEL/b1/SeparableConv2d/InstanceNorm/beta", "op": "Const", "attr": {"dtype": {"type": "DT_FLOAT"}, "value": {"tensor": {"dtype": "DT_FLOAT", "tensorShape": {"dim": [{"size": "128"}]}}}}}, {"name": "generator/G_MODEL/b1/MirrorPad_2/paddings", "op": "Const", "attr": {"dtype": {"type": "DT_INT32"}, "value": {"tensor": {"dtype": "DT_INT32", "tensorShape": {"dim": [{"size": "4"}, {"size": "2"}]}}}}}, {"name": "generator/G_MODEL/b1/SeparableConv2d/depthwise_weights", "op": "Const", "attr": {"dtype": {"type": "DT_FLOAT"}, "value": {"tensor": {"dtype": "DT_FLOAT", "tensorShape": {"dim": [{"size": "3"}, {"size": "3"}, {"size": "64"}, {"size": "1"}]}}}}}, {"name": "generator/G_MODEL/b1/SeparableConv2d/pointwise_weights", "op": "Const", "attr": {"value": {"tensor": {"dtype": "DT_FLOAT", "tensorShape": {"dim": [{"size": "1"}, {"size": "1"}, {"size": "64"}, {"size": "128"}]}}}, "dtype": {"type": "DT_FLOAT"}}}, {"name": "generator/G_MODEL/b1/SeparableConv2d/InstanceNorm/moments/mean/reduction_indices", "op": "Const", "attr": {"dtype": {"type": "DT_INT32"}, "value": {"tensor": {"dtype": "DT_INT32", "tensorShape": {"dim": [{"size": "2"}]}}}}}, {"name": "generator/G_MODEL/b1/SeparableConv2d/InstanceNorm/moments/variance/reduction_indices", "op": "Const", "attr": {"dtype": {"type": "DT_INT32"}, "value": {"tensor": {"dtype": "DT_INT32", "tensorShape": {"dim": [{"size": "2"}]}}}}}, {"name": "generator/G_MODEL/b1/SeparableConv2d/InstanceNorm/instancenorm/add/y", "op": "Const", "attr": {"dtype": {"type": "DT_FLOAT"}, "value": {"tensor": {"dtype": "DT_FLOAT", "tensorShape": {}}}}}, {"name": "generator/G_MODEL/b1/SeparableConv2d/InstanceNorm/gamma", "op": "Const", "attr": {"dtype": {"type": "DT_FLOAT"}, "value": {"tensor": {"dtype": "DT_FLOAT", "tensorShape": {"dim": [{"size": "128"}]}}}}}, {"name": "generator/G_MODEL/b1/SeparableConv2d_1/InstanceNorm/beta", "op": "Const", "attr": {"value": {"tensor": {"dtype": "DT_FLOAT", "tensorShape": {"dim": [{"size": "128"}]}}}, "dtype": {"type": "DT_FLOAT"}}}, {"name": "generator/G_MODEL/b1/strided_slice/stack", "op": "Const", "attr": {"dtype": {"type": "DT_INT32"}, "value": {"tensor": {"dtype": "DT_INT32", "tensorShape": {"dim": [{"size": "1"}]}}}}}, {"name": "generator/G_MODEL/b1/strided_slice/stack_1", "op": "Const", "attr": {"value": {"tensor": {"dtype": "DT_INT32", "tensorShape": {"dim": [{"size": "1"}]}}}, "dtype": {"type": "DT_INT32"}}}, {"name": "generator/G_MODEL/b1/strided_slice/stack_2", "op": "Const", "attr": {"value": {"tensor": {"dtype": "DT_INT32", "tensorShape": {"dim": [{"size": "1"}]}}}, "dtype": {"type": "DT_INT32"}}}, {"name": "generator/G_MODEL/b1/floordiv/y", "op": "Const", "attr": {"value": {"tensor": {"dtype": "DT_INT32", "tensorShape": {}}}, "dtype": {"type": "DT_INT32"}}}, {"name": "generator/G_MODEL/b1/InstanceNorm_1/beta", "op": "Const", "attr": {"value": {"tensor": {"dtype": "DT_FLOAT", "tensorShape": {"dim": [{"size": "64"}]}}}, "dtype": {"type": "DT_FLOAT"}}}, {"name": "generator/G_MODEL/b1/InstanceNorm/beta", "op": "Const", "attr": {"value": {"tensor": {"dtype": "DT_FLOAT", "tensorShape": {"dim": [{"size": "64"}]}}}, "dtype": {"type": "DT_FLOAT"}}}, {"name": "generator/G_MODEL/b1/MirrorPad/paddings", "op": "Const", "attr": {"dtype": {"type": "DT_INT32"}, "value": {"tensor": {"dtype": "DT_INT32", "tensorShape": {"dim": [{"size": "4"}, {"size": "2"}]}}}}}, {"name": "generator/G_MODEL/b1/Conv/weights", "op": "Const", "attr": {"dtype": {"type": "DT_FLOAT"}, "value": {"tensor": {"dtype": "DT_FLOAT", "tensorShape": {"dim": [{"size": "3"}, {"size": "3"}, {"size": "3"}, {"size": "64"}]}}}}}, {"name": "generator/G_MODEL/b1/InstanceNorm/moments/mean/reduction_indices", "op": "Const", "attr": {"dtype": {"type": "DT_INT32"}, "value": {"tensor": {"dtype": "DT_INT32", "tensorShape": {"dim": [{"size": "2"}]}}}}}, {"name": "generator/G_MODEL/b1/InstanceNorm/moments/variance/reduction_indices", "op": "Const", "attr": {"value": {"tensor": {"dtype": "DT_INT32", "tensorShape": {"dim": [{"size": "2"}]}}}, "dtype": {"type": "DT_INT32"}}}, {"name": "generator/G_MODEL/b1/InstanceNorm/instancenorm/add/y", "op": "Const", "attr": {"dtype": {"type": "DT_FLOAT"}, "value": {"tensor": {"dtype": "DT_FLOAT", "tensorShape": {}}}}}, {"name": "generator/G_MODEL/b1/InstanceNorm/gamma", "op": "Const", "attr": {"value": {"tensor": {"dtype": "DT_FLOAT", "tensorShape": {"dim": [{"size": "64"}]}}}, "dtype": {"type": "DT_FLOAT"}}}, {"name": "generator/G_MODEL/b1/MirrorPad_1/paddings", "op": "Const", "attr": {"value": {"tensor": {"dtype": "DT_INT32", "tensorShape": {"dim": [{"size": "4"}, {"size": "2"}]}}}, "dtype": {"type": "DT_INT32"}}}, {"name": "generator/G_MODEL/b1/Conv_1/weights", "op": "Const", "attr": {"value": {"tensor": {"dtype": "DT_FLOAT", "tensorShape": {"dim": [{"size": "3"}, {"size": "3"}, {"size": "64"}, {"size": "64"}]}}}, "dtype": {"type": "DT_FLOAT"}}}, {"name": "generator/G_MODEL/b1/InstanceNorm_1/moments/mean/reduction_indices", "op": "Const", "attr": {"dtype": {"type": "DT_INT32"}, "value": {"tensor": {"dtype": "DT_INT32", "tensorShape": {"dim": [{"size": "2"}]}}}}}, {"name": "generator/G_MODEL/b1/InstanceNorm_1/moments/variance/reduction_indices", "op": "Const", "attr": {"dtype": {"type": "DT_INT32"}, "value": {"tensor": {"dtype": "DT_INT32", "tensorShape": {"dim": [{"size": "2"}]}}}}}, {"name": "generator/G_MODEL/b1/InstanceNorm_1/instancenorm/add/y", "op": "Const", "attr": {"value": {"tensor": {"dtype": "DT_FLOAT", "tensorShape": {}}}, "dtype": {"type": "DT_FLOAT"}}}, {"name": "generator/G_MODEL/b1/InstanceNorm_1/gamma", "op": "Const", "attr": {"value": {"tensor": {"dtype": "DT_FLOAT", "tensorShape": {"dim": [{"size": "64"}]}}}, "dtype": {"type": "DT_FLOAT"}}}, {"name": "generator/G_MODEL/b1/strided_slice_1/stack", "op": "Const", "attr": {"dtype": {"type": "DT_INT32"}, "value": {"tensor": {"dtype": "DT_INT32", "tensorShape": {"dim": [{"size": "1"}]}}}}}, {"name": "generator/G_MODEL/b1/strided_slice_1/stack_1", "op": "Const", "attr": {"value": {"tensor": {"dtype": "DT_INT32", "tensorShape": {"dim": [{"size": "1"}]}}}, "dtype": {"type": "DT_INT32"}}}, {"name": "generator/G_MODEL/b1/strided_slice_1/stack_2", "op": "Const", "attr": {"value": {"tensor": {"dtype": "DT_INT32", "tensorShape": {"dim": [{"size": "1"}]}}}, "dtype": {"type": "DT_INT32"}}}, {"name": "generator/G_MODEL/b1/floordiv_1/y", "op": "Const", "attr": {"dtype": {"type": "DT_INT32"}, "value": {"tensor": {"dtype": "DT_INT32", "tensorShape": {}}}}}, {"name": "generator/G_MODEL/b1/MirrorPad_3/paddings", "op": "Const", "attr": {"value": {"tensor": {"dtype": "DT_INT32", "tensorShape": {"dim": [{"size": "4"}, {"size": "2"}]}}}, "dtype": {"type": "DT_INT32"}}}, {"name": "generator/G_MODEL/b1/SeparableConv2d_1/depthwise_weights", "op": "Const", "attr": {"dtype": {"type": "DT_FLOAT"}, "value": {"tensor": {"dtype": "DT_FLOAT", "tensorShape": {"dim": [{"size": "3"}, {"size": "3"}, {"size": "64"}, {"size": "1"}]}}}}}, {"name": "generator/G_MODEL/b1/SeparableConv2d_1/pointwise_weights", "op": "Const", "attr": {"dtype": {"type": "DT_FLOAT"}, "value": {"tensor": {"dtype": "DT_FLOAT", "tensorShape": {"dim": [{"size": "1"}, {"size": "1"}, {"size": "64"}, {"size": "128"}]}}}}}, {"name": "generator/G_MODEL/b1/SeparableConv2d_1/InstanceNorm/moments/mean/reduction_indices", "op": "Const", "attr": {"value": {"tensor": {"dtype": "DT_INT32", "tensorShape": {"dim": [{"size": "2"}]}}}, "dtype": {"type": "DT_INT32"}}}, {"name": "generator/G_MODEL/b1/SeparableConv2d_1/InstanceNorm/moments/variance/reduction_indices", "op": "Const", "attr": {"value": {"tensor": {"dtype": "DT_INT32", "tensorShape": {"dim": [{"size": "2"}]}}}, "dtype": {"type": "DT_INT32"}}}, {"name": "generator/G_MODEL/b1/SeparableConv2d_1/InstanceNorm/instancenorm/add/y", "op": "Const", "attr": {"dtype": {"type": "DT_FLOAT"}, "value": {"tensor": {"dtype": "DT_FLOAT", "tensorShape": {}}}}}, {"name": "generator/G_MODEL/b1/SeparableConv2d_1/InstanceNorm/gamma", "op": "Const", "attr": {"value": {"tensor": {"dtype": "DT_FLOAT", "tensorShape": {"dim": [{"size": "128"}]}}}, "dtype": {"type": "DT_FLOAT"}}}, {"name": "generator/G_MODEL/b2/MirrorPad/paddings", "op": "Const", "attr": {"dtype": {"type": "DT_INT32"}, "value": {"tensor": {"dtype": "DT_INT32", "tensorShape": {"dim": [{"size": "4"}, {"size": "2"}]}}}}}, {"name": "generator/G_MODEL/b2/Conv/weights", "op": "Const", "attr": {"value": {"tensor": {"dtype": "DT_FLOAT", "tensorShape": {"dim": [{"size": "3"}, {"size": "3"}, {"size": "128"}, {"size": "128"}]}}}, "dtype": {"type": "DT_FLOAT"}}}, {"name": "generator/G_MODEL/b2/InstanceNorm/moments/mean/reduction_indices", "op": "Const", "attr": {"value": {"tensor": {"dtype": "DT_INT32", "tensorShape": {"dim": [{"size": "2"}]}}}, "dtype": {"type": "DT_INT32"}}}, {"name": "generator/G_MODEL/b2/InstanceNorm/moments/variance/reduction_indices", "op": "Const", "attr": {"dtype": {"type": "DT_INT32"}, "value": {"tensor": {"dtype": "DT_INT32", "tensorShape": {"dim": [{"size": "2"}]}}}}}, {"name": "generator/G_MODEL/b2/InstanceNorm/instancenorm/add/y", "op": "Const", "attr": {"dtype": {"type": "DT_FLOAT"}, "value": {"tensor": {"dtype": "DT_FLOAT", "tensorShape": {}}}}}, {"name": "generator/G_MODEL/b2/InstanceNorm/gamma", "op": "Const", "attr": {"value": {"tensor": {"dtype": "DT_FLOAT", "tensorShape": {"dim": [{"size": "128"}]}}}, "dtype": {"type": "DT_FLOAT"}}}, {"name": "generator/G_MODEL/b2/MirrorPad_1/paddings", "op": "Const", "attr": {"value": {"tensor": {"dtype": "DT_INT32", "tensorShape": {"dim": [{"size": "4"}, {"size": "2"}]}}}, "dtype": {"type": "DT_INT32"}}}, {"name": "generator/G_MODEL/b2/SeparableConv2d/depthwise_weights", "op": "Const", "attr": {"dtype": {"type": "DT_FLOAT"}, "value": {"tensor": {"dtype": "DT_FLOAT", "tensorShape": {"dim": [{"size": "3"}, {"size": "3"}, {"size": "128"}, {"size": "1"}]}}}}}, {"name": "generator/G_MODEL/b2/SeparableConv2d/pointwise_weights", "op": "Const", "attr": {"value": {"tensor": {"dtype": "DT_FLOAT", "tensorShape": {"dim": [{"size": "1"}, {"size": "1"}, {"size": "128"}, {"size": "128"}]}}}, "dtype": {"type": "DT_FLOAT"}}}, {"name": "generator/G_MODEL/b2/SeparableConv2d/InstanceNorm/moments/mean/reduction_indices", "op": "Const", "attr": {"dtype": {"type": "DT_INT32"}, "value": {"tensor": {"dtype": "DT_INT32", "tensorShape": {"dim": [{"size": "2"}]}}}}}, {"name": "generator/G_MODEL/b2/SeparableConv2d/InstanceNorm/moments/variance/reduction_indices", "op": "Const", "attr": {"dtype": {"type": "DT_INT32"}, "value": {"tensor": {"dtype": "DT_INT32", "tensorShape": {"dim": [{"size": "2"}]}}}}}, {"name": "generator/G_MODEL/b2/SeparableConv2d/InstanceNorm/instancenorm/add/y", "op": "Const", "attr": {"value": {"tensor": {"dtype": "DT_FLOAT", "tensorShape": {}}}, "dtype": {"type": "DT_FLOAT"}}}, {"name": "generator/G_MODEL/b2/SeparableConv2d/InstanceNorm/gamma", "op": "Const", "attr": {"value": {"tensor": {"dtype": "DT_FLOAT", "tensorShape": {"dim": [{"size": "128"}]}}}, "dtype": {"type": "DT_FLOAT"}}}, {"name": "generator/G_MODEL/b2/strided_slice_1/stack", "op": "Const", "attr": {"dtype": {"type": "DT_INT32"}, "value": {"tensor": {"dtype": "DT_INT32", "tensorShape": {"dim": [{"size": "1"}]}}}}}, {"name": "generator/G_MODEL/b2/strided_slice_1/stack_1", "op": "Const", "attr": {"dtype": {"type": "DT_INT32"}, "value": {"tensor": {"dtype": "DT_INT32", "tensorShape": {"dim": [{"size": "1"}]}}}}}, {"name": "generator/G_MODEL/b2/strided_slice_1/stack_2", "op": "Const", "attr": {"value": {"tensor": {"dtype": "DT_INT32", "tensorShape": {"dim": [{"size": "1"}]}}}, "dtype": {"type": "DT_INT32"}}}, {"name": "generator/G_MODEL/b2/floordiv_1/y", "op": "Const", "attr": {"value": {"tensor": {"dtype": "DT_INT32", "tensorShape": {}}}, "dtype": {"type": "DT_INT32"}}}, {"name": "generator/G_MODEL/b2/MirrorPad_3/paddings", "op": "Const", "attr": {"value": {"tensor": {"dtype": "DT_INT32", "tensorShape": {"dim": [{"size": "4"}, {"size": "2"}]}}}, "dtype": {"type": "DT_INT32"}}}, {"name": "generator/G_MODEL/b2/SeparableConv2d_2/depthwise_weights", "op": "Const", "attr": {"value": {"tensor": {"dtype": "DT_FLOAT", "tensorShape": {"dim": [{"size": "3"}, {"size": "3"}, {"size": "128"}, {"size": "1"}]}}}, "dtype": {"type": "DT_FLOAT"}}}, {"name": "generator/G_MODEL/b2/SeparableConv2d_2/pointwise_weights", "op": "Const", "attr": {"dtype": {"type": "DT_FLOAT"}, "value": {"tensor": {"dtype": "DT_FLOAT", "tensorShape": {"dim": [{"size": "1"}, {"size": "1"}, {"size": "128"}, {"size": "256"}]}}}}}, {"name": "generator/G_MODEL/b2/SeparableConv2d_2/InstanceNorm/moments/mean/reduction_indices", "op": "Const", "attr": {"value": {"tensor": {"dtype": "DT_INT32", "tensorShape": {"dim": [{"size": "2"}]}}}, "dtype": {"type": "DT_INT32"}}}, {"name": "generator/G_MODEL/b2/SeparableConv2d_2/InstanceNorm/moments/variance/reduction_indices", "op": "Const", "attr": {"value": {"tensor": {"dtype": "DT_INT32", "tensorShape": {"dim": [{"size": "2"}]}}}, "dtype": {"type": "DT_INT32"}}}, {"name": "generator/G_MODEL/b2/SeparableConv2d_2/InstanceNorm/instancenorm/add/y", "op": "Const", "attr": {"value": {"tensor": {"dtype": "DT_FLOAT", "tensorShape": {}}}, "dtype": {"type": "DT_FLOAT"}}}, {"name": "generator/G_MODEL/b2/SeparableConv2d_2/InstanceNorm/gamma", "op": "Const", "attr": {"value": {"tensor": {"dtype": "DT_FLOAT", "tensorShape": {"dim": [{"size": "256"}]}}}, "dtype": {"type": "DT_FLOAT"}}}, {"name": "generator/G_MODEL/m/MirrorPad/paddings", "op": "Const", "attr": {"value": {"tensor": {"dtype": "DT_INT32", "tensorShape": {"dim": [{"size": "4"}, {"size": "2"}]}}}, "dtype": {"type": "DT_INT32"}}}, {"name": "generator/G_MODEL/m/Conv/weights", "op": "Const", "attr": {"value": {"tensor": {"dtype": "DT_FLOAT", "tensorShape": {"dim": [{"size": "3"}, {"size": "3"}, {"size": "256"}, {"size": "256"}]}}}, "dtype": {"type": "DT_FLOAT"}}}, {"name": "generator/G_MODEL/m/InstanceNorm/moments/mean/reduction_indices", "op": "Const", "attr": {"value": {"tensor": {"dtype": "DT_INT32", "tensorShape": {"dim": [{"size": "2"}]}}}, "dtype": {"type": "DT_INT32"}}}, {"name": "generator/G_MODEL/m/InstanceNorm/moments/variance/reduction_indices", "op": "Const", "attr": {"dtype": {"type": "DT_INT32"}, "value": {"tensor": {"dtype": "DT_INT32", "tensorShape": {"dim": [{"size": "2"}]}}}}}, {"name": "generator/G_MODEL/m/InstanceNorm/instancenorm/add/y", "op": "Const", "attr": {"value": {"tensor": {"dtype": "DT_FLOAT", "tensorShape": {}}}, "dtype": {"type": "DT_FLOAT"}}}, {"name": "generator/G_MODEL/m/InstanceNorm/gamma", "op": "Const", "attr": {"dtype": {"type": "DT_FLOAT"}, "value": {"tensor": {"dtype": "DT_FLOAT", "tensorShape": {"dim": [{"size": "256"}]}}}}}, {"name": "generator/G_MODEL/m/r1/Conv/weights", "op": "Const", "attr": {"value": {"tensor": {"dtype": "DT_FLOAT", "tensorShape": {"dim": [{"size": "1"}, {"size": "1"}, {"size": "256"}, {"size": "512"}]}}}, "dtype": {"type": "DT_FLOAT"}}}, {"name": "generator/G_MODEL/m/r1/InstanceNorm/moments/mean/reduction_indices", "op": "Const", "attr": {"dtype": {"type": "DT_INT32"}, "value": {"tensor": {"dtype": "DT_INT32", "tensorShape": {"dim": [{"size": "2"}]}}}}}, {"name": "generator/G_MODEL/m/r1/InstanceNorm/moments/variance/reduction_indices", "op": "Const", "attr": {"dtype": {"type": "DT_INT32"}, "value": {"tensor": {"dtype": "DT_INT32", "tensorShape": {"dim": [{"size": "2"}]}}}}}, {"name": "generator/G_MODEL/m/r1/InstanceNorm/instancenorm/add/y", "op": "Const", "attr": {"value": {"tensor": {"dtype": "DT_FLOAT", "tensorShape": {}}}, "dtype": {"type": "DT_FLOAT"}}}, {"name": "generator/G_MODEL/m/r1/InstanceNorm/gamma", "op": "Const", "attr": {"dtype": {"type": "DT_FLOAT"}, "value": {"tensor": {"dtype": "DT_FLOAT", "tensorShape": {"dim": [{"size": "512"}]}}}}}, {"name": "generator/G_MODEL/m/r1/MirrorPad/paddings", "op": "Const", "attr": {"value": {"tensor": {"dtype": "DT_INT32", "tensorShape": {"dim": [{"size": "4"}, {"size": "2"}]}}}, "dtype": {"type": "DT_INT32"}}}, {"name": "generator/G_MODEL/m/r1/r1/w", "op": "Const", "attr": {"value": {"tensor": {"dtype": "DT_FLOAT", "tensorShape": {"dim": [{"size": "3"}, {"size": "3"}, {"size": "512"}, {"size": "1"}]}}}, "dtype": {"type": "DT_FLOAT"}}}, {"name": "generator/G_MODEL/m/r1/1/moments/mean/reduction_indices", "op": "Const", "attr": {"value": {"tensor": {"dtype": "DT_INT32", "tensorShape": {"dim": [{"size": "2"}]}}}, "dtype": {"type": "DT_INT32"}}}, {"name": "generator/G_MODEL/m/r1/1/moments/variance/reduction_indices", "op": "Const", "attr": {"value": {"tensor": {"dtype": "DT_INT32", "tensorShape": {"dim": [{"size": "2"}]}}}, "dtype": {"type": "DT_INT32"}}}, {"name": "generator/G_MODEL/m/r1/1/instancenorm/add/y", "op": "Const", "attr": {"dtype": {"type": "DT_FLOAT"}, "value": {"tensor": {"dtype": "DT_FLOAT", "tensorShape": {}}}}}, {"name": "generator/G_MODEL/m/r1/1/gamma", "op": "Const", "attr": {"value": {"tensor": {"dtype": "DT_FLOAT", "tensorShape": {"dim": [{"size": "512"}]}}}, "dtype": {"type": "DT_FLOAT"}}}, {"name": "generator/G_MODEL/m/r1/Conv_1/weights", "op": "Const", "attr": {"dtype": {"type": "DT_FLOAT"}, "value": {"tensor": {"dtype": "DT_FLOAT", "tensorShape": {"dim": [{"size": "1"}, {"size": "1"}, {"size": "512"}, {"size": "256"}]}}}}}, {"name": "generator/G_MODEL/m/r1/2/moments/mean/reduction_indices", "op": "Const", "attr": {"dtype": {"type": "DT_INT32"}, "value": {"tensor": {"dtype": "DT_INT32", "tensorShape": {"dim": [{"size": "2"}]}}}}}, {"name": "generator/G_MODEL/m/r1/2/moments/variance/reduction_indices", "op": "Const", "attr": {"dtype": {"type": "DT_INT32"}, "value": {"tensor": {"dtype": "DT_INT32", "tensorShape": {"dim": [{"size": "2"}]}}}}}, {"name": "generator/G_MODEL/m/r1/2/instancenorm/add/y", "op": "Const", "attr": {"dtype": {"type": "DT_FLOAT"}, "value": {"tensor": {"dtype": "DT_FLOAT", "tensorShape": {}}}}}, {"name": "generator/G_MODEL/m/r1/2/gamma", "op": "Const", "attr": {"value": {"tensor": {"dtype": "DT_FLOAT", "tensorShape": {"dim": [{"size": "256"}]}}}, "dtype": {"type": "DT_FLOAT"}}}, {"name": "generator/G_MODEL/m/r2/Conv/weights", "op": "Const", "attr": {"value": {"tensor": {"dtype": "DT_FLOAT", "tensorShape": {"dim": [{"size": "1"}, {"size": "1"}, {"size": "256"}, {"size": "512"}]}}}, "dtype": {"type": "DT_FLOAT"}}}, {"name": "generator/G_MODEL/m/r2/InstanceNorm/moments/mean/reduction_indices", "op": "Const", "attr": {"dtype": {"type": "DT_INT32"}, "value": {"tensor": {"dtype": "DT_INT32", "tensorShape": {"dim": [{"size": "2"}]}}}}}, {"name": "generator/G_MODEL/m/r2/InstanceNorm/moments/variance/reduction_indices", "op": "Const", "attr": {"dtype": {"type": "DT_INT32"}, "value": {"tensor": {"dtype": "DT_INT32", "tensorShape": {"dim": [{"size": "2"}]}}}}}, {"name": "generator/G_MODEL/m/r2/InstanceNorm/instancenorm/add/y", "op": "Const", "attr": {"dtype": {"type": "DT_FLOAT"}, "value": {"tensor": {"dtype": "DT_FLOAT", "tensorShape": {}}}}}, {"name": "generator/G_MODEL/m/r2/InstanceNorm/gamma", "op": "Const", "attr": {"value": {"tensor": {"dtype": "DT_FLOAT", "tensorShape": {"dim": [{"size": "512"}]}}}, "dtype": {"type": "DT_FLOAT"}}}, {"name": "generator/G_MODEL/m/r2/MirrorPad/paddings", "op": "Const", "attr": {"value": {"tensor": {"dtype": "DT_INT32", "tensorShape": {"dim": [{"size": "4"}, {"size": "2"}]}}}, "dtype": {"type": "DT_INT32"}}}, {"name": "generator/G_MODEL/m/r2/r2/w", "op": "Const", "attr": {"value": {"tensor": {"dtype": "DT_FLOAT", "tensorShape": {"dim": [{"size": "3"}, {"size": "3"}, {"size": "512"}, {"size": "1"}]}}}, "dtype": {"type": "DT_FLOAT"}}}, {"name": "generator/G_MODEL/m/r2/1/moments/mean/reduction_indices", "op": "Const", "attr": {"value": {"tensor": {"dtype": "DT_INT32", "tensorShape": {"dim": [{"size": "2"}]}}}, "dtype": {"type": "DT_INT32"}}}, {"name": "generator/G_MODEL/m/r2/1/moments/variance/reduction_indices", "op": "Const", "attr": {"dtype": {"type": "DT_INT32"}, "value": {"tensor": {"dtype": "DT_INT32", "tensorShape": {"dim": [{"size": "2"}]}}}}}, {"name": "generator/G_MODEL/m/r2/1/instancenorm/add/y", "op": "Const", "attr": {"dtype": {"type": "DT_FLOAT"}, "value": {"tensor": {"dtype": "DT_FLOAT", "tensorShape": {}}}}}, {"name": "generator/G_MODEL/m/r2/1/gamma", "op": "Const", "attr": {"dtype": {"type": "DT_FLOAT"}, "value": {"tensor": {"dtype": "DT_FLOAT", "tensorShape": {"dim": [{"size": "512"}]}}}}}, {"name": "generator/G_MODEL/m/r2/Conv_1/weights", "op": "Const", "attr": {"value": {"tensor": {"dtype": "DT_FLOAT", "tensorShape": {"dim": [{"size": "1"}, {"size": "1"}, {"size": "512"}, {"size": "256"}]}}}, "dtype": {"type": "DT_FLOAT"}}}, {"name": "generator/G_MODEL/m/r2/2/moments/mean/reduction_indices", "op": "Const", "attr": {"dtype": {"type": "DT_INT32"}, "value": {"tensor": {"dtype": "DT_INT32", "tensorShape": {"dim": [{"size": "2"}]}}}}}, {"name": "generator/G_MODEL/m/r2/2/moments/variance/reduction_indices", "op": "Const", "attr": {"dtype": {"type": "DT_INT32"}, "value": {"tensor": {"dtype": "DT_INT32", "tensorShape": {"dim": [{"size": "2"}]}}}}}, {"name": "generator/G_MODEL/m/r2/2/instancenorm/add/y", "op": "Const", "attr": {"value": {"tensor": {"dtype": "DT_FLOAT", "tensorShape": {}}}, "dtype": {"type": "DT_FLOAT"}}}, {"name": "generator/G_MODEL/m/r2/2/gamma", "op": "Const", "attr": {"dtype": {"type": "DT_FLOAT"}, "value": {"tensor": {"dtype": "DT_FLOAT", "tensorShape": {"dim": [{"size": "256"}]}}}}}, {"name": "generator/G_MODEL/m/r3/Conv/weights", "op": "Const", "attr": {"value": {"tensor": {"dtype": "DT_FLOAT", "tensorShape": {"dim": [{"size": "1"}, {"size": "1"}, {"size": "256"}, {"size": "512"}]}}}, "dtype": {"type": "DT_FLOAT"}}}, {"name": "generator/G_MODEL/m/r3/InstanceNorm/moments/mean/reduction_indices", "op": "Const", "attr": {"value": {"tensor": {"dtype": "DT_INT32", "tensorShape": {"dim": [{"size": "2"}]}}}, "dtype": {"type": "DT_INT32"}}}, {"name": "generator/G_MODEL/m/r3/InstanceNorm/moments/variance/reduction_indices", "op": "Const", "attr": {"dtype": {"type": "DT_INT32"}, "value": {"tensor": {"dtype": "DT_INT32", "tensorShape": {"dim": [{"size": "2"}]}}}}}, {"name": "generator/G_MODEL/m/r3/InstanceNorm/instancenorm/add/y", "op": "Const", "attr": {"dtype": {"type": "DT_FLOAT"}, "value": {"tensor": {"dtype": "DT_FLOAT", "tensorShape": {}}}}}, {"name": "generator/G_MODEL/m/r3/InstanceNorm/gamma", "op": "Const", "attr": {"dtype": {"type": "DT_FLOAT"}, "value": {"tensor": {"dtype": "DT_FLOAT", "tensorShape": {"dim": [{"size": "512"}]}}}}}, {"name": "generator/G_MODEL/m/r3/MirrorPad/paddings", "op": "Const", "attr": {"dtype": {"type": "DT_INT32"}, "value": {"tensor": {"dtype": "DT_INT32", "tensorShape": {"dim": [{"size": "4"}, {"size": "2"}]}}}}}, {"name": "generator/G_MODEL/m/r3/r3/w", "op": "Const", "attr": {"dtype": {"type": "DT_FLOAT"}, "value": {"tensor": {"dtype": "DT_FLOAT", "tensorShape": {"dim": [{"size": "3"}, {"size": "3"}, {"size": "512"}, {"size": "1"}]}}}}}, {"name": "generator/G_MODEL/m/r3/1/moments/mean/reduction_indices", "op": "Const", "attr": {"value": {"tensor": {"dtype": "DT_INT32", "tensorShape": {"dim": [{"size": "2"}]}}}, "dtype": {"type": "DT_INT32"}}}, {"name": "generator/G_MODEL/m/r3/1/moments/variance/reduction_indices", "op": "Const", "attr": {"value": {"tensor": {"dtype": "DT_INT32", "tensorShape": {"dim": [{"size": "2"}]}}}, "dtype": {"type": "DT_INT32"}}}, {"name": "generator/G_MODEL/m/r3/1/instancenorm/add/y", "op": "Const", "attr": {"value": {"tensor": {"dtype": "DT_FLOAT", "tensorShape": {}}}, "dtype": {"type": "DT_FLOAT"}}}, {"name": "generator/G_MODEL/m/r3/1/gamma", "op": "Const", "attr": {"dtype": {"type": "DT_FLOAT"}, "value": {"tensor": {"dtype": "DT_FLOAT", "tensorShape": {"dim": [{"size": "512"}]}}}}}, {"name": "generator/G_MODEL/m/r3/Conv_1/weights", "op": "Const", "attr": {"value": {"tensor": {"dtype": "DT_FLOAT", "tensorShape": {"dim": [{"size": "1"}, {"size": "1"}, {"size": "512"}, {"size": "256"}]}}}, "dtype": {"type": "DT_FLOAT"}}}, {"name": "generator/G_MODEL/m/r3/2/moments/mean/reduction_indices", "op": "Const", "attr": {"dtype": {"type": "DT_INT32"}, "value": {"tensor": {"dtype": "DT_INT32", "tensorShape": {"dim": [{"size": "2"}]}}}}}, {"name": "generator/G_MODEL/m/r3/2/moments/variance/reduction_indices", "op": "Const", "attr": {"dtype": {"type": "DT_INT32"}, "value": {"tensor": {"dtype": "DT_INT32", "tensorShape": {"dim": [{"size": "2"}]}}}}}, {"name": "generator/G_MODEL/m/r3/2/instancenorm/add/y", "op": "Const", "attr": {"dtype": {"type": "DT_FLOAT"}, "value": {"tensor": {"dtype": "DT_FLOAT", "tensorShape": {}}}}}, {"name": "generator/G_MODEL/m/r3/2/gamma", "op": "Const", "attr": {"dtype": {"type": "DT_FLOAT"}, "value": {"tensor": {"dtype": "DT_FLOAT", "tensorShape": {"dim": [{"size": "256"}]}}}}}, {"name": "generator/G_MODEL/m/r4/Conv/weights", "op": "Const", "attr": {"value": {"tensor": {"dtype": "DT_FLOAT", "tensorShape": {"dim": [{"size": "1"}, {"size": "1"}, {"size": "256"}, {"size": "512"}]}}}, "dtype": {"type": "DT_FLOAT"}}}, {"name": "generator/G_MODEL/m/r4/InstanceNorm/moments/mean/reduction_indices", "op": "Const", "attr": {"dtype": {"type": "DT_INT32"}, "value": {"tensor": {"dtype": "DT_INT32", "tensorShape": {"dim": [{"size": "2"}]}}}}}, {"name": "generator/G_MODEL/m/r4/InstanceNorm/moments/variance/reduction_indices", "op": "Const", "attr": {"dtype": {"type": "DT_INT32"}, "value": {"tensor": {"dtype": "DT_INT32", "tensorShape": {"dim": [{"size": "2"}]}}}}}, {"name": "generator/G_MODEL/m/r4/InstanceNorm/instancenorm/add/y", "op": "Const", "attr": {"dtype": {"type": "DT_FLOAT"}, "value": {"tensor": {"dtype": "DT_FLOAT", "tensorShape": {}}}}}, {"name": "generator/G_MODEL/m/r4/InstanceNorm/gamma", "op": "Const", "attr": {"dtype": {"type": "DT_FLOAT"}, "value": {"tensor": {"dtype": "DT_FLOAT", "tensorShape": {"dim": [{"size": "512"}]}}}}}, {"name": "generator/G_MODEL/m/r4/MirrorPad/paddings", "op": "Const", "attr": {"dtype": {"type": "DT_INT32"}, "value": {"tensor": {"dtype": "DT_INT32", "tensorShape": {"dim": [{"size": "4"}, {"size": "2"}]}}}}}, {"name": "generator/G_MODEL/m/r4/r4/w", "op": "Const", "attr": {"value": {"tensor": {"dtype": "DT_FLOAT", "tensorShape": {"dim": [{"size": "3"}, {"size": "3"}, {"size": "512"}, {"size": "1"}]}}}, "dtype": {"type": "DT_FLOAT"}}}, {"name": "generator/G_MODEL/m/r4/1/moments/mean/reduction_indices", "op": "Const", "attr": {"value": {"tensor": {"dtype": "DT_INT32", "tensorShape": {"dim": [{"size": "2"}]}}}, "dtype": {"type": "DT_INT32"}}}, {"name": "generator/G_MODEL/m/r4/1/moments/variance/reduction_indices", "op": "Const", "attr": {"dtype": {"type": "DT_INT32"}, "value": {"tensor": {"dtype": "DT_INT32", "tensorShape": {"dim": [{"size": "2"}]}}}}}, {"name": "generator/G_MODEL/m/r4/1/instancenorm/add/y", "op": "Const", "attr": {"dtype": {"type": "DT_FLOAT"}, "value": {"tensor": {"dtype": "DT_FLOAT", "tensorShape": {}}}}}, {"name": "generator/G_MODEL/m/r4/1/gamma", "op": "Const", "attr": {"dtype": {"type": "DT_FLOAT"}, "value": {"tensor": {"dtype": "DT_FLOAT", "tensorShape": {"dim": [{"size": "512"}]}}}}}, {"name": "generator/G_MODEL/m/r4/Conv_1/weights", "op": "Const", "attr": {"value": {"tensor": {"dtype": "DT_FLOAT", "tensorShape": {"dim": [{"size": "1"}, {"size": "1"}, {"size": "512"}, {"size": "256"}]}}}, "dtype": {"type": "DT_FLOAT"}}}, {"name": "generator/G_MODEL/m/r4/2/moments/mean/reduction_indices", "op": "Const", "attr": {"dtype": {"type": "DT_INT32"}, "value": {"tensor": {"dtype": "DT_INT32", "tensorShape": {"dim": [{"size": "2"}]}}}}}, {"name": "generator/G_MODEL/m/r4/2/moments/variance/reduction_indices", "op": "Const", "attr": {"value": {"tensor": {"dtype": "DT_INT32", "tensorShape": {"dim": [{"size": "2"}]}}}, "dtype": {"type": "DT_INT32"}}}, {"name": "generator/G_MODEL/m/r4/2/instancenorm/add/y", "op": "Const", "attr": {"dtype": {"type": "DT_FLOAT"}, "value": {"tensor": {"dtype": "DT_FLOAT", "tensorShape": {}}}}}, {"name": "generator/G_MODEL/m/r4/2/gamma", "op": "Const", "attr": {"dtype": {"type": "DT_FLOAT"}, "value": {"tensor": {"dtype": "DT_FLOAT", "tensorShape": {"dim": [{"size": "256"}]}}}}}, {"name": "generator/G_MODEL/m/r5/Conv/weights", "op": "Const", "attr": {"value": {"tensor": {"dtype": "DT_FLOAT", "tensorShape": {"dim": [{"size": "1"}, {"size": "1"}, {"size": "256"}, {"size": "512"}]}}}, "dtype": {"type": "DT_FLOAT"}}}, {"name": "generator/G_MODEL/m/r5/InstanceNorm/moments/mean/reduction_indices", "op": "Const", "attr": {"value": {"tensor": {"dtype": "DT_INT32", "tensorShape": {"dim": [{"size": "2"}]}}}, "dtype": {"type": "DT_INT32"}}}, {"name": "generator/G_MODEL/m/r5/InstanceNorm/moments/variance/reduction_indices", "op": "Const", "attr": {"value": {"tensor": {"dtype": "DT_INT32", "tensorShape": {"dim": [{"size": "2"}]}}}, "dtype": {"type": "DT_INT32"}}}, {"name": "generator/G_MODEL/m/r5/InstanceNorm/instancenorm/add/y", "op": "Const", "attr": {"value": {"tensor": {"dtype": "DT_FLOAT", "tensorShape": {}}}, "dtype": {"type": "DT_FLOAT"}}}, {"name": "generator/G_MODEL/m/r5/InstanceNorm/gamma", "op": "Const", "attr": {"dtype": {"type": "DT_FLOAT"}, "value": {"tensor": {"dtype": "DT_FLOAT", "tensorShape": {"dim": [{"size": "512"}]}}}}}, {"name": "generator/G_MODEL/m/r5/MirrorPad/paddings", "op": "Const", "attr": {"value": {"tensor": {"dtype": "DT_INT32", "tensorShape": {"dim": [{"size": "4"}, {"size": "2"}]}}}, "dtype": {"type": "DT_INT32"}}}, {"name": "generator/G_MODEL/m/r5/r5/w", "op": "Const", "attr": {"value": {"tensor": {"dtype": "DT_FLOAT", "tensorShape": {"dim": [{"size": "3"}, {"size": "3"}, {"size": "512"}, {"size": "1"}]}}}, "dtype": {"type": "DT_FLOAT"}}}, {"name": "generator/G_MODEL/m/r5/1/moments/mean/reduction_indices", "op": "Const", "attr": {"dtype": {"type": "DT_INT32"}, "value": {"tensor": {"dtype": "DT_INT32", "tensorShape": {"dim": [{"size": "2"}]}}}}}, {"name": "generator/G_MODEL/m/r5/1/moments/variance/reduction_indices", "op": "Const", "attr": {"dtype": {"type": "DT_INT32"}, "value": {"tensor": {"dtype": "DT_INT32", "tensorShape": {"dim": [{"size": "2"}]}}}}}, {"name": "generator/G_MODEL/m/r5/1/instancenorm/add/y", "op": "Const", "attr": {"dtype": {"type": "DT_FLOAT"}, "value": {"tensor": {"dtype": "DT_FLOAT", "tensorShape": {}}}}}, {"name": "generator/G_MODEL/m/r5/1/gamma", "op": "Const", "attr": {"value": {"tensor": {"dtype": "DT_FLOAT", "tensorShape": {"dim": [{"size": "512"}]}}}, "dtype": {"type": "DT_FLOAT"}}}, {"name": "generator/G_MODEL/m/r5/Conv_1/weights", "op": "Const", "attr": {"value": {"tensor": {"dtype": "DT_FLOAT", "tensorShape": {"dim": [{"size": "1"}, {"size": "1"}, {"size": "512"}, {"size": "256"}]}}}, "dtype": {"type": "DT_FLOAT"}}}, {"name": "generator/G_MODEL/m/r5/2/moments/mean/reduction_indices", "op": "Const", "attr": {"dtype": {"type": "DT_INT32"}, "value": {"tensor": {"dtype": "DT_INT32", "tensorShape": {"dim": [{"size": "2"}]}}}}}, {"name": "generator/G_MODEL/m/r5/2/moments/variance/reduction_indices", "op": "Const", "attr": {"dtype": {"type": "DT_INT32"}, "value": {"tensor": {"dtype": "DT_INT32", "tensorShape": {"dim": [{"size": "2"}]}}}}}, {"name": "generator/G_MODEL/m/r5/2/instancenorm/add/y", "op": "Const", "attr": {"dtype": {"type": "DT_FLOAT"}, "value": {"tensor": {"dtype": "DT_FLOAT", "tensorShape": {}}}}}, {"name": "generator/G_MODEL/m/r5/2/gamma", "op": "Const", "attr": {"value": {"tensor": {"dtype": "DT_FLOAT", "tensorShape": {"dim": [{"size": "256"}]}}}, "dtype": {"type": "DT_FLOAT"}}}, {"name": "generator/G_MODEL/m/r6/Conv/weights", "op": "Const", "attr": {"dtype": {"type": "DT_FLOAT"}, "value": {"tensor": {"dtype": "DT_FLOAT", "tensorShape": {"dim": [{"size": "1"}, {"size": "1"}, {"size": "256"}, {"size": "512"}]}}}}}, {"name": "generator/G_MODEL/m/r6/InstanceNorm/moments/mean/reduction_indices", "op": "Const", "attr": {"value": {"tensor": {"dtype": "DT_INT32", "tensorShape": {"dim": [{"size": "2"}]}}}, "dtype": {"type": "DT_INT32"}}}, {"name": "generator/G_MODEL/m/r6/InstanceNorm/moments/variance/reduction_indices", "op": "Const", "attr": {"dtype": {"type": "DT_INT32"}, "value": {"tensor": {"dtype": "DT_INT32", "tensorShape": {"dim": [{"size": "2"}]}}}}}, {"name": "generator/G_MODEL/m/r6/InstanceNorm/instancenorm/add/y", "op": "Const", "attr": {"value": {"tensor": {"dtype": "DT_FLOAT", "tensorShape": {}}}, "dtype": {"type": "DT_FLOAT"}}}, {"name": "generator/G_MODEL/m/r6/InstanceNorm/gamma", "op": "Const", "attr": {"dtype": {"type": "DT_FLOAT"}, "value": {"tensor": {"dtype": "DT_FLOAT", "tensorShape": {"dim": [{"size": "512"}]}}}}}, {"name": "generator/G_MODEL/m/r6/MirrorPad/paddings", "op": "Const", "attr": {"value": {"tensor": {"dtype": "DT_INT32", "tensorShape": {"dim": [{"size": "4"}, {"size": "2"}]}}}, "dtype": {"type": "DT_INT32"}}}, {"name": "generator/G_MODEL/m/r6/r6/w", "op": "Const", "attr": {"dtype": {"type": "DT_FLOAT"}, "value": {"tensor": {"dtype": "DT_FLOAT", "tensorShape": {"dim": [{"size": "3"}, {"size": "3"}, {"size": "512"}, {"size": "1"}]}}}}}, {"name": "generator/G_MODEL/m/r6/1/moments/mean/reduction_indices", "op": "Const", "attr": {"value": {"tensor": {"dtype": "DT_INT32", "tensorShape": {"dim": [{"size": "2"}]}}}, "dtype": {"type": "DT_INT32"}}}, {"name": "generator/G_MODEL/m/r6/1/moments/variance/reduction_indices", "op": "Const", "attr": {"value": {"tensor": {"dtype": "DT_INT32", "tensorShape": {"dim": [{"size": "2"}]}}}, "dtype": {"type": "DT_INT32"}}}, {"name": "generator/G_MODEL/m/r6/1/instancenorm/add/y", "op": "Const", "attr": {"dtype": {"type": "DT_FLOAT"}, "value": {"tensor": {"dtype": "DT_FLOAT", "tensorShape": {}}}}}, {"name": "generator/G_MODEL/m/r6/1/gamma", "op": "Const", "attr": {"value": {"tensor": {"dtype": "DT_FLOAT", "tensorShape": {"dim": [{"size": "512"}]}}}, "dtype": {"type": "DT_FLOAT"}}}, {"name": "generator/G_MODEL/m/r6/Conv_1/weights", "op": "Const", "attr": {"value": {"tensor": {"dtype": "DT_FLOAT", "tensorShape": {"dim": [{"size": "1"}, {"size": "1"}, {"size": "512"}, {"size": "256"}]}}}, "dtype": {"type": "DT_FLOAT"}}}, {"name": "generator/G_MODEL/m/r6/2/moments/mean/reduction_indices", "op": "Const", "attr": {"value": {"tensor": {"dtype": "DT_INT32", "tensorShape": {"dim": [{"size": "2"}]}}}, "dtype": {"type": "DT_INT32"}}}, {"name": "generator/G_MODEL/m/r6/2/moments/variance/reduction_indices", "op": "Const", "attr": {"value": {"tensor": {"dtype": "DT_INT32", "tensorShape": {"dim": [{"size": "2"}]}}}, "dtype": {"type": "DT_INT32"}}}, {"name": "generator/G_MODEL/m/r6/2/instancenorm/add/y", "op": "Const", "attr": {"dtype": {"type": "DT_FLOAT"}, "value": {"tensor": {"dtype": "DT_FLOAT", "tensorShape": {}}}}}, {"name": "generator/G_MODEL/m/r6/2/gamma", "op": "Const", "attr": {"value": {"tensor": {"dtype": "DT_FLOAT", "tensorShape": {"dim": [{"size": "256"}]}}}, "dtype": {"type": "DT_FLOAT"}}}, {"name": "generator/G_MODEL/m/r7/Conv/weights", "op": "Const", "attr": {"value": {"tensor": {"dtype": "DT_FLOAT", "tensorShape": {"dim": [{"size": "1"}, {"size": "1"}, {"size": "256"}, {"size": "512"}]}}}, "dtype": {"type": "DT_FLOAT"}}}, {"name": "generator/G_MODEL/m/r7/InstanceNorm/moments/mean/reduction_indices", "op": "Const", "attr": {"value": {"tensor": {"dtype": "DT_INT32", "tensorShape": {"dim": [{"size": "2"}]}}}, "dtype": {"type": "DT_INT32"}}}, {"name": "generator/G_MODEL/m/r7/InstanceNorm/moments/variance/reduction_indices", "op": "Const", "attr": {"value": {"tensor": {"dtype": "DT_INT32", "tensorShape": {"dim": [{"size": "2"}]}}}, "dtype": {"type": "DT_INT32"}}}, {"name": "generator/G_MODEL/m/r7/InstanceNorm/instancenorm/add/y", "op": "Const", "attr": {"value": {"tensor": {"dtype": "DT_FLOAT", "tensorShape": {}}}, "dtype": {"type": "DT_FLOAT"}}}, {"name": "generator/G_MODEL/m/r7/InstanceNorm/gamma", "op": "Const", "attr": {"dtype": {"type": "DT_FLOAT"}, "value": {"tensor": {"dtype": "DT_FLOAT", "tensorShape": {"dim": [{"size": "512"}]}}}}}, {"name": "generator/G_MODEL/m/r7/MirrorPad/paddings", "op": "Const", "attr": {"dtype": {"type": "DT_INT32"}, "value": {"tensor": {"dtype": "DT_INT32", "tensorShape": {"dim": [{"size": "4"}, {"size": "2"}]}}}}}, {"name": "generator/G_MODEL/m/r7/r7/w", "op": "Const", "attr": {"value": {"tensor": {"dtype": "DT_FLOAT", "tensorShape": {"dim": [{"size": "3"}, {"size": "3"}, {"size": "512"}, {"size": "1"}]}}}, "dtype": {"type": "DT_FLOAT"}}}, {"name": "generator/G_MODEL/m/r7/1/moments/mean/reduction_indices", "op": "Const", "attr": {"value": {"tensor": {"dtype": "DT_INT32", "tensorShape": {"dim": [{"size": "2"}]}}}, "dtype": {"type": "DT_INT32"}}}, {"name": "generator/G_MODEL/m/r7/1/moments/variance/reduction_indices", "op": "Const", "attr": {"dtype": {"type": "DT_INT32"}, "value": {"tensor": {"dtype": "DT_INT32", "tensorShape": {"dim": [{"size": "2"}]}}}}}, {"name": "generator/G_MODEL/m/r7/1/instancenorm/add/y", "op": "Const", "attr": {"value": {"tensor": {"dtype": "DT_FLOAT", "tensorShape": {}}}, "dtype": {"type": "DT_FLOAT"}}}, {"name": "generator/G_MODEL/m/r7/1/gamma", "op": "Const", "attr": {"value": {"tensor": {"dtype": "DT_FLOAT", "tensorShape": {"dim": [{"size": "512"}]}}}, "dtype": {"type": "DT_FLOAT"}}}, {"name": "generator/G_MODEL/m/r7/Conv_1/weights", "op": "Const", "attr": {"dtype": {"type": "DT_FLOAT"}, "value": {"tensor": {"dtype": "DT_FLOAT", "tensorShape": {"dim": [{"size": "1"}, {"size": "1"}, {"size": "512"}, {"size": "256"}]}}}}}, {"name": "generator/G_MODEL/m/r7/2/moments/mean/reduction_indices", "op": "Const", "attr": {"dtype": {"type": "DT_INT32"}, "value": {"tensor": {"dtype": "DT_INT32", "tensorShape": {"dim": [{"size": "2"}]}}}}}, {"name": "generator/G_MODEL/m/r7/2/moments/variance/reduction_indices", "op": "Const", "attr": {"dtype": {"type": "DT_INT32"}, "value": {"tensor": {"dtype": "DT_INT32", "tensorShape": {"dim": [{"size": "2"}]}}}}}, {"name": "generator/G_MODEL/m/r7/2/instancenorm/add/y", "op": "Const", "attr": {"value": {"tensor": {"dtype": "DT_FLOAT", "tensorShape": {}}}, "dtype": {"type": "DT_FLOAT"}}}, {"name": "generator/G_MODEL/m/r7/2/gamma", "op": "Const", "attr": {"dtype": {"type": "DT_FLOAT"}, "value": {"tensor": {"dtype": "DT_FLOAT", "tensorShape": {"dim": [{"size": "256"}]}}}}}, {"name": "generator/G_MODEL/m/r8/Conv/weights", "op": "Const", "attr": {"value": {"tensor": {"dtype": "DT_FLOAT", "tensorShape": {"dim": [{"size": "1"}, {"size": "1"}, {"size": "256"}, {"size": "512"}]}}}, "dtype": {"type": "DT_FLOAT"}}}, {"name": "generator/G_MODEL/m/r8/InstanceNorm/moments/mean/reduction_indices", "op": "Const", "attr": {"dtype": {"type": "DT_INT32"}, "value": {"tensor": {"dtype": "DT_INT32", "tensorShape": {"dim": [{"size": "2"}]}}}}}, {"name": "generator/G_MODEL/m/r8/InstanceNorm/moments/variance/reduction_indices", "op": "Const", "attr": {"dtype": {"type": "DT_INT32"}, "value": {"tensor": {"dtype": "DT_INT32", "tensorShape": {"dim": [{"size": "2"}]}}}}}, {"name": "generator/G_MODEL/m/r8/InstanceNorm/instancenorm/add/y", "op": "Const", "attr": {"dtype": {"type": "DT_FLOAT"}, "value": {"tensor": {"dtype": "DT_FLOAT", "tensorShape": {}}}}}, {"name": "generator/G_MODEL/m/r8/InstanceNorm/gamma", "op": "Const", "attr": {"dtype": {"type": "DT_FLOAT"}, "value": {"tensor": {"dtype": "DT_FLOAT", "tensorShape": {"dim": [{"size": "512"}]}}}}}, {"name": "generator/G_MODEL/m/r8/MirrorPad/paddings", "op": "Const", "attr": {"dtype": {"type": "DT_INT32"}, "value": {"tensor": {"dtype": "DT_INT32", "tensorShape": {"dim": [{"size": "4"}, {"size": "2"}]}}}}}, {"name": "generator/G_MODEL/m/r8/r8/w", "op": "Const", "attr": {"value": {"tensor": {"dtype": "DT_FLOAT", "tensorShape": {"dim": [{"size": "3"}, {"size": "3"}, {"size": "512"}, {"size": "1"}]}}}, "dtype": {"type": "DT_FLOAT"}}}, {"name": "generator/G_MODEL/m/r8/1/moments/mean/reduction_indices", "op": "Const", "attr": {"value": {"tensor": {"dtype": "DT_INT32", "tensorShape": {"dim": [{"size": "2"}]}}}, "dtype": {"type": "DT_INT32"}}}, {"name": "generator/G_MODEL/m/r8/1/moments/variance/reduction_indices", "op": "Const", "attr": {"value": {"tensor": {"dtype": "DT_INT32", "tensorShape": {"dim": [{"size": "2"}]}}}, "dtype": {"type": "DT_INT32"}}}, {"name": "generator/G_MODEL/m/r8/1/instancenorm/add/y", "op": "Const", "attr": {"value": {"tensor": {"dtype": "DT_FLOAT", "tensorShape": {}}}, "dtype": {"type": "DT_FLOAT"}}}, {"name": "generator/G_MODEL/m/r8/1/gamma", "op": "Const", "attr": {"dtype": {"type": "DT_FLOAT"}, "value": {"tensor": {"dtype": "DT_FLOAT", "tensorShape": {"dim": [{"size": "512"}]}}}}}, {"name": "generator/G_MODEL/m/r8/Conv_1/weights", "op": "Const", "attr": {"value": {"tensor": {"dtype": "DT_FLOAT", "tensorShape": {"dim": [{"size": "1"}, {"size": "1"}, {"size": "512"}, {"size": "256"}]}}}, "dtype": {"type": "DT_FLOAT"}}}, {"name": "generator/G_MODEL/m/r8/2/moments/mean/reduction_indices", "op": "Const", "attr": {"value": {"tensor": {"dtype": "DT_INT32", "tensorShape": {"dim": [{"size": "2"}]}}}, "dtype": {"type": "DT_INT32"}}}, {"name": "generator/G_MODEL/m/r8/2/moments/variance/reduction_indices", "op": "Const", "attr": {"value": {"tensor": {"dtype": "DT_INT32", "tensorShape": {"dim": [{"size": "2"}]}}}, "dtype": {"type": "DT_INT32"}}}, {"name": "generator/G_MODEL/m/r8/2/instancenorm/add/y", "op": "Const", "attr": {"value": {"tensor": {"dtype": "DT_FLOAT", "tensorShape": {}}}, "dtype": {"type": "DT_FLOAT"}}}, {"name": "generator/G_MODEL/m/r8/2/gamma", "op": "Const", "attr": {"dtype": {"type": "DT_FLOAT"}, "value": {"tensor": {"dtype": "DT_FLOAT", "tensorShape": {"dim": [{"size": "256"}]}}}}}, {"name": "generator/G_MODEL/m/MirrorPad_1/paddings", "op": "Const", "attr": {"dtype": {"type": "DT_INT32"}, "value": {"tensor": {"dtype": "DT_INT32", "tensorShape": {"dim": [{"size": "4"}, {"size": "2"}]}}}}}, {"name": "generator/G_MODEL/m/Conv_1/weights", "op": "Const", "attr": {"value": {"tensor": {"dtype": "DT_FLOAT", "tensorShape": {"dim": [{"size": "3"}, {"size": "3"}, {"size": "256"}, {"size": "256"}]}}}, "dtype": {"type": "DT_FLOAT"}}}, {"name": "generator/G_MODEL/m/InstanceNorm_1/moments/mean/reduction_indices", "op": "Const", "attr": {"dtype": {"type": "DT_INT32"}, "value": {"tensor": {"dtype": "DT_INT32", "tensorShape": {"dim": [{"size": "2"}]}}}}}, {"name": "generator/G_MODEL/m/InstanceNorm_1/moments/variance/reduction_indices", "op": "Const", "attr": {"value": {"tensor": {"dtype": "DT_INT32", "tensorShape": {"dim": [{"size": "2"}]}}}, "dtype": {"type": "DT_INT32"}}}, {"name": "generator/G_MODEL/m/InstanceNorm_1/instancenorm/add/y", "op": "Const", "attr": {"value": {"tensor": {"dtype": "DT_FLOAT", "tensorShape": {}}}, "dtype": {"type": "DT_FLOAT"}}}, {"name": "generator/G_MODEL/m/InstanceNorm_1/gamma", "op": "Const", "attr": {"dtype": {"type": "DT_FLOAT"}, "value": {"tensor": {"dtype": "DT_FLOAT", "tensorShape": {"dim": [{"size": "256"}]}}}}}, {"name": "generator/G_MODEL/u2/strided_slice_1/stack", "op": "Const", "attr": {"value": {"tensor": {"dtype": "DT_INT32", "tensorShape": {"dim": [{"size": "1"}]}}}, "dtype": {"type": "DT_INT32"}}}, {"name": "generator/G_MODEL/u2/strided_slice_1/stack_1", "op": "Const", "attr": {"dtype": {"type": "DT_INT32"}, "value": {"tensor": {"dtype": "DT_INT32", "tensorShape": {"dim": [{"size": "1"}]}}}}}, {"name": "generator/G_MODEL/u2/strided_slice_1/stack_2", "op": "Const", "attr": {"value": {"tensor": {"dtype": "DT_INT32", "tensorShape": {"dim": [{"size": "1"}]}}}, "dtype": {"type": "DT_INT32"}}}, {"name": "generator/G_MODEL/u2/MirrorPad/paddings", "op": "Const", "attr": {"dtype": {"type": "DT_INT32"}, "value": {"tensor": {"dtype": "DT_INT32", "tensorShape": {"dim": [{"size": "4"}, {"size": "2"}]}}}}}, {"name": "generator/G_MODEL/u2/SeparableConv2d/depthwise_weights", "op": "Const", "attr": {"dtype": {"type": "DT_FLOAT"}, "value": {"tensor": {"dtype": "DT_FLOAT", "tensorShape": {"dim": [{"size": "3"}, {"size": "3"}, {"size": "256"}, {"size": "1"}]}}}}}, {"name": "generator/G_MODEL/u2/SeparableConv2d/pointwise_weights", "op": "Const", "attr": {"value": {"tensor": {"dtype": "DT_FLOAT", "tensorShape": {"dim": [{"size": "1"}, {"size": "1"}, {"size": "256"}, {"size": "128"}]}}}, "dtype": {"type": "DT_FLOAT"}}}, {"name": "generator/G_MODEL/u2/SeparableConv2d/InstanceNorm/moments/mean/reduction_indices", "op": "Const", "attr": {"dtype": {"type": "DT_INT32"}, "value": {"tensor": {"dtype": "DT_INT32", "tensorShape": {"dim": [{"size": "2"}]}}}}}, {"name": "generator/G_MODEL/u2/SeparableConv2d/InstanceNorm/moments/variance/reduction_indices", "op": "Const", "attr": {"value": {"tensor": {"dtype": "DT_INT32", "tensorShape": {"dim": [{"size": "2"}]}}}, "dtype": {"type": "DT_INT32"}}}, {"name": "generator/G_MODEL/u2/SeparableConv2d/InstanceNorm/instancenorm/add/y", "op": "Const", "attr": {"value": {"tensor": {"dtype": "DT_FLOAT", "tensorShape": {}}}, "dtype": {"type": "DT_FLOAT"}}}, {"name": "generator/G_MODEL/u2/SeparableConv2d/InstanceNorm/gamma", "op": "Const", "attr": {"dtype": {"type": "DT_FLOAT"}, "value": {"tensor": {"dtype": "DT_FLOAT", "tensorShape": {"dim": [{"size": "128"}]}}}}}, {"name": "generator/G_MODEL/u2/MirrorPad_1/paddings", "op": "Const", "attr": {"dtype": {"type": "DT_INT32"}, "value": {"tensor": {"dtype": "DT_INT32", "tensorShape": {"dim": [{"size": "4"}, {"size": "2"}]}}}}}, {"name": "generator/G_MODEL/u2/SeparableConv2d_1/depthwise_weights", "op": "Const", "attr": {"value": {"tensor": {"dtype": "DT_FLOAT", "tensorShape": {"dim": [{"size": "3"}, {"size": "3"}, {"size": "128"}, {"size": "1"}]}}}, "dtype": {"type": "DT_FLOAT"}}}, {"name": "generator/G_MODEL/u2/SeparableConv2d_1/pointwise_weights", "op": "Const", "attr": {"value": {"tensor": {"dtype": "DT_FLOAT", "tensorShape": {"dim": [{"size": "1"}, {"size": "1"}, {"size": "128"}, {"size": "128"}]}}}, "dtype": {"type": "DT_FLOAT"}}}, {"name": "generator/G_MODEL/u2/SeparableConv2d_1/InstanceNorm/moments/mean/reduction_indices", "op": "Const", "attr": {"value": {"tensor": {"dtype": "DT_INT32", "tensorShape": {"dim": [{"size": "2"}]}}}, "dtype": {"type": "DT_INT32"}}}, {"name": "generator/G_MODEL/u2/SeparableConv2d_1/InstanceNorm/moments/variance/reduction_indices", "op": "Const", "attr": {"value": {"tensor": {"dtype": "DT_INT32", "tensorShape": {"dim": [{"size": "2"}]}}}, "dtype": {"type": "DT_INT32"}}}, {"name": "generator/G_MODEL/u2/SeparableConv2d_1/InstanceNorm/instancenorm/add/y", "op": "Const", "attr": {"value": {"tensor": {"dtype": "DT_FLOAT", "tensorShape": {}}}, "dtype": {"type": "DT_FLOAT"}}}, {"name": "generator/G_MODEL/u2/SeparableConv2d_1/InstanceNorm/gamma", "op": "Const", "attr": {"dtype": {"type": "DT_FLOAT"}, "value": {"tensor": {"dtype": "DT_FLOAT", "tensorShape": {"dim": [{"size": "128"}]}}}}}, {"name": "generator/G_MODEL/u2/MirrorPad_2/paddings", "op": "Const", "attr": {"dtype": {"type": "DT_INT32"}, "value": {"tensor": {"dtype": "DT_INT32", "tensorShape": {"dim": [{"size": "4"}, {"size": "2"}]}}}}}, {"name": "generator/G_MODEL/u2/Conv/weights", "op": "Const", "attr": {"value": {"tensor": {"dtype": "DT_FLOAT", "tensorShape": {"dim": [{"size": "3"}, {"size": "3"}, {"size": "128"}, {"size": "128"}]}}}, "dtype": {"type": "DT_FLOAT"}}}, {"name": "generator/G_MODEL/u2/InstanceNorm/moments/mean/reduction_indices", "op": "Const", "attr": {"dtype": {"type": "DT_INT32"}, "value": {"tensor": {"dtype": "DT_INT32", "tensorShape": {"dim": [{"size": "2"}]}}}}}, {"name": "generator/G_MODEL/u2/InstanceNorm/moments/variance/reduction_indices", "op": "Const", "attr": {"value": {"tensor": {"dtype": "DT_INT32", "tensorShape": {"dim": [{"size": "2"}]}}}, "dtype": {"type": "DT_INT32"}}}, {"name": "generator/G_MODEL/u2/InstanceNorm/instancenorm/add/y", "op": "Const", "attr": {"dtype": {"type": "DT_FLOAT"}, "value": {"tensor": {"dtype": "DT_FLOAT", "tensorShape": {}}}}}, {"name": "generator/G_MODEL/u2/InstanceNorm/gamma", "op": "Const", "attr": {"value": {"tensor": {"dtype": "DT_FLOAT", "tensorShape": {"dim": [{"size": "128"}]}}}, "dtype": {"type": "DT_FLOAT"}}}, {"name": "generator/G_MODEL/u1/strided_slice_1/stack", "op": "Const", "attr": {"dtype": {"type": "DT_INT32"}, "value": {"tensor": {"dtype": "DT_INT32", "tensorShape": {"dim": [{"size": "1"}]}}}}}, {"name": "generator/G_MODEL/u1/strided_slice_1/stack_1", "op": "Const", "attr": {"value": {"tensor": {"dtype": "DT_INT32", "tensorShape": {"dim": [{"size": "1"}]}}}, "dtype": {"type": "DT_INT32"}}}, {"name": "generator/G_MODEL/u1/strided_slice_1/stack_2", "op": "Const", "attr": {"value": {"tensor": {"dtype": "DT_INT32", "tensorShape": {"dim": [{"size": "1"}]}}}, "dtype": {"type": "DT_INT32"}}}, {"name": "generator/G_MODEL/u1/MirrorPad/paddings", "op": "Const", "attr": {"value": {"tensor": {"dtype": "DT_INT32", "tensorShape": {"dim": [{"size": "4"}, {"size": "2"}]}}}, "dtype": {"type": "DT_INT32"}}}, {"name": "generator/G_MODEL/u1/SeparableConv2d/depthwise_weights", "op": "Const", "attr": {"dtype": {"type": "DT_FLOAT"}, "value": {"tensor": {"dtype": "DT_FLOAT", "tensorShape": {"dim": [{"size": "3"}, {"size": "3"}, {"size": "128"}, {"size": "1"}]}}}}}, {"name": "generator/G_MODEL/u1/SeparableConv2d/pointwise_weights", "op": "Const", "attr": {"value": {"tensor": {"dtype": "DT_FLOAT", "tensorShape": {"dim": [{"size": "1"}, {"size": "1"}, {"size": "128"}, {"size": "128"}]}}}, "dtype": {"type": "DT_FLOAT"}}}, {"name": "generator/G_MODEL/u1/SeparableConv2d/InstanceNorm/moments/mean/reduction_indices", "op": "Const", "attr": {"value": {"tensor": {"dtype": "DT_INT32", "tensorShape": {"dim": [{"size": "2"}]}}}, "dtype": {"type": "DT_INT32"}}}, {"name": "generator/G_MODEL/u1/SeparableConv2d/InstanceNorm/moments/variance/reduction_indices", "op": "Const", "attr": {"value": {"tensor": {"dtype": "DT_INT32", "tensorShape": {"dim": [{"size": "2"}]}}}, "dtype": {"type": "DT_INT32"}}}, {"name": "generator/G_MODEL/u1/SeparableConv2d/InstanceNorm/instancenorm/add/y", "op": "Const", "attr": {"dtype": {"type": "DT_FLOAT"}, "value": {"tensor": {"dtype": "DT_FLOAT", "tensorShape": {}}}}}, {"name": "generator/G_MODEL/u1/SeparableConv2d/InstanceNorm/gamma", "op": "Const", "attr": {"dtype": {"type": "DT_FLOAT"}, "value": {"tensor": {"dtype": "DT_FLOAT", "tensorShape": {"dim": [{"size": "128"}]}}}}}, {"name": "generator/G_MODEL/u1/MirrorPad_1/paddings", "op": "Const", "attr": {"dtype": {"type": "DT_INT32"}, "value": {"tensor": {"dtype": "DT_INT32", "tensorShape": {"dim": [{"size": "4"}, {"size": "2"}]}}}}}, {"name": "generator/G_MODEL/u1/Conv/weights", "op": "Const", "attr": {"value": {"tensor": {"dtype": "DT_FLOAT", "tensorShape": {"dim": [{"size": "3"}, {"size": "3"}, {"size": "128"}, {"size": "64"}]}}}, "dtype": {"type": "DT_FLOAT"}}}, {"name": "generator/G_MODEL/u1/InstanceNorm/moments/mean/reduction_indices", "op": "Const", "attr": {"value": {"tensor": {"dtype": "DT_INT32", "tensorShape": {"dim": [{"size": "2"}]}}}, "dtype": {"type": "DT_INT32"}}}, {"name": "generator/G_MODEL/u1/InstanceNorm/moments/variance/reduction_indices", "op": "Const", "attr": {"value": {"tensor": {"dtype": "DT_INT32", "tensorShape": {"dim": [{"size": "2"}]}}}, "dtype": {"type": "DT_INT32"}}}, {"name": "generator/G_MODEL/u1/InstanceNorm/instancenorm/add/y", "op": "Const", "attr": {"dtype": {"type": "DT_FLOAT"}, "value": {"tensor": {"dtype": "DT_FLOAT", "tensorShape": {}}}}}, {"name": "generator/G_MODEL/u1/InstanceNorm/gamma", "op": "Const", "attr": {"value": {"tensor": {"dtype": "DT_FLOAT", "tensorShape": {"dim": [{"size": "64"}]}}}, "dtype": {"type": "DT_FLOAT"}}}, {"name": "generator/G_MODEL/u1/MirrorPad_2/paddings", "op": "Const", "attr": {"dtype": {"type": "DT_INT32"}, "value": {"tensor": {"dtype": "DT_INT32", "tensorShape": {"dim": [{"size": "4"}, {"size": "2"}]}}}}}, {"name": "generator/G_MODEL/u1/Conv_1/weights", "op": "Const", "attr": {"value": {"tensor": {"dtype": "DT_FLOAT", "tensorShape": {"dim": [{"size": "3"}, {"size": "3"}, {"size": "64"}, {"size": "64"}]}}}, "dtype": {"type": "DT_FLOAT"}}}, {"name": "generator/G_MODEL/u1/InstanceNorm_1/moments/mean/reduction_indices", "op": "Const", "attr": {"dtype": {"type": "DT_INT32"}, "value": {"tensor": {"dtype": "DT_INT32", "tensorShape": {"dim": [{"size": "2"}]}}}}}, {"name": "generator/G_MODEL/u1/InstanceNorm_1/moments/variance/reduction_indices", "op": "Const", "attr": {"value": {"tensor": {"dtype": "DT_INT32", "tensorShape": {"dim": [{"size": "2"}]}}}, "dtype": {"type": "DT_INT32"}}}, {"name": "generator/G_MODEL/u1/InstanceNorm_1/instancenorm/add/y", "op": "Const", "attr": {"dtype": {"type": "DT_FLOAT"}, "value": {"tensor": {"dtype": "DT_FLOAT", "tensorShape": {}}}}}, {"name": "generator/G_MODEL/u1/InstanceNorm_1/gamma", "op": "Const", "attr": {"value": {"tensor": {"dtype": "DT_FLOAT", "tensorShape": {"dim": [{"size": "64"}]}}}, "dtype": {"type": "DT_FLOAT"}}}, {"name": "generator/G_MODEL/Conv/weights", "op": "Const", "attr": {"dtype": {"type": "DT_FLOAT"}, "value": {"tensor": {"dtype": "DT_FLOAT", "tensorShape": {"dim": [{"size": "1"}, {"size": "1"}, {"size": "64"}, {"size": "3"}]}}}}}, {"name": "generator_input", "op": "Placeholder", "attr": {"dtype": {"type": "DT_FLOAT"}, "shape": {"shape": {"dim": [{"size": "1"}, {"size": "-1"}, {"size": "-1"}, {"size": "3"}]}}}}, {"name": "generator/G_MODEL/b1/MirrorPad", "op": "MirrorPad", "input": ["generator_input", "generator/G_MODEL/b1/MirrorPad/paddings"], "attr": {"mode": {"s": "UkVGTEVDVA=="}, "T": {"type": "DT_FLOAT"}, "Tpaddings": {"type": "DT_INT32"}}}, {"name": "generator/G_MODEL/b1/Conv/Conv2D", "op": "Conv2D", "input": ["generator/G_MODEL/b1/MirrorPad", "generator/G_MODEL/b1/Conv/weights"], "device": "/device:CPU:0", "attr": {"dilations": {"list": {"i": ["1", "1", "1", "1"]}}, "data_format": {"s": "TkhXQw=="}, "padding": {"s": "VkFMSUQ="}, "strides": {"list": {"i": ["1", "1", "1", "1"]}}, "use_cudnn_on_gpu": {"b": true}, "explicit_paddings": {"list": {}}, "T": {"type": "DT_FLOAT"}}}, {"name": "generator/G_MODEL/b1/InstanceNorm/moments/mean", "op": "Mean", "input": ["generator/G_MODEL/b1/Conv/Conv2D", "generator/G_MODEL/b1/InstanceNorm/moments/mean/reduction_indices"], "attr": {"T": {"type": "DT_FLOAT"}, "Tidx": {"type": "DT_INT32"}, "keep_dims": {"b": true}}}, {"name": "generator/G_MODEL/b1/InstanceNorm/moments/SquaredDifference", "op": "SquaredDifference", "input": ["generator/G_MODEL/b1/Conv/Conv2D", "generator/G_MODEL/b1/InstanceNorm/moments/mean"], "attr": {"T": {"type": "DT_FLOAT"}}}, {"name": "generator/G_MODEL/b1/InstanceNorm/moments/variance", "op": "Mean", "input": ["generator/G_MODEL/b1/InstanceNorm/moments/SquaredDifference", "generator/G_MODEL/b1/InstanceNorm/moments/variance/reduction_indices"], "attr": {"T": {"type": "DT_FLOAT"}, "Tidx": {"type": "DT_INT32"}, "keep_dims": {"b": true}}}, {"name": "generator/G_MODEL/b1/InstanceNorm/instancenorm/add", "op": "AddV2", "input": ["generator/G_MODEL/b1/InstanceNorm/moments/variance", "generator/G_MODEL/b1/InstanceNorm/instancenorm/add/y"], "attr": {"T": {"type": "DT_FLOAT"}}}, {"name": "generator/G_MODEL/b1/InstanceNorm/instancenorm/Rsqrt", "op": "Rsqrt", "input": ["generator/G_MODEL/b1/InstanceNorm/instancenorm/add"], "attr": {"T": {"type": "DT_FLOAT"}}}, {"name": "generator/G_MODEL/b1/InstanceNorm/instancenorm/mul", "op": "Mul", "input": ["generator/G_MODEL/b1/InstanceNorm/instancenorm/Rsqrt", "generator/G_MODEL/b1/InstanceNorm/gamma"], "attr": {"T": {"type": "DT_FLOAT"}}}, {"name": "generator/G_MODEL/b1/InstanceNorm/instancenorm/mul_2", "op": "Mul", "input": ["generator/G_MODEL/b1/InstanceNorm/moments/mean", "generator/G_MODEL/b1/InstanceNorm/instancenorm/mul"], "attr": {"T": {"type": "DT_FLOAT"}}}, {"name": "generator/G_MODEL/b1/InstanceNorm/instancenorm/mul_1", "op": "Mul", "input": ["generator/G_MODEL/b1/Conv/Conv2D", "generator/G_MODEL/b1/InstanceNorm/instancenorm/mul"], "attr": {"T": {"type": "DT_FLOAT"}}}, {"name": "generator/G_MODEL/b1/InstanceNorm/instancenorm/sub", "op": "Sub", "input": ["generator/G_MODEL/b1/InstanceNorm/beta", "generator/G_MODEL/b1/InstanceNorm/instancenorm/mul_2"], "attr": {"T": {"type": "DT_FLOAT"}}}, {"name": "generator/G_MODEL/b1/InstanceNorm/instancenorm/add_1", "op": "AddV2", "input": ["generator/G_MODEL/b1/InstanceNorm/instancenorm/mul_1", "generator/G_MODEL/b1/InstanceNorm/instancenorm/sub"], "attr": {"T": {"type": "DT_FLOAT"}}}, {"name": "generator/G_MODEL/b1/LeakyRelu", "op": "LeakyRelu", "input": ["generator/G_MODEL/b1/InstanceNorm/instancenorm/add_1"], "attr": {"alpha": {"f": 0.2}, "T": {"type": "DT_FLOAT"}}}, {"name": "generator/G_MODEL/b1/MirrorPad_1", "op": "MirrorPad", "input": ["generator/G_MODEL/b1/LeakyRelu", "generator/G_MODEL/b1/MirrorPad_1/paddings"], "attr": {"mode": {"s": "UkVGTEVDVA=="}, "Tpaddings": {"type": "DT_INT32"}, "T": {"type": "DT_FLOAT"}}}, {"name": "generator/G_MODEL/b1/Conv_1/Conv2D", "op": "Conv2D", "input": ["generator/G_MODEL/b1/MirrorPad_1", "generator/G_MODEL/b1/Conv_1/weights"], "device": "/device:CPU:0", "attr": {"dilations": {"list": {"i": ["1", "1", "1", "1"]}}, "use_cudnn_on_gpu": {"b": true}, "T": {"type": "DT_FLOAT"}, "explicit_paddings": {"list": {}}, "data_format": {"s": "TkhXQw=="}, "padding": {"s": "VkFMSUQ="}, "strides": {"list": {"i": ["1", "1", "1", "1"]}}}}, {"name": "generator/G_MODEL/b1/InstanceNorm_1/moments/mean", "op": "Mean", "input": ["generator/G_MODEL/b1/Conv_1/Conv2D", "generator/G_MODEL/b1/InstanceNorm_1/moments/mean/reduction_indices"], "attr": {"keep_dims": {"b": true}, "T": {"type": "DT_FLOAT"}, "Tidx": {"type": "DT_INT32"}}}, {"name": "generator/G_MODEL/b1/InstanceNorm_1/moments/SquaredDifference", "op": "SquaredDifference", "input": ["generator/G_MODEL/b1/Conv_1/Conv2D", "generator/G_MODEL/b1/InstanceNorm_1/moments/mean"], "attr": {"T": {"type": "DT_FLOAT"}}}, {"name": "generator/G_MODEL/b1/InstanceNorm_1/moments/variance", "op": "Mean", "input": ["generator/G_MODEL/b1/InstanceNorm_1/moments/SquaredDifference", "generator/G_MODEL/b1/InstanceNorm_1/moments/variance/reduction_indices"], "attr": {"Tidx": {"type": "DT_INT32"}, "keep_dims": {"b": true}, "T": {"type": "DT_FLOAT"}}}, {"name": "generator/G_MODEL/b1/InstanceNorm_1/instancenorm/add", "op": "AddV2", "input": ["generator/G_MODEL/b1/InstanceNorm_1/moments/variance", "generator/G_MODEL/b1/InstanceNorm_1/instancenorm/add/y"], "attr": {"T": {"type": "DT_FLOAT"}}}, {"name": "generator/G_MODEL/b1/InstanceNorm_1/instancenorm/Rsqrt", "op": "Rsqrt", "input": ["generator/G_MODEL/b1/InstanceNorm_1/instancenorm/add"], "attr": {"T": {"type": "DT_FLOAT"}}}, {"name": "generator/G_MODEL/b1/InstanceNorm_1/instancenorm/mul", "op": "Mul", "input": ["generator/G_MODEL/b1/InstanceNorm_1/instancenorm/Rsqrt", "generator/G_MODEL/b1/InstanceNorm_1/gamma"], "attr": {"T": {"type": "DT_FLOAT"}}}, {"name": "generator/G_MODEL/b1/InstanceNorm_1/instancenorm/mul_2", "op": "Mul", "input": ["generator/G_MODEL/b1/InstanceNorm_1/moments/mean", "generator/G_MODEL/b1/InstanceNorm_1/instancenorm/mul"], "attr": {"T": {"type": "DT_FLOAT"}}}, {"name": "generator/G_MODEL/b1/InstanceNorm_1/instancenorm/mul_1", "op": "Mul", "input": ["generator/G_MODEL/b1/Conv_1/Conv2D", "generator/G_MODEL/b1/InstanceNorm_1/instancenorm/mul"], "attr": {"T": {"type": "DT_FLOAT"}}}, {"name": "generator/G_MODEL/b1/InstanceNorm_1/instancenorm/sub", "op": "Sub", "input": ["generator/G_MODEL/b1/InstanceNorm_1/beta", "generator/G_MODEL/b1/InstanceNorm_1/instancenorm/mul_2"], "attr": {"T": {"type": "DT_FLOAT"}}}, {"name": "generator/G_MODEL/b1/InstanceNorm_1/instancenorm/add_1", "op": "AddV2", "input": ["generator/G_MODEL/b1/InstanceNorm_1/instancenorm/mul_1", "generator/G_MODEL/b1/InstanceNorm_1/instancenorm/sub"], "attr": {"T": {"type": "DT_FLOAT"}}}, {"name": "generator/G_MODEL/b1/LeakyRelu_1", "op": "LeakyRelu", "input": ["generator/G_MODEL/b1/InstanceNorm_1/instancenorm/add_1"], "attr": {"T": {"type": "DT_FLOAT"}, "alpha": {"f": 0.2}}}, {"name": "generator/G_MODEL/b1/MirrorPad_2", "op": "MirrorPad", "input": ["generator/G_MODEL/b1/LeakyRelu_1", "generator/G_MODEL/b1/MirrorPad_2/paddings"], "attr": {"Tpaddings": {"type": "DT_INT32"}, "T": {"type": "DT_FLOAT"}, "mode": {"s": "UkVGTEVDVA=="}}}, {"name": "generator/G_MODEL/b1/Shape", "op": "Shape", "input": ["generator/G_MODEL/b1/LeakyRelu_1"], "attr": {"T": {"type": "DT_FLOAT"}, "out_type": {"type": "DT_INT32"}}}, {"name": "generator/G_MODEL/b1/Shape_1", "op": "Shape", "input": ["generator/G_MODEL/b1/LeakyRelu_1"], "attr": {"out_type": {"type": "DT_INT32"}, "T": {"type": "DT_FLOAT"}}}, {"name": "generator/G_MODEL/b1/SeparableConv2d/separable_conv2d/depthwise", "op": "DepthwiseConv2dNative", "input": ["generator/G_MODEL/b1/MirrorPad_2", "generator/G_MODEL/b1/SeparableConv2d/depthwise_weights"], "attr": {"padding": {"s": "VkFMSUQ="}, "explicit_paddings": {"list": {}}, "dilations": {"list": {"i": ["1", "1", "1", "1"]}}, "strides": {"list": {"i": ["1", "2", "2", "1"]}}, "T": {"type": "DT_FLOAT"}, "data_format": {"s": "TkhXQw=="}}}, {"name": "generator/G_MODEL/b1/strided_slice", "op": "StridedSlice", "input": ["generator/G_MODEL/b1/Shape", "generator/G_MODEL/b1/strided_slice/stack", "generator/G_MODEL/b1/strided_slice/stack_1", "generator/G_MODEL/b1/strided_slice/stack_2"], "attr": {"begin_mask": {"i": "0"}, "Index": {"type": "DT_INT32"}, "end_mask": {"i": "0"}, "shrink_axis_mask": {"i": "1"}, "ellipsis_mask": {"i": "0"}, "T": {"type": "DT_INT32"}, "new_axis_mask": {"i": "0"}}}, {"name": "generator/G_MODEL/b1/strided_slice_1", "op": "StridedSlice", "input": ["generator/G_MODEL/b1/Shape_1", "generator/G_MODEL/b1/strided_slice_1/stack", "generator/G_MODEL/b1/strided_slice_1/stack_1", "generator/G_MODEL/b1/strided_slice_1/stack_2"], "attr": {"Index": {"type": "DT_INT32"}, "new_axis_mask": {"i": "0"}, "end_mask": {"i": "0"}, "ellipsis_mask": {"i": "0"}, "T": {"type": "DT_INT32"}, "shrink_axis_mask": {"i": "1"}, "begin_mask": {"i": "0"}}}, {"name": "generator/G_MODEL/b1/SeparableConv2d/separable_conv2d", "op": "Conv2D", "input": ["generator/G_MODEL/b1/SeparableConv2d/separable_conv2d/depthwise", "generator/G_MODEL/b1/SeparableConv2d/pointwise_weights"], "device": "/device:CPU:0", "attr": {"explicit_paddings": {"list": {}}, "data_format": {"s": "TkhXQw=="}, "strides": {"list": {"i": ["1", "1", "1", "1"]}}, "padding": {"s": "VkFMSUQ="}, "T": {"type": "DT_FLOAT"}, "dilations": {"list": {"i": ["1", "1", "1", "1"]}}, "use_cudnn_on_gpu": {"b": true}}}, {"name": "generator/G_MODEL/b1/floordiv", "op": "FloorDiv", "input": ["generator/G_MODEL/b1/strided_slice", "generator/G_MODEL/b1/floordiv/y"], "attr": {"T": {"type": "DT_INT32"}}}, {"name": "generator/G_MODEL/b1/floordiv_1", "op": "FloorDiv", "input": ["generator/G_MODEL/b1/strided_slice_1", "generator/G_MODEL/b1/floordiv_1/y"], "attr": {"T": {"type": "DT_INT32"}}}, {"name": "generator/G_MODEL/b1/SeparableConv2d/InstanceNorm/moments/mean", "op": "Mean", "input": ["generator/G_MODEL/b1/SeparableConv2d/separable_conv2d", "generator/G_MODEL/b1/SeparableConv2d/InstanceNorm/moments/mean/reduction_indices"], "attr": {"Tidx": {"type": "DT_INT32"}, "keep_dims": {"b": true}, "T": {"type": "DT_FLOAT"}}}, {"name": "generator/G_MODEL/b1/resize/size", "op": "Pack", "input": ["generator/G_MODEL/b1/floordiv", "generator/G_MODEL/b1/floordiv_1"], "attr": {"axis": {"i": "0"}, "T": {"type": "DT_INT32"}, "N": {"i": "2"}}}, {"name": "generator/G_MODEL/b1/SeparableConv2d/InstanceNorm/moments/SquaredDifference", "op": "SquaredDifference", "input": ["generator/G_MODEL/b1/SeparableConv2d/separable_conv2d", "generator/G_MODEL/b1/SeparableConv2d/InstanceNorm/moments/mean"], "attr": {"T": {"type": "DT_FLOAT"}}}, {"name": "generator/G_MODEL/b1/resize/ResizeBilinear", "op": "ResizeBilinear", "input": ["generator/G_MODEL/b1/LeakyRelu_1", "generator/G_MODEL/b1/resize/size"], "attr": {"T": {"type": "DT_FLOAT"}, "half_pixel_centers": {"b": false}, "align_corners": {"b": false}}}, {"name": "generator/G_MODEL/b1/SeparableConv2d/InstanceNorm/moments/variance", "op": "Mean", "input": ["generator/G_MODEL/b1/SeparableConv2d/InstanceNorm/moments/SquaredDifference", "generator/G_MODEL/b1/SeparableConv2d/InstanceNorm/moments/variance/reduction_indices"], "attr": {"Tidx": {"type": "DT_INT32"}, "keep_dims": {"b": true}, "T": {"type": "DT_FLOAT"}}}, {"name": "generator/G_MODEL/b1/MirrorPad_3", "op": "MirrorPad", "input": ["generator/G_MODEL/b1/resize/ResizeBilinear", "generator/G_MODEL/b1/MirrorPad_3/paddings"], "attr": {"Tpaddings": {"type": "DT_INT32"}, "mode": {"s": "UkVGTEVDVA=="}, "T": {"type": "DT_FLOAT"}}}, {"name": "generator/G_MODEL/b1/SeparableConv2d/InstanceNorm/instancenorm/add", "op": "AddV2", "input": ["generator/G_MODEL/b1/SeparableConv2d/InstanceNorm/moments/variance", "generator/G_MODEL/b1/SeparableConv2d/InstanceNorm/instancenorm/add/y"], "attr": {"T": {"type": "DT_FLOAT"}}}, {"name": "generator/G_MODEL/b1/SeparableConv2d_1/separable_conv2d/depthwise", "op": "DepthwiseConv2dNative", "input": ["generator/G_MODEL/b1/MirrorPad_3", "generator/G_MODEL/b1/SeparableConv2d_1/depthwise_weights"], "attr": {"padding": {"s": "VkFMSUQ="}, "dilations": {"list": {"i": ["1", "1", "1", "1"]}}, "strides": {"list": {"i": ["1", "1", "1", "1"]}}, "T": {"type": "DT_FLOAT"}, "data_format": {"s": "TkhXQw=="}, "explicit_paddings": {"list": {}}}}, {"name": "generator/G_MODEL/b1/SeparableConv2d/InstanceNorm/instancenorm/Rsqrt", "op": "Rsqrt", "input": ["generator/G_MODEL/b1/SeparableConv2d/InstanceNorm/instancenorm/add"], "attr": {"T": {"type": "DT_FLOAT"}}}, {"name": "generator/G_MODEL/b1/SeparableConv2d_1/separable_conv2d", "op": "Conv2D", "input": ["generator/G_MODEL/b1/SeparableConv2d_1/separable_conv2d/depthwise", "generator/G_MODEL/b1/SeparableConv2d_1/pointwise_weights"], "device": "/device:CPU:0", "attr": {"data_format": {"s": "TkhXQw=="}, "explicit_paddings": {"list": {}}, "dilations": {"list": {"i": ["1", "1", "1", "1"]}}, "strides": {"list": {"i": ["1", "1", "1", "1"]}}, "use_cudnn_on_gpu": {"b": true}, "padding": {"s": "VkFMSUQ="}, "T": {"type": "DT_FLOAT"}}}, {"name": "generator/G_MODEL/b1/SeparableConv2d/InstanceNorm/instancenorm/mul", "op": "Mul", "input": ["generator/G_MODEL/b1/SeparableConv2d/InstanceNorm/instancenorm/Rsqrt", "generator/G_MODEL/b1/SeparableConv2d/InstanceNorm/gamma"], "attr": {"T": {"type": "DT_FLOAT"}}}, {"name": "generator/G_MODEL/b1/SeparableConv2d_1/InstanceNorm/moments/mean", "op": "Mean", "input": ["generator/G_MODEL/b1/SeparableConv2d_1/separable_conv2d", "generator/G_MODEL/b1/SeparableConv2d_1/InstanceNorm/moments/mean/reduction_indices"], "attr": {"Tidx": {"type": "DT_INT32"}, "T": {"type": "DT_FLOAT"}, "keep_dims": {"b": true}}}, {"name": "generator/G_MODEL/b1/SeparableConv2d/InstanceNorm/instancenorm/mul_2", "op": "Mul", "input": ["generator/G_MODEL/b1/SeparableConv2d/InstanceNorm/moments/mean", "generator/G_MODEL/b1/SeparableConv2d/InstanceNorm/instancenorm/mul"], "attr": {"T": {"type": "DT_FLOAT"}}}, {"name": "generator/G_MODEL/b1/SeparableConv2d/InstanceNorm/instancenorm/mul_1", "op": "Mul", "input": ["generator/G_MODEL/b1/SeparableConv2d/separable_conv2d", "generator/G_MODEL/b1/SeparableConv2d/InstanceNorm/instancenorm/mul"], "attr": {"T": {"type": "DT_FLOAT"}}}, {"name": "generator/G_MODEL/b1/SeparableConv2d_1/InstanceNorm/moments/SquaredDifference", "op": "SquaredDifference", "input": ["generator/G_MODEL/b1/SeparableConv2d_1/separable_conv2d", "generator/G_MODEL/b1/SeparableConv2d_1/InstanceNorm/moments/mean"], "attr": {"T": {"type": "DT_FLOAT"}}}, {"name": "generator/G_MODEL/b1/SeparableConv2d/InstanceNorm/instancenorm/sub", "op": "Sub", "input": ["generator/G_MODEL/b1/SeparableConv2d/InstanceNorm/beta", "generator/G_MODEL/b1/SeparableConv2d/InstanceNorm/instancenorm/mul_2"], "attr": {"T": {"type": "DT_FLOAT"}}}, {"name": "generator/G_MODEL/b1/SeparableConv2d_1/InstanceNorm/moments/variance", "op": "Mean", "input": ["generator/G_MODEL/b1/SeparableConv2d_1/InstanceNorm/moments/SquaredDifference", "generator/G_MODEL/b1/SeparableConv2d_1/InstanceNorm/moments/variance/reduction_indices"], "attr": {"T": {"type": "DT_FLOAT"}, "Tidx": {"type": "DT_INT32"}, "keep_dims": {"b": true}}}, {"name": "generator/G_MODEL/b1/SeparableConv2d/InstanceNorm/instancenorm/add_1", "op": "AddV2", "input": ["generator/G_MODEL/b1/SeparableConv2d/InstanceNorm/instancenorm/mul_1", "generator/G_MODEL/b1/SeparableConv2d/InstanceNorm/instancenorm/sub"], "attr": {"T": {"type": "DT_FLOAT"}}}, {"name": "generator/G_MODEL/b1/SeparableConv2d_1/InstanceNorm/instancenorm/add", "op": "AddV2", "input": ["generator/G_MODEL/b1/SeparableConv2d_1/InstanceNorm/moments/variance", "generator/G_MODEL/b1/SeparableConv2d_1/InstanceNorm/instancenorm/add/y"], "attr": {"T": {"type": "DT_FLOAT"}}}, {"name": "generator/G_MODEL/b1/SeparableConv2d/LeakyRelu", "op": "LeakyRelu", "input": ["generator/G_MODEL/b1/SeparableConv2d/InstanceNorm/instancenorm/add_1"], "attr": {"T": {"type": "DT_FLOAT"}, "alpha": {"f": 0.2}}}, {"name": "generator/G_MODEL/b1/SeparableConv2d_1/InstanceNorm/instancenorm/Rsqrt", "op": "Rsqrt", "input": ["generator/G_MODEL/b1/SeparableConv2d_1/InstanceNorm/instancenorm/add"], "attr": {"T": {"type": "DT_FLOAT"}}}, {"name": "generator/G_MODEL/b1/SeparableConv2d_1/InstanceNorm/instancenorm/mul", "op": "Mul", "input": ["generator/G_MODEL/b1/SeparableConv2d_1/InstanceNorm/instancenorm/Rsqrt", "generator/G_MODEL/b1/SeparableConv2d_1/InstanceNorm/gamma"], "attr": {"T": {"type": "DT_FLOAT"}}}, {"name": "generator/G_MODEL/b1/SeparableConv2d_1/InstanceNorm/instancenorm/mul_2", "op": "Mul", "input": ["generator/G_MODEL/b1/SeparableConv2d_1/InstanceNorm/moments/mean", "generator/G_MODEL/b1/SeparableConv2d_1/InstanceNorm/instancenorm/mul"], "attr": {"T": {"type": "DT_FLOAT"}}}, {"name": "generator/G_MODEL/b1/SeparableConv2d_1/InstanceNorm/instancenorm/mul_1", "op": "Mul", "input": ["generator/G_MODEL/b1/SeparableConv2d_1/separable_conv2d", "generator/G_MODEL/b1/SeparableConv2d_1/InstanceNorm/instancenorm/mul"], "attr": {"T": {"type": "DT_FLOAT"}}}, {"name": "generator/G_MODEL/b1/SeparableConv2d_1/InstanceNorm/instancenorm/sub", "op": "Sub", "input": ["generator/G_MODEL/b1/SeparableConv2d_1/InstanceNorm/beta", "generator/G_MODEL/b1/SeparableConv2d_1/InstanceNorm/instancenorm/mul_2"], "attr": {"T": {"type": "DT_FLOAT"}}}, {"name": "generator/G_MODEL/b1/SeparableConv2d_1/InstanceNorm/instancenorm/add_1", "op": "AddV2", "input": ["generator/G_MODEL/b1/SeparableConv2d_1/InstanceNorm/instancenorm/mul_1", "generator/G_MODEL/b1/SeparableConv2d_1/InstanceNorm/instancenorm/sub"], "attr": {"T": {"type": "DT_FLOAT"}}}, {"name": "generator/G_MODEL/b1/SeparableConv2d_1/LeakyRelu", "op": "LeakyRelu", "input": ["generator/G_MODEL/b1/SeparableConv2d_1/InstanceNorm/instancenorm/add_1"], "attr": {"T": {"type": "DT_FLOAT"}, "alpha": {"f": 0.2}}}, {"name": "generator/G_MODEL/b1/add", "op": "AddV2", "input": ["generator/G_MODEL/b1/SeparableConv2d/LeakyRelu", "generator/G_MODEL/b1/SeparableConv2d_1/LeakyRelu"], "attr": {"T": {"type": "DT_FLOAT"}}}, {"name": "generator/G_MODEL/b2/MirrorPad", "op": "MirrorPad", "input": ["generator/G_MODEL/b1/add", "generator/G_MODEL/b2/MirrorPad/paddings"], "attr": {"mode": {"s": "UkVGTEVDVA=="}, "T": {"type": "DT_FLOAT"}, "Tpaddings": {"type": "DT_INT32"}}}, {"name": "generator/G_MODEL/b2/Conv/Conv2D", "op": "Conv2D", "input": ["generator/G_MODEL/b2/MirrorPad", "generator/G_MODEL/b2/Conv/weights"], "device": "/device:CPU:0", "attr": {"data_format": {"s": "TkhXQw=="}, "strides": {"list": {"i": ["1", "1", "1", "1"]}}, "T": {"type": "DT_FLOAT"}, "use_cudnn_on_gpu": {"b": true}, "explicit_paddings": {"list": {}}, "dilations": {"list": {"i": ["1", "1", "1", "1"]}}, "padding": {"s": "VkFMSUQ="}}}, {"name": "generator/G_MODEL/b2/InstanceNorm/moments/mean", "op": "Mean", "input": ["generator/G_MODEL/b2/Conv/Conv2D", "generator/G_MODEL/b2/InstanceNorm/moments/mean/reduction_indices"], "attr": {"Tidx": {"type": "DT_INT32"}, "T": {"type": "DT_FLOAT"}, "keep_dims": {"b": true}}}, {"name": "generator/G_MODEL/b2/InstanceNorm/moments/SquaredDifference", "op": "SquaredDifference", "input": ["generator/G_MODEL/b2/Conv/Conv2D", "generator/G_MODEL/b2/InstanceNorm/moments/mean"], "attr": {"T": {"type": "DT_FLOAT"}}}, {"name": "generator/G_MODEL/b2/InstanceNorm/moments/variance", "op": "Mean", "input": ["generator/G_MODEL/b2/InstanceNorm/moments/SquaredDifference", "generator/G_MODEL/b2/InstanceNorm/moments/variance/reduction_indices"], "attr": {"T": {"type": "DT_FLOAT"}, "Tidx": {"type": "DT_INT32"}, "keep_dims": {"b": true}}}, {"name": "generator/G_MODEL/b2/InstanceNorm/instancenorm/add", "op": "AddV2", "input": ["generator/G_MODEL/b2/InstanceNorm/moments/variance", "generator/G_MODEL/b2/InstanceNorm/instancenorm/add/y"], "attr": {"T": {"type": "DT_FLOAT"}}}, {"name": "generator/G_MODEL/b2/InstanceNorm/instancenorm/Rsqrt", "op": "Rsqrt", "input": ["generator/G_MODEL/b2/InstanceNorm/instancenorm/add"], "attr": {"T": {"type": "DT_FLOAT"}}}, {"name": "generator/G_MODEL/b2/InstanceNorm/instancenorm/mul", "op": "Mul", "input": ["generator/G_MODEL/b2/InstanceNorm/instancenorm/Rsqrt", "generator/G_MODEL/b2/InstanceNorm/gamma"], "attr": {"T": {"type": "DT_FLOAT"}}}, {"name": "generator/G_MODEL/b2/InstanceNorm/instancenorm/mul_2", "op": "Mul", "input": ["generator/G_MODEL/b2/InstanceNorm/moments/mean", "generator/G_MODEL/b2/InstanceNorm/instancenorm/mul"], "attr": {"T": {"type": "DT_FLOAT"}}}, {"name": "generator/G_MODEL/b2/InstanceNorm/instancenorm/mul_1", "op": "Mul", "input": ["generator/G_MODEL/b2/Conv/Conv2D", "generator/G_MODEL/b2/InstanceNorm/instancenorm/mul"], "attr": {"T": {"type": "DT_FLOAT"}}}, {"name": "generator/G_MODEL/b2/InstanceNorm/instancenorm/sub", "op": "Sub", "input": ["generator/G_MODEL/b2/InstanceNorm/beta", "generator/G_MODEL/b2/InstanceNorm/instancenorm/mul_2"], "attr": {"T": {"type": "DT_FLOAT"}}}, {"name": "generator/G_MODEL/b2/InstanceNorm/instancenorm/add_1", "op": "AddV2", "input": ["generator/G_MODEL/b2/InstanceNorm/instancenorm/mul_1", "generator/G_MODEL/b2/InstanceNorm/instancenorm/sub"], "attr": {"T": {"type": "DT_FLOAT"}}}, {"name": "generator/G_MODEL/b2/LeakyRelu", "op": "LeakyRelu", "input": ["generator/G_MODEL/b2/InstanceNorm/instancenorm/add_1"], "attr": {"alpha": {"f": 0.2}, "T": {"type": "DT_FLOAT"}}}, {"name": "generator/G_MODEL/b2/MirrorPad_1", "op": "MirrorPad", "input": ["generator/G_MODEL/b2/LeakyRelu", "generator/G_MODEL/b2/MirrorPad_1/paddings"], "attr": {"mode": {"s": "UkVGTEVDVA=="}, "T": {"type": "DT_FLOAT"}, "Tpaddings": {"type": "DT_INT32"}}}, {"name": "generator/G_MODEL/b2/SeparableConv2d/separable_conv2d/depthwise", "op": "DepthwiseConv2dNative", "input": ["generator/G_MODEL/b2/MirrorPad_1", "generator/G_MODEL/b2/SeparableConv2d/depthwise_weights"], "attr": {"data_format": {"s": "TkhXQw=="}, "padding": {"s": "VkFMSUQ="}, "dilations": {"list": {"i": ["1", "1", "1", "1"]}}, "strides": {"list": {"i": ["1", "1", "1", "1"]}}, "T": {"type": "DT_FLOAT"}, "explicit_paddings": {"list": {}}}}, {"name": "generator/G_MODEL/b2/SeparableConv2d/separable_conv2d", "op": "Conv2D", "input": ["generator/G_MODEL/b2/SeparableConv2d/separable_conv2d/depthwise", "generator/G_MODEL/b2/SeparableConv2d/pointwise_weights"], "device": "/device:CPU:0", "attr": {"padding": {"s": "VkFMSUQ="}, "use_cudnn_on_gpu": {"b": true}, "dilations": {"list": {"i": ["1", "1", "1", "1"]}}, "T": {"type": "DT_FLOAT"}, "strides": {"list": {"i": ["1", "1", "1", "1"]}}, "explicit_paddings": {"list": {}}, "data_format": {"s": "TkhXQw=="}}}, {"name": "generator/G_MODEL/b2/SeparableConv2d/InstanceNorm/moments/mean", "op": "Mean", "input": ["generator/G_MODEL/b2/SeparableConv2d/separable_conv2d", "generator/G_MODEL/b2/SeparableConv2d/InstanceNorm/moments/mean/reduction_indices"], "attr": {"T": {"type": "DT_FLOAT"}, "Tidx": {"type": "DT_INT32"}, "keep_dims": {"b": true}}}, {"name": "generator/G_MODEL/b2/SeparableConv2d/InstanceNorm/moments/SquaredDifference", "op": "SquaredDifference", "input": ["generator/G_MODEL/b2/SeparableConv2d/separable_conv2d", "generator/G_MODEL/b2/SeparableConv2d/InstanceNorm/moments/mean"], "attr": {"T": {"type": "DT_FLOAT"}}}, {"name": "generator/G_MODEL/b2/SeparableConv2d/InstanceNorm/moments/variance", "op": "Mean", "input": ["generator/G_MODEL/b2/SeparableConv2d/InstanceNorm/moments/SquaredDifference", "generator/G_MODEL/b2/SeparableConv2d/InstanceNorm/moments/variance/reduction_indices"], "attr": {"T": {"type": "DT_FLOAT"}, "Tidx": {"type": "DT_INT32"}, "keep_dims": {"b": true}}}, {"name": "generator/G_MODEL/b2/SeparableConv2d/InstanceNorm/instancenorm/add", "op": "AddV2", "input": ["generator/G_MODEL/b2/SeparableConv2d/InstanceNorm/moments/variance", "generator/G_MODEL/b2/SeparableConv2d/InstanceNorm/instancenorm/add/y"], "attr": {"T": {"type": "DT_FLOAT"}}}, {"name": "generator/G_MODEL/b2/SeparableConv2d/InstanceNorm/instancenorm/Rsqrt", "op": "Rsqrt", "input": ["generator/G_MODEL/b2/SeparableConv2d/InstanceNorm/instancenorm/add"], "attr": {"T": {"type": "DT_FLOAT"}}}, {"name": "generator/G_MODEL/b2/SeparableConv2d/InstanceNorm/instancenorm/mul", "op": "Mul", "input": ["generator/G_MODEL/b2/SeparableConv2d/InstanceNorm/instancenorm/Rsqrt", "generator/G_MODEL/b2/SeparableConv2d/InstanceNorm/gamma"], "attr": {"T": {"type": "DT_FLOAT"}}}, {"name": "generator/G_MODEL/b2/SeparableConv2d/InstanceNorm/instancenorm/mul_2", "op": "Mul", "input": ["generator/G_MODEL/b2/SeparableConv2d/InstanceNorm/moments/mean", "generator/G_MODEL/b2/SeparableConv2d/InstanceNorm/instancenorm/mul"], "attr": {"T": {"type": "DT_FLOAT"}}}, {"name": "generator/G_MODEL/b2/SeparableConv2d/InstanceNorm/instancenorm/mul_1", "op": "Mul", "input": ["generator/G_MODEL/b2/SeparableConv2d/separable_conv2d", "generator/G_MODEL/b2/SeparableConv2d/InstanceNorm/instancenorm/mul"], "attr": {"T": {"type": "DT_FLOAT"}}}, {"name": "generator/G_MODEL/b2/SeparableConv2d/InstanceNorm/instancenorm/sub", "op": "Sub", "input": ["generator/G_MODEL/b2/SeparableConv2d/InstanceNorm/beta", "generator/G_MODEL/b2/SeparableConv2d/InstanceNorm/instancenorm/mul_2"], "attr": {"T": {"type": "DT_FLOAT"}}}, {"name": "generator/G_MODEL/b2/SeparableConv2d/InstanceNorm/instancenorm/add_1", "op": "AddV2", "input": ["generator/G_MODEL/b2/SeparableConv2d/InstanceNorm/instancenorm/mul_1", "generator/G_MODEL/b2/SeparableConv2d/InstanceNorm/instancenorm/sub"], "attr": {"T": {"type": "DT_FLOAT"}}}, {"name": "generator/G_MODEL/b2/SeparableConv2d/LeakyRelu", "op": "LeakyRelu", "input": ["generator/G_MODEL/b2/SeparableConv2d/InstanceNorm/instancenorm/add_1"], "attr": {"alpha": {"f": 0.2}, "T": {"type": "DT_FLOAT"}}}, {"name": "generator/G_MODEL/b2/MirrorPad_2", "op": "MirrorPad", "input": ["generator/G_MODEL/b2/SeparableConv2d/LeakyRelu", "generator/G_MODEL/b2/MirrorPad_2/paddings"], "attr": {"T": {"type": "DT_FLOAT"}, "Tpaddings": {"type": "DT_INT32"}, "mode": {"s": "UkVGTEVDVA=="}}}, {"name": "generator/G_MODEL/b2/Shape", "op": "Shape", "input": ["generator/G_MODEL/b2/SeparableConv2d/LeakyRelu"], "attr": {"T": {"type": "DT_FLOAT"}, "out_type": {"type": "DT_INT32"}}}, {"name": "generator/G_MODEL/b2/Shape_1", "op": "Shape", "input": ["generator/G_MODEL/b2/SeparableConv2d/LeakyRelu"], "attr": {"T": {"type": "DT_FLOAT"}, "out_type": {"type": "DT_INT32"}}}, {"name": "generator/G_MODEL/b2/SeparableConv2d_1/separable_conv2d/depthwise", "op": "DepthwiseConv2dNative", "input": ["generator/G_MODEL/b2/MirrorPad_2", "generator/G_MODEL/b2/SeparableConv2d_1/depthwise_weights"], "attr": {"explicit_paddings": {"list": {}}, "data_format": {"s": "TkhXQw=="}, "strides": {"list": {"i": ["1", "2", "2", "1"]}}, "dilations": {"list": {"i": ["1", "1", "1", "1"]}}, "padding": {"s": "VkFMSUQ="}, "T": {"type": "DT_FLOAT"}}}, {"name": "generator/G_MODEL/b2/strided_slice", "op": "StridedSlice", "input": ["generator/G_MODEL/b2/Shape", "generator/G_MODEL/b2/strided_slice/stack", "generator/G_MODEL/b2/strided_slice/stack_1", "generator/G_MODEL/b2/strided_slice/stack_2"], "attr": {"begin_mask": {"i": "0"}, "end_mask": {"i": "0"}, "T": {"type": "DT_INT32"}, "new_axis_mask": {"i": "0"}, "shrink_axis_mask": {"i": "1"}, "Index": {"type": "DT_INT32"}, "ellipsis_mask": {"i": "0"}}}, {"name": "generator/G_MODEL/b2/strided_slice_1", "op": "StridedSlice", "input": ["generator/G_MODEL/b2/Shape_1", "generator/G_MODEL/b2/strided_slice_1/stack", "generator/G_MODEL/b2/strided_slice_1/stack_1", "generator/G_MODEL/b2/strided_slice_1/stack_2"], "attr": {"shrink_axis_mask": {"i": "1"}, "new_axis_mask": {"i": "0"}, "T": {"type": "DT_INT32"}, "ellipsis_mask": {"i": "0"}, "end_mask": {"i": "0"}, "begin_mask": {"i": "0"}, "Index": {"type": "DT_INT32"}}}, {"name": "generator/G_MODEL/b2/SeparableConv2d_1/separable_conv2d", "op": "Conv2D", "input": ["generator/G_MODEL/b2/SeparableConv2d_1/separable_conv2d/depthwise", "generator/G_MODEL/b2/SeparableConv2d_1/pointwise_weights"], "device": "/device:CPU:0", "attr": {"use_cudnn_on_gpu": {"b": true}, "padding": {"s": "VkFMSUQ="}, "T": {"type": "DT_FLOAT"}, "data_format": {"s": "TkhXQw=="}, "strides": {"list": {"i": ["1", "1", "1", "1"]}}, "explicit_paddings": {"list": {}}, "dilations": {"list": {"i": ["1", "1", "1", "1"]}}}}, {"name": "generator/G_MODEL/b2/floordiv", "op": "FloorDiv", "input": ["generator/G_MODEL/b2/strided_slice", "generator/G_MODEL/b2/floordiv/y"], "attr": {"T": {"type": "DT_INT32"}}}, {"name": "generator/G_MODEL/b2/floordiv_1", "op": "FloorDiv", "input": ["generator/G_MODEL/b2/strided_slice_1", "generator/G_MODEL/b2/floordiv_1/y"], "attr": {"T": {"type": "DT_INT32"}}}, {"name": "generator/G_MODEL/b2/SeparableConv2d_1/InstanceNorm/moments/mean", "op": "Mean", "input": ["generator/G_MODEL/b2/SeparableConv2d_1/separable_conv2d", "generator/G_MODEL/b2/SeparableConv2d_1/InstanceNorm/moments/mean/reduction_indices"], "attr": {"T": {"type": "DT_FLOAT"}, "Tidx": {"type": "DT_INT32"}, "keep_dims": {"b": true}}}, {"name": "generator/G_MODEL/b2/resize/size", "op": "Pack", "input": ["generator/G_MODEL/b2/floordiv", "generator/G_MODEL/b2/floordiv_1"], "attr": {"axis": {"i": "0"}, "T": {"type": "DT_INT32"}, "N": {"i": "2"}}}, {"name": "generator/G_MODEL/b2/SeparableConv2d_1/InstanceNorm/moments/SquaredDifference", "op": "SquaredDifference", "input": ["generator/G_MODEL/b2/SeparableConv2d_1/separable_conv2d", "generator/G_MODEL/b2/SeparableConv2d_1/InstanceNorm/moments/mean"], "attr": {"T": {"type": "DT_FLOAT"}}}, {"name": "generator/G_MODEL/b2/resize/ResizeBilinear", "op": "ResizeBilinear", "input": ["generator/G_MODEL/b2/SeparableConv2d/LeakyRelu", "generator/G_MODEL/b2/resize/size"], "attr": {"T": {"type": "DT_FLOAT"}, "half_pixel_centers": {"b": false}, "align_corners": {"b": false}}}, {"name": "generator/G_MODEL/b2/SeparableConv2d_1/InstanceNorm/moments/variance", "op": "Mean", "input": ["generator/G_MODEL/b2/SeparableConv2d_1/InstanceNorm/moments/SquaredDifference", "generator/G_MODEL/b2/SeparableConv2d_1/InstanceNorm/moments/variance/reduction_indices"], "attr": {"T": {"type": "DT_FLOAT"}, "keep_dims": {"b": true}, "Tidx": {"type": "DT_INT32"}}}, {"name": "generator/G_MODEL/b2/MirrorPad_3", "op": "MirrorPad", "input": ["generator/G_MODEL/b2/resize/ResizeBilinear", "generator/G_MODEL/b2/MirrorPad_3/paddings"], "attr": {"T": {"type": "DT_FLOAT"}, "Tpaddings": {"type": "DT_INT32"}, "mode": {"s": "UkVGTEVDVA=="}}}, {"name": "generator/G_MODEL/b2/SeparableConv2d_1/InstanceNorm/instancenorm/add", "op": "AddV2", "input": ["generator/G_MODEL/b2/SeparableConv2d_1/InstanceNorm/moments/variance", "generator/G_MODEL/b2/SeparableConv2d_1/InstanceNorm/instancenorm/add/y"], "attr": {"T": {"type": "DT_FLOAT"}}}, {"name": "generator/G_MODEL/b2/SeparableConv2d_2/separable_conv2d/depthwise", "op": "DepthwiseConv2dNative", "input": ["generator/G_MODEL/b2/MirrorPad_3", "generator/G_MODEL/b2/SeparableConv2d_2/depthwise_weights"], "attr": {"explicit_paddings": {"list": {}}, "T": {"type": "DT_FLOAT"}, "padding": {"s": "VkFMSUQ="}, "data_format": {"s": "TkhXQw=="}, "strides": {"list": {"i": ["1", "1", "1", "1"]}}, "dilations": {"list": {"i": ["1", "1", "1", "1"]}}}}, {"name": "generator/G_MODEL/b2/SeparableConv2d_1/InstanceNorm/instancenorm/Rsqrt", "op": "Rsqrt", "input": ["generator/G_MODEL/b2/SeparableConv2d_1/InstanceNorm/instancenorm/add"], "attr": {"T": {"type": "DT_FLOAT"}}}, {"name": "generator/G_MODEL/b2/SeparableConv2d_2/separable_conv2d", "op": "Conv2D", "input": ["generator/G_MODEL/b2/SeparableConv2d_2/separable_conv2d/depthwise", "generator/G_MODEL/b2/SeparableConv2d_2/pointwise_weights"], "device": "/device:CPU:0", "attr": {"dilations": {"list": {"i": ["1", "1", "1", "1"]}}, "explicit_paddings": {"list": {}}, "data_format": {"s": "TkhXQw=="}, "padding": {"s": "VkFMSUQ="}, "use_cudnn_on_gpu": {"b": true}, "T": {"type": "DT_FLOAT"}, "strides": {"list": {"i": ["1", "1", "1", "1"]}}}}, {"name": "generator/G_MODEL/b2/SeparableConv2d_1/InstanceNorm/instancenorm/mul", "op": "Mul", "input": ["generator/G_MODEL/b2/SeparableConv2d_1/InstanceNorm/instancenorm/Rsqrt", "generator/G_MODEL/b2/SeparableConv2d_1/InstanceNorm/gamma"], "attr": {"T": {"type": "DT_FLOAT"}}}, {"name": "generator/G_MODEL/b2/SeparableConv2d_2/InstanceNorm/moments/mean", "op": "Mean", "input": ["generator/G_MODEL/b2/SeparableConv2d_2/separable_conv2d", "generator/G_MODEL/b2/SeparableConv2d_2/InstanceNorm/moments/mean/reduction_indices"], "attr": {"Tidx": {"type": "DT_INT32"}, "keep_dims": {"b": true}, "T": {"type": "DT_FLOAT"}}}, {"name": "generator/G_MODEL/b2/SeparableConv2d_1/InstanceNorm/instancenorm/mul_2", "op": "Mul", "input": ["generator/G_MODEL/b2/SeparableConv2d_1/InstanceNorm/moments/mean", "generator/G_MODEL/b2/SeparableConv2d_1/InstanceNorm/instancenorm/mul"], "attr": {"T": {"type": "DT_FLOAT"}}}, {"name": "generator/G_MODEL/b2/SeparableConv2d_1/InstanceNorm/instancenorm/mul_1", "op": "Mul", "input": ["generator/G_MODEL/b2/SeparableConv2d_1/separable_conv2d", "generator/G_MODEL/b2/SeparableConv2d_1/InstanceNorm/instancenorm/mul"], "attr": {"T": {"type": "DT_FLOAT"}}}, {"name": "generator/G_MODEL/b2/SeparableConv2d_2/InstanceNorm/moments/SquaredDifference", "op": "SquaredDifference", "input": ["generator/G_MODEL/b2/SeparableConv2d_2/separable_conv2d", "generator/G_MODEL/b2/SeparableConv2d_2/InstanceNorm/moments/mean"], "attr": {"T": {"type": "DT_FLOAT"}}}, {"name": "generator/G_MODEL/b2/SeparableConv2d_1/InstanceNorm/instancenorm/sub", "op": "Sub", "input": ["generator/G_MODEL/b2/SeparableConv2d_1/InstanceNorm/beta", "generator/G_MODEL/b2/SeparableConv2d_1/InstanceNorm/instancenorm/mul_2"], "attr": {"T": {"type": "DT_FLOAT"}}}, {"name": "generator/G_MODEL/b2/SeparableConv2d_2/InstanceNorm/moments/variance", "op": "Mean", "input": ["generator/G_MODEL/b2/SeparableConv2d_2/InstanceNorm/moments/SquaredDifference", "generator/G_MODEL/b2/SeparableConv2d_2/InstanceNorm/moments/variance/reduction_indices"], "attr": {"Tidx": {"type": "DT_INT32"}, "keep_dims": {"b": true}, "T": {"type": "DT_FLOAT"}}}, {"name": "generator/G_MODEL/b2/SeparableConv2d_1/InstanceNorm/instancenorm/add_1", "op": "AddV2", "input": ["generator/G_MODEL/b2/SeparableConv2d_1/InstanceNorm/instancenorm/mul_1", "generator/G_MODEL/b2/SeparableConv2d_1/InstanceNorm/instancenorm/sub"], "attr": {"T": {"type": "DT_FLOAT"}}}, {"name": "generator/G_MODEL/b2/SeparableConv2d_2/InstanceNorm/instancenorm/add", "op": "AddV2", "input": ["generator/G_MODEL/b2/SeparableConv2d_2/InstanceNorm/moments/variance", "generator/G_MODEL/b2/SeparableConv2d_2/InstanceNorm/instancenorm/add/y"], "attr": {"T": {"type": "DT_FLOAT"}}}, {"name": "generator/G_MODEL/b2/SeparableConv2d_1/LeakyRelu", "op": "LeakyRelu", "input": ["generator/G_MODEL/b2/SeparableConv2d_1/InstanceNorm/instancenorm/add_1"], "attr": {"T": {"type": "DT_FLOAT"}, "alpha": {"f": 0.2}}}, {"name": "generator/G_MODEL/b2/SeparableConv2d_2/InstanceNorm/instancenorm/Rsqrt", "op": "Rsqrt", "input": ["generator/G_MODEL/b2/SeparableConv2d_2/InstanceNorm/instancenorm/add"], "attr": {"T": {"type": "DT_FLOAT"}}}, {"name": "generator/G_MODEL/b2/SeparableConv2d_2/InstanceNorm/instancenorm/mul", "op": "Mul", "input": ["generator/G_MODEL/b2/SeparableConv2d_2/InstanceNorm/instancenorm/Rsqrt", "generator/G_MODEL/b2/SeparableConv2d_2/InstanceNorm/gamma"], "attr": {"T": {"type": "DT_FLOAT"}}}, {"name": "generator/G_MODEL/b2/SeparableConv2d_2/InstanceNorm/instancenorm/mul_2", "op": "Mul", "input": ["generator/G_MODEL/b2/SeparableConv2d_2/InstanceNorm/moments/mean", "generator/G_MODEL/b2/SeparableConv2d_2/InstanceNorm/instancenorm/mul"], "attr": {"T": {"type": "DT_FLOAT"}}}, {"name": "generator/G_MODEL/b2/SeparableConv2d_2/InstanceNorm/instancenorm/mul_1", "op": "Mul", "input": ["generator/G_MODEL/b2/SeparableConv2d_2/separable_conv2d", "generator/G_MODEL/b2/SeparableConv2d_2/InstanceNorm/instancenorm/mul"], "attr": {"T": {"type": "DT_FLOAT"}}}, {"name": "generator/G_MODEL/b2/SeparableConv2d_2/InstanceNorm/instancenorm/sub", "op": "Sub", "input": ["generator/G_MODEL/b2/SeparableConv2d_2/InstanceNorm/beta", "generator/G_MODEL/b2/SeparableConv2d_2/InstanceNorm/instancenorm/mul_2"], "attr": {"T": {"type": "DT_FLOAT"}}}, {"name": "generator/G_MODEL/b2/SeparableConv2d_2/InstanceNorm/instancenorm/add_1", "op": "AddV2", "input": ["generator/G_MODEL/b2/SeparableConv2d_2/InstanceNorm/instancenorm/mul_1", "generator/G_MODEL/b2/SeparableConv2d_2/InstanceNorm/instancenorm/sub"], "attr": {"T": {"type": "DT_FLOAT"}}}, {"name": "generator/G_MODEL/b2/SeparableConv2d_2/LeakyRelu", "op": "LeakyRelu", "input": ["generator/G_MODEL/b2/SeparableConv2d_2/InstanceNorm/instancenorm/add_1"], "attr": {"T": {"type": "DT_FLOAT"}, "alpha": {"f": 0.2}}}, {"name": "generator/G_MODEL/b2/add", "op": "AddV2", "input": ["generator/G_MODEL/b2/SeparableConv2d_1/LeakyRelu", "generator/G_MODEL/b2/SeparableConv2d_2/LeakyRelu"], "attr": {"T": {"type": "DT_FLOAT"}}}, {"name": "generator/G_MODEL/m/MirrorPad", "op": "MirrorPad", "input": ["generator/G_MODEL/b2/add", "generator/G_MODEL/m/MirrorPad/paddings"], "attr": {"T": {"type": "DT_FLOAT"}, "mode": {"s": "UkVGTEVDVA=="}, "Tpaddings": {"type": "DT_INT32"}}}, {"name": "generator/G_MODEL/m/Conv/Conv2D", "op": "Conv2D", "input": ["generator/G_MODEL/m/MirrorPad", "generator/G_MODEL/m/Conv/weights"], "device": "/device:CPU:0", "attr": {"padding": {"s": "VkFMSUQ="}, "strides": {"list": {"i": ["1", "1", "1", "1"]}}, "T": {"type": "DT_FLOAT"}, "use_cudnn_on_gpu": {"b": true}, "dilations": {"list": {"i": ["1", "1", "1", "1"]}}, "explicit_paddings": {"list": {}}, "data_format": {"s": "TkhXQw=="}}}, {"name": "generator/G_MODEL/m/InstanceNorm/moments/mean", "op": "Mean", "input": ["generator/G_MODEL/m/Conv/Conv2D", "generator/G_MODEL/m/InstanceNorm/moments/mean/reduction_indices"], "attr": {"Tidx": {"type": "DT_INT32"}, "keep_dims": {"b": true}, "T": {"type": "DT_FLOAT"}}}, {"name": "generator/G_MODEL/m/InstanceNorm/moments/SquaredDifference", "op": "SquaredDifference", "input": ["generator/G_MODEL/m/Conv/Conv2D", "generator/G_MODEL/m/InstanceNorm/moments/mean"], "attr": {"T": {"type": "DT_FLOAT"}}}, {"name": "generator/G_MODEL/m/InstanceNorm/moments/variance", "op": "Mean", "input": ["generator/G_MODEL/m/InstanceNorm/moments/SquaredDifference", "generator/G_MODEL/m/InstanceNorm/moments/variance/reduction_indices"], "attr": {"T": {"type": "DT_FLOAT"}, "Tidx": {"type": "DT_INT32"}, "keep_dims": {"b": true}}}, {"name": "generator/G_MODEL/m/InstanceNorm/instancenorm/add", "op": "AddV2", "input": ["generator/G_MODEL/m/InstanceNorm/moments/variance", "generator/G_MODEL/m/InstanceNorm/instancenorm/add/y"], "attr": {"T": {"type": "DT_FLOAT"}}}, {"name": "generator/G_MODEL/m/InstanceNorm/instancenorm/Rsqrt", "op": "Rsqrt", "input": ["generator/G_MODEL/m/InstanceNorm/instancenorm/add"], "attr": {"T": {"type": "DT_FLOAT"}}}, {"name": "generator/G_MODEL/m/InstanceNorm/instancenorm/mul", "op": "Mul", "input": ["generator/G_MODEL/m/InstanceNorm/instancenorm/Rsqrt", "generator/G_MODEL/m/InstanceNorm/gamma"], "attr": {"T": {"type": "DT_FLOAT"}}}, {"name": "generator/G_MODEL/m/InstanceNorm/instancenorm/mul_2", "op": "Mul", "input": ["generator/G_MODEL/m/InstanceNorm/moments/mean", "generator/G_MODEL/m/InstanceNorm/instancenorm/mul"], "attr": {"T": {"type": "DT_FLOAT"}}}, {"name": "generator/G_MODEL/m/InstanceNorm/instancenorm/mul_1", "op": "Mul", "input": ["generator/G_MODEL/m/Conv/Conv2D", "generator/G_MODEL/m/InstanceNorm/instancenorm/mul"], "attr": {"T": {"type": "DT_FLOAT"}}}, {"name": "generator/G_MODEL/m/InstanceNorm/instancenorm/sub", "op": "Sub", "input": ["generator/G_MODEL/m/InstanceNorm/beta", "generator/G_MODEL/m/InstanceNorm/instancenorm/mul_2"], "attr": {"T": {"type": "DT_FLOAT"}}}, {"name": "generator/G_MODEL/m/InstanceNorm/instancenorm/add_1", "op": "AddV2", "input": ["generator/G_MODEL/m/InstanceNorm/instancenorm/mul_1", "generator/G_MODEL/m/InstanceNorm/instancenorm/sub"], "attr": {"T": {"type": "DT_FLOAT"}}}, {"name": "generator/G_MODEL/m/LeakyRelu", "op": "LeakyRelu", "input": ["generator/G_MODEL/m/InstanceNorm/instancenorm/add_1"], "attr": {"alpha": {"f": 0.2}, "T": {"type": "DT_FLOAT"}}}, {"name": "generator/G_MODEL/m/r1/Conv/Conv2D", "op": "Conv2D", "input": ["generator/G_MODEL/m/LeakyRelu", "generator/G_MODEL/m/r1/Conv/weights"], "device": "/device:CPU:0", "attr": {"padding": {"s": "VkFMSUQ="}, "strides": {"list": {"i": ["1", "1", "1", "1"]}}, "T": {"type": "DT_FLOAT"}, "dilations": {"list": {"i": ["1", "1", "1", "1"]}}, "data_format": {"s": "TkhXQw=="}, "explicit_paddings": {"list": {}}, "use_cudnn_on_gpu": {"b": true}}}, {"name": "generator/G_MODEL/m/r1/InstanceNorm/moments/mean", "op": "Mean", "input": ["generator/G_MODEL/m/r1/Conv/Conv2D", "generator/G_MODEL/m/r1/InstanceNorm/moments/mean/reduction_indices"], "attr": {"Tidx": {"type": "DT_INT32"}, "keep_dims": {"b": true}, "T": {"type": "DT_FLOAT"}}}, {"name": "generator/G_MODEL/m/r1/InstanceNorm/moments/SquaredDifference", "op": "SquaredDifference", "input": ["generator/G_MODEL/m/r1/Conv/Conv2D", "generator/G_MODEL/m/r1/InstanceNorm/moments/mean"], "attr": {"T": {"type": "DT_FLOAT"}}}, {"name": "generator/G_MODEL/m/r1/InstanceNorm/moments/variance", "op": "Mean", "input": ["generator/G_MODEL/m/r1/InstanceNorm/moments/SquaredDifference", "generator/G_MODEL/m/r1/InstanceNorm/moments/variance/reduction_indices"], "attr": {"T": {"type": "DT_FLOAT"}, "keep_dims": {"b": true}, "Tidx": {"type": "DT_INT32"}}}, {"name": "generator/G_MODEL/m/r1/InstanceNorm/instancenorm/add", "op": "AddV2", "input": ["generator/G_MODEL/m/r1/InstanceNorm/moments/variance", "generator/G_MODEL/m/r1/InstanceNorm/instancenorm/add/y"], "attr": {"T": {"type": "DT_FLOAT"}}}, {"name": "generator/G_MODEL/m/r1/InstanceNorm/instancenorm/Rsqrt", "op": "Rsqrt", "input": ["generator/G_MODEL/m/r1/InstanceNorm/instancenorm/add"], "attr": {"T": {"type": "DT_FLOAT"}}}, {"name": "generator/G_MODEL/m/r1/InstanceNorm/instancenorm/mul", "op": "Mul", "input": ["generator/G_MODEL/m/r1/InstanceNorm/instancenorm/Rsqrt", "generator/G_MODEL/m/r1/InstanceNorm/gamma"], "attr": {"T": {"type": "DT_FLOAT"}}}, {"name": "generator/G_MODEL/m/r1/InstanceNorm/instancenorm/mul_2", "op": "Mul", "input": ["generator/G_MODEL/m/r1/InstanceNorm/moments/mean", "generator/G_MODEL/m/r1/InstanceNorm/instancenorm/mul"], "attr": {"T": {"type": "DT_FLOAT"}}}, {"name": "generator/G_MODEL/m/r1/InstanceNorm/instancenorm/mul_1", "op": "Mul", "input": ["generator/G_MODEL/m/r1/Conv/Conv2D", "generator/G_MODEL/m/r1/InstanceNorm/instancenorm/mul"], "attr": {"T": {"type": "DT_FLOAT"}}}, {"name": "generator/G_MODEL/m/r1/InstanceNorm/instancenorm/sub", "op": "Sub", "input": ["generator/G_MODEL/m/r1/InstanceNorm/beta", "generator/G_MODEL/m/r1/InstanceNorm/instancenorm/mul_2"], "attr": {"T": {"type": "DT_FLOAT"}}}, {"name": "generator/G_MODEL/m/r1/InstanceNorm/instancenorm/add_1", "op": "AddV2", "input": ["generator/G_MODEL/m/r1/InstanceNorm/instancenorm/mul_1", "generator/G_MODEL/m/r1/InstanceNorm/instancenorm/sub"], "attr": {"T": {"type": "DT_FLOAT"}}}, {"name": "generator/G_MODEL/m/r1/LeakyRelu", "op": "LeakyRelu", "input": ["generator/G_MODEL/m/r1/InstanceNorm/instancenorm/add_1"], "attr": {"T": {"type": "DT_FLOAT"}, "alpha": {"f": 0.2}}}, {"name": "generator/G_MODEL/m/r1/MirrorPad", "op": "MirrorPad", "input": ["generator/G_MODEL/m/r1/LeakyRelu", "generator/G_MODEL/m/r1/MirrorPad/paddings"], "attr": {"T": {"type": "DT_FLOAT"}, "mode": {"s": "UkVGTEVDVA=="}, "Tpaddings": {"type": "DT_INT32"}}}, {"name": "generator/G_MODEL/m/r1/r1/r1", "op": "DepthwiseConv2dNative", "input": ["generator/G_MODEL/m/r1/MirrorPad", "generator/G_MODEL/m/r1/r1/w"], "attr": {"padding": {"s": "VkFMSUQ="}, "dilations": {"list": {"i": ["1", "1", "1", "1"]}}, "data_format": {"s": "TkhXQw=="}, "strides": {"list": {"i": ["1", "1", "1", "1"]}}, "T": {"type": "DT_FLOAT"}, "explicit_paddings": {"list": {}}}}, {"name": "generator/G_MODEL/m/r1/1/moments/mean", "op": "Mean", "input": ["generator/G_MODEL/m/r1/r1/r1", "generator/G_MODEL/m/r1/1/moments/mean/reduction_indices"], "attr": {"keep_dims": {"b": true}, "Tidx": {"type": "DT_INT32"}, "T": {"type": "DT_FLOAT"}}}, {"name": "generator/G_MODEL/m/r1/1/moments/SquaredDifference", "op": "SquaredDifference", "input": ["generator/G_MODEL/m/r1/r1/r1", "generator/G_MODEL/m/r1/1/moments/mean"], "attr": {"T": {"type": "DT_FLOAT"}}}, {"name": "generator/G_MODEL/m/r1/1/moments/variance", "op": "Mean", "input": ["generator/G_MODEL/m/r1/1/moments/SquaredDifference", "generator/G_MODEL/m/r1/1/moments/variance/reduction_indices"], "attr": {"keep_dims": {"b": true}, "Tidx": {"type": "DT_INT32"}, "T": {"type": "DT_FLOAT"}}}, {"name": "generator/G_MODEL/m/r1/1/instancenorm/add", "op": "AddV2", "input": ["generator/G_MODEL/m/r1/1/moments/variance", "generator/G_MODEL/m/r1/1/instancenorm/add/y"], "attr": {"T": {"type": "DT_FLOAT"}}}, {"name": "generator/G_MODEL/m/r1/1/instancenorm/Rsqrt", "op": "Rsqrt", "input": ["generator/G_MODEL/m/r1/1/instancenorm/add"], "attr": {"T": {"type": "DT_FLOAT"}}}, {"name": "generator/G_MODEL/m/r1/1/instancenorm/mul", "op": "Mul", "input": ["generator/G_MODEL/m/r1/1/instancenorm/Rsqrt", "generator/G_MODEL/m/r1/1/gamma"], "attr": {"T": {"type": "DT_FLOAT"}}}, {"name": "generator/G_MODEL/m/r1/1/instancenorm/mul_2", "op": "Mul", "input": ["generator/G_MODEL/m/r1/1/moments/mean", "generator/G_MODEL/m/r1/1/instancenorm/mul"], "attr": {"T": {"type": "DT_FLOAT"}}}, {"name": "generator/G_MODEL/m/r1/1/instancenorm/mul_1", "op": "Mul", "input": ["generator/G_MODEL/m/r1/r1/r1", "generator/G_MODEL/m/r1/1/instancenorm/mul"], "attr": {"T": {"type": "DT_FLOAT"}}}, {"name": "generator/G_MODEL/m/r1/1/instancenorm/sub", "op": "Sub", "input": ["generator/G_MODEL/m/r1/1/beta", "generator/G_MODEL/m/r1/1/instancenorm/mul_2"], "attr": {"T": {"type": "DT_FLOAT"}}}, {"name": "generator/G_MODEL/m/r1/1/instancenorm/add_1", "op": "AddV2", "input": ["generator/G_MODEL/m/r1/1/instancenorm/mul_1", "generator/G_MODEL/m/r1/1/instancenorm/sub"], "attr": {"T": {"type": "DT_FLOAT"}}}, {"name": "generator/G_MODEL/m/r1/LeakyRelu_1", "op": "LeakyRelu", "input": ["generator/G_MODEL/m/r1/1/instancenorm/add_1"], "attr": {"T": {"type": "DT_FLOAT"}, "alpha": {"f": 0.2}}}, {"name": "generator/G_MODEL/m/r1/Conv_1/Conv2D", "op": "Conv2D", "input": ["generator/G_MODEL/m/r1/LeakyRelu_1", "generator/G_MODEL/m/r1/Conv_1/weights"], "device": "/device:CPU:0", "attr": {"T": {"type": "DT_FLOAT"}, "explicit_paddings": {"list": {}}, "data_format": {"s": "TkhXQw=="}, "dilations": {"list": {"i": ["1", "1", "1", "1"]}}, "strides": {"list": {"i": ["1", "1", "1", "1"]}}, "use_cudnn_on_gpu": {"b": true}, "padding": {"s": "VkFMSUQ="}}}, {"name": "generator/G_MODEL/m/r1/2/moments/mean", "op": "Mean", "input": ["generator/G_MODEL/m/r1/Conv_1/Conv2D", "generator/G_MODEL/m/r1/2/moments/mean/reduction_indices"], "attr": {"Tidx": {"type": "DT_INT32"}, "T": {"type": "DT_FLOAT"}, "keep_dims": {"b": true}}}, {"name": "generator/G_MODEL/m/r1/2/moments/SquaredDifference", "op": "SquaredDifference", "input": ["generator/G_MODEL/m/r1/Conv_1/Conv2D", "generator/G_MODEL/m/r1/2/moments/mean"], "attr": {"T": {"type": "DT_FLOAT"}}}, {"name": "generator/G_MODEL/m/r1/2/moments/variance", "op": "Mean", "input": ["generator/G_MODEL/m/r1/2/moments/SquaredDifference", "generator/G_MODEL/m/r1/2/moments/variance/reduction_indices"], "attr": {"T": {"type": "DT_FLOAT"}, "keep_dims": {"b": true}, "Tidx": {"type": "DT_INT32"}}}, {"name": "generator/G_MODEL/m/r1/2/instancenorm/add", "op": "AddV2", "input": ["generator/G_MODEL/m/r1/2/moments/variance", "generator/G_MODEL/m/r1/2/instancenorm/add/y"], "attr": {"T": {"type": "DT_FLOAT"}}}, {"name": "generator/G_MODEL/m/r1/2/instancenorm/Rsqrt", "op": "Rsqrt", "input": ["generator/G_MODEL/m/r1/2/instancenorm/add"], "attr": {"T": {"type": "DT_FLOAT"}}}, {"name": "generator/G_MODEL/m/r1/2/instancenorm/mul", "op": "Mul", "input": ["generator/G_MODEL/m/r1/2/instancenorm/Rsqrt", "generator/G_MODEL/m/r1/2/gamma"], "attr": {"T": {"type": "DT_FLOAT"}}}, {"name": "generator/G_MODEL/m/r1/2/instancenorm/mul_2", "op": "Mul", "input": ["generator/G_MODEL/m/r1/2/moments/mean", "generator/G_MODEL/m/r1/2/instancenorm/mul"], "attr": {"T": {"type": "DT_FLOAT"}}}, {"name": "generator/G_MODEL/m/r1/2/instancenorm/mul_1", "op": "Mul", "input": ["generator/G_MODEL/m/r1/Conv_1/Conv2D", "generator/G_MODEL/m/r1/2/instancenorm/mul"], "attr": {"T": {"type": "DT_FLOAT"}}}, {"name": "generator/G_MODEL/m/r1/2/instancenorm/sub", "op": "Sub", "input": ["generator/G_MODEL/m/r1/2/beta", "generator/G_MODEL/m/r1/2/instancenorm/mul_2"], "attr": {"T": {"type": "DT_FLOAT"}}}, {"name": "generator/G_MODEL/m/r1/2/instancenorm/add_1", "op": "AddV2", "input": ["generator/G_MODEL/m/r1/2/instancenorm/mul_1", "generator/G_MODEL/m/r1/2/instancenorm/sub"], "attr": {"T": {"type": "DT_FLOAT"}}}, {"name": "generator/G_MODEL/m/r1/add", "op": "AddV2", "input": ["generator/G_MODEL/m/LeakyRelu", "generator/G_MODEL/m/r1/2/instancenorm/add_1"], "attr": {"T": {"type": "DT_FLOAT"}}}, {"name": "generator/G_MODEL/m/r2/Conv/Conv2D", "op": "Conv2D", "input": ["generator/G_MODEL/m/r1/add", "generator/G_MODEL/m/r2/Conv/weights"], "device": "/device:CPU:0", "attr": {"use_cudnn_on_gpu": {"b": true}, "strides": {"list": {"i": ["1", "1", "1", "1"]}}, "dilations": {"list": {"i": ["1", "1", "1", "1"]}}, "explicit_paddings": {"list": {}}, "data_format": {"s": "TkhXQw=="}, "T": {"type": "DT_FLOAT"}, "padding": {"s": "VkFMSUQ="}}}, {"name": "generator/G_MODEL/m/r2/InstanceNorm/moments/mean", "op": "Mean", "input": ["generator/G_MODEL/m/r2/Conv/Conv2D", "generator/G_MODEL/m/r2/InstanceNorm/moments/mean/reduction_indices"], "attr": {"T": {"type": "DT_FLOAT"}, "keep_dims": {"b": true}, "Tidx": {"type": "DT_INT32"}}}, {"name": "generator/G_MODEL/m/r2/InstanceNorm/moments/SquaredDifference", "op": "SquaredDifference", "input": ["generator/G_MODEL/m/r2/Conv/Conv2D", "generator/G_MODEL/m/r2/InstanceNorm/moments/mean"], "attr": {"T": {"type": "DT_FLOAT"}}}, {"name": "generator/G_MODEL/m/r2/InstanceNorm/moments/variance", "op": "Mean", "input": ["generator/G_MODEL/m/r2/InstanceNorm/moments/SquaredDifference", "generator/G_MODEL/m/r2/InstanceNorm/moments/variance/reduction_indices"], "attr": {"Tidx": {"type": "DT_INT32"}, "keep_dims": {"b": true}, "T": {"type": "DT_FLOAT"}}}, {"name": "generator/G_MODEL/m/r2/InstanceNorm/instancenorm/add", "op": "AddV2", "input": ["generator/G_MODEL/m/r2/InstanceNorm/moments/variance", "generator/G_MODEL/m/r2/InstanceNorm/instancenorm/add/y"], "attr": {"T": {"type": "DT_FLOAT"}}}, {"name": "generator/G_MODEL/m/r2/InstanceNorm/instancenorm/Rsqrt", "op": "Rsqrt", "input": ["generator/G_MODEL/m/r2/InstanceNorm/instancenorm/add"], "attr": {"T": {"type": "DT_FLOAT"}}}, {"name": "generator/G_MODEL/m/r2/InstanceNorm/instancenorm/mul", "op": "Mul", "input": ["generator/G_MODEL/m/r2/InstanceNorm/instancenorm/Rsqrt", "generator/G_MODEL/m/r2/InstanceNorm/gamma"], "attr": {"T": {"type": "DT_FLOAT"}}}, {"name": "generator/G_MODEL/m/r2/InstanceNorm/instancenorm/mul_2", "op": "Mul", "input": ["generator/G_MODEL/m/r2/InstanceNorm/moments/mean", "generator/G_MODEL/m/r2/InstanceNorm/instancenorm/mul"], "attr": {"T": {"type": "DT_FLOAT"}}}, {"name": "generator/G_MODEL/m/r2/InstanceNorm/instancenorm/mul_1", "op": "Mul", "input": ["generator/G_MODEL/m/r2/Conv/Conv2D", "generator/G_MODEL/m/r2/InstanceNorm/instancenorm/mul"], "attr": {"T": {"type": "DT_FLOAT"}}}, {"name": "generator/G_MODEL/m/r2/InstanceNorm/instancenorm/sub", "op": "Sub", "input": ["generator/G_MODEL/m/r2/InstanceNorm/beta", "generator/G_MODEL/m/r2/InstanceNorm/instancenorm/mul_2"], "attr": {"T": {"type": "DT_FLOAT"}}}, {"name": "generator/G_MODEL/m/r2/InstanceNorm/instancenorm/add_1", "op": "AddV2", "input": ["generator/G_MODEL/m/r2/InstanceNorm/instancenorm/mul_1", "generator/G_MODEL/m/r2/InstanceNorm/instancenorm/sub"], "attr": {"T": {"type": "DT_FLOAT"}}}, {"name": "generator/G_MODEL/m/r2/LeakyRelu", "op": "LeakyRelu", "input": ["generator/G_MODEL/m/r2/InstanceNorm/instancenorm/add_1"], "attr": {"alpha": {"f": 0.2}, "T": {"type": "DT_FLOAT"}}}, {"name": "generator/G_MODEL/m/r2/MirrorPad", "op": "MirrorPad", "input": ["generator/G_MODEL/m/r2/LeakyRelu", "generator/G_MODEL/m/r2/MirrorPad/paddings"], "attr": {"Tpaddings": {"type": "DT_INT32"}, "mode": {"s": "UkVGTEVDVA=="}, "T": {"type": "DT_FLOAT"}}}, {"name": "generator/G_MODEL/m/r2/r2/r2", "op": "DepthwiseConv2dNative", "input": ["generator/G_MODEL/m/r2/MirrorPad", "generator/G_MODEL/m/r2/r2/w"], "attr": {"T": {"type": "DT_FLOAT"}, "padding": {"s": "VkFMSUQ="}, "dilations": {"list": {"i": ["1", "1", "1", "1"]}}, "explicit_paddings": {"list": {}}, "strides": {"list": {"i": ["1", "1", "1", "1"]}}, "data_format": {"s": "TkhXQw=="}}}, {"name": "generator/G_MODEL/m/r2/1/moments/mean", "op": "Mean", "input": ["generator/G_MODEL/m/r2/r2/r2", "generator/G_MODEL/m/r2/1/moments/mean/reduction_indices"], "attr": {"T": {"type": "DT_FLOAT"}, "keep_dims": {"b": true}, "Tidx": {"type": "DT_INT32"}}}, {"name": "generator/G_MODEL/m/r2/1/moments/SquaredDifference", "op": "SquaredDifference", "input": ["generator/G_MODEL/m/r2/r2/r2", "generator/G_MODEL/m/r2/1/moments/mean"], "attr": {"T": {"type": "DT_FLOAT"}}}, {"name": "generator/G_MODEL/m/r2/1/moments/variance", "op": "Mean", "input": ["generator/G_MODEL/m/r2/1/moments/SquaredDifference", "generator/G_MODEL/m/r2/1/moments/variance/reduction_indices"], "attr": {"keep_dims": {"b": true}, "T": {"type": "DT_FLOAT"}, "Tidx": {"type": "DT_INT32"}}}, {"name": "generator/G_MODEL/m/r2/1/instancenorm/add", "op": "AddV2", "input": ["generator/G_MODEL/m/r2/1/moments/variance", "generator/G_MODEL/m/r2/1/instancenorm/add/y"], "attr": {"T": {"type": "DT_FLOAT"}}}, {"name": "generator/G_MODEL/m/r2/1/instancenorm/Rsqrt", "op": "Rsqrt", "input": ["generator/G_MODEL/m/r2/1/instancenorm/add"], "attr": {"T": {"type": "DT_FLOAT"}}}, {"name": "generator/G_MODEL/m/r2/1/instancenorm/mul", "op": "Mul", "input": ["generator/G_MODEL/m/r2/1/instancenorm/Rsqrt", "generator/G_MODEL/m/r2/1/gamma"], "attr": {"T": {"type": "DT_FLOAT"}}}, {"name": "generator/G_MODEL/m/r2/1/instancenorm/mul_2", "op": "Mul", "input": ["generator/G_MODEL/m/r2/1/moments/mean", "generator/G_MODEL/m/r2/1/instancenorm/mul"], "attr": {"T": {"type": "DT_FLOAT"}}}, {"name": "generator/G_MODEL/m/r2/1/instancenorm/mul_1", "op": "Mul", "input": ["generator/G_MODEL/m/r2/r2/r2", "generator/G_MODEL/m/r2/1/instancenorm/mul"], "attr": {"T": {"type": "DT_FLOAT"}}}, {"name": "generator/G_MODEL/m/r2/1/instancenorm/sub", "op": "Sub", "input": ["generator/G_MODEL/m/r2/1/beta", "generator/G_MODEL/m/r2/1/instancenorm/mul_2"], "attr": {"T": {"type": "DT_FLOAT"}}}, {"name": "generator/G_MODEL/m/r2/1/instancenorm/add_1", "op": "AddV2", "input": ["generator/G_MODEL/m/r2/1/instancenorm/mul_1", "generator/G_MODEL/m/r2/1/instancenorm/sub"], "attr": {"T": {"type": "DT_FLOAT"}}}, {"name": "generator/G_MODEL/m/r2/LeakyRelu_1", "op": "LeakyRelu", "input": ["generator/G_MODEL/m/r2/1/instancenorm/add_1"], "attr": {"alpha": {"f": 0.2}, "T": {"type": "DT_FLOAT"}}}, {"name": "generator/G_MODEL/m/r2/Conv_1/Conv2D", "op": "Conv2D", "input": ["generator/G_MODEL/m/r2/LeakyRelu_1", "generator/G_MODEL/m/r2/Conv_1/weights"], "device": "/device:CPU:0", "attr": {"dilations": {"list": {"i": ["1", "1", "1", "1"]}}, "data_format": {"s": "TkhXQw=="}, "strides": {"list": {"i": ["1", "1", "1", "1"]}}, "padding": {"s": "VkFMSUQ="}, "use_cudnn_on_gpu": {"b": true}, "explicit_paddings": {"list": {}}, "T": {"type": "DT_FLOAT"}}}, {"name": "generator/G_MODEL/m/r2/2/moments/mean", "op": "Mean", "input": ["generator/G_MODEL/m/r2/Conv_1/Conv2D", "generator/G_MODEL/m/r2/2/moments/mean/reduction_indices"], "attr": {"T": {"type": "DT_FLOAT"}, "keep_dims": {"b": true}, "Tidx": {"type": "DT_INT32"}}}, {"name": "generator/G_MODEL/m/r2/2/moments/SquaredDifference", "op": "SquaredDifference", "input": ["generator/G_MODEL/m/r2/Conv_1/Conv2D", "generator/G_MODEL/m/r2/2/moments/mean"], "attr": {"T": {"type": "DT_FLOAT"}}}, {"name": "generator/G_MODEL/m/r2/2/moments/variance", "op": "Mean", "input": ["generator/G_MODEL/m/r2/2/moments/SquaredDifference", "generator/G_MODEL/m/r2/2/moments/variance/reduction_indices"], "attr": {"Tidx": {"type": "DT_INT32"}, "T": {"type": "DT_FLOAT"}, "keep_dims": {"b": true}}}, {"name": "generator/G_MODEL/m/r2/2/instancenorm/add", "op": "AddV2", "input": ["generator/G_MODEL/m/r2/2/moments/variance", "generator/G_MODEL/m/r2/2/instancenorm/add/y"], "attr": {"T": {"type": "DT_FLOAT"}}}, {"name": "generator/G_MODEL/m/r2/2/instancenorm/Rsqrt", "op": "Rsqrt", "input": ["generator/G_MODEL/m/r2/2/instancenorm/add"], "attr": {"T": {"type": "DT_FLOAT"}}}, {"name": "generator/G_MODEL/m/r2/2/instancenorm/mul", "op": "Mul", "input": ["generator/G_MODEL/m/r2/2/instancenorm/Rsqrt", "generator/G_MODEL/m/r2/2/gamma"], "attr": {"T": {"type": "DT_FLOAT"}}}, {"name": "generator/G_MODEL/m/r2/2/instancenorm/mul_2", "op": "Mul", "input": ["generator/G_MODEL/m/r2/2/moments/mean", "generator/G_MODEL/m/r2/2/instancenorm/mul"], "attr": {"T": {"type": "DT_FLOAT"}}}, {"name": "generator/G_MODEL/m/r2/2/instancenorm/mul_1", "op": "Mul", "input": ["generator/G_MODEL/m/r2/Conv_1/Conv2D", "generator/G_MODEL/m/r2/2/instancenorm/mul"], "attr": {"T": {"type": "DT_FLOAT"}}}, {"name": "generator/G_MODEL/m/r2/2/instancenorm/sub", "op": "Sub", "input": ["generator/G_MODEL/m/r2/2/beta", "generator/G_MODEL/m/r2/2/instancenorm/mul_2"], "attr": {"T": {"type": "DT_FLOAT"}}}, {"name": "generator/G_MODEL/m/r2/2/instancenorm/add_1", "op": "AddV2", "input": ["generator/G_MODEL/m/r2/2/instancenorm/mul_1", "generator/G_MODEL/m/r2/2/instancenorm/sub"], "attr": {"T": {"type": "DT_FLOAT"}}}, {"name": "generator/G_MODEL/m/r2/add", "op": "AddV2", "input": ["generator/G_MODEL/m/r1/add", "generator/G_MODEL/m/r2/2/instancenorm/add_1"], "attr": {"T": {"type": "DT_FLOAT"}}}, {"name": "generator/G_MODEL/m/r3/Conv/Conv2D", "op": "Conv2D", "input": ["generator/G_MODEL/m/r2/add", "generator/G_MODEL/m/r3/Conv/weights"], "device": "/device:CPU:0", "attr": {"data_format": {"s": "TkhXQw=="}, "explicit_paddings": {"list": {}}, "strides": {"list": {"i": ["1", "1", "1", "1"]}}, "dilations": {"list": {"i": ["1", "1", "1", "1"]}}, "T": {"type": "DT_FLOAT"}, "use_cudnn_on_gpu": {"b": true}, "padding": {"s": "VkFMSUQ="}}}, {"name": "generator/G_MODEL/m/r3/InstanceNorm/moments/mean", "op": "Mean", "input": ["generator/G_MODEL/m/r3/Conv/Conv2D", "generator/G_MODEL/m/r3/InstanceNorm/moments/mean/reduction_indices"], "attr": {"keep_dims": {"b": true}, "Tidx": {"type": "DT_INT32"}, "T": {"type": "DT_FLOAT"}}}, {"name": "generator/G_MODEL/m/r3/InstanceNorm/moments/SquaredDifference", "op": "SquaredDifference", "input": ["generator/G_MODEL/m/r3/Conv/Conv2D", "generator/G_MODEL/m/r3/InstanceNorm/moments/mean"], "attr": {"T": {"type": "DT_FLOAT"}}}, {"name": "generator/G_MODEL/m/r3/InstanceNorm/moments/variance", "op": "Mean", "input": ["generator/G_MODEL/m/r3/InstanceNorm/moments/SquaredDifference", "generator/G_MODEL/m/r3/InstanceNorm/moments/variance/reduction_indices"], "attr": {"Tidx": {"type": "DT_INT32"}, "keep_dims": {"b": true}, "T": {"type": "DT_FLOAT"}}}, {"name": "generator/G_MODEL/m/r3/InstanceNorm/instancenorm/add", "op": "AddV2", "input": ["generator/G_MODEL/m/r3/InstanceNorm/moments/variance", "generator/G_MODEL/m/r3/InstanceNorm/instancenorm/add/y"], "attr": {"T": {"type": "DT_FLOAT"}}}, {"name": "generator/G_MODEL/m/r3/InstanceNorm/instancenorm/Rsqrt", "op": "Rsqrt", "input": ["generator/G_MODEL/m/r3/InstanceNorm/instancenorm/add"], "attr": {"T": {"type": "DT_FLOAT"}}}, {"name": "generator/G_MODEL/m/r3/InstanceNorm/instancenorm/mul", "op": "Mul", "input": ["generator/G_MODEL/m/r3/InstanceNorm/instancenorm/Rsqrt", "generator/G_MODEL/m/r3/InstanceNorm/gamma"], "attr": {"T": {"type": "DT_FLOAT"}}}, {"name": "generator/G_MODEL/m/r3/InstanceNorm/instancenorm/mul_2", "op": "Mul", "input": ["generator/G_MODEL/m/r3/InstanceNorm/moments/mean", "generator/G_MODEL/m/r3/InstanceNorm/instancenorm/mul"], "attr": {"T": {"type": "DT_FLOAT"}}}, {"name": "generator/G_MODEL/m/r3/InstanceNorm/instancenorm/mul_1", "op": "Mul", "input": ["generator/G_MODEL/m/r3/Conv/Conv2D", "generator/G_MODEL/m/r3/InstanceNorm/instancenorm/mul"], "attr": {"T": {"type": "DT_FLOAT"}}}, {"name": "generator/G_MODEL/m/r3/InstanceNorm/instancenorm/sub", "op": "Sub", "input": ["generator/G_MODEL/m/r3/InstanceNorm/beta", "generator/G_MODEL/m/r3/InstanceNorm/instancenorm/mul_2"], "attr": {"T": {"type": "DT_FLOAT"}}}, {"name": "generator/G_MODEL/m/r3/InstanceNorm/instancenorm/add_1", "op": "AddV2", "input": ["generator/G_MODEL/m/r3/InstanceNorm/instancenorm/mul_1", "generator/G_MODEL/m/r3/InstanceNorm/instancenorm/sub"], "attr": {"T": {"type": "DT_FLOAT"}}}, {"name": "generator/G_MODEL/m/r3/LeakyRelu", "op": "LeakyRelu", "input": ["generator/G_MODEL/m/r3/InstanceNorm/instancenorm/add_1"], "attr": {"alpha": {"f": 0.2}, "T": {"type": "DT_FLOAT"}}}, {"name": "generator/G_MODEL/m/r3/MirrorPad", "op": "MirrorPad", "input": ["generator/G_MODEL/m/r3/LeakyRelu", "generator/G_MODEL/m/r3/MirrorPad/paddings"], "attr": {"mode": {"s": "UkVGTEVDVA=="}, "Tpaddings": {"type": "DT_INT32"}, "T": {"type": "DT_FLOAT"}}}, {"name": "generator/G_MODEL/m/r3/r3/r3", "op": "DepthwiseConv2dNative", "input": ["generator/G_MODEL/m/r3/MirrorPad", "generator/G_MODEL/m/r3/r3/w"], "attr": {"explicit_paddings": {"list": {}}, "data_format": {"s": "TkhXQw=="}, "padding": {"s": "VkFMSUQ="}, "dilations": {"list": {"i": ["1", "1", "1", "1"]}}, "strides": {"list": {"i": ["1", "1", "1", "1"]}}, "T": {"type": "DT_FLOAT"}}}, {"name": "generator/G_MODEL/m/r3/1/moments/mean", "op": "Mean", "input": ["generator/G_MODEL/m/r3/r3/r3", "generator/G_MODEL/m/r3/1/moments/mean/reduction_indices"], "attr": {"keep_dims": {"b": true}, "Tidx": {"type": "DT_INT32"}, "T": {"type": "DT_FLOAT"}}}, {"name": "generator/G_MODEL/m/r3/1/moments/SquaredDifference", "op": "SquaredDifference", "input": ["generator/G_MODEL/m/r3/r3/r3", "generator/G_MODEL/m/r3/1/moments/mean"], "attr": {"T": {"type": "DT_FLOAT"}}}, {"name": "generator/G_MODEL/m/r3/1/moments/variance", "op": "Mean", "input": ["generator/G_MODEL/m/r3/1/moments/SquaredDifference", "generator/G_MODEL/m/r3/1/moments/variance/reduction_indices"], "attr": {"keep_dims": {"b": true}, "Tidx": {"type": "DT_INT32"}, "T": {"type": "DT_FLOAT"}}}, {"name": "generator/G_MODEL/m/r3/1/instancenorm/add", "op": "AddV2", "input": ["generator/G_MODEL/m/r3/1/moments/variance", "generator/G_MODEL/m/r3/1/instancenorm/add/y"], "attr": {"T": {"type": "DT_FLOAT"}}}, {"name": "generator/G_MODEL/m/r3/1/instancenorm/Rsqrt", "op": "Rsqrt", "input": ["generator/G_MODEL/m/r3/1/instancenorm/add"], "attr": {"T": {"type": "DT_FLOAT"}}}, {"name": "generator/G_MODEL/m/r3/1/instancenorm/mul", "op": "Mul", "input": ["generator/G_MODEL/m/r3/1/instancenorm/Rsqrt", "generator/G_MODEL/m/r3/1/gamma"], "attr": {"T": {"type": "DT_FLOAT"}}}, {"name": "generator/G_MODEL/m/r3/1/instancenorm/mul_2", "op": "Mul", "input": ["generator/G_MODEL/m/r3/1/moments/mean", "generator/G_MODEL/m/r3/1/instancenorm/mul"], "attr": {"T": {"type": "DT_FLOAT"}}}, {"name": "generator/G_MODEL/m/r3/1/instancenorm/mul_1", "op": "Mul", "input": ["generator/G_MODEL/m/r3/r3/r3", "generator/G_MODEL/m/r3/1/instancenorm/mul"], "attr": {"T": {"type": "DT_FLOAT"}}}, {"name": "generator/G_MODEL/m/r3/1/instancenorm/sub", "op": "Sub", "input": ["generator/G_MODEL/m/r3/1/beta", "generator/G_MODEL/m/r3/1/instancenorm/mul_2"], "attr": {"T": {"type": "DT_FLOAT"}}}, {"name": "generator/G_MODEL/m/r3/1/instancenorm/add_1", "op": "AddV2", "input": ["generator/G_MODEL/m/r3/1/instancenorm/mul_1", "generator/G_MODEL/m/r3/1/instancenorm/sub"], "attr": {"T": {"type": "DT_FLOAT"}}}, {"name": "generator/G_MODEL/m/r3/LeakyRelu_1", "op": "LeakyRelu", "input": ["generator/G_MODEL/m/r3/1/instancenorm/add_1"], "attr": {"alpha": {"f": 0.2}, "T": {"type": "DT_FLOAT"}}}, {"name": "generator/G_MODEL/m/r3/Conv_1/Conv2D", "op": "Conv2D", "input": ["generator/G_MODEL/m/r3/LeakyRelu_1", "generator/G_MODEL/m/r3/Conv_1/weights"], "device": "/device:CPU:0", "attr": {"explicit_paddings": {"list": {}}, "strides": {"list": {"i": ["1", "1", "1", "1"]}}, "data_format": {"s": "TkhXQw=="}, "padding": {"s": "VkFMSUQ="}, "use_cudnn_on_gpu": {"b": true}, "dilations": {"list": {"i": ["1", "1", "1", "1"]}}, "T": {"type": "DT_FLOAT"}}}, {"name": "generator/G_MODEL/m/r3/2/moments/mean", "op": "Mean", "input": ["generator/G_MODEL/m/r3/Conv_1/Conv2D", "generator/G_MODEL/m/r3/2/moments/mean/reduction_indices"], "attr": {"keep_dims": {"b": true}, "Tidx": {"type": "DT_INT32"}, "T": {"type": "DT_FLOAT"}}}, {"name": "generator/G_MODEL/m/r3/2/moments/SquaredDifference", "op": "SquaredDifference", "input": ["generator/G_MODEL/m/r3/Conv_1/Conv2D", "generator/G_MODEL/m/r3/2/moments/mean"], "attr": {"T": {"type": "DT_FLOAT"}}}, {"name": "generator/G_MODEL/m/r3/2/moments/variance", "op": "Mean", "input": ["generator/G_MODEL/m/r3/2/moments/SquaredDifference", "generator/G_MODEL/m/r3/2/moments/variance/reduction_indices"], "attr": {"keep_dims": {"b": true}, "Tidx": {"type": "DT_INT32"}, "T": {"type": "DT_FLOAT"}}}, {"name": "generator/G_MODEL/m/r3/2/instancenorm/add", "op": "AddV2", "input": ["generator/G_MODEL/m/r3/2/moments/variance", "generator/G_MODEL/m/r3/2/instancenorm/add/y"], "attr": {"T": {"type": "DT_FLOAT"}}}, {"name": "generator/G_MODEL/m/r3/2/instancenorm/Rsqrt", "op": "Rsqrt", "input": ["generator/G_MODEL/m/r3/2/instancenorm/add"], "attr": {"T": {"type": "DT_FLOAT"}}}, {"name": "generator/G_MODEL/m/r3/2/instancenorm/mul", "op": "Mul", "input": ["generator/G_MODEL/m/r3/2/instancenorm/Rsqrt", "generator/G_MODEL/m/r3/2/gamma"], "attr": {"T": {"type": "DT_FLOAT"}}}, {"name": "generator/G_MODEL/m/r3/2/instancenorm/mul_2", "op": "Mul", "input": ["generator/G_MODEL/m/r3/2/moments/mean", "generator/G_MODEL/m/r3/2/instancenorm/mul"], "attr": {"T": {"type": "DT_FLOAT"}}}, {"name": "generator/G_MODEL/m/r3/2/instancenorm/mul_1", "op": "Mul", "input": ["generator/G_MODEL/m/r3/Conv_1/Conv2D", "generator/G_MODEL/m/r3/2/instancenorm/mul"], "attr": {"T": {"type": "DT_FLOAT"}}}, {"name": "generator/G_MODEL/m/r3/2/instancenorm/sub", "op": "Sub", "input": ["generator/G_MODEL/m/r3/2/beta", "generator/G_MODEL/m/r3/2/instancenorm/mul_2"], "attr": {"T": {"type": "DT_FLOAT"}}}, {"name": "generator/G_MODEL/m/r3/2/instancenorm/add_1", "op": "AddV2", "input": ["generator/G_MODEL/m/r3/2/instancenorm/mul_1", "generator/G_MODEL/m/r3/2/instancenorm/sub"], "attr": {"T": {"type": "DT_FLOAT"}}}, {"name": "generator/G_MODEL/m/r3/add", "op": "AddV2", "input": ["generator/G_MODEL/m/r2/add", "generator/G_MODEL/m/r3/2/instancenorm/add_1"], "attr": {"T": {"type": "DT_FLOAT"}}}, {"name": "generator/G_MODEL/m/r4/Conv/Conv2D", "op": "Conv2D", "input": ["generator/G_MODEL/m/r3/add", "generator/G_MODEL/m/r4/Conv/weights"], "device": "/device:CPU:0", "attr": {"strides": {"list": {"i": ["1", "1", "1", "1"]}}, "padding": {"s": "VkFMSUQ="}, "dilations": {"list": {"i": ["1", "1", "1", "1"]}}, "explicit_paddings": {"list": {}}, "data_format": {"s": "TkhXQw=="}, "T": {"type": "DT_FLOAT"}, "use_cudnn_on_gpu": {"b": true}}}, {"name": "generator/G_MODEL/m/r4/InstanceNorm/moments/mean", "op": "Mean", "input": ["generator/G_MODEL/m/r4/Conv/Conv2D", "generator/G_MODEL/m/r4/InstanceNorm/moments/mean/reduction_indices"], "attr": {"T": {"type": "DT_FLOAT"}, "keep_dims": {"b": true}, "Tidx": {"type": "DT_INT32"}}}, {"name": "generator/G_MODEL/m/r4/InstanceNorm/moments/SquaredDifference", "op": "SquaredDifference", "input": ["generator/G_MODEL/m/r4/Conv/Conv2D", "generator/G_MODEL/m/r4/InstanceNorm/moments/mean"], "attr": {"T": {"type": "DT_FLOAT"}}}, {"name": "generator/G_MODEL/m/r4/InstanceNorm/moments/variance", "op": "Mean", "input": ["generator/G_MODEL/m/r4/InstanceNorm/moments/SquaredDifference", "generator/G_MODEL/m/r4/InstanceNorm/moments/variance/reduction_indices"], "attr": {"Tidx": {"type": "DT_INT32"}, "keep_dims": {"b": true}, "T": {"type": "DT_FLOAT"}}}, {"name": "generator/G_MODEL/m/r4/InstanceNorm/instancenorm/add", "op": "AddV2", "input": ["generator/G_MODEL/m/r4/InstanceNorm/moments/variance", "generator/G_MODEL/m/r4/InstanceNorm/instancenorm/add/y"], "attr": {"T": {"type": "DT_FLOAT"}}}, {"name": "generator/G_MODEL/m/r4/InstanceNorm/instancenorm/Rsqrt", "op": "Rsqrt", "input": ["generator/G_MODEL/m/r4/InstanceNorm/instancenorm/add"], "attr": {"T": {"type": "DT_FLOAT"}}}, {"name": "generator/G_MODEL/m/r4/InstanceNorm/instancenorm/mul", "op": "Mul", "input": ["generator/G_MODEL/m/r4/InstanceNorm/instancenorm/Rsqrt", "generator/G_MODEL/m/r4/InstanceNorm/gamma"], "attr": {"T": {"type": "DT_FLOAT"}}}, {"name": "generator/G_MODEL/m/r4/InstanceNorm/instancenorm/mul_2", "op": "Mul", "input": ["generator/G_MODEL/m/r4/InstanceNorm/moments/mean", "generator/G_MODEL/m/r4/InstanceNorm/instancenorm/mul"], "attr": {"T": {"type": "DT_FLOAT"}}}, {"name": "generator/G_MODEL/m/r4/InstanceNorm/instancenorm/mul_1", "op": "Mul", "input": ["generator/G_MODEL/m/r4/Conv/Conv2D", "generator/G_MODEL/m/r4/InstanceNorm/instancenorm/mul"], "attr": {"T": {"type": "DT_FLOAT"}}}, {"name": "generator/G_MODEL/m/r4/InstanceNorm/instancenorm/sub", "op": "Sub", "input": ["generator/G_MODEL/m/r4/InstanceNorm/beta", "generator/G_MODEL/m/r4/InstanceNorm/instancenorm/mul_2"], "attr": {"T": {"type": "DT_FLOAT"}}}, {"name": "generator/G_MODEL/m/r4/InstanceNorm/instancenorm/add_1", "op": "AddV2", "input": ["generator/G_MODEL/m/r4/InstanceNorm/instancenorm/mul_1", "generator/G_MODEL/m/r4/InstanceNorm/instancenorm/sub"], "attr": {"T": {"type": "DT_FLOAT"}}}, {"name": "generator/G_MODEL/m/r4/LeakyRelu", "op": "LeakyRelu", "input": ["generator/G_MODEL/m/r4/InstanceNorm/instancenorm/add_1"], "attr": {"T": {"type": "DT_FLOAT"}, "alpha": {"f": 0.2}}}, {"name": "generator/G_MODEL/m/r4/MirrorPad", "op": "MirrorPad", "input": ["generator/G_MODEL/m/r4/LeakyRelu", "generator/G_MODEL/m/r4/MirrorPad/paddings"], "attr": {"T": {"type": "DT_FLOAT"}, "mode": {"s": "UkVGTEVDVA=="}, "Tpaddings": {"type": "DT_INT32"}}}, {"name": "generator/G_MODEL/m/r4/r4/r4", "op": "DepthwiseConv2dNative", "input": ["generator/G_MODEL/m/r4/MirrorPad", "generator/G_MODEL/m/r4/r4/w"], "attr": {"T": {"type": "DT_FLOAT"}, "padding": {"s": "VkFMSUQ="}, "data_format": {"s": "TkhXQw=="}, "dilations": {"list": {"i": ["1", "1", "1", "1"]}}, "strides": {"list": {"i": ["1", "1", "1", "1"]}}, "explicit_paddings": {"list": {}}}}, {"name": "generator/G_MODEL/m/r4/1/moments/mean", "op": "Mean", "input": ["generator/G_MODEL/m/r4/r4/r4", "generator/G_MODEL/m/r4/1/moments/mean/reduction_indices"], "attr": {"Tidx": {"type": "DT_INT32"}, "keep_dims": {"b": true}, "T": {"type": "DT_FLOAT"}}}, {"name": "generator/G_MODEL/m/r4/1/moments/SquaredDifference", "op": "SquaredDifference", "input": ["generator/G_MODEL/m/r4/r4/r4", "generator/G_MODEL/m/r4/1/moments/mean"], "attr": {"T": {"type": "DT_FLOAT"}}}, {"name": "generator/G_MODEL/m/r4/1/moments/variance", "op": "Mean", "input": ["generator/G_MODEL/m/r4/1/moments/SquaredDifference", "generator/G_MODEL/m/r4/1/moments/variance/reduction_indices"], "attr": {"keep_dims": {"b": true}, "Tidx": {"type": "DT_INT32"}, "T": {"type": "DT_FLOAT"}}}, {"name": "generator/G_MODEL/m/r4/1/instancenorm/add", "op": "AddV2", "input": ["generator/G_MODEL/m/r4/1/moments/variance", "generator/G_MODEL/m/r4/1/instancenorm/add/y"], "attr": {"T": {"type": "DT_FLOAT"}}}, {"name": "generator/G_MODEL/m/r4/1/instancenorm/Rsqrt", "op": "Rsqrt", "input": ["generator/G_MODEL/m/r4/1/instancenorm/add"], "attr": {"T": {"type": "DT_FLOAT"}}}, {"name": "generator/G_MODEL/m/r4/1/instancenorm/mul", "op": "Mul", "input": ["generator/G_MODEL/m/r4/1/instancenorm/Rsqrt", "generator/G_MODEL/m/r4/1/gamma"], "attr": {"T": {"type": "DT_FLOAT"}}}, {"name": "generator/G_MODEL/m/r4/1/instancenorm/mul_2", "op": "Mul", "input": ["generator/G_MODEL/m/r4/1/moments/mean", "generator/G_MODEL/m/r4/1/instancenorm/mul"], "attr": {"T": {"type": "DT_FLOAT"}}}, {"name": "generator/G_MODEL/m/r4/1/instancenorm/mul_1", "op": "Mul", "input": ["generator/G_MODEL/m/r4/r4/r4", "generator/G_MODEL/m/r4/1/instancenorm/mul"], "attr": {"T": {"type": "DT_FLOAT"}}}, {"name": "generator/G_MODEL/m/r4/1/instancenorm/sub", "op": "Sub", "input": ["generator/G_MODEL/m/r4/1/beta", "generator/G_MODEL/m/r4/1/instancenorm/mul_2"], "attr": {"T": {"type": "DT_FLOAT"}}}, {"name": "generator/G_MODEL/m/r4/1/instancenorm/add_1", "op": "AddV2", "input": ["generator/G_MODEL/m/r4/1/instancenorm/mul_1", "generator/G_MODEL/m/r4/1/instancenorm/sub"], "attr": {"T": {"type": "DT_FLOAT"}}}, {"name": "generator/G_MODEL/m/r4/LeakyRelu_1", "op": "LeakyRelu", "input": ["generator/G_MODEL/m/r4/1/instancenorm/add_1"], "attr": {"T": {"type": "DT_FLOAT"}, "alpha": {"f": 0.2}}}, {"name": "generator/G_MODEL/m/r4/Conv_1/Conv2D", "op": "Conv2D", "input": ["generator/G_MODEL/m/r4/LeakyRelu_1", "generator/G_MODEL/m/r4/Conv_1/weights"], "device": "/device:CPU:0", "attr": {"padding": {"s": "VkFMSUQ="}, "explicit_paddings": {"list": {}}, "data_format": {"s": "TkhXQw=="}, "strides": {"list": {"i": ["1", "1", "1", "1"]}}, "T": {"type": "DT_FLOAT"}, "dilations": {"list": {"i": ["1", "1", "1", "1"]}}, "use_cudnn_on_gpu": {"b": true}}}, {"name": "generator/G_MODEL/m/r4/2/moments/mean", "op": "Mean", "input": ["generator/G_MODEL/m/r4/Conv_1/Conv2D", "generator/G_MODEL/m/r4/2/moments/mean/reduction_indices"], "attr": {"T": {"type": "DT_FLOAT"}, "Tidx": {"type": "DT_INT32"}, "keep_dims": {"b": true}}}, {"name": "generator/G_MODEL/m/r4/2/moments/SquaredDifference", "op": "SquaredDifference", "input": ["generator/G_MODEL/m/r4/Conv_1/Conv2D", "generator/G_MODEL/m/r4/2/moments/mean"], "attr": {"T": {"type": "DT_FLOAT"}}}, {"name": "generator/G_MODEL/m/r4/2/moments/variance", "op": "Mean", "input": ["generator/G_MODEL/m/r4/2/moments/SquaredDifference", "generator/G_MODEL/m/r4/2/moments/variance/reduction_indices"], "attr": {"T": {"type": "DT_FLOAT"}, "keep_dims": {"b": true}, "Tidx": {"type": "DT_INT32"}}}, {"name": "generator/G_MODEL/m/r4/2/instancenorm/add", "op": "AddV2", "input": ["generator/G_MODEL/m/r4/2/moments/variance", "generator/G_MODEL/m/r4/2/instancenorm/add/y"], "attr": {"T": {"type": "DT_FLOAT"}}}, {"name": "generator/G_MODEL/m/r4/2/instancenorm/Rsqrt", "op": "Rsqrt", "input": ["generator/G_MODEL/m/r4/2/instancenorm/add"], "attr": {"T": {"type": "DT_FLOAT"}}}, {"name": "generator/G_MODEL/m/r4/2/instancenorm/mul", "op": "Mul", "input": ["generator/G_MODEL/m/r4/2/instancenorm/Rsqrt", "generator/G_MODEL/m/r4/2/gamma"], "attr": {"T": {"type": "DT_FLOAT"}}}, {"name": "generator/G_MODEL/m/r4/2/instancenorm/mul_2", "op": "Mul", "input": ["generator/G_MODEL/m/r4/2/moments/mean", "generator/G_MODEL/m/r4/2/instancenorm/mul"], "attr": {"T": {"type": "DT_FLOAT"}}}, {"name": "generator/G_MODEL/m/r4/2/instancenorm/mul_1", "op": "Mul", "input": ["generator/G_MODEL/m/r4/Conv_1/Conv2D", "generator/G_MODEL/m/r4/2/instancenorm/mul"], "attr": {"T": {"type": "DT_FLOAT"}}}, {"name": "generator/G_MODEL/m/r4/2/instancenorm/sub", "op": "Sub", "input": ["generator/G_MODEL/m/r4/2/beta", "generator/G_MODEL/m/r4/2/instancenorm/mul_2"], "attr": {"T": {"type": "DT_FLOAT"}}}, {"name": "generator/G_MODEL/m/r4/2/instancenorm/add_1", "op": "AddV2", "input": ["generator/G_MODEL/m/r4/2/instancenorm/mul_1", "generator/G_MODEL/m/r4/2/instancenorm/sub"], "attr": {"T": {"type": "DT_FLOAT"}}}, {"name": "generator/G_MODEL/m/r4/add", "op": "AddV2", "input": ["generator/G_MODEL/m/r3/add", "generator/G_MODEL/m/r4/2/instancenorm/add_1"], "attr": {"T": {"type": "DT_FLOAT"}}}, {"name": "generator/G_MODEL/m/r5/Conv/Conv2D", "op": "Conv2D", "input": ["generator/G_MODEL/m/r4/add", "generator/G_MODEL/m/r5/Conv/weights"], "device": "/device:CPU:0", "attr": {"data_format": {"s": "TkhXQw=="}, "explicit_paddings": {"list": {}}, "padding": {"s": "VkFMSUQ="}, "use_cudnn_on_gpu": {"b": true}, "strides": {"list": {"i": ["1", "1", "1", "1"]}}, "T": {"type": "DT_FLOAT"}, "dilations": {"list": {"i": ["1", "1", "1", "1"]}}}}, {"name": "generator/G_MODEL/m/r5/InstanceNorm/moments/mean", "op": "Mean", "input": ["generator/G_MODEL/m/r5/Conv/Conv2D", "generator/G_MODEL/m/r5/InstanceNorm/moments/mean/reduction_indices"], "attr": {"T": {"type": "DT_FLOAT"}, "Tidx": {"type": "DT_INT32"}, "keep_dims": {"b": true}}}, {"name": "generator/G_MODEL/m/r5/InstanceNorm/moments/SquaredDifference", "op": "SquaredDifference", "input": ["generator/G_MODEL/m/r5/Conv/Conv2D", "generator/G_MODEL/m/r5/InstanceNorm/moments/mean"], "attr": {"T": {"type": "DT_FLOAT"}}}, {"name": "generator/G_MODEL/m/r5/InstanceNorm/moments/variance", "op": "Mean", "input": ["generator/G_MODEL/m/r5/InstanceNorm/moments/SquaredDifference", "generator/G_MODEL/m/r5/InstanceNorm/moments/variance/reduction_indices"], "attr": {"Tidx": {"type": "DT_INT32"}, "T": {"type": "DT_FLOAT"}, "keep_dims": {"b": true}}}, {"name": "generator/G_MODEL/m/r5/InstanceNorm/instancenorm/add", "op": "AddV2", "input": ["generator/G_MODEL/m/r5/InstanceNorm/moments/variance", "generator/G_MODEL/m/r5/InstanceNorm/instancenorm/add/y"], "attr": {"T": {"type": "DT_FLOAT"}}}, {"name": "generator/G_MODEL/m/r5/InstanceNorm/instancenorm/Rsqrt", "op": "Rsqrt", "input": ["generator/G_MODEL/m/r5/InstanceNorm/instancenorm/add"], "attr": {"T": {"type": "DT_FLOAT"}}}, {"name": "generator/G_MODEL/m/r5/InstanceNorm/instancenorm/mul", "op": "Mul", "input": ["generator/G_MODEL/m/r5/InstanceNorm/instancenorm/Rsqrt", "generator/G_MODEL/m/r5/InstanceNorm/gamma"], "attr": {"T": {"type": "DT_FLOAT"}}}, {"name": "generator/G_MODEL/m/r5/InstanceNorm/instancenorm/mul_2", "op": "Mul", "input": ["generator/G_MODEL/m/r5/InstanceNorm/moments/mean", "generator/G_MODEL/m/r5/InstanceNorm/instancenorm/mul"], "attr": {"T": {"type": "DT_FLOAT"}}}, {"name": "generator/G_MODEL/m/r5/InstanceNorm/instancenorm/mul_1", "op": "Mul", "input": ["generator/G_MODEL/m/r5/Conv/Conv2D", "generator/G_MODEL/m/r5/InstanceNorm/instancenorm/mul"], "attr": {"T": {"type": "DT_FLOAT"}}}, {"name": "generator/G_MODEL/m/r5/InstanceNorm/instancenorm/sub", "op": "Sub", "input": ["generator/G_MODEL/m/r5/InstanceNorm/beta", "generator/G_MODEL/m/r5/InstanceNorm/instancenorm/mul_2"], "attr": {"T": {"type": "DT_FLOAT"}}}, {"name": "generator/G_MODEL/m/r5/InstanceNorm/instancenorm/add_1", "op": "AddV2", "input": ["generator/G_MODEL/m/r5/InstanceNorm/instancenorm/mul_1", "generator/G_MODEL/m/r5/InstanceNorm/instancenorm/sub"], "attr": {"T": {"type": "DT_FLOAT"}}}, {"name": "generator/G_MODEL/m/r5/LeakyRelu", "op": "LeakyRelu", "input": ["generator/G_MODEL/m/r5/InstanceNorm/instancenorm/add_1"], "attr": {"alpha": {"f": 0.2}, "T": {"type": "DT_FLOAT"}}}, {"name": "generator/G_MODEL/m/r5/MirrorPad", "op": "MirrorPad", "input": ["generator/G_MODEL/m/r5/LeakyRelu", "generator/G_MODEL/m/r5/MirrorPad/paddings"], "attr": {"mode": {"s": "UkVGTEVDVA=="}, "T": {"type": "DT_FLOAT"}, "Tpaddings": {"type": "DT_INT32"}}}, {"name": "generator/G_MODEL/m/r5/r5/r5", "op": "DepthwiseConv2dNative", "input": ["generator/G_MODEL/m/r5/MirrorPad", "generator/G_MODEL/m/r5/r5/w"], "attr": {"padding": {"s": "VkFMSUQ="}, "explicit_paddings": {"list": {}}, "T": {"type": "DT_FLOAT"}, "data_format": {"s": "TkhXQw=="}, "strides": {"list": {"i": ["1", "1", "1", "1"]}}, "dilations": {"list": {"i": ["1", "1", "1", "1"]}}}}, {"name": "generator/G_MODEL/m/r5/1/moments/mean", "op": "Mean", "input": ["generator/G_MODEL/m/r5/r5/r5", "generator/G_MODEL/m/r5/1/moments/mean/reduction_indices"], "attr": {"T": {"type": "DT_FLOAT"}, "keep_dims": {"b": true}, "Tidx": {"type": "DT_INT32"}}}, {"name": "generator/G_MODEL/m/r5/1/moments/SquaredDifference", "op": "SquaredDifference", "input": ["generator/G_MODEL/m/r5/r5/r5", "generator/G_MODEL/m/r5/1/moments/mean"], "attr": {"T": {"type": "DT_FLOAT"}}}, {"name": "generator/G_MODEL/m/r5/1/moments/variance", "op": "Mean", "input": ["generator/G_MODEL/m/r5/1/moments/SquaredDifference", "generator/G_MODEL/m/r5/1/moments/variance/reduction_indices"], "attr": {"keep_dims": {"b": true}, "Tidx": {"type": "DT_INT32"}, "T": {"type": "DT_FLOAT"}}}, {"name": "generator/G_MODEL/m/r5/1/instancenorm/add", "op": "AddV2", "input": ["generator/G_MODEL/m/r5/1/moments/variance", "generator/G_MODEL/m/r5/1/instancenorm/add/y"], "attr": {"T": {"type": "DT_FLOAT"}}}, {"name": "generator/G_MODEL/m/r5/1/instancenorm/Rsqrt", "op": "Rsqrt", "input": ["generator/G_MODEL/m/r5/1/instancenorm/add"], "attr": {"T": {"type": "DT_FLOAT"}}}, {"name": "generator/G_MODEL/m/r5/1/instancenorm/mul", "op": "Mul", "input": ["generator/G_MODEL/m/r5/1/instancenorm/Rsqrt", "generator/G_MODEL/m/r5/1/gamma"], "attr": {"T": {"type": "DT_FLOAT"}}}, {"name": "generator/G_MODEL/m/r5/1/instancenorm/mul_2", "op": "Mul", "input": ["generator/G_MODEL/m/r5/1/moments/mean", "generator/G_MODEL/m/r5/1/instancenorm/mul"], "attr": {"T": {"type": "DT_FLOAT"}}}, {"name": "generator/G_MODEL/m/r5/1/instancenorm/mul_1", "op": "Mul", "input": ["generator/G_MODEL/m/r5/r5/r5", "generator/G_MODEL/m/r5/1/instancenorm/mul"], "attr": {"T": {"type": "DT_FLOAT"}}}, {"name": "generator/G_MODEL/m/r5/1/instancenorm/sub", "op": "Sub", "input": ["generator/G_MODEL/m/r5/1/beta", "generator/G_MODEL/m/r5/1/instancenorm/mul_2"], "attr": {"T": {"type": "DT_FLOAT"}}}, {"name": "generator/G_MODEL/m/r5/1/instancenorm/add_1", "op": "AddV2", "input": ["generator/G_MODEL/m/r5/1/instancenorm/mul_1", "generator/G_MODEL/m/r5/1/instancenorm/sub"], "attr": {"T": {"type": "DT_FLOAT"}}}, {"name": "generator/G_MODEL/m/r5/LeakyRelu_1", "op": "LeakyRelu", "input": ["generator/G_MODEL/m/r5/1/instancenorm/add_1"], "attr": {"alpha": {"f": 0.2}, "T": {"type": "DT_FLOAT"}}}, {"name": "generator/G_MODEL/m/r5/Conv_1/Conv2D", "op": "Conv2D", "input": ["generator/G_MODEL/m/r5/LeakyRelu_1", "generator/G_MODEL/m/r5/Conv_1/weights"], "device": "/device:CPU:0", "attr": {"dilations": {"list": {"i": ["1", "1", "1", "1"]}}, "padding": {"s": "VkFMSUQ="}, "explicit_paddings": {"list": {}}, "strides": {"list": {"i": ["1", "1", "1", "1"]}}, "use_cudnn_on_gpu": {"b": true}, "T": {"type": "DT_FLOAT"}, "data_format": {"s": "TkhXQw=="}}}, {"name": "generator/G_MODEL/m/r5/2/moments/mean", "op": "Mean", "input": ["generator/G_MODEL/m/r5/Conv_1/Conv2D", "generator/G_MODEL/m/r5/2/moments/mean/reduction_indices"], "attr": {"Tidx": {"type": "DT_INT32"}, "keep_dims": {"b": true}, "T": {"type": "DT_FLOAT"}}}, {"name": "generator/G_MODEL/m/r5/2/moments/SquaredDifference", "op": "SquaredDifference", "input": ["generator/G_MODEL/m/r5/Conv_1/Conv2D", "generator/G_MODEL/m/r5/2/moments/mean"], "attr": {"T": {"type": "DT_FLOAT"}}}, {"name": "generator/G_MODEL/m/r5/2/moments/variance", "op": "Mean", "input": ["generator/G_MODEL/m/r5/2/moments/SquaredDifference", "generator/G_MODEL/m/r5/2/moments/variance/reduction_indices"], "attr": {"keep_dims": {"b": true}, "T": {"type": "DT_FLOAT"}, "Tidx": {"type": "DT_INT32"}}}, {"name": "generator/G_MODEL/m/r5/2/instancenorm/add", "op": "AddV2", "input": ["generator/G_MODEL/m/r5/2/moments/variance", "generator/G_MODEL/m/r5/2/instancenorm/add/y"], "attr": {"T": {"type": "DT_FLOAT"}}}, {"name": "generator/G_MODEL/m/r5/2/instancenorm/Rsqrt", "op": "Rsqrt", "input": ["generator/G_MODEL/m/r5/2/instancenorm/add"], "attr": {"T": {"type": "DT_FLOAT"}}}, {"name": "generator/G_MODEL/m/r5/2/instancenorm/mul", "op": "Mul", "input": ["generator/G_MODEL/m/r5/2/instancenorm/Rsqrt", "generator/G_MODEL/m/r5/2/gamma"], "attr": {"T": {"type": "DT_FLOAT"}}}, {"name": "generator/G_MODEL/m/r5/2/instancenorm/mul_2", "op": "Mul", "input": ["generator/G_MODEL/m/r5/2/moments/mean", "generator/G_MODEL/m/r5/2/instancenorm/mul"], "attr": {"T": {"type": "DT_FLOAT"}}}, {"name": "generator/G_MODEL/m/r5/2/instancenorm/mul_1", "op": "Mul", "input": ["generator/G_MODEL/m/r5/Conv_1/Conv2D", "generator/G_MODEL/m/r5/2/instancenorm/mul"], "attr": {"T": {"type": "DT_FLOAT"}}}, {"name": "generator/G_MODEL/m/r5/2/instancenorm/sub", "op": "Sub", "input": ["generator/G_MODEL/m/r5/2/beta", "generator/G_MODEL/m/r5/2/instancenorm/mul_2"], "attr": {"T": {"type": "DT_FLOAT"}}}, {"name": "generator/G_MODEL/m/r5/2/instancenorm/add_1", "op": "AddV2", "input": ["generator/G_MODEL/m/r5/2/instancenorm/mul_1", "generator/G_MODEL/m/r5/2/instancenorm/sub"], "attr": {"T": {"type": "DT_FLOAT"}}}, {"name": "generator/G_MODEL/m/r5/add", "op": "AddV2", "input": ["generator/G_MODEL/m/r4/add", "generator/G_MODEL/m/r5/2/instancenorm/add_1"], "attr": {"T": {"type": "DT_FLOAT"}}}, {"name": "generator/G_MODEL/m/r6/Conv/Conv2D", "op": "Conv2D", "input": ["generator/G_MODEL/m/r5/add", "generator/G_MODEL/m/r6/Conv/weights"], "device": "/device:CPU:0", "attr": {"padding": {"s": "VkFMSUQ="}, "strides": {"list": {"i": ["1", "1", "1", "1"]}}, "use_cudnn_on_gpu": {"b": true}, "explicit_paddings": {"list": {}}, "data_format": {"s": "TkhXQw=="}, "T": {"type": "DT_FLOAT"}, "dilations": {"list": {"i": ["1", "1", "1", "1"]}}}}, {"name": "generator/G_MODEL/m/r6/InstanceNorm/moments/mean", "op": "Mean", "input": ["generator/G_MODEL/m/r6/Conv/Conv2D", "generator/G_MODEL/m/r6/InstanceNorm/moments/mean/reduction_indices"], "attr": {"T": {"type": "DT_FLOAT"}, "Tidx": {"type": "DT_INT32"}, "keep_dims": {"b": true}}}, {"name": "generator/G_MODEL/m/r6/InstanceNorm/moments/SquaredDifference", "op": "SquaredDifference", "input": ["generator/G_MODEL/m/r6/Conv/Conv2D", "generator/G_MODEL/m/r6/InstanceNorm/moments/mean"], "attr": {"T": {"type": "DT_FLOAT"}}}, {"name": "generator/G_MODEL/m/r6/InstanceNorm/moments/variance", "op": "Mean", "input": ["generator/G_MODEL/m/r6/InstanceNorm/moments/SquaredDifference", "generator/G_MODEL/m/r6/InstanceNorm/moments/variance/reduction_indices"], "attr": {"keep_dims": {"b": true}, "Tidx": {"type": "DT_INT32"}, "T": {"type": "DT_FLOAT"}}}, {"name": "generator/G_MODEL/m/r6/InstanceNorm/instancenorm/add", "op": "AddV2", "input": ["generator/G_MODEL/m/r6/InstanceNorm/moments/variance", "generator/G_MODEL/m/r6/InstanceNorm/instancenorm/add/y"], "attr": {"T": {"type": "DT_FLOAT"}}}, {"name": "generator/G_MODEL/m/r6/InstanceNorm/instancenorm/Rsqrt", "op": "Rsqrt", "input": ["generator/G_MODEL/m/r6/InstanceNorm/instancenorm/add"], "attr": {"T": {"type"…
ation": {"dtype": "uint8", "min": -0.25875758376776004, "scale": 0.0014702135441350002, "original_dtype": "float32"}}, {"name": "generator/G_MODEL/u1/SeparableConv2d/InstanceNorm/beta", "shape": [128], "dtype": "float32", "quantization": {"dtype": "uint8", "min": -0.21074684157091028, "scale": 0.0015727376236635096, "original_dtype": "float32"}}, {"name": "generator/G_MODEL/u1/mul/x", "shape": [], "dtype": "int32"}, {"name": "generator/G_MODEL/u1/strided_slice/stack", "shape": [1], "dtype": "int32"}, {"name": "generator/G_MODEL/u1/strided_slice/stack_1", "shape": [1], "dtype": "int32"}, {"name": "generator/G_MODEL/u1/strided_slice/stack_2", "shape": [1], "dtype": "int32"}, {"name": "generator/G_MODEL/u1/mul_1/x", "shape": [], "dtype": "int32"}, {"name": "generator/G_MODEL/u2/InstanceNorm/beta", "shape": [128], "dtype": "float32", "quantization": {"dtype": "uint8", "min": -0.27612243680392995, "scale": 0.001586910556344425, "original_dtype": "float32"}}, {"name": "generator/G_MODEL/u2/SeparableConv2d_1/InstanceNorm/beta", "shape": [128], "dtype": "float32", "quantization": {"dtype": "uint8", "min": -0.21051867183517006, "scale": 0.001514522818958058, "original_dtype": "float32"}}, {"name": "generator/G_MODEL/u2/SeparableConv2d/InstanceNorm/beta", "shape": [128], "dtype": "float32", "quantization": {"dtype": "uint8", "min": -0.26294027426663563, "scale": 0.0016855145786322798, "original_dtype": "float32"}}, {"name": "generator/G_MODEL/u2/mul/x", "shape": [], "dtype": "int32"}, {"name": "generator/G_MODEL/u2/strided_slice/stack", "shape": [1], "dtype": "int32"}, {"name": "generator/G_MODEL/u2/strided_slice/stack_1", "shape": [1], "dtype": "int32"}, {"name": "generator/G_MODEL/u2/strided_slice/stack_2", "shape": [1], "dtype": "int32"}, {"name": "generator/G_MODEL/u2/mul_1/x", "shape": [], "dtype": "int32"}, {"name": "generator/G_MODEL/m/InstanceNorm_1/beta", "shape": [256], "dtype": "float32", "quantization": {"dtype": "uint8", "min": -0.18104772754743986, "scale": 0.0015607562719606885, "original_dtype": "float32"}}, {"name": "generator/G_MODEL/m/r8/2/beta", "shape": [256], "dtype": "float32", "quantization": {"dtype": "uint8", "min": -0.04416095772210289, "scale": 0.00036197506329592536, "original_dtype": "float32"}}, {"name": "generator/G_MODEL/m/r8/1/beta", "shape": [512], "dtype": "float32", "quantization": {"dtype": "uint8", "min": -0.37202401254691325, "scale": 0.002325150078418208, "original_dtype": "float32"}}, {"name": "generator/G_MODEL/m/r8/InstanceNorm/beta", "shape": [512], "dtype": "float32", "quantization": {"dtype": "uint8", "min": -0.45311173451881787, "scale": 0.00234772919439802, "original_dtype": "float32"}}, {"name": "generator/G_MODEL/m/r7/2/beta", "shape": [256], "dtype": "float32", "quantization": {"dtype": "uint8", "min": -0.0394727230510291, "scale": 0.00032091644756934224, "original_dtype": "float32"}}, {"name": "generator/G_MODEL/m/r7/1/beta", "shape": [512], "dtype": "float32", "quantization": {"dtype": "uint8", "min": -0.4622117645600263, "scale": 0.002656389451494404, "original_dtype": "float32"}}, {"name": "generator/G_MODEL/m/r7/InstanceNorm/beta", "shape": [512], "dtype": "float32", "quantization": {"dtype": "uint8", "min": -0.47398290260165343, "scale": 0.0024182801153145583, "original_dtype": "float32"}}, {"name": "generator/G_MODEL/m/r6/2/beta", "shape": [256], "dtype": "float32", "quantization": {"dtype": "uint8", "min": -0.03970345134536425, "scale": 0.00033364244828037185, "original_dtype": "float32"}}, {"name": "generator/G_MODEL/m/r6/1/beta", "shape": [512], "dtype": "float32", "quantization": {"dtype": "uint8", "min": -0.4679943580837811, "scale": 0.002644035921377294, "original_dtype": "float32"}}, {"name": "generator/G_MODEL/m/r6/InstanceNorm/beta", "shape": [512], "dtype": "float32", "quantization": {"dtype": "uint8", "min": -0.4253023072200663, "scale": 0.0022267136503668393, "original_dtype": "float32"}}, {"name": "generator/G_MODEL/m/r5/2/beta", "shape": [256], "dtype": "float32", "quantization": {"dtype": "uint8", "min": -0.04190146572449628, "scale": 0.000349178881037469, "original_dtype": "float32"}}, {"name": "generator/G_MODEL/m/r5/1/beta", "shape": [512], "dtype": "float32", "quantization": {"dtype": "uint8", "min": -0.39464274662382465, "scale": 0.0023917742219625735, "original_dtype": "float32"}}, {"name": "generator/G_MODEL/m/r5/InstanceNorm/beta", "shape": [512], "dtype": "float32", "quantization": {"dtype": "uint8", "min": -0.27354336810462615, "scale": 0.0015454427576532552, "original_dtype": "float32"}}, {"name": "generator/G_MODEL/m/r4/2/beta", "shape": [256], "dtype": "float32", "quantization": {"dtype": "uint8", "min": -0.03829940864268471, "scale": 0.0003359597249358308, "original_dtype": "float32"}}, {"name": "generator/G_MODEL/m/r4/1/beta", "shape": [512], "dtype": "float32", "quantization": {"dtype": "uint8", "min": -0.46557118787485013, "scale": 0.002351369635731566, "original_dtype": "float32"}}, {"name": "generator/G_MODEL/m/r4/InstanceNorm/beta", "shape": [512], "dtype": "float32", "quantization": {"dtype": "uint8", "min": -0.36849407553672786, "scale": 0.0019705565536723415, "original_dtype": "float32"}}, {"name": "generator/G_MODEL/m/r3/2/beta", "shape": [256], "dtype": "float32", "quantization": {"dtype": "uint8", "min": -0.03931422347531599, "scale": 0.00031962783313265033, "original_dtype": "float32"}}, {"name": "generator/G_MODEL/m/r3/1/beta", "shape": [512], "dtype": "float32", "quantization": {"dtype": "uint8", "min": -0.31830563264734607, "scale": 0.001964849584242877, "original_dtype": "float32"}}, {"name": "generator/G_MODEL/m/r3/InstanceNorm/beta", "shape": [512], "dtype": "float32", "quantization": {"dtype": "uint8", "min": -0.2535432048872406, "scale": 0.0016047038284002567, "original_dtype": "float32"}}, {"name": "generator/G_MODEL/m/r2/2/beta", "shape": [256], "dtype": "float32", "quantization": {"dtype": "uint8", "min": -0.05217576136483866, "scale": 0.0003808449734659756, "original_dtype": "float32"}}, {"name": "generator/G_MODEL/m/r2/1/beta", "shape": [512], "dtype": "float32", "quantization": {"dtype": "uint8", "min": -0.3063625237521003, "scale": 0.001702014020845002, "original_dtype": "float32"}}, {"name": "generator/G_MODEL/m/r2/InstanceNorm/beta", "shape": [512], "dtype": "float32", "quantization": {"dtype": "uint8", "min": -0.2189593382325827, "scale": 0.0014126408918231142, "original_dtype": "float32"}}, {"name": "generator/G_MODEL/m/r1/2/beta", "shape": [256], "dtype": "float32", "quantization": {"dtype": "uint8", "min": -0.04552723943602805, "scale": 0.0003397555181793138, "original_dtype": "float32"}}, {"name": "generator/G_MODEL/m/r1/1/beta", "shape": [512], "dtype": "float32", "quantization": {"dtype": "uint8", "min": -0.28586603099224617, "scale": 0.0015970169329175762, "original_dtype": "float32"}}, {"name": "generator/G_MODEL/m/r1/InstanceNorm/beta", "shape": [512], "dtype": "float32", "quantization": {"dtype": "uint8", "min": -0.20245714047375848, "scale": 0.0016871428372813206, "original_dtype": "float32"}}, {"name": "generator/G_MODEL/m/InstanceNorm/beta", "shape": [256], "dtype": "float32", "quantization": {"dtype": "uint8", "min": -0.08923014297204859, "scale": 0.0008923014297204859, "original_dtype": "float32"}}, {"name": "generator/G_MODEL/b2/SeparableConv2d_1/InstanceNorm/beta", "shape": [256], "dtype": "float32", "quantization": {"dtype": "uint8", "min": -0.07500595169908861, "scale": 0.0009616147653729308, "original_dtype": "float32"}}, {"name": "generator/G_MODEL/b2/MirrorPad_2/paddings", "shape": [4, 2], "dtype": "int32"}, {"name": "generator/G_MODEL/b2/SeparableConv2d_1/depthwise_weights", "shape": [3, 3, 128, 1], "dtype": "float32", "quantization": {"dtype": "uint8", "min": -0.10837303087407467, "scale": 0.0009423741815136928, "original_dtype": "float32"}}, {"name": "generator/G_MODEL/b2/SeparableConv2d_1/pointwise_weights", "shape": [1, 1, 128, 256], "dtype": "float32", "quantization": {"dtype": "uint8", "min": -0.23208928108215332, "scale": 0.0017065388314864214, "original_dtype": "float32"}}, {"name": "generator/G_MODEL/b2/SeparableConv2d_1/InstanceNorm/moments/mean/reduction_indices", "shape": [2], "dtype": "int32"}, {"name": "generator/G_MODEL/b2/SeparableConv2d_1/InstanceNorm/moments/variance/reduction_indices", "shape": [2], "dtype": "int32"}, {"name": "generator/G_MODEL/b2/SeparableConv2d_1/InstanceNorm/instancenorm/add/y", "shape": [], "dtype": "float32", "quantization": {"dtype": "uint8", "min": 9.999999974752427e-07, "scale": 1.0, "original_dtype": "float32"}}, {"name": "generator/G_MODEL/b2/SeparableConv2d_1/InstanceNorm/gamma", "shape": [256], "dtype": "float32", "quantization": {"dtype": "uint8", "min": 0.9647021889686584, "scale": 0.0005249881276897355, "original_dtype": "float32"}}, {"name": "generator/G_MODEL/b2/SeparableConv2d_2/InstanceNorm/beta", "shape": [256], "dtype": "float32", "quantization": {"dtype": "uint8", "min": -0.10524910808193917, "scale": 0.0008287331345034581, "original_dtype": "float32"}}, {"name": "generator/G_MODEL/b2/strided_slice/stack", "shape": [1], "dtype": "int32"}, {"name": "generator/G_MODEL/b2/strided_slice/stack_1", "shape": [1], "dtype": "int32"}, {"name": "generator/G_MODEL/b2/strided_slice/stack_2", "shape": [1], "dtype": "int32"}, {"name": "generator/G_MODEL/b2/floordiv/y", "shape": [], "dtype": "int32"}, {"name": "generator/G_MODEL/b2/SeparableConv2d/InstanceNorm/beta", "shape": [128], "dtype": "float32", "quantization": {"dtype": "uint8", "min": -0.1416084794437184, "scale": 0.0012643614236046287, "original_dtype": "float32"}}, {"name": "generator/G_MODEL/b2/InstanceNorm/beta", "shape": [128], "dtype": "float32", "quantization": {"dtype": "uint8", "min": -0.07035136994193582, "scale": 0.0007994473857038161, "original_dtype": "float32"}}, {"name": "generator/G_MODEL/b1/SeparableConv2d/InstanceNorm/beta", "shape": [128], "dtype": "float32", "quantization": {"dtype": "uint8", "min": -0.10048263020375196, "scale": 0.0007974811920932695, "original_dtype": "float32"}}, {"name": "generator/G_MODEL/b1/MirrorPad_2/paddings", "shape": [4, 2], "dtype": "int32"}, {"name": "generator/G_MODEL/b1/SeparableConv2d/depthwise_weights", "shape": [3, 3, 64, 1], "dtype": "float32", "quantization": {"dtype": "uint8", "min": -0.14832745498301936, "scale": 0.0011069213058434281, "original_dtype": "float32"}}, {"name": "generator/G_MODEL/b1/SeparableConv2d/pointwise_weights", "shape": [1, 1, 64, 128], "dtype": "float32", "quantization": {"dtype": "uint8", "min": -0.36714413586784816, "scale": 0.0025496120546378343, "original_dtype": "float32"}}, {"name": "generator/G_MODEL/b1/SeparableConv2d/InstanceNorm/moments/mean/reduction_indices", "shape": [2], "dtype": "int32"}, {"name": "generator/G_MODEL/b1/SeparableConv2d/InstanceNorm/moments/variance/reduction_indices", "shape": [2], "dtype": "int32"}, {"name": "generator/G_MODEL/b1/SeparableConv2d/InstanceNorm/instancenorm/add/y", "shape": [], "dtype": "float32", "quantization": {"dtype": "uint8", "min": 9.999999974752427e-07, "scale": 1.0, "original_dtype": "float32"}}, {"name": "generator/G_MODEL/b1/SeparableConv2d/InstanceNorm/gamma", "shape": [128], "dtype": "float32", "quantization": {"dtype": "uint8", "min": 0.9526612162590027, "scale": 0.0005399710991803337, "original_dtype": "float32"}}, {"name": "generator/G_MODEL/b1/SeparableConv2d_1/InstanceNorm/beta", "shape": [128], "dtype": "float32", "quantization": {"dtype": "uint8", "min": -0.0838669165968895, "scale": 0.0007987325390179952, "original_dtype": "float32"}}, {"name": "generator/G_MODEL/b1/strided_slice/stack", "shape": [1], "dtype": "int32"}, {"name": "generator/G_MODEL/b1/strided_slice/stack_1", "shape": [1], "dtype": "int32"}, {"name": "generator/G_MODEL/b1/strided_slice/stack_2", "shape": [1], "dtype": "int32"}, {"name": "generator/G_MODEL/b1/floordiv/y", "shape": [], "dtype": "int32"}, {"name": "generator/G_MODEL/b1/InstanceNorm_1/beta", "shape": [64], "dtype": "float32", "quantization": {"dtype": "uint8", "min": -0.05910379658727084, "scale": 0.0009689146981519811, "original_dtype": "float32"}}, {"name": "generator/G_MODEL/b1/InstanceNorm/beta", "shape": [64], "dtype": "float32", "quantization": {"dtype": "uint8", "min": -0.1241614958819221, "scale": 0.0012541565240598192, "original_dtype": "float32"}}, {"name": "generator/G_MODEL/b1/MirrorPad/paddings", "shape": [4, 2], "dtype": "int32"}, {"name": "generator/G_MODEL/b1/Conv/weights", "shape": [3, 3, 3, 64], "dtype": "float32", "quantization": {"dtype": "uint8", "min": -0.1443482771808026, "scale": 0.0011103713629292506, "original_dtype": "float32"}}, {"name": "generator/G_MODEL/b1/InstanceNorm/moments/mean/reduction_indices", "shape": [2], "dtype": "int32"}, {"name": "generator/G_MODEL/b1/InstanceNorm/moments/variance/reduction_indices", "shape": [2], "dtype": "int32"}, {"name": "generator/G_MODEL/b1/InstanceNorm/instancenorm/add/y", "shape": [], "dtype": "float32", "quantization": {"dtype": "uint8", "min": 9.999999747378752e-06, "scale": 1.0, "original_dtype": "float32"}}, {"name": "generator/G_MODEL/b1/InstanceNorm/gamma", "shape": [64], "dtype": "float32", "quantization": {"dtype": "uint8", "min": 0.9510449171066284, "scale": 0.00047005812327067056, "original_dtype": "float32"}}, {"name": "generator/G_MODEL/b1/MirrorPad_1/paddings", "shape": [4, 2], "dtype": "int32"}, {"name": "generator/G_MODEL/b1/Conv_1/weights", "shape": [3, 3, 64, 64], "dtype": "float32", "quantization": {"dtype": "uint8", "min": -0.16149273058947394, "scale": 0.0011372727506300982, "original_dtype": "float32"}}, {"name": "generator/G_MODEL/b1/InstanceNorm_1/moments/mean/reduction_indices", "shape": [2], "dtype": "int32"}, {"name": "generator/G_MODEL/b1/InstanceNorm_1/moments/variance/reduction_indices", "shape": [2], "dtype": "int32"}, {"name": "generator/G_MODEL/b1/InstanceNorm_1/instancenorm/add/y", "shape": [], "dtype": "float32", "quantization": {"dtype": "uint8", "min": 9.999999747378752e-06, "scale": 1.0, "original_dtype": "float32"}}, {"name": "generator/G_MODEL/b1/InstanceNorm_1/gamma", "shape": [64], "dtype": "float32", "quantization": {"dtype": "uint8", "min": 0.965524435043335, "scale": 0.00040664111866670495, "original_dtype": "float32"}}, {"name": "generator/G_MODEL/b1/strided_slice_1/stack", "shape": [1], "dtype": "int32"}, {"name": "generator/G_MODEL/b1/strided_slice_1/stack_1", "shape": [1], "dtype": "int32"}, {"name": "generator/G_MODEL/b1/strided_slice_1/stack_2", "shape": [1], "dtype": "int32"}, {"name": "generator/G_MODEL/b1/floordiv_1/y", "shape": [], "dtype": "int32"}, {"name": "generator/G_MODEL/b1/MirrorPad_3/paddings", "shape": [4, 2], "dtype": "int32"}, {"name": "generator/G_MODEL/b1/SeparableConv2d_1/depthwise_weights", "shape": [3, 3, 64, 1], "dtype": "float32", "quantization": {"dtype": "uint8", "min": -0.12455259877092698, "scale": 0.001102235387353336, "original_dtype": "float32"}}, {"name": "generator/G_MODEL/b1/SeparableConv2d_1/pointwise_weights", "shape": [1, 1, 64, 128], "dtype": "float32", "quantization": {"dtype": "uint8", "min": -0.23695196123684154, "scale": 0.0019745996769736794, "original_dtype": "float32"}}, {"name": "generator/G_MODEL/b1/SeparableConv2d_1/InstanceNorm/moments/mean/reduction_indices", "shape": [2], "dtype": "int32"}, {"name": "generator/G_MODEL/b1/SeparableConv2d_1/InstanceNorm/moments/variance/reduction_indices", "shape": [2], "dtype": "int32"}, {"name": "generator/G_MODEL/b1/SeparableConv2d_1/InstanceNorm/instancenorm/add/y", "shape": [], "dtype": "float32", "quantization": {"dtype": "uint8", "min": 9.999999974752427e-07, "scale": 1.0, "original_dtype": "float32"}}, {"name": "generator/G_MODEL/b1/SeparableConv2d_1/InstanceNorm/gamma", "shape": [128], "dtype": "float32", "quantization": {"dtype": "uint8", "min": 0.9268007278442383, "scale": 0.0005620213115916533, "original_dtype": "float32"}}, {"name": "generator/G_MODEL/b2/MirrorPad/paddings", "shape": [4, 2], "dtype": "int32"}, {"name": "generator/G_MODEL/b2/Conv/weights", "shape": [3, 3, 128, 128], "dtype": "float32", "quantization": {"dtype": "uint8", "min": -0.1255493376184912, "scale": 0.0010375978315577787, "original_dtype": "float32"}}, {"name": "generator/G_MODEL/b2/InstanceNorm/moments/mean/reduction_indices", "shape": [2], "dtype": "int32"}, {"name": "generator/G_MODEL/b2/InstanceNorm/moments/variance/reduction_indices", "shape": [2], "dtype": "int32"}, {"name": "generator/G_MODEL/b2/InstanceNorm/instancenorm/add/y", "shape": [], "dtype": "float32", "quantization": {"dtype": "uint8", "min": 9.999999747378752e-06, "scale": 1.0, "original_dtype": "float32"}}, {"name": "generator/G_MODEL/b2/InstanceNorm/gamma", "shape": [128], "dtype": "float32", "quantization": {"dtype": "uint8", "min": 0.95567387342453, "scale": 0.00036234224543851964, "original_dtype": "float32"}}, {"name": "generator/G_MODEL/b2/MirrorPad_1/paddings", "shape": [4, 2], "dtype": "int32"}, {"name": "generator/G_MODEL/b2/SeparableConv2d/depthwise_weights", "shape": [3, 3, 128, 1], "dtype": "float32", "quantization": {"dtype": "uint8", "min": -0.10721108060257108, "scale": 0.0008646054887304119, "original_dtype": "float32"}}, {"name": "generator/G_MODEL/b2/SeparableConv2d/pointwise_weights", "shape": [1, 1, 128, 128], "dtype": "float32", "quantization": {"dtype": "uint8", "min": -0.2415090694731357, "scale": 0.0018158576652115466, "original_dtype": "float32"}}, {"name": "generator/G_MODEL/b2/SeparableConv2d/InstanceNorm/moments/mean/reduction_indices", "shape": [2], "dtype": "int32"}, {"name": "generator/G_MODEL/b2/SeparableConv2d/InstanceNorm/moments/variance/reduction_indices", "shape": [2], "dtype": "int32"}, {"name": "generator/G_MODEL/b2/SeparableConv2d/InstanceNorm/instancenorm/add/y", "shape": [], "dtype": "float32", "quantization": {"dtype": "uint8", "min": 9.999999974752427e-07, "scale": 1.0, "original_dtype": "float32"}}, {"name": "generator/G_MODEL/b2/SeparableConv2d/InstanceNorm/gamma", "shape": [128], "dtype": "float32", "quantization": {"dtype": "uint8", "min": 0.9745223522186279, "scale": 0.0003608105229396446, "original_dtype": "float32"}}, {"name": "generator/G_MODEL/b2/strided_slice_1/stack", "shape": [1], "dtype": "int32"}, {"name": "generator/G_MODEL/b2/strided_slice_1/stack_1", "shape": [1], "dtype": "int32"}, {"name": "generator/G_MODEL/b2/strided_slice_1/stack_2", "shape": [1], "dtype": "int32"}, {"name": "generator/G_MODEL/b2/floordiv_1/y", "shape": [], "dtype": "int32"}, {"name": "generator/G_MODEL/b2/MirrorPad_3/paddings", "shape": [4, 2], "dtype": "int32"}, {"name": "generator/G_MODEL/b2/SeparableConv2d_2/depthwise_weights", "shape": [3, 3, 128, 1], "dtype": "float32", "quantization": {"dtype": "uint8", "min": -0.12062309165211284, "scale": 0.0009806755418870963, "original_dtype": "float32"}}, {"name": "generator/G_MODEL/b2/SeparableConv2d_2/pointwise_weights", "shape": [1, 1, 128, 256], "dtype": "float32", "quantization": {"dtype": "uint8", "min": -0.19302708494896983, "scale": 0.0015080241011638268, "original_dtype": "float32"}}, {"name": "generator/G_MODEL/b2/SeparableConv2d_2/InstanceNorm/moments/mean/reduction_indices", "shape": [2], "dtype": "int32"}, {"name": "generator/G_MODEL/b2/SeparableConv2d_2/InstanceNorm/moments/variance/reduction_indices", "shape": [2], "dtype": "int32"}, {"name": "generator/G_MODEL/b2/SeparableConv2d_2/InstanceNorm/instancenorm/add/y", "shape": [], "dtype": "float32", "quantization": {"dtype": "uint8", "min": 9.999999974752427e-07, "scale": 1.0, "original_dtype": "float32"}}, {"name": "generator/G_MODEL/b2/SeparableConv2d_2/InstanceNorm/gamma", "shape": [256], "dtype": "float32", "quantization": {"dtype": "uint8", "min": 0.9244547486305237, "scale": 0.0004912804154788747, "original_dtype": "float32"}}, {"name": "generator/G_MODEL/m/MirrorPad/paddings", "shape": [4, 2], "dtype": "int32"}, {"name": "generator/G_MODEL/m/Conv/weights", "shape": [3, 3, 256, 256], "dtype": "float32", "quantization": {"dtype": "uint8", "min": -0.12930964465234793, "scale": 0.0009722529673108867, "original_dtype": "float32"}}, {"name": "generator/G_MODEL/m/InstanceNorm/moments/mean/reduction_indices", "shape": [2], "dtype": "int32"}, {"name": "generator/G_MODEL/m/InstanceNorm/moments/variance/reduction_indices", "shape": [2], "dtype": "int32"}, {"name": "generator/G_MODEL/m/InstanceNorm/instancenorm/add/y", "shape": [], "dtype": "float32", "quantization": {"dtype": "uint8", "min": 9.999999747378752e-06, "scale": 1.0, "original_dtype": "float32"}}, {"name": "generator/G_MODEL/m/InstanceNorm/gamma", "shape": [256], "dtype": "float32", "quantization": {"dtype": "uint8", "min": 0.9695136547088623, "scale": 0.00047897918551575904, "original_dtype": "float32"}}, {"name": "generator/G_MODEL/m/r1/Conv/weights", "shape": [1, 1, 256, 512], "dtype": "float32", "quantization": {"dtype": "uint8", "min": -0.16051968932151794, "scale": 0.0012347668409347535, "original_dtype": "float32"}}, {"name": "generator/G_MODEL/m/r1/InstanceNorm/moments/mean/reduction_indices", "shape": [2], "dtype": "int32"}, {"name": "generator/G_MODEL/m/r1/InstanceNorm/moments/variance/reduction_indices", "shape": [2], "dtype": "int32"}, {"name": "generator/G_MODEL/m/r1/InstanceNorm/instancenorm/add/y", "shape": [], "dtype": "float32", "quantization": {"dtype": "uint8", "min": 9.999999747378752e-06, "scale": 1.0, "original_dtype": "float32"}}, {"name": "generator/G_MODEL/m/r1/InstanceNorm/gamma", "shape": [512], "dtype": "float32", "quantization": {"dtype": "uint8", "min": 0.7795474529266357, "scale": 0.0011036952336629232, "original_dtype": "float32"}}, {"name": "generator/G_MODEL/m/r1/MirrorPad/paddings", "shape": [4, 2], "dtype": "int32"}, {"name": "generator/G_MODEL/m/r1/r1/w", "shape": [3, 3, 512, 1], "dtype": "float32", "quantization": {"dtype": "uint8", "min": -0.11631259088422737, "scale": 0.0008308042206016241, "original_dtype": "float32"}}, {"name": "generator/G_MODEL/m/r1/1/moments/mean/reduction_indices", "shape": [2], "dtype": "int32"}, {"name": "generator/G_MODEL/m/r1/1/moments/variance/reduction_indices", "shape": [2], "dtype": "int32"}, {"name": "generator/G_MODEL/m/r1/1/instancenorm/add/y", "shape": [], "dtype": "float32", "quantization": {"dtype": "uint8", "min": 9.999999747378752e-06, "scale": 1.0, "original_dtype": "float32"}}, {"name": "generator/G_MODEL/m/r1/1/gamma", "shape": [512], "dtype": "float32", "quantization": {"dtype": "uint8", "min": 0.9257835149765015, "scale": 0.0007045811297846775, "original_dtype": "float32"}}, {"name": "generator/G_MODEL/m/r1/Conv_1/weights", "shape": [1, 1, 512, 256], "dtype": "float32", "quantization": {"dtype": "uint8", "min": -0.16137550917326235, "scale": 0.001322750075190675, "original_dtype": "float32"}}, {"name": "generator/G_MODEL/m/r1/2/moments/mean/reduction_indices", "shape": [2], "dtype": "int32"}, {"name": "generator/G_MODEL/m/r1/2/moments/variance/reduction_indices", "shape": [2], "dtype": "int32"}, {"name": "generator/G_MODEL/m/r1/2/instancenorm/add/y", "shape": [], "dtype": "float32", "quantization": {"dtype": "uint8", "min": 9.999999747378752e-06, "scale": 1.0, "original_dtype": "float32"}}, {"name": "generator/G_MODEL/m/r1/2/gamma", "shape": [256], "dtype": "float32", "quantization": {"dtype": "uint8", "min": 0.9318687319755554, "scale": 0.0003518331284616508, "original_dtype": "float32"}}, {"name": "generator/G_MODEL/m/r2/Conv/weights", "shape": [1, 1, 256, 512], "dtype": "float32", "quantization": {"dtype": "uint8", "min": -0.19863415442261043, "scale": 0.001398832073398665, "original_dtype": "float32"}}, {"name": "generator/G_MODEL/m/r2/InstanceNorm/moments/mean/reduction_indices", "shape": [2], "dtype": "int32"}, {"name": "generator/G_MODEL/m/r2/InstanceNorm/moments/variance/reduction_indices", "shape": [2], "dtype": "int32"}, {"name": "generator/G_MODEL/m/r2/InstanceNorm/instancenorm/add/y", "shape": [], "dtype": "float32", "quantization": {"dtype": "uint8", "min": 9.999999747378752e-06, "scale": 1.0, "original_dtype": "float32"}}, {"name": "generator/G_MODEL/m/r2/InstanceNorm/gamma", "shape": [512], "dtype": "float32", "quantization": {"dtype": "uint8", "min": 0.7616641521453857, "scale": 0.0012197162590774835, "original_dtype": "float32"}}, {"name": "generator/G_MODEL/m/r2/MirrorPad/paddings", "shape": [4, 2], "dtype": "int32"}, {"name": "generator/G_MODEL/m/r2/r2/w", "shape": [3, 3, 512, 1], "dtype": "float32", "quantization": {"dtype": "uint8", "min": -0.09004979522204867, "scale": 0.0007203983617763894, "original_dtype": "float32"}}, {"name": "generator/G_MODEL/m/r2/1/moments/mean/reduction_indices", "shape": [2], "dtype": "int32"}, {"name": "generator/G_MODEL/m/r2/1/moments/variance/reduction_indices", "shape": [2], "dtype": "int32"}, {"name": "generator/G_MODEL/m/r2/1/instancenorm/add/y", "shape": [], "dtype": "float32", "quantization": {"dtype": "uint8", "min": 9.999999747378752e-06, "scale": 1.0, "original_dtype": "float32"}}, {"name": "generator/G_MODEL/m/r2/1/gamma", "shape": [512], "dtype": "float32", "quantization": {"dtype": "uint8", "min": 0.9297742247581482, "scale": 0.000657964921465107, "original_dtype": "float32"}}, {"name": "generator/G_MODEL/m/r2/Conv_1/weights", "shape": [1, 1, 512, 256], "dtype": "float32", "quantization": {"dtype": "uint8", "min": -0.15482247109506644, "scale": 0.0012690366483202168, "original_dtype": "float32"}}, {"name": "generator/G_MODEL/m/r2/2/moments/mean/reduction_indices", "shape": [2], "dtype": "int32"}, {"name": "generator/G_MODEL/m/r2/2/moments/variance/reduction_indices", "shape": [2], "dtype": "int32"}, {"name": "generator/G_MODEL/m/r2/2/instancenorm/add/y", "shape": [], "dtype": "float32", "quantization": {"dtype": "uint8", "min": 9.999999747378752e-06, "scale": 1.0, "original_dtype": "float32"}}, {"name": "generator/G_MODEL/m/r2/2/gamma", "shape": [256], "dtype": "float32", "quantization": {"dtype": "uint8", "min": 0.916657030582428, "scale": 0.0004003756186541389, "original_dtype": "float32"}}, {"name": "generator/G_MODEL/m/r3/Conv/weights", "shape": [1, 1, 256, 512], "dtype": "float32", "quantization": {"dtype": "uint8", "min": -0.1574735078157163, "scale": 0.0012399488804387111, "original_dtype": "float32"}}, {"name": "generator/G_MODEL/m/r3/InstanceNorm/moments/mean/reduction_indices", "shape": [2], "dtype": "int32"}, {"name": "generator/G_MODEL/m/r3/InstanceNorm/moments/variance/reduction_indices", "shape": [2], "dtype": "int32"}, {"name": "generator/G_MODEL/m/r3/InstanceNorm/instancenorm/add/y", "shape": [], "dtype": "float32", "quantization": {"dtype": "uint8", "min": 9.999999747378752e-06, "scale": 1.0, "original_dtype": "float32"}}, {"name": "generator/G_MODEL/m/r3/InstanceNorm/gamma", "shape": [512], "dtype": "float32", "quantization": {"dtype": "uint8", "min": 0.7407287955284119, "scale": 0.001443638287338556, "original_dtype": "float32"}}, {"name": "generator/G_MODEL/m/r3/MirrorPad/paddings", "shape": [4, 2], "dtype": "int32"}, {"name": "generator/G_MODEL/m/r3/r3/w", "shape": [3, 3, 512, 1], "dtype": "float32", "quantization": {"dtype": "uint8", "min": -0.09628020247407988, "scale": 0.0006926633271516538, "original_dtype": "float32"}}, {"name": "generator/G_MODEL/m/r3/1/moments/mean/reduction_indices", "shape": [2], "dtype": "int32"}, {"name": "generator/G_MODEL/m/r3/1/moments/variance/reduction_indices", "shape": [2], "dtype": "int32"}, {"name": "generator/G_MODEL/m/r3/1/instancenorm/add/y", "shape": [], "dtype": "float32", "quantization": {"dtype": "uint8", "min": 9.999999747378752e-06, "scale": 1.0, "original_dtype": "float32"}}, {"name": "generator/G_MODEL/m/r3/1/gamma", "shape": [512], "dtype": "float32", "quantization": {"dtype": "uint8", "min": 0.9263765811920166, "scale": 0.0005943644280527152, "original_dtype": "float32"}}, {"name": "generator/G_MODEL/m/r3/Conv_1/weights", "shape": [1, 1, 512, 256], "dtype": "float32", "quantization": {"dtype": "uint8", "min": -0.16868066086488612, "scale": 0.0013076020222084195, "original_dtype": "float32"}}, {"name": "generator/G_MODEL/m/r3/2/moments/mean/reduction_indices", "shape": [2], "dtype": "int32"}, {"name": "generator/G_MODEL/m/r3/2/moments/variance/reduction_indices", "shape": [2], "dtype": "int32"}, {"name": "generator/G_MODEL/m/r3/2/instancenorm/add/y", "shape": [], "dtype": "float32", "quantization": {"dtype": "uint8", "min": 9.999999747378752e-06, "scale": 1.0, "original_dtype": "float32"}}, {"name": "generator/G_MODEL/m/r3/2/gamma", "shape": [256], "dtype": "float32", "quantization": {"dtype": "uint8", "min": 0.9359539151191711, "scale": 0.00034185273974549535, "original_dtype": "float32"}}, {"name": "generator/G_MODEL/m/r4/Conv/weights", "shape": [1, 1, 256, 512], "dtype": "float32", "quantization": {"dtype": "uint8", "min": -0.17053112703211168, "scale": 0.0013322744299383725, "original_dtype": "float32"}}, {"name": "generator/G_MODEL/m/r4/InstanceNorm/moments/mean/reduction_indices", "shape": [2], "dtype": "int32"}, {"name": "generator/G_MODEL/m/r4/InstanceNorm/moments/variance/reduction_indices", "shape": [2], "dtype": "int32"}, {"name": "generator/G_MODEL/m/r4/InstanceNorm/instancenorm/add/y", "shape": [], "dtype": "float32", "quantization": {"dtype": "uint8", "min": 9.999999747378752e-06, "scale": 1.0, "original_dtype": "float32"}}, {"name": "generator/G_MODEL/m/r4/InstanceNorm/gamma", "shape": [512], "dtype": "float32", "quantization": {"dtype": "uint8", "min": 0.5899580121040344, "scale": 0.0018959716254589604, "original_dtype": "float32"}}, {"name": "generator/G_MODEL/m/r4/MirrorPad/paddings", "shape": [4, 2], "dtype": "int32"}, {"name": "generator/G_MODEL/m/r4/r4/w", "shape": [3, 3, 512, 1], "dtype": "float32", "quantization": {"dtype": "uint8", "min": -0.09864588753849853, "scale": 0.0007588145195269117, "original_dtype": "float32"}}, {"name": "generator/G_MODEL/m/r4/1/moments/mean/reduction_indices", "shape": [2], "dtype": "int32"}, {"name": "generator/G_MODEL/m/r4/1/moments/variance/reduction_indices", "shape": [2], "dtype": "int32"}, {"name": "generator/G_MODEL/m/r4/1/instancenorm/add/y", "shape": [], "dtype": "float32", "quantization": {"dtype": "uint8", "min": 9.999999747378752e-06, "scale": 1.0, "original_dtype": "float32"}}, {"name": "generator/G_MODEL/m/r4/1/gamma", "shape": [512], "dtype": "float32", "quantization": {"dtype": "uint8", "min": 0.9259971976280212, "scale": 0.0006558551507837632, "original_dtype": "float32"}}, {"name": "generator/G_MODEL/m/r4/Conv_1/weights", "shape": [1, 1, 512, 256], "dtype": "float32", "quantization": {"dtype": "uint8", "min": -0.166666971468458, "scale": 0.0013440884795843386, "original_dtype": "float32"}}, {"name": "generator/G_MODEL/m/r4/2/moments/mean/reduction_indices", "shape": [2], "dtype": "int32"}, {"name": "generator/G_MODEL/m/r4/2/moments/variance/reduction_indices", "shape": [2], "dtype": "int32"}, {"name": "generator/G_MODEL/m/r4/2/instancenorm/add/y", "shape": [], "dtype": "float32", "quantization": {"dtype": "uint8", "min": 9.999999747378752e-06, "scale": 1.0, "original_dtype": "float32"}}, {"name": "generator/G_MODEL/m/r4/2/gamma", "shape": [256], "dtype": "float32", "quantization": {"dtype": "uint8", "min": 0.9393901824951172, "scale": 0.00035799531375660615, "original_dtype": "float32"}}, {"name": "generator/G_MODEL/m/r5/Conv/weights", "shape": [1, 1, 256, 512], "dtype": "float32", "quantization": {"dtype": "uint8", "min": -0.1731590057120604, "scale": 0.0013742778231115903, "original_dtype": "float32"}}, {"name": "generator/G_MODEL/m/r5/InstanceNorm/moments/mean/reduction_indices", "shape": [2], "dtype": "int32"}, {"name": "generator/G_MODEL/m/r5/InstanceNorm/moments/variance/reduction_indices", "shape": [2], "dtype": "int32"}, {"name": "generator/G_MODEL/m/r5/InstanceNorm/instancenorm/add/y", "shape": [], "dtype": "float32", "quantization": {"dtype": "uint8", "min": 9.999999747378752e-06, "scale": 1.0, "original_dtype": "float32"}}, {"name": "generator/G_MODEL/m/r5/InstanceNorm/gamma", "shape": [512], "dtype": "float32", "quantization": {"dtype": "uint8", "min": 0.687841534614563, "scale": 0.001498249932831409, "original_dtype": "float32"}}, {"name": "generator/G_MODEL/m/r5/MirrorPad/paddings", "shape": [4, 2], "dtype": "int32"}, {"name": "generator/G_MODEL/m/r5/r5/w", "shape": [3, 3, 512, 1], "dtype": "float32", "quantization": {"dtype": "uint8", "min": -0.09915464684075, "scale": 0.0007399600510503731, "original_dtype": "float32"}}, {"name": "generator/G_MODEL/m/r5/1/moments/mean/reduction_indices", "shape": [2], "dtype": "int32"}, {"name": "generator/G_MODEL/m/r5/1/moments/variance/reduction_indices", "shape": [2], "dtype": "int32"}, {"name": "generator/G_MODEL/m/r5/1/instancenorm/add/y", "shape": [], "dtype": "float32", "quantization": {"dtype": "uint8", "min": 9.999999747378752e-06, "scale": 1.0, "original_dtype": "float32"}}, {"name": "generator/G_MODEL/m/r5/1/gamma", "shape": [512], "dtype": "float32", "quantization": {"dtype": "uint8", "min": 0.9243863821029663, "scale": 0.0007213690701652975, "original_dtype": "float32"}}, {"name": "generator/G_MODEL/m/r5/Conv_1/weights", "shape": [1, 1, 512, 256], "dtype": "float32", "quantization": {"dtype": "uint8", "min": -0.16450930097523858, "scale": 0.0012953488265766817, "original_dtype": "float32"}}, {"name": "generator/G_MODEL/m/r5/2/moments/mean/reduction_indices", "shape": [2], "dtype": "int32"}, {"name": "generator/G_MODEL/m/r5/2/moments/variance/reduction_indices", "shape": [2], "dtype": "int32"}, {"name": "generator/G_MODEL/m/r5/2/instancenorm/add/y", "shape": [], "dtype": "float32", "quantization": {"dtype": "uint8", "min": 9.999999747378752e-06, "scale": 1.0, "original_dtype": "float32"}}, {"name": "generator/G_MODEL/m/r5/2/gamma", "shape": [256], "dtype": "float32", "quantization": {"dtype": "uint8", "min": 0.9477963447570801, "scale": 0.00048370875564276, "original_dtype": "float32"}}, {"name": "generator/G_MODEL/m/r6/Conv/weights", "shape": [1, 1, 256, 512], "dtype": "float32", "quantization": {"dtype": "uint8", "min": -0.16723550417843988, "scale": 0.00134867342079387, "original_dtype": "float32"}}, {"name": "generator/G_MODEL/m/r6/InstanceNorm/moments/mean/reduction_indices", "shape": [2], "dtype": "int32"}, {"name": "generator/G_MODEL/m/r6/InstanceNorm/moments/variance/reduction_indices", "shape": [2], "dtype": "int32"}, {"name": "generator/G_MODEL/m/r6/InstanceNorm/instancenorm/add/y", "shape": [], "dtype": "float32", "quantization": {"dtype": "uint8", "min": 9.999999747378752e-06, "scale": 1.0, "original_dtype": "float32"}}, {"name": "generator/G_MODEL/m/r6/InstanceNorm/gamma", "shape": [512], "dtype": "float32", "quantization": {"dtype": "uint8", "min": 0.5259265303611755, "scale": 0.0021416329870037, "original_dtype": "float32"}}, {"name": "generator/G_MODEL/m/r6/MirrorPad/paddings", "shape": [4, 2], "dtype": "int32"}, {"name": "generator/G_MODEL/m/r6/r6/w", "shape": [3, 3, 512, 1], "dtype": "float32", "quantization": {"dtype": "uint8", "min": -0.07726216316223145, "scale": 0.0008048141996065775, "original_dtype": "float32"}}, {"name": "generator/G_MODEL/m/r6/1/moments/mean/reduction_indices", "shape": [2], "dtype": "int32"}, {"name": "generator/G_MODEL/m/r6/1/moments/variance/reduction_indices", "shape": [2], "dtype": "int32"}, {"name": "generator/G_MODEL/m/r6/1/instancenorm/add/y", "shape": [], "dtype": "float32", "quantization": {"dtype": "uint8", "min": 9.999999747378752e-06, "scale": 1.0, "original_dtype": "float32"}}, {"name": "generator/G_MODEL/m/r6/1/gamma", "shape": [512], "dtype": "float32", "quantization": {"dtype": "uint8", "min": 0.9096867442131042, "scale": 0.0008802229282902736, "original_dtype": "float32"}}, {"name": "generator/G_MODEL/m/r6/Conv_1/weights", "shape": [1, 1, 512, 256], "dtype": "float32", "quantization": {"dtype": "uint8", "min": -0.16822510513604855, "scale": 0.001356654073677811, "original_dtype": "float32"}}, {"name": "generator/G_MODEL/m/r6/2/moments/mean/reduction_indices", "shape": [2], "dtype": "int32"}, {"name": "generator/G_MODEL/m/r6/2/moments/variance/reduction_indices", "shape": [2], "dtype": "int32"}, {"name": "generator/G_MODEL/m/r6/2/instancenorm/add/y", "shape": [], "dtype": "float32", "quantization": {"dtype": "uint8", "min": 9.999999747378752e-06, "scale": 1.0, "original_dtype": "float32"}}, {"name": "generator/G_MODEL/m/r6/2/gamma", "shape": [256], "dtype": "float32", "quantization": {"dtype": "uint8", "min": 0.9530903697013855, "scale": 0.000538344242993523, "original_dtype": "float32"}}, {"name": "generator/G_MODEL/m/r7/Conv/weights", "shape": [1, 1, 256, 512], "dtype": "float32", "quantization": {"dtype": "uint8", "min": -0.1703233549407884, "scale": 0.0013625868395263072, "original_dtype": "float32"}}, {"name": "generator/G_MODEL/m/r7/InstanceNorm/moments/mean/reduction_indices", "shape": [2], "dtype": "int32"}, {"name": "generator/G_MODEL/m/r7/InstanceNorm/moments/variance/reduction_indices", "shape": [2], "dtype": "int32"}, {"name": "generator/G_MODEL/m/r7/InstanceNorm/instancenorm/add/y", "shape": [], "dtype": "float32", "quantization": {"dtype": "uint8", "min": 9.999999747378752e-06, "scale": 1.0, "original_dtype": "float32"}}, {"name": "generator/G_MODEL/m/r7/InstanceNorm/gamma", "shape": [512], "dtype": "float32", "quantization": {"dtype": "uint8", "min": 0.46480265259742737, "scale": 0.002396447868908153, "original_dtype": "float32"}}, {"name": "generator/G_MODEL/m/r7/MirrorPad/paddings", "shape": [4, 2], "dtype": "int32"}, {"name": "generator/G_MODEL/m/r7/r7/w", "shape": [3, 3, 512, 1], "dtype": "float32", "quantization": {"dtype": "uint8", "min": -0.09191471314897724, "scale": 0.0007412476866853003, "original_dtype": "float32"}}, {"name": "generator/G_MODEL/m/r7/1/moments/mean/reduction_indices", "shape": [2], "dtype": "int32"}, {"name": "generator/G_MODEL/m/r7/1/moments/variance/reduction_indices", "shape": [2], "dtype": "int32"}, {"name": "generator/G_MODEL/m/r7/1/instancenorm/add/y", "shape": [], "dtype": "float32", "quantization": {"dtype": "uint8", "min": 9.999999747378752e-06, "scale": 1.0, "original_dtype": "float32"}}, {"name": "generator/G_MODEL/m/r7/1/gamma", "shape": [512], "dtype": "float32", "quantization": {"dtype": "uint8", "min": 0.9209861755371094, "scale": 0.0007036185732074812, "original_dtype": "float32"}}, {"name": "generator/G_MODEL/m/r7/Conv_1/weights", "shape": [1, 1, 512, 256], "dtype": "float32", "quantization": {"dtype": "uint8", "min": -0.16864724387140836, "scale": 0.0013073429757473516, "original_dtype": "float32"}}, {"name": "generator/G_MODEL/m/r7/2/moments/mean/reduction_indices", "shape": [2], "dtype": "int32"}, {"name": "generator/G_MODEL/m/r7/2/moments/variance/reduction_indices", "shape": [2], "dtype": "int32"}, {"name": "generator/G_MODEL/m/r7/2/instancenorm/add/y", "shape": [], "dtype": "float32", "quantization": {"dtype": "uint8", "min": 9.999999747378752e-06, "scale": 1.0, "original_dtype": "float32"}}, {"name": "generator/G_MODEL/m/r7/2/gamma", "shape": [256], "dtype": "float32", "quantization": {"dtype": "uint8", "min": 0.9545904397964478, "scale": 0.0005063608580944585, "original_dtype": "float32"}}, {"name": "generator/G_MODEL/m/r8/Conv/weights", "shape": [1, 1, 256, 512], "dtype": "float32", "quantization": {"dtype": "uint8", "min": -0.1759956490759756, "scale": 0.0013538126851998123, "original_dtype": "float32"}}, {"name": "generator/G_MODEL/m/r8/InstanceNorm/moments/mean/reduction_indices", "shape": [2], "dtype": "int32"}, {"name": "generator/G_MODEL/m/r8/InstanceNorm/moments/variance/reduction_indices", "shape": [2], "dtype": "int32"}, {"name": "generator/G_MODEL/m/r8/InstanceNorm/instancenorm/add/y", "shape": [], "dtype": "float32", "quantization": {"dtype": "uint8", "min": 9.999999747378752e-06, "scale": 1.0, "original_dtype": "float32"}}, {"name": "generator/G_MODEL/m/r8/InstanceNorm/gamma", "shape": [512], "dtype": "float32", "quantization": {"dtype": "uint8", "min": 0.4817723333835602, "scale": 0.0023527607029559566, "original_dtype": "float32"}}, {"name": "generator/G_MODEL/m/r8/MirrorPad/paddings", "shape": [4, 2], "dtype": "int32"}, {"name": "generator/G_MODEL/m/r8/r8/w", "shape": [3, 3, 512, 1], "dtype": "float32", "quantization": {"dtype": "uint8", "min": -0.09289202514816733, "scale": 0.0007552197166517669, "original_dtype": "float32"}}, {"name": "generator/G_MODEL/m/r8/1/moments/mean/reduction_indices", "shape": [2], "dtype": "int32"}, {"name": "generator/G_MODEL/m/r8/1/moments/variance/reduction_indices", "shape": [2], "dtype": "int32"}, {"name": "generator/G_MODEL/m/r8/1/instancenorm/add/y", "shape": [], "dtype": "float32", "quantization": {"dtype": "uint8", "min": 9.999999747378752e-06, "scale": 1.0, "original_dtype": "float32"}}, {"name": "generator/G_MODEL/m/r8/1/gamma", "shape": [512], "dtype": "float32", "quantization": {"dtype": "uint8", "min": 0.9031703472137451, "scale": 0.0007000002206540575, "original_dtype": "float32"}}, {"name": "generator/G_MODEL/m/r8/Conv_1/weights", "shape": [1, 1, 512, 256], "dtype": "float32", "quantization": {"dtype": "uint8", "min": -0.16367222070693968, "scale": 0.0012989858786265054, "original_dtype": "float32"}}, {"name": "generator/G_MODEL/m/r8/2/moments/mean/reduction_indices", "shape": [2], "dtype": "int32"}, {"name": "generator/G_MODEL/m/r8/2/moments/variance/reduction_indices", "shape": [2], "dtype": "int32"}, {"name": "generator/G_MODEL/m/r8/2/instancenorm/add/y", "shape": [], "dtype": "float32", "quantization": {"dtype": "uint8", "min": 9.999999747378752e-06, "scale": 1.0, "original_dtype": "float32"}}, {"name": "generator/G_MODEL/m/r8/2/gamma", "shape": [256], "dtype": "float32", "quantization": {"dtype": "uint8", "min": 0.9575227499008179, "scale": 0.0006114646500232173, "original_dtype": "float32"}}, {"name": "generator/G_MODEL/m/MirrorPad_1/paddings", "shape": [4, 2], "dtype": "int32"}, {"name": "generator/G_MODEL/m/Conv_1/weights", "shape": [3, 3, 256, 256], "dtype": "float32", "quantization": {"dtype": "uint8", "min": -0.12548736871457566, "scale": 0.0009803700680826224, "original_dtype": "float32"}}, {"name": "generator/G_MODEL/m/InstanceNorm_1/moments/mean/reduction_indices", "shape": [2], "dtype": "int32"}, {"name": "generator/G_MODEL/m/InstanceNorm_1/moments/variance/reduction_indices", "shape": [2], "dtype": "int32"}, {"name": "generator/G_MODEL/m/InstanceNorm_1/instancenorm/add/y", "shape": [], "dtype": "float32", "quantization": {"dtype": "uint8", "min": 9.999999747378752e-06, "scale": 1.0, "original_dtype": "float32"}}, {"name": "generator/G_MODEL/m/InstanceNorm_1/gamma", "shape": [256], "dtype": "float32", "quantization": {"dtype": "uint8", "min": 0.9505631923675537, "scale": 0.0010832122727936389, "original_dtype": "float32"}}, {"name": "generator/G_MODEL/u2/strided_slice_1/stack", "shape": [1], "dtype": "int32"}, {"name": "generator/G_MODEL/u2/strided_slice_1/stack_1", "shape": [1], "dtype": "int32"}, {"name": "generator/G_MODEL/u2/strided_slice_1/stack_2", "shape": [1], "dtype": "int32"}, {"name": "generator/G_MODEL/u2/MirrorPad/paddings", "shape": [4, 2], "dtype": "int32"}, {"name": "generator/G_MODEL/u2/SeparableConv2d/depthwise_weights", "shape": [3, 3, 256, 1], "dtype": "float32", "quantization": {"dtype": "uint8", "min": -0.10900650398403991, "scale": 0.0008516133123753118, "original_dtype": "float32"}}, {"name": "generator/G_MODEL/u2/SeparableConv2d/pointwise_weights", "shape": [1, 1, 256, 128], "dtype": "float32", "quantization": {"dtype": "uint8", "min": -0.396480364892997, "scale": 0.0029588086932313207, "original_dtype": "float32"}}, {"name": "generator/G_MODEL/u2/SeparableConv2d/InstanceNorm/moments/mean/reduction_indices", "shape": [2], "dtype": "int32"}, {"name": "generator/G_MODEL/u2/SeparableConv2d/InstanceNorm/moments/variance/reduction_indices", "shape": [2], "dtype": "int32"}, {"name": "generator/G_MODEL/u2/SeparableConv2d/InstanceNorm/instancenorm/add/y", "shape": [], "dtype": "float32", "quantization": {"dtype": "uint8", "min": 9.999999974752427e-07, "scale": 1.0, "original_dtype": "float32"}}, {"name": "generator/G_MODEL/u2/SeparableConv2d/InstanceNorm/gamma", "shape": [128], "dtype": "float32", "quantization": {"dtype": "uint8", "min": 0.9575837254524231, "scale": 0.0009776407597111721, "original_dtype": "float32"}}, {"name": "generator/G_MODEL/u2/MirrorPad_1/paddings", "shape": [4, 2], "dtype": "int32"}, {"name": "generator/G_MODEL/u2/SeparableConv2d_1/depthwise_weights", "shape": [3, 3, 128, 1], "dtype": "float32", "quantization": {"dtype": "uint8", "min": -0.18250289465866837, "scale": 0.0012762440185920866, "original_dtype": "float32"}}, {"name": "generator/G_MODEL/u2/SeparableConv2d_1/pointwise_weights", "shape": [1, 1, 128, 128], "dtype": "float32", "quantization": {"dtype": "uint8", "min": -0.4082654954171648, "scale": 0.002855003464455698, "original_dtype": "float32"}}, {"name": "generator/G_MODEL/u2/SeparableConv2d_1/InstanceNorm/moments/mean/reduction_indices", "shape": [2], "dtype": "int32"}, {"name": "generator/G_MODEL/u2/SeparableConv2d_1/InstanceNorm/moments/variance/reduction_indices", "shape": [2], "dtype": "int32"}, {"name": "generator/G_MODEL/u2/SeparableConv2d_1/InstanceNorm/instancenorm/add/y", "shape": [], "dtype": "float32", "quantization": {"dtype": "uint8", "min": 9.999999974752427e-07, "scale": 1.0, "original_dtype": "float32"}}, {"name": "generator/G_MODEL/u2/SeparableConv2d_1/InstanceNorm/gamma", "shape": [128], "dtype": "float32", "quantization": {"dtype": "uint8", "min": 0.9436402916908264, "scale": 0.0005590595451055788, "original_dtype": "float32"}}, {"name": "generator/G_MODEL/u2/MirrorPad_2/paddings", "shape": [4, 2], "dtype": "int32"}, {"name": "generator/G_MODEL/u2/Conv/weights", "shape": [3, 3, 128, 128], "dtype": "float32", "quantization": {"dtype": "uint8", "min": -0.16210431117637486, "scale": 0.0012664399310654286, "original_dtype": "float32"}}, {"name": "generator/G_MODEL/u2/InstanceNorm/moments/mean/reduction_indices", "shape": [2], "dtype": "int32"}, {"name": "generator/G_MODEL/u2/InstanceNorm/moments/variance/reduction_indices", "shape": [2], "dtype": "int32"}, {"name": "generator/G_MODEL/u2/InstanceNorm/instancenorm/add/y", "shape": [], "dtype": "float32", "quantization": {"dtype": "uint8", "min": 9.999999747378752e-06, "scale": 1.0, "original_dtype": "float32"}}, {"name": "generator/G_MODEL/u2/InstanceNorm/gamma", "shape": [128], "dtype": "float32", "quantization": {"dtype": "uint8", "min": 0.9549816846847534, "scale": 0.0009676727594113817, "original_dtype": "float32"}}, {"name": "generator/G_MODEL/u1/strided_slice_1/stack", "shape": [1], "dtype": "int32"}, {"name": "generator/G_MODEL/u1/strided_slice_1/stack_1", "shape": [1], "dtype": "int32"}, {"name": "generator/G_MODEL/u1/strided_slice_1/stack_2", "shape": [1], "dtype": "int32"}, {"name": "generator/G_MODEL/u1/MirrorPad/paddings", "shape": [4, 2], "dtype": "int32"}, {"name": "generator/G_MODEL/u1/SeparableConv2d/depthwise_weights", "shape": [3, 3, 128, 1], "dtype": "float32", "quantization": {"dtype": "uint8", "min": -0.10802912706253576, "scale": 0.0009155010768011505, "original_dtype": "float32"}}, {"name": "generator/G_MODEL/u1/SeparableConv2d/pointwise_weights", "shape": [1, 1, 128, 128], "dtype": "float32", "quantization": {"dtype": "uint8", "min": -0.3869393559063182, "scale": 0.0028039083761327408, "original_dtype": "float32"}}, {"name": "generator/G_MODEL/u1/SeparableConv2d/InstanceNorm/moments/mean/reduction_indices", "shape": [2], "dtype": "int32"}, {"name": "generator/G_MODEL/u1/SeparableConv2d/InstanceNorm/moments/variance/reduction_indices", "shape": [2], "dtype": "int32"}, {"name": "generator/G_MODEL/u1/SeparableConv2d/InstanceNorm/instancenorm/add/y", "shape": [], "dtype": "float32", "quantization": {"dtype": "uint8", "min": 9.999999974752427e-07, "scale": 1.0, "original_dtype": "float32"}}, {"name": "generator/G_MODEL/u1/SeparableConv2d/InstanceNorm/gamma", "shape": [128], "dtype": "float32", "quantization": {"dtype": "uint8", "min": 0.9319191575050354, "scale": 0.000508723305720909, "original_dtype": "float32"}}, {"name": "generator/G_MODEL/u1/MirrorPad_1/paddings", "shape": [4, 2], "dtype": "int32"}, {"name": "generator/G_MODEL/u1/Conv/weights", "shape": [3, 3, 128, 64], "dtype": "float32", "quantization": {"dtype": "uint8", "min": -0.2059893023733999, "scale": 0.001481937427146762, "original_dtype": "float32"}}, {"name": "generator/G_MODEL/u1/InstanceNorm/moments/mean/reduction_indices", "shape": [2], "dtype": "int32"}, {"name": "generator/G_MODEL/u1/InstanceNorm/moments/variance/reduction_indices", "shape": [2], "dtype": "int32"}, {"name": "generator/G_MODEL/u1/InstanceNorm/instancenorm/add/y", "shape": [], "dtype": "float32", "quantization": {"dtype": "uint8", "min": 9.999999747378752e-06, "scale": 1.0, "original_dtype": "float32"}}, {"name": "generator/G_MODEL/u1/InstanceNorm/gamma", "shape": [64], "dtype": "float32", "quantization": {"dtype": "uint8", "min": 0.94917893409729, "scale": 0.00040925110087675206, "original_dtype": "float32"}}, {"name": "generator/G_MODEL/u1/MirrorPad_2/paddings", "shape": [4, 2], "dtype": "int32"}, {"name": "generator/G_MODEL/u1/Conv_1/weights", "shape": [3, 3, 64, 64], "dtype": "float32", "quantization": {"dtype": "uint8", "min": -0.22339238875052508, "scale": 0.0016671073787352618, "original_dtype": "float32"}}, {"name": "generator/G_MODEL/u1/InstanceNorm_1/moments/mean/reduction_indices", "shape": [2], "dtype": "int32"}, {"name": "generator/G_MODEL/u1/InstanceNorm_1/moments/variance/reduction_indices", "shape": [2], "dtype": "int32"}, {"name": "generator/G_MODEL/u1/InstanceNorm_1/instancenorm/add/y", "shape": [], "dtype": "float32", "quantization": {"dtype": "uint8", "min": 9.999999747378752e-06, "scale": 1.0, "original_dtype": "float32"}}, {"name": "generator/G_MODEL/u1/InstanceNorm_1/gamma", "shape": [64], "dtype": "float32", "quantization": {"dtype": "uint8", "min": 0.9625423550605774, "scale": 0.0008740843511095234, "original_dtype": "float32"}}, {"name": "generator/G_MODEL/Conv/weights", "shape": [1, 1, 64, 3], "dtype": "float32", "quantization": {"dtype": "uint8", "min": -0.3373646044263653, "scale": 0.00272068229376101, "original_dtype": "float32"}}]}]}