{"format": "graph-model", "generatedBy": "1.15.0", "convertedBy": "TensorFlow.js Converter v3.9.0", "signature": {"inputs": {"input": {"name": "generator_input:0", "dtype": "DT_FLOAT", "tensorShape": {"dim": [{"size": "1"}, {"size": "-1"}, {"size": "-1"}, {"size": "3"}]}}}, "outputs": {"output": {"name": "generator/G_MODEL/Tanh:0", "dtype": "DT_FLOAT", "tensorShape": {"dim": [{"size": "1"}, {"size": "-1"}, {"size": "-1"}, {"size": "3"}]}}}}, "modelTopology": {"node": [{"name": "generator/G_MODEL/u1/InstanceNorm_1/beta", "op": "Const", "attr": {"value": {"tensor": {"dtype": "DT_FLOAT", "tensorShape": {"dim": [{"size": "64"}]}}}, "dtype": {"type": "DT_FLOAT"}}}, {"name": "generator/G_MODEL/u1/InstanceNorm/beta", "op": "Const", "attr": {"dtype": {"type": "DT_FLOAT"}, "value": {"tensor": {"dtype": "DT_FLOAT", "tensorShape": {"dim": [{"size": "64"}]}}}}}, {"name": "generator/G_MODEL/u1/SeparableConv2d/InstanceNorm/beta", "op": "Const", "attr": {"dtype": {"type": "DT_FLOAT"}, "value": {"tensor": {"dtype": "DT_FLOAT", "tensorShape": {"dim": [{"size": "128"}]}}}}}, {"name": "generator/G_MODEL/u1/mul/x", "op": "Const", "attr": {"dtype": {"type": "DT_INT32"}, "value": {"tensor": {"dtype": "DT_INT32", "tensorShape": {}}}}}, {"name": "generator/G_MODEL/u1/strided_slice/stack", "op": "Const", "attr": {"dtype": {"type": "DT_INT32"}, "value": {"tensor": {"dtype": "DT_INT32", "tensorShape": {"dim": [{"size": "1"}]}}}}}, {"name": "generator/G_MODEL/u1/strided_slice/stack_1", "op": "Const", "attr": {"value": {"tensor": {"dtype": "DT_INT32", "tensorShape": {"dim": [{"size": "1"}]}}}, "dtype": {"type": "DT_INT32"}}}, {"name": "generator/G_MODEL/u1/strided_slice/stack_2", "op": "Const", "attr": {"dtype": {"type": "DT_INT32"}, "value": {"tensor": {"dtype": "DT_INT32", "tensorShape": {"dim": [{"size": "1"}]}}}}}, {"name": "generator/G_MODEL/u1/mul_1/x", "op": "Const", "attr": {"value": {"tensor": {"dtype": "DT_INT32", "tensorShape": {}}}, "dtype": {"type": "DT_INT32"}}}, {"name": "generator/G_MODEL/u2/InstanceNorm/beta", "op": "Const", "attr": {"value": {"tensor": {"dtype": "DT_FLOAT", "tensorShape": {"dim": [{"size": "128"}]}}}, "dtype": {"type": "DT_FLOAT"}}}, {"name": "generator/G_MODEL/u2/SeparableConv2d_1/InstanceNorm/beta", "op": "Const", "attr": {"value": {"tensor": {"dtype": "DT_FLOAT", "tensorShape": {"dim": [{"size": "128"}]}}}, "dtype": {"type": "DT_FLOAT"}}}, {"name": "generator/G_MODEL/u2/SeparableConv2d/InstanceNorm/beta", "op": "Const", "attr": {"dtype": {"type": "DT_FLOAT"}, "value": {"tensor": {"dtype": "DT_FLOAT", "tensorShape": {"dim": [{"size": "128"}]}}}}}, {"name": "generator/G_MODEL/u2/mul/x", "op": "Const", "attr": {"dtype": {"type": "DT_INT32"}, "value": {"tensor": {"dtype": "DT_INT32", "tensorShape": {}}}}}, {"name": "generator/G_MODEL/u2/strided_slice/stack", "op": "Const", "attr": {"dtype": {"type": "DT_INT32"}, "value": {"tensor": {"dtype": "DT_INT32", "tensorShape": {"dim": [{"size": "1"}]}}}}}, {"name": "generator/G_MODEL/u2/strided_slice/stack_1", "op": "Const", "attr": {"value": {"tensor": {"dtype": "DT_INT32", "tensorShape": {"dim": [{"size": "1"}]}}}, "dtype": {"type": "DT_INT32"}}}, {"name": "generator/G_MODEL/u2/strided_slice/stack_2", "op": "Const", "attr": {"value": {"tensor": {"dtype": "DT_INT32", "tensorShape": {"dim": [{"size": "1"}]}}}, "dtype": {"type": "DT_INT32"}}}, {"name": "generator/G_MODEL/u2/mul_1/x", "op": "Const", "attr": {"dtype": {"type": "DT_INT32"}, "value": {"tensor": {"dtype": "DT_INT32", "tensorShape": {}}}}}, {"name": "generator/G_MODEL/m/InstanceNorm_1/beta", "op": "Const", "attr": {"dtype": {"type": "DT_FLOAT"}, "value": {"tensor": {"dtype": "DT_FLOAT", "tensorShape": {"dim": [{"size": "256"}]}}}}}, {"name": "generator/G_MODEL/m/r8/2/beta", "op": "Const", "attr": {"value": {"tensor": {"dtype": "DT_FLOAT", "tensorShape": {"dim": [{"size": "256"}]}}}, "dtype": {"type": "DT_FLOAT"}}}, {"name": "generator/G_MODEL/m/r8/1/beta", "op": "Const", "attr": {"value": {"tensor": {"dtype": "DT_FLOAT", "tensorShape": {"dim": [{"size": "512"}]}}}, "dtype": {"type": "DT_FLOAT"}}}, {"name": "generator/G_MODEL/m/r8/InstanceNorm/beta", "op": "Const", "attr": {"dtype": {"type": "DT_FLOAT"}, "value": {"tensor": {"dtype": "DT_FLOAT", "tensorShape": {"dim": [{"size": "512"}]}}}}}, {"name": "generator/G_MODEL/m/r7/2/beta", "op": "Const", "attr": {"dtype": {"type": "DT_FLOAT"}, "value": {"tensor": {"dtype": "DT_FLOAT", "tensorShape": {"dim": [{"size": "256"}]}}}}}, {"name": "generator/G_MODEL/m/r7/1/beta", "op": "Const", "attr": {"value": {"tensor": {"dtype": "DT_FLOAT", "tensorShape": {"dim": [{"size": "512"}]}}}, "dtype": {"type": "DT_FLOAT"}}}, {"name": "generator/G_MODEL/m/r7/InstanceNorm/beta", "op": "Const", "attr": {"value": {"tensor": {"dtype": "DT_FLOAT", "tensorShape": {"dim": [{"size": "512"}]}}}, "dtype": {"type": "DT_FLOAT"}}}, {"name": "generator/G_MODEL/m/r6/2/beta", "op": "Const", "attr": {"value": {"tensor": {"dtype": "DT_FLOAT", "tensorShape": {"dim": [{"size": "256"}]}}}, "dtype": {"type": "DT_FLOAT"}}}, {"name": "generator/G_MODEL/m/r6/1/beta", "op": "Const", "attr": {"value": {"tensor": {"dtype": "DT_FLOAT", "tensorShape": {"dim": [{"size": "512"}]}}}, "dtype": {"type": "DT_FLOAT"}}}, {"name": "generator/G_MODEL/m/r6/InstanceNorm/beta", "op": "Const", "attr": {"dtype": {"type": "DT_FLOAT"}, "value": {"tensor": {"dtype": "DT_FLOAT", "tensorShape": {"dim": [{"size": "512"}]}}}}}, {"name": "generator/G_MODEL/m/r5/2/beta", "op": "Const", "attr": {"dtype": {"type": "DT_FLOAT"}, "value": {"tensor": {"dtype": "DT_FLOAT", "tensorShape": {"dim": [{"size": "256"}]}}}}}, {"name": "generator/G_MODEL/m/r5/1/beta", "op": "Const", "attr": {"value": {"tensor": {"dtype": "DT_FLOAT", "tensorShape": {"dim": [{"size": "512"}]}}}, "dtype": {"type": "DT_FLOAT"}}}, {"name": "generator/G_MODEL/m/r5/InstanceNorm/beta", "op": "Const", "attr": {"value": {"tensor": {"dtype": "DT_FLOAT", "tensorShape": {"dim": [{"size": "512"}]}}}, "dtype": {"type": "DT_FLOAT"}}}, {"name": "generator/G_MODEL/m/r4/2/beta", "op": "Const", "attr": {"value": {"tensor": {"dtype": "DT_FLOAT", "tensorShape": {"dim": [{"size": "256"}]}}}, "dtype": {"type": "DT_FLOAT"}}}, {"name": "generator/G_MODEL/m/r4/1/beta", "op": "Const", "attr": {"dtype": {"type": "DT_FLOAT"}, "value": {"tensor": {"dtype": "DT_FLOAT", "tensorShape": {"dim": [{"size": "512"}]}}}}}, {"name": "generator/G_MODEL/m/r4/InstanceNorm/beta", "op": "Const", "attr": {"value": {"tensor": {"dtype": "DT_FLOAT", "tensorShape": {"dim": [{"size": "512"}]}}}, "dtype": {"type": "DT_FLOAT"}}}, {"name": "generator/G_MODEL/m/r3/2/beta", "op": "Const", "attr": {"dtype": {"type": "DT_FLOAT"}, "value": {"tensor": {"dtype": "DT_FLOAT", "tensorShape": {"dim": [{"size": "256"}]}}}}}, {"name": "generator/G_MODEL/m/r3/1/beta", "op": "Const", "attr": {"dtype": {"type": "DT_FLOAT"}, "value": {"tensor": {"dtype": "DT_FLOAT", "tensorShape": {"dim": [{"size": "512"}]}}}}}, {"name": "generator/G_MODEL/m/r3/InstanceNorm/beta", "op": "Const", "attr": {"dtype": {"type": "DT_FLOAT"}, "value": {"tensor": {"dtype": "DT_FLOAT", "tensorShape": {"dim": [{"size": "512"}]}}}}}, {"name": "generator/G_MODEL/m/r2/2/beta", "op": "Const", "attr": {"value": {"tensor": {"dtype": "DT_FLOAT", "tensorShape": {"dim": [{"size": "256"}]}}}, "dtype": {"type": "DT_FLOAT"}}}, {"name": "generator/G_MODEL/m/r2/1/beta", "op": "Const", "attr": {"value": {"tensor": {"dtype": "DT_FLOAT", "tensorShape": {"dim": [{"size": "512"}]}}}, "dtype": {"type": "DT_FLOAT"}}}, {"name": "generator/G_MODEL/m/r2/InstanceNorm/beta", "op": "Const", "attr": {"value": {"tensor": {"dtype": "DT_FLOAT", "tensorShape": {"dim": [{"size": "512"}]}}}, "dtype": {"type": "DT_FLOAT"}}}, {"name": "generator/G_MODEL/m/r1/2/beta", "op": "Const", "attr": {"dtype": {"type": "DT_FLOAT"}, "value": {"tensor": {"dtype": "DT_FLOAT", "tensorShape": {"dim": [{"size": "256"}]}}}}}, {"name": "generator/G_MODEL/m/r1/1/beta", "op": "Const", "attr": {"dtype": {"type": "DT_FLOAT"}, "value": {"tensor": {"dtype": "DT_FLOAT", "tensorShape": {"dim": [{"size": "512"}]}}}}}, {"name": "generator/G_MODEL/m/r1/InstanceNorm/beta", "op": "Const", "attr": {"dtype": {"type": "DT_FLOAT"}, "value": {"tensor": {"dtype": "DT_FLOAT", "tensorShape": {"dim": [{"size": "512"}]}}}}}, {"name": "generator/G_MODEL/m/InstanceNorm/beta", "op": "Const", "attr": {"dtype": {"type": "DT_FLOAT"}, "value": {"tensor": {"dtype": "DT_FLOAT", "tensorShape": {"dim": [{"size": "256"}]}}}}}, {"name": "generator/G_MODEL/b2/SeparableConv2d_1/InstanceNorm/beta", "op": "Const", "attr": {"value": {"tensor": {"dtype": "DT_FLOAT", "tensorShape": {"dim": [{"size": "256"}]}}}, "dtype": {"type": "DT_FLOAT"}}}, {"name": "generator/G_MODEL/b2/MirrorPad_2/paddings", "op": "Const", "attr": {"dtype": {"type": "DT_INT32"}, "value": {"tensor": {"dtype": "DT_INT32", "tensorShape": {"dim": [{"size": "4"}, {"size": "2"}]}}}}}, {"name": "generator/G_MODEL/b2/SeparableConv2d_1/depthwise_weights", "op": "Const", "attr": {"dtype": {"type": "DT_FLOAT"}, "value": {"tensor": {"dtype": "DT_FLOAT", "tensorShape": {"dim": [{"size": "3"}, {"size": "3"}, {"size": "128"}, {"size": "1"}]}}}}}, {"name": "generator/G_MODEL/b2/SeparableConv2d_1/pointwise_weights", "op": "Const", "attr": {"dtype": {"type": "DT_FLOAT"}, "value": {"tensor": {"dtype": "DT_FLOAT", "tensorShape": {"dim": [{"size": "1"}, {"size": "1"}, {"size": "128"}, {"size": "256"}]}}}}}, {"name": "generator/G_MODEL/b2/SeparableConv2d_1/InstanceNorm/moments/mean/reduction_indices", "op": "Const", "attr": {"value": {"tensor": {"dtype": "DT_INT32", "tensorShape": {"dim": [{"size": "2"}]}}}, "dtype": {"type": "DT_INT32"}}}, {"name": "generator/G_MODEL/b2/SeparableConv2d_1/InstanceNorm/moments/variance/reduction_indices", "op": "Const", "attr": {"value": {"tensor": {"dtype": "DT_INT32", "tensorShape": {"dim": [{"size": "2"}]}}}, "dtype": {"type": "DT_INT32"}}}, {"name": "generator/G_MODEL/b2/SeparableConv2d_1/InstanceNorm/instancenorm/add/y", "op": "Const", "attr": {"dtype": {"type": "DT_FLOAT"}, "value": {"tensor": {"dtype": "DT_FLOAT", "tensorShape": {}}}}}, {"name": "generator/G_MODEL/b2/SeparableConv2d_1/InstanceNorm/gamma", "op": "Const", "attr": {"value": {"tensor": {"dtype": "DT_FLOAT", "tensorShape": {"dim": [{"size": "256"}]}}}, "dtype": {"type": "DT_FLOAT"}}}, {"name": "generator/G_MODEL/b2/SeparableConv2d_2/InstanceNorm/beta", "op": "Const", "attr": {"value": {"tensor": {"dtype": "DT_FLOAT", "tensorShape": {"dim": [{"size": "256"}]}}}, "dtype": {"type": "DT_FLOAT"}}}, {"name": "generator/G_MODEL/b2/strided_slice/stack", "op": "Const", "attr": {"dtype": {"type": "DT_INT32"}, "value": {"tensor": {"dtype": "DT_INT32", "tensorShape": {"dim": [{"size": "1"}]}}}}}, {"name": "generator/G_MODEL/b2/strided_slice/stack_1", "op": "Const", "attr": {"dtype": {"type": "DT_INT32"}, "value": {"tensor": {"dtype": "DT_INT32", "tensorShape": {"dim": [{"size": "1"}]}}}}}, {"name": "generator/G_MODEL/b2/strided_slice/stack_2", "op": "Const", "attr": {"value": {"tensor": {"dtype": "DT_INT32", "tensorShape": {"dim": [{"size": "1"}]}}}, "dtype": {"type": "DT_INT32"}}}, {"name": "generator/G_MODEL/b2/floordiv/y", "op": "Const", "attr": {"dtype": {"type": "DT_INT32"}, "value": {"tensor": {"dtype": "DT_INT32", "tensorShape": {}}}}}, {"name": "generator/G_MODEL/b2/SeparableConv2d/InstanceNorm/beta", "op": "Const", "attr": {"dtype": {"type": "DT_FLOAT"}, "value": {"tensor": {"dtype": "DT_FLOAT", "tensorShape": {"dim": [{"size": "128"}]}}}}}, {"name": "generator/G_MODEL/b2/InstanceNorm/beta", "op": "Const", "attr": {"value": {"tensor": {"dtype": "DT_FLOAT", "tensorShape": {"dim": [{"size": "128"}]}}}, "dtype": {"type": "DT_FLOAT"}}}, {"name": "generator/G_MODEL/b1/SeparableConv2d/InstanceNorm/beta", "op": "Const", "attr": {"dtype": {"type": "DT_FLOAT"}, "value": {"tensor": {"dtype": "DT_FLOAT", "tensorShape": {"dim": [{"size": "128"}]}}}}}, {"name": "generator/G_MODEL/b1/MirrorPad_2/paddings", "op": "Const", "attr": {"dtype": {"type": "DT_INT32"}, "value": {"tensor": {"dtype": "DT_INT32", "tensorShape": {"dim": [{"size": "4"}, {"size": "2"}]}}}}}, {"name": "generator/G_MODEL/b1/SeparableConv2d/depthwise_weights", "op": "Const", "attr": {"dtype": {"type": "DT_FLOAT"}, "value": {"tensor": {"dtype": "DT_FLOAT", "tensorShape": {"dim": [{"size": "3"}, {"size": "3"}, {"size": "64"}, {"size": "1"}]}}}}}, {"name": "generator/G_MODEL/b1/SeparableConv2d/pointwise_weights", "op": "Const", "attr": {"value": {"tensor": {"dtype": "DT_FLOAT", "tensorShape": {"dim": [{"size": "1"}, {"size": "1"}, {"size": "64"}, {"size": "128"}]}}}, "dtype": {"type": "DT_FLOAT"}}}, {"name": "generator/G_MODEL/b1/SeparableConv2d/InstanceNorm/moments/mean/reduction_indices", "op": "Const", "attr": {"dtype": {"type": "DT_INT32"}, "value": {"tensor": {"dtype": "DT_INT32", "tensorShape": {"dim": [{"size": "2"}]}}}}}, {"name": "generator/G_MODEL/b1/SeparableConv2d/InstanceNorm/moments/variance/reduction_indices", "op": "Const", "attr": {"dtype": {"type": "DT_INT32"}, "value": {"tensor": {"dtype": "DT_INT32", "tensorShape": {"dim": [{"size": "2"}]}}}}}, {"name": "generator/G_MODEL/b1/SeparableConv2d/InstanceNorm/instancenorm/add/y", "op": "Const", "attr": {"value": {"tensor": {"dtype": "DT_FLOAT", "tensorShape": {}}}, "dtype": {"type": "DT_FLOAT"}}}, {"name": "generator/G_MODEL/b1/SeparableConv2d/InstanceNorm/gamma", "op": "Const", "attr": {"value": {"tensor": {"dtype": "DT_FLOAT", "tensorShape": {"dim": [{"size": "128"}]}}}, "dtype": {"type": "DT_FLOAT"}}}, {"name": "generator/G_MODEL/b1/SeparableConv2d_1/InstanceNorm/beta", "op": "Const", "attr": {"value": {"tensor": {"dtype": "DT_FLOAT", "tensorShape": {"dim": [{"size": "128"}]}}}, "dtype": {"type": "DT_FLOAT"}}}, {"name": "generator/G_MODEL/b1/strided_slice/stack", "op": "Const", "attr": {"value": {"tensor": {"dtype": "DT_INT32", "tensorShape": {"dim": [{"size": "1"}]}}}, "dtype": {"type": "DT_INT32"}}}, {"name": "generator/G_MODEL/b1/strided_slice/stack_1", "op": "Const", "attr": {"value": {"tensor": {"dtype": "DT_INT32", "tensorShape": {"dim": [{"size": "1"}]}}}, "dtype": {"type": "DT_INT32"}}}, {"name": "generator/G_MODEL/b1/strided_slice/stack_2", "op": "Const", "attr": {"dtype": {"type": "DT_INT32"}, "value": {"tensor": {"dtype": "DT_INT32", "tensorShape": {"dim": [{"size": "1"}]}}}}}, {"name": "generator/G_MODEL/b1/floordiv/y", "op": "Const", "attr": {"value": {"tensor": {"dtype": "DT_INT32", "tensorShape": {}}}, "dtype": {"type": "DT_INT32"}}}, {"name": "generator/G_MODEL/b1/InstanceNorm_1/beta", "op": "Const", "attr": {"dtype": {"type": "DT_FLOAT"}, "value": {"tensor": {"dtype": "DT_FLOAT", "tensorShape": {"dim": [{"size": "64"}]}}}}}, {"name": "generator/G_MODEL/b1/InstanceNorm/beta", "op": "Const", "attr": {"value": {"tensor": {"dtype": "DT_FLOAT", "tensorShape": {"dim": [{"size": "64"}]}}}, "dtype": {"type": "DT_FLOAT"}}}, {"name": "generator/G_MODEL/b1/MirrorPad/paddings", "op": "Const", "attr": {"dtype": {"type": "DT_INT32"}, "value": {"tensor": {"dtype": "DT_INT32", "tensorShape": {"dim": [{"size": "4"}, {"size": "2"}]}}}}}, {"name": "generator/G_MODEL/b1/Conv/weights", "op": "Const", "attr": {"value": {"tensor": {"dtype": "DT_FLOAT", "tensorShape": {"dim": [{"size": "3"}, {"size": "3"}, {"size": "3"}, {"size": "64"}]}}}, "dtype": {"type": "DT_FLOAT"}}}, {"name": "generator/G_MODEL/b1/InstanceNorm/moments/mean/reduction_indices", "op": "Const", "attr": {"value": {"tensor": {"dtype": "DT_INT32", "tensorShape": {"dim": [{"size": "2"}]}}}, "dtype": {"type": "DT_INT32"}}}, {"name": "generator/G_MODEL/b1/InstanceNorm/moments/variance/reduction_indices", "op": "Const", "attr": {"value": {"tensor": {"dtype": "DT_INT32", "tensorShape": {"dim": [{"size": "2"}]}}}, "dtype": {"type": "DT_INT32"}}}, {"name": "generator/G_MODEL/b1/InstanceNorm/instancenorm/add/y", "op": "Const", "attr": {"value": {"tensor": {"dtype": "DT_FLOAT", "tensorShape": {}}}, "dtype": {"type": "DT_FLOAT"}}}, {"name": "generator/G_MODEL/b1/InstanceNorm/gamma", "op": "Const", "attr": {"value": {"tensor": {"dtype": "DT_FLOAT", "tensorShape": {"dim": [{"size": "64"}]}}}, "dtype": {"type": "DT_FLOAT"}}}, {"name": "generator/G_MODEL/b1/MirrorPad_1/paddings", "op": "Const", "attr": {"value": {"tensor": {"dtype": "DT_INT32", "tensorShape": {"dim": [{"size": "4"}, {"size": "2"}]}}}, "dtype": {"type": "DT_INT32"}}}, {"name": "generator/G_MODEL/b1/Conv_1/weights", "op": "Const", "attr": {"value": {"tensor": {"dtype": "DT_FLOAT", "tensorShape": {"dim": [{"size": "3"}, {"size": "3"}, {"size": "64"}, {"size": "64"}]}}}, "dtype": {"type": "DT_FLOAT"}}}, {"name": "generator/G_MODEL/b1/InstanceNorm_1/moments/mean/reduction_indices", "op": "Const", "attr": {"value": {"tensor": {"dtype": "DT_INT32", "tensorShape": {"dim": [{"size": "2"}]}}}, "dtype": {"type": "DT_INT32"}}}, {"name": "generator/G_MODEL/b1/InstanceNorm_1/moments/variance/reduction_indices", "op": "Const", "attr": {"dtype": {"type": "DT_INT32"}, "value": {"tensor": {"dtype": "DT_INT32", "tensorShape": {"dim": [{"size": "2"}]}}}}}, {"name": "generator/G_MODEL/b1/InstanceNorm_1/instancenorm/add/y", "op": "Const", "attr": {"value": {"tensor": {"dtype": "DT_FLOAT", "tensorShape": {}}}, "dtype": {"type": "DT_FLOAT"}}}, {"name": "generator/G_MODEL/b1/InstanceNorm_1/gamma", "op": "Const", "attr": {"value": {"tensor": {"dtype": "DT_FLOAT", "tensorShape": {"dim": [{"size": "64"}]}}}, "dtype": {"type": "DT_FLOAT"}}}, {"name": "generator/G_MODEL/b1/strided_slice_1/stack", "op": "Const", "attr": {"value": {"tensor": {"dtype": "DT_INT32", "tensorShape": {"dim": [{"size": "1"}]}}}, "dtype": {"type": "DT_INT32"}}}, {"name": "generator/G_MODEL/b1/strided_slice_1/stack_1", "op": "Const", "attr": {"value": {"tensor": {"dtype": "DT_INT32", "tensorShape": {"dim": [{"size": "1"}]}}}, "dtype": {"type": "DT_INT32"}}}, {"name": "generator/G_MODEL/b1/strided_slice_1/stack_2", "op": "Const", "attr": {"value": {"tensor": {"dtype": "DT_INT32", "tensorShape": {"dim": [{"size": "1"}]}}}, "dtype": {"type": "DT_INT32"}}}, {"name": "generator/G_MODEL/b1/floordiv_1/y", "op": "Const", "attr": {"dtype": {"type": "DT_INT32"}, "value": {"tensor": {"dtype": "DT_INT32", "tensorShape": {}}}}}, {"name": "generator/G_MODEL/b1/MirrorPad_3/paddings", "op": "Const", "attr": {"dtype": {"type": "DT_INT32"}, "value": {"tensor": {"dtype": "DT_INT32", "tensorShape": {"dim": [{"size": "4"}, {"size": "2"}]}}}}}, {"name": "generator/G_MODEL/b1/SeparableConv2d_1/depthwise_weights", "op": "Const", "attr": {"dtype": {"type": "DT_FLOAT"}, "value": {"tensor": {"dtype": "DT_FLOAT", "tensorShape": {"dim": [{"size": "3"}, {"size": "3"}, {"size": "64"}, {"size": "1"}]}}}}}, {"name": "generator/G_MODEL/b1/SeparableConv2d_1/pointwise_weights", "op": "Const", "attr": {"value": {"tensor": {"dtype": "DT_FLOAT", "tensorShape": {"dim": [{"size": "1"}, {"size": "1"}, {"size": "64"}, {"size": "128"}]}}}, "dtype": {"type": "DT_FLOAT"}}}, {"name": "generator/G_MODEL/b1/SeparableConv2d_1/InstanceNorm/moments/mean/reduction_indices", "op": "Const", "attr": {"value": {"tensor": {"dtype": "DT_INT32", "tensorShape": {"dim": [{"size": "2"}]}}}, "dtype": {"type": "DT_INT32"}}}, {"name": "generator/G_MODEL/b1/SeparableConv2d_1/InstanceNorm/moments/variance/reduction_indices", "op": "Const", "attr": {"dtype": {"type": "DT_INT32"}, "value": {"tensor": {"dtype": "DT_INT32", "tensorShape": {"dim": [{"size": "2"}]}}}}}, {"name": "generator/G_MODEL/b1/SeparableConv2d_1/InstanceNorm/instancenorm/add/y", "op": "Const", "attr": {"value": {"tensor": {"dtype": "DT_FLOAT", "tensorShape": {}}}, "dtype": {"type": "DT_FLOAT"}}}, {"name": "generator/G_MODEL/b1/SeparableConv2d_1/InstanceNorm/gamma", "op": "Const", "attr": {"value": {"tensor": {"dtype": "DT_FLOAT", "tensorShape": {"dim": [{"size": "128"}]}}}, "dtype": {"type": "DT_FLOAT"}}}, {"name": "generator/G_MODEL/b2/MirrorPad/paddings", "op": "Const", "attr": {"dtype": {"type": "DT_INT32"}, "value": {"tensor": {"dtype": "DT_INT32", "tensorShape": {"dim": [{"size": "4"}, {"size": "2"}]}}}}}, {"name": "generator/G_MODEL/b2/Conv/weights", "op": "Const", "attr": {"dtype": {"type": "DT_FLOAT"}, "value": {"tensor": {"dtype": "DT_FLOAT", "tensorShape": {"dim": [{"size": "3"}, {"size": "3"}, {"size": "128"}, {"size": "128"}]}}}}}, {"name": "generator/G_MODEL/b2/InstanceNorm/moments/mean/reduction_indices", "op": "Const", "attr": {"dtype": {"type": "DT_INT32"}, "value": {"tensor": {"dtype": "DT_INT32", "tensorShape": {"dim": [{"size": "2"}]}}}}}, {"name": "generator/G_MODEL/b2/InstanceNorm/moments/variance/reduction_indices", "op": "Const", "attr": {"value": {"tensor": {"dtype": "DT_INT32", "tensorShape": {"dim": [{"size": "2"}]}}}, "dtype": {"type": "DT_INT32"}}}, {"name": "generator/G_MODEL/b2/InstanceNorm/instancenorm/add/y", "op": "Const", "attr": {"dtype": {"type": "DT_FLOAT"}, "value": {"tensor": {"dtype": "DT_FLOAT", "tensorShape": {}}}}}, {"name": "generator/G_MODEL/b2/InstanceNorm/gamma", "op": "Const", "attr": {"value": {"tensor": {"dtype": "DT_FLOAT", "tensorShape": {"dim": [{"size": "128"}]}}}, "dtype": {"type": "DT_FLOAT"}}}, {"name": "generator/G_MODEL/b2/MirrorPad_1/paddings", "op": "Const", "attr": {"dtype": {"type": "DT_INT32"}, "value": {"tensor": {"dtype": "DT_INT32", "tensorShape": {"dim": [{"size": "4"}, {"size": "2"}]}}}}}, {"name": "generator/G_MODEL/b2/SeparableConv2d/depthwise_weights", "op": "Const", "attr": {"dtype": {"type": "DT_FLOAT"}, "value": {"tensor": {"dtype": "DT_FLOAT", "tensorShape": {"dim": [{"size": "3"}, {"size": "3"}, {"size": "128"}, {"size": "1"}]}}}}}, {"name": "generator/G_MODEL/b2/SeparableConv2d/pointwise_weights", "op": "Const", "attr": {"dtype": {"type": "DT_FLOAT"}, "value": {"tensor": {"dtype": "DT_FLOAT", "tensorShape": {"dim": [{"size": "1"}, {"size": "1"}, {"size": "128"}, {"size": "128"}]}}}}}, {"name": "generator/G_MODEL/b2/SeparableConv2d/InstanceNorm/moments/mean/reduction_indices", "op": "Const", "attr": {"dtype": {"type": "DT_INT32"}, "value": {"tensor": {"dtype": "DT_INT32", "tensorShape": {"dim": [{"size": "2"}]}}}}}, {"name": "generator/G_MODEL/b2/SeparableConv2d/InstanceNorm/moments/variance/reduction_indices", "op": "Const", "attr": {"value": {"tensor": {"dtype": "DT_INT32", "tensorShape": {"dim": [{"size": "2"}]}}}, "dtype": {"type": "DT_INT32"}}}, {"name": "generator/G_MODEL/b2/SeparableConv2d/InstanceNorm/instancenorm/add/y", "op": "Const", "attr": {"value": {"tensor": {"dtype": "DT_FLOAT", "tensorShape": {}}}, "dtype": {"type": "DT_FLOAT"}}}, {"name": "generator/G_MODEL/b2/SeparableConv2d/InstanceNorm/gamma", "op": "Const", "attr": {"value": {"tensor": {"dtype": "DT_FLOAT", "tensorShape": {"dim": [{"size": "128"}]}}}, "dtype": {"type": "DT_FLOAT"}}}, {"name": "generator/G_MODEL/b2/strided_slice_1/stack", "op": "Const", "attr": {"dtype": {"type": "DT_INT32"}, "value": {"tensor": {"dtype": "DT_INT32", "tensorShape": {"dim": [{"size": "1"}]}}}}}, {"name": "generator/G_MODEL/b2/strided_slice_1/stack_1", "op": "Const", "attr": {"value": {"tensor": {"dtype": "DT_INT32", "tensorShape": {"dim": [{"size": "1"}]}}}, "dtype": {"type": "DT_INT32"}}}, {"name": "generator/G_MODEL/b2/strided_slice_1/stack_2", "op": "Const", "attr": {"dtype": {"type": "DT_INT32"}, "value": {"tensor": {"dtype": "DT_INT32", "tensorShape": {"dim": [{"size": "1"}]}}}}}, {"name": "generator/G_MODEL/b2/floordiv_1/y", "op": "Const", "attr": {"value": {"tensor": {"dtype": "DT_INT32", "tensorShape": {}}}, "dtype": {"type": "DT_INT32"}}}, {"name": "generator/G_MODEL/b2/MirrorPad_3/paddings", "op": "Const", "attr": {"value": {"tensor": {"dtype": "DT_INT32", "tensorShape": {"dim": [{"size": "4"}, {"size": "2"}]}}}, "dtype": {"type": "DT_INT32"}}}, {"name": "generator/G_MODEL/b2/SeparableConv2d_2/depthwise_weights", "op": "Const", "attr": {"dtype": {"type": "DT_FLOAT"}, "value": {"tensor": {"dtype": "DT_FLOAT", "tensorShape": {"dim": [{"size": "3"}, {"size": "3"}, {"size": "128"}, {"size": "1"}]}}}}}, {"name": "generator/G_MODEL/b2/SeparableConv2d_2/pointwise_weights", "op": "Const", "attr": {"value": {"tensor": {"dtype": "DT_FLOAT", "tensorShape": {"dim": [{"size": "1"}, {"size": "1"}, {"size": "128"}, {"size": "256"}]}}}, "dtype": {"type": "DT_FLOAT"}}}, {"name": "generator/G_MODEL/b2/SeparableConv2d_2/InstanceNorm/moments/mean/reduction_indices", "op": "Const", "attr": {"dtype": {"type": "DT_INT32"}, "value": {"tensor": {"dtype": "DT_INT32", "tensorShape": {"dim": [{"size": "2"}]}}}}}, {"name": "generator/G_MODEL/b2/SeparableConv2d_2/InstanceNorm/moments/variance/reduction_indices", "op": "Const", "attr": {"value": {"tensor": {"dtype": "DT_INT32", "tensorShape": {"dim": [{"size": "2"}]}}}, "dtype": {"type": "DT_INT32"}}}, {"name": "generator/G_MODEL/b2/SeparableConv2d_2/InstanceNorm/instancenorm/add/y", "op": "Const", "attr": {"dtype": {"type": "DT_FLOAT"}, "value": {"tensor": {"dtype": "DT_FLOAT", "tensorShape": {}}}}}, {"name": "generator/G_MODEL/b2/SeparableConv2d_2/InstanceNorm/gamma", "op": "Const", "attr": {"dtype": {"type": "DT_FLOAT"}, "value": {"tensor": {"dtype": "DT_FLOAT", "tensorShape": {"dim": [{"size": "256"}]}}}}}, {"name": "generator/G_MODEL/m/MirrorPad/paddings", "op": "Const", "attr": {"dtype": {"type": "DT_INT32"}, "value": {"tensor": {"dtype": "DT_INT32", "tensorShape": {"dim": [{"size": "4"}, {"size": "2"}]}}}}}, {"name": "generator/G_MODEL/m/Conv/weights", "op": "Const", "attr": {"dtype": {"type": "DT_FLOAT"}, "value": {"tensor": {"dtype": "DT_FLOAT", "tensorShape": {"dim": [{"size": "3"}, {"size": "3"}, {"size": "256"}, {"size": "256"}]}}}}}, {"name": "generator/G_MODEL/m/InstanceNorm/moments/mean/reduction_indices", "op": "Const", "attr": {"dtype": {"type": "DT_INT32"}, "value": {"tensor": {"dtype": "DT_INT32", "tensorShape": {"dim": [{"size": "2"}]}}}}}, {"name": "generator/G_MODEL/m/InstanceNorm/moments/variance/reduction_indices", "op": "Const", "attr": {"dtype": {"type": "DT_INT32"}, "value": {"tensor": {"dtype": "DT_INT32", "tensorShape": {"dim": [{"size": "2"}]}}}}}, {"name": "generator/G_MODEL/m/InstanceNorm/instancenorm/add/y", "op": "Const", "attr": {"value": {"tensor": {"dtype": "DT_FLOAT", "tensorShape": {}}}, "dtype": {"type": "DT_FLOAT"}}}, {"name": "generator/G_MODEL/m/InstanceNorm/gamma", "op": "Const", "attr": {"value": {"tensor": {"dtype": "DT_FLOAT", "tensorShape": {"dim": [{"size": "256"}]}}}, "dtype": {"type": "DT_FLOAT"}}}, {"name": "generator/G_MODEL/m/r1/Conv/weights", "op": "Const", "attr": {"dtype": {"type": "DT_FLOAT"}, "value": {"tensor": {"dtype": "DT_FLOAT", "tensorShape": {"dim": [{"size": "1"}, {"size": "1"}, {"size": "256"}, {"size": "512"}]}}}}}, {"name": "generator/G_MODEL/m/r1/InstanceNorm/moments/mean/reduction_indices", "op": "Const", "attr": {"dtype": {"type": "DT_INT32"}, "value": {"tensor": {"dtype": "DT_INT32", "tensorShape": {"dim": [{"size": "2"}]}}}}}, {"name": "generator/G_MODEL/m/r1/InstanceNorm/moments/variance/reduction_indices", "op": "Const", "attr": {"dtype": {"type": "DT_INT32"}, "value": {"tensor": {"dtype": "DT_INT32", "tensorShape": {"dim": [{"size": "2"}]}}}}}, {"name": "generator/G_MODEL/m/r1/InstanceNorm/instancenorm/add/y", "op": "Const", "attr": {"dtype": {"type": "DT_FLOAT"}, "value": {"tensor": {"dtype": "DT_FLOAT", "tensorShape": {}}}}}, {"name": "generator/G_MODEL/m/r1/InstanceNorm/gamma", "op": "Const", "attr": {"value": {"tensor": {"dtype": "DT_FLOAT", "tensorShape": {"dim": [{"size": "512"}]}}}, "dtype": {"type": "DT_FLOAT"}}}, {"name": "generator/G_MODEL/m/r1/MirrorPad/paddings", "op": "Const", "attr": {"value": {"tensor": {"dtype": "DT_INT32", "tensorShape": {"dim": [{"size": "4"}, {"size": "2"}]}}}, "dtype": {"type": "DT_INT32"}}}, {"name": "generator/G_MODEL/m/r1/r1/w", "op": "Const", "attr": {"dtype": {"type": "DT_FLOAT"}, "value": {"tensor": {"dtype": "DT_FLOAT", "tensorShape": {"dim": [{"size": "3"}, {"size": "3"}, {"size": "512"}, {"size": "1"}]}}}}}, {"name": "generator/G_MODEL/m/r1/1/moments/mean/reduction_indices", "op": "Const", "attr": {"value": {"tensor": {"dtype": "DT_INT32", "tensorShape": {"dim": [{"size": "2"}]}}}, "dtype": {"type": "DT_INT32"}}}, {"name": "generator/G_MODEL/m/r1/1/moments/variance/reduction_indices", "op": "Const", "attr": {"dtype": {"type": "DT_INT32"}, "value": {"tensor": {"dtype": "DT_INT32", "tensorShape": {"dim": [{"size": "2"}]}}}}}, {"name": "generator/G_MODEL/m/r1/1/instancenorm/add/y", "op": "Const", "attr": {"value": {"tensor": {"dtype": "DT_FLOAT", "tensorShape": {}}}, "dtype": {"type": "DT_FLOAT"}}}, {"name": "generator/G_MODEL/m/r1/1/gamma", "op": "Const", "attr": {"dtype": {"type": "DT_FLOAT"}, "value": {"tensor": {"dtype": "DT_FLOAT", "tensorShape": {"dim": [{"size": "512"}]}}}}}, {"name": "generator/G_MODEL/m/r1/Conv_1/weights", "op": "Const", "attr": {"value": {"tensor": {"dtype": "DT_FLOAT", "tensorShape": {"dim": [{"size": "1"}, {"size": "1"}, {"size": "512"}, {"size": "256"}]}}}, "dtype": {"type": "DT_FLOAT"}}}, {"name": "generator/G_MODEL/m/r1/2/moments/mean/reduction_indices", "op": "Const", "attr": {"value": {"tensor": {"dtype": "DT_INT32", "tensorShape": {"dim": [{"size": "2"}]}}}, "dtype": {"type": "DT_INT32"}}}, {"name": "generator/G_MODEL/m/r1/2/moments/variance/reduction_indices", "op": "Const", "attr": {"dtype": {"type": "DT_INT32"}, "value": {"tensor": {"dtype": "DT_INT32", "tensorShape": {"dim": [{"size": "2"}]}}}}}, {"name": "generator/G_MODEL/m/r1/2/instancenorm/add/y", "op": "Const", "attr": {"value": {"tensor": {"dtype": "DT_FLOAT", "tensorShape": {}}}, "dtype": {"type": "DT_FLOAT"}}}, {"name": "generator/G_MODEL/m/r1/2/gamma", "op": "Const", "attr": {"dtype": {"type": "DT_FLOAT"}, "value": {"tensor": {"dtype": "DT_FLOAT", "tensorShape": {"dim": [{"size": "256"}]}}}}}, {"name": "generator/G_MODEL/m/r2/Conv/weights", "op": "Const", "attr": {"dtype": {"type": "DT_FLOAT"}, "value": {"tensor": {"dtype": "DT_FLOAT", "tensorShape": {"dim": [{"size": "1"}, {"size": "1"}, {"size": "256"}, {"size": "512"}]}}}}}, {"name": "generator/G_MODEL/m/r2/InstanceNorm/moments/mean/reduction_indices", "op": "Const", "attr": {"dtype": {"type": "DT_INT32"}, "value": {"tensor": {"dtype": "DT_INT32", "tensorShape": {"dim": [{"size": "2"}]}}}}}, {"name": "generator/G_MODEL/m/r2/InstanceNorm/moments/variance/reduction_indices", "op": "Const", "attr": {"value": {"tensor": {"dtype": "DT_INT32", "tensorShape": {"dim": [{"size": "2"}]}}}, "dtype": {"type": "DT_INT32"}}}, {"name": "generator/G_MODEL/m/r2/InstanceNorm/instancenorm/add/y", "op": "Const", "attr": {"value": {"tensor": {"dtype": "DT_FLOAT", "tensorShape": {}}}, "dtype": {"type": "DT_FLOAT"}}}, {"name": "generator/G_MODEL/m/r2/InstanceNorm/gamma", "op": "Const", "attr": {"value": {"tensor": {"dtype": "DT_FLOAT", "tensorShape": {"dim": [{"size": "512"}]}}}, "dtype": {"type": "DT_FLOAT"}}}, {"name": "generator/G_MODEL/m/r2/MirrorPad/paddings", "op": "Const", "attr": {"value": {"tensor": {"dtype": "DT_INT32", "tensorShape": {"dim": [{"size": "4"}, {"size": "2"}]}}}, "dtype": {"type": "DT_INT32"}}}, {"name": "generator/G_MODEL/m/r2/r2/w", "op": "Const", "attr": {"value": {"tensor": {"dtype": "DT_FLOAT", "tensorShape": {"dim": [{"size": "3"}, {"size": "3"}, {"size": "512"}, {"size": "1"}]}}}, "dtype": {"type": "DT_FLOAT"}}}, {"name": "generator/G_MODEL/m/r2/1/moments/mean/reduction_indices", "op": "Const", "attr": {"value": {"tensor": {"dtype": "DT_INT32", "tensorShape": {"dim": [{"size": "2"}]}}}, "dtype": {"type": "DT_INT32"}}}, {"name": "generator/G_MODEL/m/r2/1/moments/variance/reduction_indices", "op": "Const", "attr": {"value": {"tensor": {"dtype": "DT_INT32", "tensorShape": {"dim": [{"size": "2"}]}}}, "dtype": {"type": "DT_INT32"}}}, {"name": "generator/G_MODEL/m/r2/1/instancenorm/add/y", "op": "Const", "attr": {"value": {"tensor": {"dtype": "DT_FLOAT", "tensorShape": {}}}, "dtype": {"type": "DT_FLOAT"}}}, {"name": "generator/G_MODEL/m/r2/1/gamma", "op": "Const", "attr": {"dtype": {"type": "DT_FLOAT"}, "value": {"tensor": {"dtype": "DT_FLOAT", "tensorShape": {"dim": [{"size": "512"}]}}}}}, {"name": "generator/G_MODEL/m/r2/Conv_1/weights", "op": "Const", "attr": {"value": {"tensor": {"dtype": "DT_FLOAT", "tensorShape": {"dim": [{"size": "1"}, {"size": "1"}, {"size": "512"}, {"size": "256"}]}}}, "dtype": {"type": "DT_FLOAT"}}}, {"name": "generator/G_MODEL/m/r2/2/moments/mean/reduction_indices", "op": "Const", "attr": {"value": {"tensor": {"dtype": "DT_INT32", "tensorShape": {"dim": [{"size": "2"}]}}}, "dtype": {"type": "DT_INT32"}}}, {"name": "generator/G_MODEL/m/r2/2/moments/variance/reduction_indices", "op": "Const", "attr": {"dtype": {"type": "DT_INT32"}, "value": {"tensor": {"dtype": "DT_INT32", "tensorShape": {"dim": [{"size": "2"}]}}}}}, {"name": "generator/G_MODEL/m/r2/2/instancenorm/add/y", "op": "Const", "attr": {"value": {"tensor": {"dtype": "DT_FLOAT", "tensorShape": {}}}, "dtype": {"type": "DT_FLOAT"}}}, {"name": "generator/G_MODEL/m/r2/2/gamma", "op": "Const", "attr": {"value": {"tensor": {"dtype": "DT_FLOAT", "tensorShape": {"dim": [{"size": "256"}]}}}, "dtype": {"type": "DT_FLOAT"}}}, {"name": "generator/G_MODEL/m/r3/Conv/weights", "op": "Const", "attr": {"dtype": {"type": "DT_FLOAT"}, "value": {"tensor": {"dtype": "DT_FLOAT", "tensorShape": {"dim": [{"size": "1"}, {"size": "1"}, {"size": "256"}, {"size": "512"}]}}}}}, {"name": "generator/G_MODEL/m/r3/InstanceNorm/moments/mean/reduction_indices", "op": "Const", "attr": {"dtype": {"type": "DT_INT32"}, "value": {"tensor": {"dtype": "DT_INT32", "tensorShape": {"dim": [{"size": "2"}]}}}}}, {"name": "generator/G_MODEL/m/r3/InstanceNorm/moments/variance/reduction_indices", "op": "Const", "attr": {"value": {"tensor": {"dtype": "DT_INT32", "tensorShape": {"dim": [{"size": "2"}]}}}, "dtype": {"type": "DT_INT32"}}}, {"name": "generator/G_MODEL/m/r3/InstanceNorm/instancenorm/add/y", "op": "Const", "attr": {"dtype": {"type": "DT_FLOAT"}, "value": {"tensor": {"dtype": "DT_FLOAT", "tensorShape": {}}}}}, {"name": "generator/G_MODEL/m/r3/InstanceNorm/gamma", "op": "Const", "attr": {"dtype": {"type": "DT_FLOAT"}, "value": {"tensor": {"dtype": "DT_FLOAT", "tensorShape": {"dim": [{"size": "512"}]}}}}}, {"name": "generator/G_MODEL/m/r3/MirrorPad/paddings", "op": "Const", "attr": {"dtype": {"type": "DT_INT32"}, "value": {"tensor": {"dtype": "DT_INT32", "tensorShape": {"dim": [{"size": "4"}, {"size": "2"}]}}}}}, {"name": "generator/G_MODEL/m/r3/r3/w", "op": "Const", "attr": {"value": {"tensor": {"dtype": "DT_FLOAT", "tensorShape": {"dim": [{"size": "3"}, {"size": "3"}, {"size": "512"}, {"size": "1"}]}}}, "dtype": {"type": "DT_FLOAT"}}}, {"name": "generator/G_MODEL/m/r3/1/moments/mean/reduction_indices", "op": "Const", "attr": {"value": {"tensor": {"dtype": "DT_INT32", "tensorShape": {"dim": [{"size": "2"}]}}}, "dtype": {"type": "DT_INT32"}}}, {"name": "generator/G_MODEL/m/r3/1/moments/variance/reduction_indices", "op": "Const", "attr": {"dtype": {"type": "DT_INT32"}, "value": {"tensor": {"dtype": "DT_INT32", "tensorShape": {"dim": [{"size": "2"}]}}}}}, {"name": "generator/G_MODEL/m/r3/1/instancenorm/add/y", "op": "Const", "attr": {"value": {"tensor": {"dtype": "DT_FLOAT", "tensorShape": {}}}, "dtype": {"type": "DT_FLOAT"}}}, {"name": "generator/G_MODEL/m/r3/1/gamma", "op": "Const", "attr": {"dtype": {"type": "DT_FLOAT"}, "value": {"tensor": {"dtype": "DT_FLOAT", "tensorShape": {"dim": [{"size": "512"}]}}}}}, {"name": "generator/G_MODEL/m/r3/Conv_1/weights", "op": "Const", "attr": {"value": {"tensor": {"dtype": "DT_FLOAT", "tensorShape": {"dim": [{"size": "1"}, {"size": "1"}, {"size": "512"}, {"size": "256"}]}}}, "dtype": {"type": "DT_FLOAT"}}}, {"name": "generator/G_MODEL/m/r3/2/moments/mean/reduction_indices", "op": "Const", "attr": {"dtype": {"type": "DT_INT32"}, "value": {"tensor": {"dtype": "DT_INT32", "tensorShape": {"dim": [{"size": "2"}]}}}}}, {"name": "generator/G_MODEL/m/r3/2/moments/variance/reduction_indices", "op": "Const", "attr": {"value": {"tensor": {"dtype": "DT_INT32", "tensorShape": {"dim": [{"size": "2"}]}}}, "dtype": {"type": "DT_INT32"}}}, {"name": "generator/G_MODEL/m/r3/2/instancenorm/add/y", "op": "Const", "attr": {"value": {"tensor": {"dtype": "DT_FLOAT", "tensorShape": {}}}, "dtype": {"type": "DT_FLOAT"}}}, {"name": "generator/G_MODEL/m/r3/2/gamma", "op": "Const", "attr": {"dtype": {"type": "DT_FLOAT"}, "value": {"tensor": {"dtype": "DT_FLOAT", "tensorShape": {"dim": [{"size": "256"}]}}}}}, {"name": "generator/G_MODEL/m/r4/Conv/weights", "op": "Const", "attr": {"dtype": {"type": "DT_FLOAT"}, "value": {"tensor": {"dtype": "DT_FLOAT", "tensorShape": {"dim": [{"size": "1"}, {"size": "1"}, {"size": "256"}, {"size": "512"}]}}}}}, {"name": "generator/G_MODEL/m/r4/InstanceNorm/moments/mean/reduction_indices", "op": "Const", "attr": {"dtype": {"type": "DT_INT32"}, "value": {"tensor": {"dtype": "DT_INT32", "tensorShape": {"dim": [{"size": "2"}]}}}}}, {"name": "generator/G_MODEL/m/r4/InstanceNorm/moments/variance/reduction_indices", "op": "Const", "attr": {"value": {"tensor": {"dtype": "DT_INT32", "tensorShape": {"dim": [{"size": "2"}]}}}, "dtype": {"type": "DT_INT32"}}}, {"name": "generator/G_MODEL/m/r4/InstanceNorm/instancenorm/add/y", "op": "Const", "attr": {"value": {"tensor": {"dtype": "DT_FLOAT", "tensorShape": {}}}, "dtype": {"type": "DT_FLOAT"}}}, {"name": "generator/G_MODEL/m/r4/InstanceNorm/gamma", "op": "Const", "attr": {"dtype": {"type": "DT_FLOAT"}, "value": {"tensor": {"dtype": "DT_FLOAT", "tensorShape": {"dim": [{"size": "512"}]}}}}}, {"name": "generator/G_MODEL/m/r4/MirrorPad/paddings", "op": "Const", "attr": {"dtype": {"type": "DT_INT32"}, "value": {"tensor": {"dtype": "DT_INT32", "tensorShape": {"dim": [{"size": "4"}, {"size": "2"}]}}}}}, {"name": "generator/G_MODEL/m/r4/r4/w", "op": "Const", "attr": {"dtype": {"type": "DT_FLOAT"}, "value": {"tensor": {"dtype": "DT_FLOAT", "tensorShape": {"dim": [{"size": "3"}, {"size": "3"}, {"size": "512"}, {"size": "1"}]}}}}}, {"name": "generator/G_MODEL/m/r4/1/moments/mean/reduction_indices", "op": "Const", "attr": {"value": {"tensor": {"dtype": "DT_INT32", "tensorShape": {"dim": [{"size": "2"}]}}}, "dtype": {"type": "DT_INT32"}}}, {"name": "generator/G_MODEL/m/r4/1/moments/variance/reduction_indices", "op": "Const", "attr": {"dtype": {"type": "DT_INT32"}, "value": {"tensor": {"dtype": "DT_INT32", "tensorShape": {"dim": [{"size": "2"}]}}}}}, {"name": "generator/G_MODEL/m/r4/1/instancenorm/add/y", "op": "Const", "attr": {"dtype": {"type": "DT_FLOAT"}, "value": {"tensor": {"dtype": "DT_FLOAT", "tensorShape": {}}}}}, {"name": "generator/G_MODEL/m/r4/1/gamma", "op": "Const", "attr": {"value": {"tensor": {"dtype": "DT_FLOAT", "tensorShape": {"dim": [{"size": "512"}]}}}, "dtype": {"type": "DT_FLOAT"}}}, {"name": "generator/G_MODEL/m/r4/Conv_1/weights", "op": "Const", "attr": {"value": {"tensor": {"dtype": "DT_FLOAT", "tensorShape": {"dim": [{"size": "1"}, {"size": "1"}, {"size": "512"}, {"size": "256"}]}}}, "dtype": {"type": "DT_FLOAT"}}}, {"name": "generator/G_MODEL/m/r4/2/moments/mean/reduction_indices", "op": "Const", "attr": {"value": {"tensor": {"dtype": "DT_INT32", "tensorShape": {"dim": [{"size": "2"}]}}}, "dtype": {"type": "DT_INT32"}}}, {"name": "generator/G_MODEL/m/r4/2/moments/variance/reduction_indices", "op": "Const", "attr": {"dtype": {"type": "DT_INT32"}, "value": {"tensor": {"dtype": "DT_INT32", "tensorShape": {"dim": [{"size": "2"}]}}}}}, {"name": "generator/G_MODEL/m/r4/2/instancenorm/add/y", "op": "Const", "attr": {"value": {"tensor": {"dtype": "DT_FLOAT", "tensorShape": {}}}, "dtype": {"type": "DT_FLOAT"}}}, {"name": "generator/G_MODEL/m/r4/2/gamma", "op": "Const", "attr": {"value": {"tensor": {"dtype": "DT_FLOAT", "tensorShape": {"dim": [{"size": "256"}]}}}, "dtype": {"type": "DT_FLOAT"}}}, {"name": "generator/G_MODEL/m/r5/Conv/weights", "op": "Const", "attr": {"value": {"tensor": {"dtype": "DT_FLOAT", "tensorShape": {"dim": [{"size": "1"}, {"size": "1"}, {"size": "256"}, {"size": "512"}]}}}, "dtype": {"type": "DT_FLOAT"}}}, {"name": "generator/G_MODEL/m/r5/InstanceNorm/moments/mean/reduction_indices", "op": "Const", "attr": {"dtype": {"type": "DT_INT32"}, "value": {"tensor": {"dtype": "DT_INT32", "tensorShape": {"dim": [{"size": "2"}]}}}}}, {"name": "generator/G_MODEL/m/r5/InstanceNorm/moments/variance/reduction_indices", "op": "Const", "attr": {"dtype": {"type": "DT_INT32"}, "value": {"tensor": {"dtype": "DT_INT32", "tensorShape": {"dim": [{"size": "2"}]}}}}}, {"name": "generator/G_MODEL/m/r5/InstanceNorm/instancenorm/add/y", "op": "Const", "attr": {"value": {"tensor": {"dtype": "DT_FLOAT", "tensorShape": {}}}, "dtype": {"type": "DT_FLOAT"}}}, {"name": "generator/G_MODEL/m/r5/InstanceNorm/gamma", "op": "Const", "attr": {"value": {"tensor": {"dtype": "DT_FLOAT", "tensorShape": {"dim": [{"size": "512"}]}}}, "dtype": {"type": "DT_FLOAT"}}}, {"name": "generator/G_MODEL/m/r5/MirrorPad/paddings", "op": "Const", "attr": {"value": {"tensor": {"dtype": "DT_INT32", "tensorShape": {"dim": [{"size": "4"}, {"size": "2"}]}}}, "dtype": {"type": "DT_INT32"}}}, {"name": "generator/G_MODEL/m/r5/r5/w", "op": "Const", "attr": {"value": {"tensor": {"dtype": "DT_FLOAT", "tensorShape": {"dim": [{"size": "3"}, {"size": "3"}, {"size": "512"}, {"size": "1"}]}}}, "dtype": {"type": "DT_FLOAT"}}}, {"name": "generator/G_MODEL/m/r5/1/moments/mean/reduction_indices", "op": "Const", "attr": {"dtype": {"type": "DT_INT32"}, "value": {"tensor": {"dtype": "DT_INT32", "tensorShape": {"dim": [{"size": "2"}]}}}}}, {"name": "generator/G_MODEL/m/r5/1/moments/variance/reduction_indices", "op": "Const", "attr": {"value": {"tensor": {"dtype": "DT_INT32", "tensorShape": {"dim": [{"size": "2"}]}}}, "dtype": {"type": "DT_INT32"}}}, {"name": "generator/G_MODEL/m/r5/1/instancenorm/add/y", "op": "Const", "attr": {"value": {"tensor": {"dtype": "DT_FLOAT", "tensorShape": {}}}, "dtype": {"type": "DT_FLOAT"}}}, {"name": "generator/G_MODEL/m/r5/1/gamma", "op": "Const", "attr": {"value": {"tensor": {"dtype": "DT_FLOAT", "tensorShape": {"dim": [{"size": "512"}]}}}, "dtype": {"type": "DT_FLOAT"}}}, {"name": "generator/G_MODEL/m/r5/Conv_1/weights", "op": "Const", "attr": {"value": {"tensor": {"dtype": "DT_FLOAT", "tensorShape": {"dim": [{"size": "1"}, {"size": "1"}, {"size": "512"}, {"size": "256"}]}}}, "dtype": {"type": "DT_FLOAT"}}}, {"name": "generator/G_MODEL/m/r5/2/moments/mean/reduction_indices", "op": "Const", "attr": {"value": {"tensor": {"dtype": "DT_INT32", "tensorShape": {"dim": [{"size": "2"}]}}}, "dtype": {"type": "DT_INT32"}}}, {"name": "generator/G_MODEL/m/r5/2/moments/variance/reduction_indices", "op": "Const", "attr": {"dtype": {"type": "DT_INT32"}, "value": {"tensor": {"dtype": "DT_INT32", "tensorShape": {"dim": [{"size": "2"}]}}}}}, {"name": "generator/G_MODEL/m/r5/2/instancenorm/add/y", "op": "Const", "attr": {"dtype": {"type": "DT_FLOAT"}, "value": {"tensor": {"dtype": "DT_FLOAT", "tensorShape": {}}}}}, {"name": "generator/G_MODEL/m/r5/2/gamma", "op": "Const", "attr": {"value": {"tensor": {"dtype": "DT_FLOAT", "tensorShape": {"dim": [{"size": "256"}]}}}, "dtype": {"type": "DT_FLOAT"}}}, {"name": "generator/G_MODEL/m/r6/Conv/weights", "op": "Const", "attr": {"value": {"tensor": {"dtype": "DT_FLOAT", "tensorShape": {"dim": [{"size": "1"}, {"size": "1"}, {"size": "256"}, {"size": "512"}]}}}, "dtype": {"type": "DT_FLOAT"}}}, {"name": "generator/G_MODEL/m/r6/InstanceNorm/moments/mean/reduction_indices", "op": "Const", "attr": {"dtype": {"type": "DT_INT32"}, "value": {"tensor": {"dtype": "DT_INT32", "tensorShape": {"dim": [{"size": "2"}]}}}}}, {"name": "generator/G_MODEL/m/r6/InstanceNorm/moments/variance/reduction_indices", "op": "Const", "attr": {"dtype": {"type": "DT_INT32"}, "value": {"tensor": {"dtype": "DT_INT32", "tensorShape": {"dim": [{"size": "2"}]}}}}}, {"name": "generator/G_MODEL/m/r6/InstanceNorm/instancenorm/add/y", "op": "Const", "attr": {"dtype": {"type": "DT_FLOAT"}, "value": {"tensor": {"dtype": "DT_FLOAT", "tensorShape": {}}}}}, {"name": "generator/G_MODEL/m/r6/InstanceNorm/gamma", "op": "Const", "attr": {"value": {"tensor": {"dtype": "DT_FLOAT", "tensorShape": {"dim": [{"size": "512"}]}}}, "dtype": {"type": "DT_FLOAT"}}}, {"name": "generator/G_MODEL/m/r6/MirrorPad/paddings", "op": "Const", "attr": {"value": {"tensor": {"dtype": "DT_INT32", "tensorShape": {"dim": [{"size": "4"}, {"size": "2"}]}}}, "dtype": {"type": "DT_INT32"}}}, {"name": "generator/G_MODEL/m/r6/r6/w", "op": "Const", "attr": {"dtype": {"type": "DT_FLOAT"}, "value": {"tensor": {"dtype": "DT_FLOAT", "tensorShape": {"dim": [{"size": "3"}, {"size": "3"}, {"size": "512"}, {"size": "1"}]}}}}}, {"name": "generator/G_MODEL/m/r6/1/moments/mean/reduction_indices", "op": "Const", "attr": {"dtype": {"type": "DT_INT32"}, "value": {"tensor": {"dtype": "DT_INT32", "tensorShape": {"dim": [{"size": "2"}]}}}}}, {"name": "generator/G_MODEL/m/r6/1/moments/variance/reduction_indices", "op": "Const", "attr": {"value": {"tensor": {"dtype": "DT_INT32", "tensorShape": {"dim": [{"size": "2"}]}}}, "dtype": {"type": "DT_INT32"}}}, {"name": "generator/G_MODEL/m/r6/1/instancenorm/add/y", "op": "Const", "attr": {"dtype": {"type": "DT_FLOAT"}, "value": {"tensor": {"dtype": "DT_FLOAT", "tensorShape": {}}}}}, {"name": "generator/G_MODEL/m/r6/1/gamma", "op": "Const", "attr": {"value": {"tensor": {"dtype": "DT_FLOAT", "tensorShape": {"dim": [{"size": "512"}]}}}, "dtype": {"type": "DT_FLOAT"}}}, {"name": "generator/G_MODEL/m/r6/Conv_1/weights", "op": "Const", "attr": {"value": {"tensor": {"dtype": "DT_FLOAT", "tensorShape": {"dim": [{"size": "1"}, {"size": "1"}, {"size": "512"}, {"size": "256"}]}}}, "dtype": {"type": "DT_FLOAT"}}}, {"name": "generator/G_MODEL/m/r6/2/moments/mean/reduction_indices", "op": "Const", "attr": {"dtype": {"type": "DT_INT32"}, "value": {"tensor": {"dtype": "DT_INT32", "tensorShape": {"dim": [{"size": "2"}]}}}}}, {"name": "generator/G_MODEL/m/r6/2/moments/variance/reduction_indices", "op": "Const", "attr": {"dtype": {"type": "DT_INT32"}, "value": {"tensor": {"dtype": "DT_INT32", "tensorShape": {"dim": [{"size": "2"}]}}}}}, {"name": "generator/G_MODEL/m/r6/2/instancenorm/add/y", "op": "Const", "attr": {"dtype": {"type": "DT_FLOAT"}, "value": {"tensor": {"dtype": "DT_FLOAT", "tensorShape": {}}}}}, {"name": "generator/G_MODEL/m/r6/2/gamma", "op": "Const", "attr": {"value": {"tensor": {"dtype": "DT_FLOAT", "tensorShape": {"dim": [{"size": "256"}]}}}, "dtype": {"type": "DT_FLOAT"}}}, {"name": "generator/G_MODEL/m/r7/Conv/weights", "op": "Const", "attr": {"value": {"tensor": {"dtype": "DT_FLOAT", "tensorShape": {"dim": [{"size": "1"}, {"size": "1"}, {"size": "256"}, {"size": "512"}]}}}, "dtype": {"type": "DT_FLOAT"}}}, {"name": "generator/G_MODEL/m/r7/InstanceNorm/moments/mean/reduction_indices", "op": "Const", "attr": {"dtype": {"type": "DT_INT32"}, "value": {"tensor": {"dtype": "DT_INT32", "tensorShape": {"dim": [{"size": "2"}]}}}}}, {"name": "generator/G_MODEL/m/r7/InstanceNorm/moments/variance/reduction_indices", "op": "Const", "attr": {"value": {"tensor": {"dtype": "DT_INT32", "tensorShape": {"dim": [{"size": "2"}]}}}, "dtype": {"type": "DT_INT32"}}}, {"name": "generator/G_MODEL/m/r7/InstanceNorm/instancenorm/add/y", "op": "Const", "attr": {"dtype": {"type": "DT_FLOAT"}, "value": {"tensor": {"dtype": "DT_FLOAT", "tensorShape": {}}}}}, {"name": "generator/G_MODEL/m/r7/InstanceNorm/gamma", "op": "Const", "attr": {"value": {"tensor": {"dtype": "DT_FLOAT", "tensorShape": {"dim": [{"size": "512"}]}}}, "dtype": {"type": "DT_FLOAT"}}}, {"name": "generator/G_MODEL/m/r7/MirrorPad/paddings", "op": "Const", "attr": {"value": {"tensor": {"dtype": "DT_INT32", "tensorShape": {"dim": [{"size": "4"}, {"size": "2"}]}}}, "dtype": {"type": "DT_INT32"}}}, {"name": "generator/G_MODEL/m/r7/r7/w", "op": "Const", "attr": {"value": {"tensor": {"dtype": "DT_FLOAT", "tensorShape": {"dim": [{"size": "3"}, {"size": "3"}, {"size": "512"}, {"size": "1"}]}}}, "dtype": {"type": "DT_FLOAT"}}}, {"name": "generator/G_MODEL/m/r7/1/moments/mean/reduction_indices", "op": "Const", "attr": {"value": {"tensor": {"dtype": "DT_INT32", "tensorShape": {"dim": [{"size": "2"}]}}}, "dtype": {"type": "DT_INT32"}}}, {"name": "generator/G_MODEL/m/r7/1/moments/variance/reduction_indices", "op": "Const", "attr": {"value": {"tensor": {"dtype": "DT_INT32", "tensorShape": {"dim": [{"size": "2"}]}}}, "dtype": {"type": "DT_INT32"}}}, {"name": "generator/G_MODEL/m/r7/1/instancenorm/add/y", "op": "Const", "attr": {"value": {"tensor": {"dtype": "DT_FLOAT", "tensorShape": {}}}, "dtype": {"type": "DT_FLOAT"}}}, {"name": "generator/G_MODEL/m/r7/1/gamma", "op": "Const", "attr": {"dtype": {"type": "DT_FLOAT"}, "value": {"tensor": {"dtype": "DT_FLOAT", "tensorShape": {"dim": [{"size": "512"}]}}}}}, {"name": "generator/G_MODEL/m/r7/Conv_1/weights", "op": "Const", "attr": {"value": {"tensor": {"dtype": "DT_FLOAT", "tensorShape": {"dim": [{"size": "1"}, {"size": "1"}, {"size": "512"}, {"size": "256"}]}}}, "dtype": {"type": "DT_FLOAT"}}}, {"name": "generator/G_MODEL/m/r7/2/moments/mean/reduction_indices", "op": "Const", "attr": {"value": {"tensor": {"dtype": "DT_INT32", "tensorShape": {"dim": [{"size": "2"}]}}}, "dtype": {"type": "DT_INT32"}}}, {"name": "generator/G_MODEL/m/r7/2/moments/variance/reduction_indices", "op": "Const", "attr": {"dtype": {"type": "DT_INT32"}, "value": {"tensor": {"dtype": "DT_INT32", "tensorShape": {"dim": [{"size": "2"}]}}}}}, {"name": "generator/G_MODEL/m/r7/2/instancenorm/add/y", "op": "Const", "attr": {"dtype": {"type": "DT_FLOAT"}, "value": {"tensor": {"dtype": "DT_FLOAT", "tensorShape": {}}}}}, {"name": "generator/G_MODEL/m/r7/2/gamma", "op": "Const", "attr": {"value": {"tensor": {"dtype": "DT_FLOAT", "tensorShape": {"dim": [{"size": "256"}]}}}, "dtype": {"type": "DT_FLOAT"}}}, {"name": "generator/G_MODEL/m/r8/Conv/weights", "op": "Const", "attr": {"value": {"tensor": {"dtype": "DT_FLOAT", "tensorShape": {"dim": [{"size": "1"}, {"size": "1"}, {"size": "256"}, {"size": "512"}]}}}, "dtype": {"type": "DT_FLOAT"}}}, {"name": "generator/G_MODEL/m/r8/InstanceNorm/moments/mean/reduction_indices", "op": "Const", "attr": {"value": {"tensor": {"dtype": "DT_INT32", "tensorShape": {"dim": [{"size": "2"}]}}}, "dtype": {"type": "DT_INT32"}}}, {"name": "generator/G_MODEL/m/r8/InstanceNorm/moments/variance/reduction_indices", "op": "Const", "attr": {"value": {"tensor": {"dtype": "DT_INT32", "tensorShape": {"dim": [{"size": "2"}]}}}, "dtype": {"type": "DT_INT32"}}}, {"name": "generator/G_MODEL/m/r8/InstanceNorm/instancenorm/add/y", "op": "Const", "attr": {"value": {"tensor": {"dtype": "DT_FLOAT", "tensorShape": {}}}, "dtype": {"type": "DT_FLOAT"}}}, {"name": "generator/G_MODEL/m/r8/InstanceNorm/gamma", "op": "Const", "attr": {"value": {"tensor": {"dtype": "DT_FLOAT", "tensorShape": {"dim": [{"size": "512"}]}}}, "dtype": {"type": "DT_FLOAT"}}}, {"name": "generator/G_MODEL/m/r8/MirrorPad/paddings", "op": "Const", "attr": {"dtype": {"type": "DT_INT32"}, "value": {"tensor": {"dtype": "DT_INT32", "tensorShape": {"dim": [{"size": "4"}, {"size": "2"}]}}}}}, {"name": "generator/G_MODEL/m/r8/r8/w", "op": "Const", "attr": {"dtype": {"type": "DT_FLOAT"}, "value": {"tensor": {"dtype": "DT_FLOAT", "tensorShape": {"dim": [{"size": "3"}, {"size": "3"}, {"size": "512"}, {"size": "1"}]}}}}}, {"name": "generator/G_MODEL/m/r8/1/moments/mean/reduction_indices", "op": "Const", "attr": {"value": {"tensor": {"dtype": "DT_INT32", "tensorShape": {"dim": [{"size": "2"}]}}}, "dtype": {"type": "DT_INT32"}}}, {"name": "generator/G_MODEL/m/r8/1/moments/variance/reduction_indices", "op": "Const", "attr": {"value": {"tensor": {"dtype": "DT_INT32", "tensorShape": {"dim": [{"size": "2"}]}}}, "dtype": {"type": "DT_INT32"}}}, {"name": "generator/G_MODEL/m/r8/1/instancenorm/add/y", "op": "Const", "attr": {"dtype": {"type": "DT_FLOAT"}, "value": {"tensor": {"dtype": "DT_FLOAT", "tensorShape": {}}}}}, {"name": "generator/G_MODEL/m/r8/1/gamma", "op": "Const", "attr": {"dtype": {"type": "DT_FLOAT"}, "value": {"tensor": {"dtype": "DT_FLOAT", "tensorShape": {"dim": [{"size": "512"}]}}}}}, {"name": "generator/G_MODEL/m/r8/Conv_1/weights", "op": "Const", "attr": {"dtype": {"type": "DT_FLOAT"}, "value": {"tensor": {"dtype": "DT_FLOAT", "tensorShape": {"dim": [{"size": "1"}, {"size": "1"}, {"size": "512"}, {"size": "256"}]}}}}}, {"name": "generator/G_MODEL/m/r8/2/moments/mean/reduction_indices", "op": "Const", "attr": {"dtype": {"type": "DT_INT32"}, "value": {"tensor": {"dtype": "DT_INT32", "tensorShape": {"dim": [{"size": "2"}]}}}}}, {"name": "generator/G_MODEL/m/r8/2/moments/variance/reduction_indices", "op": "Const", "attr": {"dtype": {"type": "DT_INT32"}, "value": {"tensor": {"dtype": "DT_INT32", "tensorShape": {"dim": [{"size": "2"}]}}}}}, {"name": "generator/G_MODEL/m/r8/2/instancenorm/add/y", "op": "Const", "attr": {"dtype": {"type": "DT_FLOAT"}, "value": {"tensor": {"dtype": "DT_FLOAT", "tensorShape": {}}}}}, {"name": "generator/G_MODEL/m/r8/2/gamma", "op": "Const", "attr": {"value": {"tensor": {"dtype": "DT_FLOAT", "tensorShape": {"dim": [{"size": "256"}]}}}, "dtype": {"type": "DT_FLOAT"}}}, {"name": "generator/G_MODEL/m/MirrorPad_1/paddings", "op": "Const", "attr": {"dtype": {"type": "DT_INT32"}, "value": {"tensor": {"dtype": "DT_INT32", "tensorShape": {"dim": [{"size": "4"}, {"size": "2"}]}}}}}, {"name": "generator/G_MODEL/m/Conv_1/weights", "op": "Const", "attr": {"value": {"tensor": {"dtype": "DT_FLOAT", "tensorShape": {"dim": [{"size": "3"}, {"size": "3"}, {"size": "256"}, {"size": "256"}]}}}, "dtype": {"type": "DT_FLOAT"}}}, {"name": "generator/G_MODEL/m/InstanceNorm_1/moments/mean/reduction_indices", "op": "Const", "attr": {"dtype": {"type": "DT_INT32"}, "value": {"tensor": {"dtype": "DT_INT32", "tensorShape": {"dim": [{"size": "2"}]}}}}}, {"name": "generator/G_MODEL/m/InstanceNorm_1/moments/variance/reduction_indices", "op": "Const", "attr": {"dtype": {"type": "DT_INT32"}, "value": {"tensor": {"dtype": "DT_INT32", "tensorShape": {"dim": [{"size": "2"}]}}}}}, {"name": "generator/G_MODEL/m/InstanceNorm_1/instancenorm/add/y", "op": "Const", "attr": {"dtype": {"type": "DT_FLOAT"}, "value": {"tensor": {"dtype": "DT_FLOAT", "tensorShape": {}}}}}, {"name": "generator/G_MODEL/m/InstanceNorm_1/gamma", "op": "Const", "attr": {"value": {"tensor": {"dtype": "DT_FLOAT", "tensorShape": {"dim": [{"size": "256"}]}}}, "dtype": {"type": "DT_FLOAT"}}}, {"name": "generator/G_MODEL/u2/strided_slice_1/stack", "op": "Const", "attr": {"dtype": {"type": "DT_INT32"}, "value": {"tensor": {"dtype": "DT_INT32", "tensorShape": {"dim": [{"size": "1"}]}}}}}, {"name": "generator/G_MODEL/u2/strided_slice_1/stack_1", "op": "Const", "attr": {"dtype": {"type": "DT_INT32"}, "value": {"tensor": {"dtype": "DT_INT32", "tensorShape": {"dim": [{"size": "1"}]}}}}}, {"name": "generator/G_MODEL/u2/strided_slice_1/stack_2", "op": "Const", "attr": {"value": {"tensor": {"dtype": "DT_INT32", "tensorShape": {"dim": [{"size": "1"}]}}}, "dtype": {"type": "DT_INT32"}}}, {"name": "generator/G_MODEL/u2/MirrorPad/paddings", "op": "Const", "attr": {"value": {"tensor": {"dtype": "DT_INT32", "tensorShape": {"dim": [{"size": "4"}, {"size": "2"}]}}}, "dtype": {"type": "DT_INT32"}}}, {"name": "generator/G_MODEL/u2/SeparableConv2d/depthwise_weights", "op": "Const", "attr": {"dtype": {"type": "DT_FLOAT"}, "value": {"tensor": {"dtype": "DT_FLOAT", "tensorShape": {"dim": [{"size": "3"}, {"size": "3"}, {"size": "256"}, {"size": "1"}]}}}}}, {"name": "generator/G_MODEL/u2/SeparableConv2d/pointwise_weights", "op": "Const", "attr": {"dtype": {"type": "DT_FLOAT"}, "value": {"tensor": {"dtype": "DT_FLOAT", "tensorShape": {"dim": [{"size": "1"}, {"size": "1"}, {"size": "256"}, {"size": "128"}]}}}}}, {"name": "generator/G_MODEL/u2/SeparableConv2d/InstanceNorm/moments/mean/reduction_indices", "op": "Const", "attr": {"dtype": {"type": "DT_INT32"}, "value": {"tensor": {"dtype": "DT_INT32", "tensorShape": {"dim": [{"size": "2"}]}}}}}, {"name": "generator/G_MODEL/u2/SeparableConv2d/InstanceNorm/moments/variance/reduction_indices", "op": "Const", "attr": {"dtype": {"type": "DT_INT32"}, "value": {"tensor": {"dtype": "DT_INT32", "tensorShape": {"dim": [{"size": "2"}]}}}}}, {"name": "generator/G_MODEL/u2/SeparableConv2d/InstanceNorm/instancenorm/add/y", "op": "Const", "attr": {"value": {"tensor": {"dtype": "DT_FLOAT", "tensorShape": {}}}, "dtype": {"type": "DT_FLOAT"}}}, {"name": "generator/G_MODEL/u2/SeparableConv2d/InstanceNorm/gamma", "op": "Const", "attr": {"value": {"tensor": {"dtype": "DT_FLOAT", "tensorShape": {"dim": [{"size": "128"}]}}}, "dtype": {"type": "DT_FLOAT"}}}, {"name": "generator/G_MODEL/u2/MirrorPad_1/paddings", "op": "Const", "attr": {"dtype": {"type": "DT_INT32"}, "value": {"tensor": {"dtype": "DT_INT32", "tensorShape": {"dim": [{"size": "4"}, {"size": "2"}]}}}}}, {"name": "generator/G_MODEL/u2/SeparableConv2d_1/depthwise_weights", "op": "Const", "attr": {"value": {"tensor": {"dtype": "DT_FLOAT", "tensorShape": {"dim": [{"size": "3"}, {"size": "3"}, {"size": "128"}, {"size": "1"}]}}}, "dtype": {"type": "DT_FLOAT"}}}, {"name": "generator/G_MODEL/u2/SeparableConv2d_1/pointwise_weights", "op": "Const", "attr": {"value": {"tensor": {"dtype": "DT_FLOAT", "tensorShape": {"dim": [{"size": "1"}, {"size": "1"}, {"size": "128"}, {"size": "128"}]}}}, "dtype": {"type": "DT_FLOAT"}}}, {"name": "generator/G_MODEL/u2/SeparableConv2d_1/InstanceNorm/moments/mean/reduction_indices", "op": "Const", "attr": {"value": {"tensor": {"dtype": "DT_INT32", "tensorShape": {"dim": [{"size": "2"}]}}}, "dtype": {"type": "DT_INT32"}}}, {"name": "generator/G_MODEL/u2/SeparableConv2d_1/InstanceNorm/moments/variance/reduction_indices", "op": "Const", "attr": {"dtype": {"type": "DT_INT32"}, "value": {"tensor": {"dtype": "DT_INT32", "tensorShape": {"dim": [{"size": "2"}]}}}}}, {"name": "generator/G_MODEL/u2/SeparableConv2d_1/InstanceNorm/instancenorm/add/y", "op": "Const", "attr": {"dtype": {"type": "DT_FLOAT"}, "value": {"tensor": {"dtype": "DT_FLOAT", "tensorShape": {}}}}}, {"name": "generator/G_MODEL/u2/SeparableConv2d_1/InstanceNorm/gamma", "op": "Const", "attr": {"value": {"tensor": {"dtype": "DT_FLOAT", "tensorShape": {"dim": [{"size": "128"}]}}}, "dtype": {"type": "DT_FLOAT"}}}, {"name": "generator/G_MODEL/u2/MirrorPad_2/paddings", "op": "Const", "attr": {"value": {"tensor": {"dtype": "DT_INT32", "tensorShape": {"dim": [{"size": "4"}, {"size": "2"}]}}}, "dtype": {"type": "DT_INT32"}}}, {"name": "generator/G_MODEL/u2/Conv/weights", "op": "Const", "attr": {"value": {"tensor": {"dtype": "DT_FLOAT", "tensorShape": {"dim": [{"size": "3"}, {"size": "3"}, {"size": "128"}, {"size": "128"}]}}}, "dtype": {"type": "DT_FLOAT"}}}, {"name": "generator/G_MODEL/u2/InstanceNorm/moments/mean/reduction_indices", "op": "Const", "attr": {"value": {"tensor": {"dtype": "DT_INT32", "tensorShape": {"dim": [{"size": "2"}]}}}, "dtype": {"type": "DT_INT32"}}}, {"name": "generator/G_MODEL/u2/InstanceNorm/moments/variance/reduction_indices", "op": "Const", "attr": {"dtype": {"type": "DT_INT32"}, "value": {"tensor": {"dtype": "DT_INT32", "tensorShape": {"dim": [{"size": "2"}]}}}}}, {"name": "generator/G_MODEL/u2/InstanceNorm/instancenorm/add/y", "op": "Const", "attr": {"value": {"tensor": {"dtype": "DT_FLOAT", "tensorShape": {}}}, "dtype": {"type": "DT_FLOAT"}}}, {"name": "generator/G_MODEL/u2/InstanceNorm/gamma", "op": "Const", "attr": {"value": {"tensor": {"dtype": "DT_FLOAT", "tensorShape": {"dim": [{"size": "128"}]}}}, "dtype": {"type": "DT_FLOAT"}}}, {"name": "generator/G_MODEL/u1/strided_slice_1/stack", "op": "Const", "attr": {"value": {"tensor": {"dtype": "DT_INT32", "tensorShape": {"dim": [{"size": "1"}]}}}, "dtype": {"type": "DT_INT32"}}}, {"name": "generator/G_MODEL/u1/strided_slice_1/stack_1", "op": "Const", "attr": {"dtype": {"type": "DT_INT32"}, "value": {"tensor": {"dtype": "DT_INT32", "tensorShape": {"dim": [{"size": "1"}]}}}}}, {"name": "generator/G_MODEL/u1/strided_slice_1/stack_2", "op": "Const", "attr": {"dtype": {"type": "DT_INT32"}, "value": {"tensor": {"dtype": "DT_INT32", "tensorShape": {"dim": [{"size": "1"}]}}}}}, {"name": "generator/G_MODEL/u1/MirrorPad/paddings", "op": "Const", "attr": {"value": {"tensor": {"dtype": "DT_INT32", "tensorShape": {"dim": [{"size": "4"}, {"size": "2"}]}}}, "dtype": {"type": "DT_INT32"}}}, {"name": "generator/G_MODEL/u1/SeparableConv2d/depthwise_weights", "op": "Const", "attr": {"value": {"tensor": {"dtype": "DT_FLOAT", "tensorShape": {"dim": [{"size": "3"}, {"size": "3"}, {"size": "128"}, {"size": "1"}]}}}, "dtype": {"type": "DT_FLOAT"}}}, {"name": "generator/G_MODEL/u1/SeparableConv2d/pointwise_weights", "op": "Const", "attr": {"dtype": {"type": "DT_FLOAT"}, "value": {"tensor": {"dtype": "DT_FLOAT", "tensorShape": {"dim": [{"size": "1"}, {"size": "1"}, {"size": "128"}, {"size": "128"}]}}}}}, {"name": "generator/G_MODEL/u1/SeparableConv2d/InstanceNorm/moments/mean/reduction_indices", "op": "Const", "attr": {"value": {"tensor": {"dtype": "DT_INT32", "tensorShape": {"dim": [{"size": "2"}]}}}, "dtype": {"type": "DT_INT32"}}}, {"name": "generator/G_MODEL/u1/SeparableConv2d/InstanceNorm/moments/variance/reduction_indices", "op": "Const", "attr": {"dtype": {"type": "DT_INT32"}, "value": {"tensor": {"dtype": "DT_INT32", "tensorShape": {"dim": [{"size": "2"}]}}}}}, {"name": "generator/G_MODEL/u1/SeparableConv2d/InstanceNorm/instancenorm/add/y", "op": "Const", "attr": {"dtype": {"type": "DT_FLOAT"}, "value": {"tensor": {"dtype": "DT_FLOAT", "tensorShape": {}}}}}, {"name": "generator/G_MODEL/u1/SeparableConv2d/InstanceNorm/gamma", "op": "Const", "attr": {"value": {"tensor": {"dtype": "DT_FLOAT", "tensorShape": {"dim": [{"size": "128"}]}}}, "dtype": {"type": "DT_FLOAT"}}}, {"name": "generator/G_MODEL/u1/MirrorPad_1/paddings", "op": "Const", "attr": {"value": {"tensor": {"dtype": "DT_INT32", "tensorShape": {"dim": [{"size": "4"}, {"size": "2"}]}}}, "dtype": {"type": "DT_INT32"}}}, {"name": "generator/G_MODEL/u1/Conv/weights", "op": "Const", "attr": {"value": {"tensor": {"dtype": "DT_FLOAT", "tensorShape": {"dim": [{"size": "3"}, {"size": "3"}, {"size": "128"}, {"size": "64"}]}}}, "dtype": {"type": "DT_FLOAT"}}}, {"name": "generator/G_MODEL/u1/InstanceNorm/moments/mean/reduction_indices", "op": "Const", "attr": {"value": {"tensor": {"dtype": "DT_INT32", "tensorShape": {"dim": [{"size": "2"}]}}}, "dtype": {"type": "DT_INT32"}}}, {"name": "generator/G_MODEL/u1/InstanceNorm/moments/variance/reduction_indices", "op": "Const", "attr": {"dtype": {"type": "DT_INT32"}, "value": {"tensor": {"dtype": "DT_INT32", "tensorShape": {"dim": [{"size": "2"}]}}}}}, {"name": "generator/G_MODEL/u1/InstanceNorm/instancenorm/add/y", "op": "Const", "attr": {"value": {"tensor": {"dtype": "DT_FLOAT", "tensorShape": {}}}, "dtype": {"type": "DT_FLOAT"}}}, {"name": "generator/G_MODEL/u1/InstanceNorm/gamma", "op": "Const", "attr": {"dtype": {"type": "DT_FLOAT"}, "value": {"tensor": {"dtype": "DT_FLOAT", "tensorShape": {"dim": [{"size": "64"}]}}}}}, {"name": "generator/G_MODEL/u1/MirrorPad_2/paddings", "op": "Const", "attr": {"value": {"tensor": {"dtype": "DT_INT32", "tensorShape": {"dim": [{"size": "4"}, {"size": "2"}]}}}, "dtype": {"type": "DT_INT32"}}}, {"name": "generator/G_MODEL/u1/Conv_1/weights", "op": "Const", "attr": {"value": {"tensor": {"dtype": "DT_FLOAT", "tensorShape": {"dim": [{"size": "3"}, {"size": "3"}, {"size": "64"}, {"size": "64"}]}}}, "dtype": {"type": "DT_FLOAT"}}}, {"name": "generator/G_MODEL/u1/InstanceNorm_1/moments/mean/reduction_indices", "op": "Const", "attr": {"dtype": {"type": "DT_INT32"}, "value": {"tensor": {"dtype": "DT_INT32", "tensorShape": {"dim": [{"size": "2"}]}}}}}, {"name": "generator/G_MODEL/u1/InstanceNorm_1/moments/variance/reduction_indices", "op": "Const", "attr": {"value": {"tensor": {"dtype": "DT_INT32", "tensorShape": {"dim": [{"size": "2"}]}}}, "dtype": {"type": "DT_INT32"}}}, {"name": "generator/G_MODEL/u1/InstanceNorm_1/instancenorm/add/y", "op": "Const", "attr": {"dtype": {"type": "DT_FLOAT"}, "value": {"tensor": {"dtype": "DT_FLOAT", "tensorShape": {}}}}}, {"name": "generator/G_MODEL/u1/InstanceNorm_1/gamma", "op": "Const", "attr": {"dtype": {"type": "DT_FLOAT"}, "value": {"tensor": {"dtype": "DT_FLOAT", "tensorShape": {"dim": [{"size": "64"}]}}}}}, {"name": "generator/G_MODEL/Conv/weights", "op": "Const", "attr": {"value": {"tensor": {"dtype": "DT_FLOAT", "tensorShape": {"dim": [{"size": "1"}, {"size": "1"}, {"size": "64"}, {"size": "3"}]}}}, "dtype": {"type": "DT_FLOAT"}}}, {"name": "generator_input", "op": "Placeholder", "attr": {"shape": {"shape": {"dim": [{"size": "1"}, {"size": "-1"}, {"size": "-1"}, {"size": "3"}]}}, "dtype": {"type": "DT_FLOAT"}}}, {"name": "generator/G_MODEL/b1/MirrorPad", "op": "MirrorPad", "input": ["generator_input", "generator/G_MODEL/b1/MirrorPad/paddings"], "attr": {"Tpaddings": {"type": "DT_INT32"}, "mode": {"s": "UkVGTEVDVA=="}, "T": {"type": "DT_FLOAT"}}}, {"name": "generator/G_MODEL/b1/Conv/Conv2D", "op": "Conv2D", "input": ["generator/G_MODEL/b1/MirrorPad", "generator/G_MODEL/b1/Conv/weights"], "device": "/device:CPU:0", "attr": {"dilations": {"list": {"i": ["1", "1", "1", "1"]}}, "T": {"type": "DT_FLOAT"}, "explicit_paddings": {"list": {}}, "use_cudnn_on_gpu": {"b": true}, "data_format": {"s": "TkhXQw=="}, "padding": {"s": "VkFMSUQ="}, "strides": {"list": {"i": ["1", "1", "1", "1"]}}}}, {"name": "generator/G_MODEL/b1/InstanceNorm/moments/mean", "op": "Mean", "input": ["generator/G_MODEL/b1/Conv/Conv2D", "generator/G_MODEL/b1/InstanceNorm/moments/mean/reduction_indices"], "attr": {"Tidx": {"type": "DT_INT32"}, "T": {"type": "DT_FLOAT"}, "keep_dims": {"b": true}}}, {"name": "generator/G_MODEL/b1/InstanceNorm/moments/SquaredDifference", "op": "SquaredDifference", "input": ["generator/G_MODEL/b1/Conv/Conv2D", "generator/G_MODEL/b1/InstanceNorm/moments/mean"], "attr": {"T": {"type": "DT_FLOAT"}}}, {"name": "generator/G_MODEL/b1/InstanceNorm/moments/variance", "op": "Mean", "input": ["generator/G_MODEL/b1/InstanceNorm/moments/SquaredDifference", "generator/G_MODEL/b1/InstanceNorm/moments/variance/reduction_indices"], "attr": {"T": {"type": "DT_FLOAT"}, "keep_dims": {"b": true}, "Tidx": {"type": "DT_INT32"}}}, {"name": "generator/G_MODEL/b1/InstanceNorm/instancenorm/add", "op": "AddV2", "input": ["generator/G_MODEL/b1/InstanceNorm/moments/variance", "generator/G_MODEL/b1/InstanceNorm/instancenorm/add/y"], "attr": {"T": {"type": "DT_FLOAT"}}}, {"name": "generator/G_MODEL/b1/InstanceNorm/instancenorm/Rsqrt", "op": "Rsqrt", "input": ["generator/G_MODEL/b1/InstanceNorm/instancenorm/add"], "attr": {"T": {"type": "DT_FLOAT"}}}, {"name": "generator/G_MODEL/b1/InstanceNorm/instancenorm/mul", "op": "Mul", "input": ["generator/G_MODEL/b1/InstanceNorm/instancenorm/Rsqrt", "generator/G_MODEL/b1/InstanceNorm/gamma"], "attr": {"T": {"type": "DT_FLOAT"}}}, {"name": "generator/G_MODEL/b1/InstanceNorm/instancenorm/mul_2", "op": "Mul", "input": ["generator/G_MODEL/b1/InstanceNorm/moments/mean", "generator/G_MODEL/b1/InstanceNorm/instancenorm/mul"], "attr": {"T": {"type": "DT_FLOAT"}}}, {"name": "generator/G_MODEL/b1/InstanceNorm/instancenorm/mul_1", "op": "Mul", "input": ["generator/G_MODEL/b1/Conv/Conv2D", "generator/G_MODEL/b1/InstanceNorm/instancenorm/mul"], "attr": {"T": {"type": "DT_FLOAT"}}}, {"name": "generator/G_MODEL/b1/InstanceNorm/instancenorm/sub", "op": "Sub", "input": ["generator/G_MODEL/b1/InstanceNorm/beta", "generator/G_MODEL/b1/InstanceNorm/instancenorm/mul_2"], "attr": {"T": {"type": "DT_FLOAT"}}}, {"name": "generator/G_MODEL/b1/InstanceNorm/instancenorm/add_1", "op": "AddV2", "input": ["generator/G_MODEL/b1/InstanceNorm/instancenorm/mul_1", "generator/G_MODEL/b1/InstanceNorm/instancenorm/sub"], "attr": {"T": {"type": "DT_FLOAT"}}}, {"name": "generator/G_MODEL/b1/LeakyRelu", "op": "LeakyRelu", "input": ["generator/G_MODEL/b1/InstanceNorm/instancenorm/add_1"], "attr": {"T": {"type": "DT_FLOAT"}, "alpha": {"f": 0.2}}}, {"name": "generator/G_MODEL/b1/MirrorPad_1", "op": "MirrorPad", "input": ["generator/G_MODEL/b1/LeakyRelu", "generator/G_MODEL/b1/MirrorPad_1/paddings"], "attr": {"T": {"type": "DT_FLOAT"}, "mode": {"s": "UkVGTEVDVA=="}, "Tpaddings": {"type": "DT_INT32"}}}, {"name": "generator/G_MODEL/b1/Conv_1/Conv2D", "op": "Conv2D", "input": ["generator/G_MODEL/b1/MirrorPad_1", "generator/G_MODEL/b1/Conv_1/weights"], "device": "/device:CPU:0", "attr": {"data_format": {"s": "TkhXQw=="}, "strides": {"list": {"i": ["1", "1", "1", "1"]}}, "explicit_paddings": {"list": {}}, "padding": {"s": "VkFMSUQ="}, "use_cudnn_on_gpu": {"b": true}, "dilations": {"list": {"i": ["1", "1", "1", "1"]}}, "T": {"type": "DT_FLOAT"}}}, {"name": "generator/G_MODEL/b1/InstanceNorm_1/moments/mean", "op": "Mean", "input": ["generator/G_MODEL/b1/Conv_1/Conv2D", "generator/G_MODEL/b1/InstanceNorm_1/moments/mean/reduction_indices"], "attr": {"Tidx": {"type": "DT_INT32"}, "T": {"type": "DT_FLOAT"}, "keep_dims": {"b": true}}}, {"name": "generator/G_MODEL/b1/InstanceNorm_1/moments/SquaredDifference", "op": "SquaredDifference", "input": ["generator/G_MODEL/b1/Conv_1/Conv2D", "generator/G_MODEL/b1/InstanceNorm_1/moments/mean"], "attr": {"T": {"type": "DT_FLOAT"}}}, {"name": "generator/G_MODEL/b1/InstanceNorm_1/moments/variance", "op": "Mean", "input": ["generator/G_MODEL/b1/InstanceNorm_1/moments/SquaredDifference", "generator/G_MODEL/b1/InstanceNorm_1/moments/variance/reduction_indices"], "attr": {"Tidx": {"type": "DT_INT32"}, "T": {"type": "DT_FLOAT"}, "keep_dims": {"b": true}}}, {"name": "generator/G_MODEL/b1/InstanceNorm_1/instancenorm/add", "op": "AddV2", "input": ["generator/G_MODEL/b1/InstanceNorm_1/moments/variance", "generator/G_MODEL/b1/InstanceNorm_1/instancenorm/add/y"], "attr": {"T": {"type": "DT_FLOAT"}}}, {"name": "generator/G_MODEL/b1/InstanceNorm_1/instancenorm/Rsqrt", "op": "Rsqrt", "input": ["generator/G_MODEL/b1/InstanceNorm_1/instancenorm/add"], "attr": {"T": {"type": "DT_FLOAT"}}}, {"name": "generator/G_MODEL/b1/InstanceNorm_1/instancenorm/mul", "op": "Mul", "input": ["generator/G_MODEL/b1/InstanceNorm_1/instancenorm/Rsqrt", "generator/G_MODEL/b1/InstanceNorm_1/gamma"], "attr": {"T": {"type": "DT_FLOAT"}}}, {"name": "generator/G_MODEL/b1/InstanceNorm_1/instancenorm/mul_2", "op": "Mul", "input": ["generator/G_MODEL/b1/InstanceNorm_1/moments/mean", "generator/G_MODEL/b1/InstanceNorm_1/instancenorm/mul"], "attr": {"T": {"type": "DT_FLOAT"}}}, {"name": "generator/G_MODEL/b1/InstanceNorm_1/instancenorm/mul_1", "op": "Mul", "input": ["generator/G_MODEL/b1/Conv_1/Conv2D", "generator/G_MODEL/b1/InstanceNorm_1/instancenorm/mul"], "attr": {"T": {"type": "DT_FLOAT"}}}, {"name": "generator/G_MODEL/b1/InstanceNorm_1/instancenorm/sub", "op": "Sub", "input": ["generator/G_MODEL/b1/InstanceNorm_1/beta", "generator/G_MODEL/b1/InstanceNorm_1/instancenorm/mul_2"], "attr": {"T": {"type": "DT_FLOAT"}}}, {"name": "generator/G_MODEL/b1/InstanceNorm_1/instancenorm/add_1", "op": "AddV2", "input": ["generator/G_MODEL/b1/InstanceNorm_1/instancenorm/mul_1", "generator/G_MODEL/b1/InstanceNorm_1/instancenorm/sub"], "attr": {"T": {"type": "DT_FLOAT"}}}, {"name": "generator/G_MODEL/b1/LeakyRelu_1", "op": "LeakyRelu", "input": ["generator/G_MODEL/b1/InstanceNorm_1/instancenorm/add_1"], "attr": {"T": {"type": "DT_FLOAT"}, "alpha": {"f": 0.2}}}, {"name": "generator/G_MODEL/b1/MirrorPad_2", "op": "MirrorPad", "input": ["generator/G_MODEL/b1/LeakyRelu_1", "generator/G_MODEL/b1/MirrorPad_2/paddings"], "attr": {"mode": {"s": "UkVGTEVDVA=="}, "T": {"type": "DT_FLOAT"}, "Tpaddings": {"type": "DT_INT32"}}}, {"name": "generator/G_MODEL/b1/Shape", "op": "Shape", "input": ["generator/G_MODEL/b1/LeakyRelu_1"], "attr": {"T": {"type": "DT_FLOAT"}, "out_type": {"type": "DT_INT32"}}}, {"name": "generator/G_MODEL/b1/Shape_1", "op": "Shape", "input": ["generator/G_MODEL/b1/LeakyRelu_1"], "attr": {"out_type": {"type": "DT_INT32"}, "T": {"type": "DT_FLOAT"}}}, {"name": "generator/G_MODEL/b1/SeparableConv2d/separable_conv2d/depthwise", "op": "DepthwiseConv2dNative", "input": ["generator/G_MODEL/b1/MirrorPad_2", "generator/G_MODEL/b1/SeparableConv2d/depthwise_weights"], "attr": {"padding": {"s": "VkFMSUQ="}, "dilations": {"list": {"i": ["1", "1", "1", "1"]}}, "T": {"type": "DT_FLOAT"}, "data_format": {"s": "TkhXQw=="}, "strides": {"list": {"i": ["1", "2", "2", "1"]}}, "explicit_paddings": {"list": {}}}}, {"name": "generator/G_MODEL/b1/strided_slice", "op": "StridedSlice", "input": ["generator/G_MODEL/b1/Shape", "generator/G_MODEL/b1/strided_slice/stack", "generator/G_MODEL/b1/strided_slice/stack_1", "generator/G_MODEL/b1/strided_slice/stack_2"], "attr": {"ellipsis_mask": {"i": "0"}, "Index": {"type": "DT_INT32"}, "begin_mask": {"i": "0"}, "shrink_axis_mask": {"i": "1"}, "new_axis_mask": {"i": "0"}, "T": {"type": "DT_INT32"}, "end_mask": {"i": "0"}}}, {"name": "generator/G_MODEL/b1/strided_slice_1", "op": "StridedSlice", "input": ["generator/G_MODEL/b1/Shape_1", "generator/G_MODEL/b1/strided_slice_1/stack", "generator/G_MODEL/b1/strided_slice_1/stack_1", "generator/G_MODEL/b1/strided_slice_1/stack_2"], "attr": {"end_mask": {"i": "0"}, "shrink_axis_mask": {"i": "1"}, "new_axis_mask": {"i": "0"}, "ellipsis_mask": {"i": "0"}, "T": {"type": "DT_INT32"}, "begin_mask": {"i": "0"}, "Index": {"type": "DT_INT32"}}}, {"name": "generator/G_MODEL/b1/SeparableConv2d/separable_conv2d", "op": "Conv2D", "input": ["generator/G_MODEL/b1/SeparableConv2d/separable_conv2d/depthwise", "generator/G_MODEL/b1/SeparableConv2d/pointwise_weights"], "device": "/device:CPU:0", "attr": {"explicit_paddings": {"list": {}}, "dilations": {"list": {"i": ["1", "1", "1", "1"]}}, "data_format": {"s": "TkhXQw=="}, "use_cudnn_on_gpu": {"b": true}, "T": {"type": "DT_FLOAT"}, "strides": {"list": {"i": ["1", "1", "1", "1"]}}, "padding": {"s": "VkFMSUQ="}}}, {"name": "generator/G_MODEL/b1/floordiv", "op": "FloorDiv", "input": ["generator/G_MODEL/b1/strided_slice", "generator/G_MODEL/b1/floordiv/y"], "attr": {"T": {"type": "DT_INT32"}}}, {"name": "generator/G_MODEL/b1/floordiv_1", "op": "FloorDiv", "input": ["generator/G_MODEL/b1/strided_slice_1", "generator/G_MODEL/b1/floordiv_1/y"], "attr": {"T": {"type": "DT_INT32"}}}, {"name": "generator/G_MODEL/b1/SeparableConv2d/InstanceNorm/moments/mean", "op": "Mean", "input": ["generator/G_MODEL/b1/SeparableConv2d/separable_conv2d", "generator/G_MODEL/b1/SeparableConv2d/InstanceNorm/moments/mean/reduction_indices"], "attr": {"keep_dims": {"b": true}, "Tidx": {"type": "DT_INT32"}, "T": {"type": "DT_FLOAT"}}}, {"name": "generator/G_MODEL/b1/resize/size", "op": "Pack", "input": ["generator/G_MODEL/b1/floordiv", "generator/G_MODEL/b1/floordiv_1"], "attr": {"T": {"type": "DT_INT32"}, "axis": {"i": "0"}, "N": {"i": "2"}}}, {"name": "generator/G_MODEL/b1/SeparableConv2d/InstanceNorm/moments/SquaredDifference", "op": "SquaredDifference", "input": ["generator/G_MODEL/b1/SeparableConv2d/separable_conv2d", "generator/G_MODEL/b1/SeparableConv2d/InstanceNorm/moments/mean"], "attr": {"T": {"type": "DT_FLOAT"}}}, {"name": "generator/G_MODEL/b1/resize/ResizeBilinear", "op": "ResizeBilinear", "input": ["generator/G_MODEL/b1/LeakyRelu_1", "generator/G_MODEL/b1/resize/size"], "attr": {"align_corners": {"b": false}, "half_pixel_centers": {"b": false}, "T": {"type": "DT_FLOAT"}}}, {"name": "generator/G_MODEL/b1/SeparableConv2d/InstanceNorm/moments/variance", "op": "Mean", "input": ["generator/G_MODEL/b1/SeparableConv2d/InstanceNorm/moments/SquaredDifference", "generator/G_MODEL/b1/SeparableConv2d/InstanceNorm/moments/variance/reduction_indices"], "attr": {"Tidx": {"type": "DT_INT32"}, "keep_dims": {"b": true}, "T": {"type": "DT_FLOAT"}}}, {"name": "generator/G_MODEL/b1/MirrorPad_3", "op": "MirrorPad", "input": ["generator/G_MODEL/b1/resize/ResizeBilinear", "generator/G_MODEL/b1/MirrorPad_3/paddings"], "attr": {"mode": {"s": "UkVGTEVDVA=="}, "T": {"type": "DT_FLOAT"}, "Tpaddings": {"type": "DT_INT32"}}}, {"name": "generator/G_MODEL/b1/SeparableConv2d/InstanceNorm/instancenorm/add", "op": "AddV2", "input": ["generator/G_MODEL/b1/SeparableConv2d/InstanceNorm/moments/variance", "generator/G_MODEL/b1/SeparableConv2d/InstanceNorm/instancenorm/add/y"], "attr": {"T": {"type": "DT_FLOAT"}}}, {"name": "generator/G_MODEL/b1/SeparableConv2d_1/separable_conv2d/depthwise", "op": "DepthwiseConv2dNative", "input": ["generator/G_MODEL/b1/MirrorPad_3", "generator/G_MODEL/b1/SeparableConv2d_1/depthwise_weights"], "attr": {"strides": {"list": {"i": ["1", "1", "1", "1"]}}, "padding": {"s": "VkFMSUQ="}, "explicit_paddings": {"list": {}}, "data_format": {"s": "TkhXQw=="}, "T": {"type": "DT_FLOAT"}, "dilations": {"list": {"i": ["1", "1", "1", "1"]}}}}, {"name": "generator/G_MODEL/b1/SeparableConv2d/InstanceNorm/instancenorm/Rsqrt", "op": "Rsqrt", "input": ["generator/G_MODEL/b1/SeparableConv2d/InstanceNorm/instancenorm/add"], "attr": {"T": {"type": "DT_FLOAT"}}}, {"name": "generator/G_MODEL/b1/SeparableConv2d_1/separable_conv2d", "op": "Conv2D", "input": ["generator/G_MODEL/b1/SeparableConv2d_1/separable_conv2d/depthwise", "generator/G_MODEL/b1/SeparableConv2d_1/pointwise_weights"], "device": "/device:CPU:0", "attr": {"use_cudnn_on_gpu": {"b": true}, "dilations": {"list": {"i": ["1", "1", "1", "1"]}}, "data_format": {"s": "TkhXQw=="}, "strides": {"list": {"i": ["1", "1", "1", "1"]}}, "explicit_paddings": {"list": {}}, "padding": {"s": "VkFMSUQ="}, "T": {"type": "DT_FLOAT"}}}, {"name": "generator/G_MODEL/b1/SeparableConv2d/InstanceNorm/instancenorm/mul", "op": "Mul", "input": ["generator/G_MODEL/b1/SeparableConv2d/InstanceNorm/instancenorm/Rsqrt", "generator/G_MODEL/b1/SeparableConv2d/InstanceNorm/gamma"], "attr": {"T": {"type": "DT_FLOAT"}}}, {"name": "generator/G_MODEL/b1/SeparableConv2d_1/InstanceNorm/moments/mean", "op": "Mean", "input": ["generator/G_MODEL/b1/SeparableConv2d_1/separable_conv2d", "generator/G_MODEL/b1/SeparableConv2d_1/InstanceNorm/moments/mean/reduction_indices"], "attr": {"keep_dims": {"b": true}, "T": {"type": "DT_FLOAT"}, "Tidx": {"type": "DT_INT32"}}}, {"name": "generator/G_MODEL/b1/SeparableConv2d/InstanceNorm/instancenorm/mul_2", "op": "Mul", "input": ["generator/G_MODEL/b1/SeparableConv2d/InstanceNorm/moments/mean", "generator/G_MODEL/b1/SeparableConv2d/InstanceNorm/instancenorm/mul"], "attr": {"T": {"type": "DT_FLOAT"}}}, {"name": "generator/G_MODEL/b1/SeparableConv2d/InstanceNorm/instancenorm/mul_1", "op": "Mul", "input": ["generator/G_MODEL/b1/SeparableConv2d/separable_conv2d", "generator/G_MODEL/b1/SeparableConv2d/InstanceNorm/instancenorm/mul"], "attr": {"T": {"type": "DT_FLOAT"}}}, {"name": "generator/G_MODEL/b1/SeparableConv2d_1/InstanceNorm/moments/SquaredDifference", "op": "SquaredDifference", "input": ["generator/G_MODEL/b1/SeparableConv2d_1/separable_conv2d", "generator/G_MODEL/b1/SeparableConv2d_1/InstanceNorm/moments/mean"], "attr": {"T": {"type": "DT_FLOAT"}}}, {"name": "generator/G_MODEL/b1/SeparableConv2d/InstanceNorm/instancenorm/sub", "op": "Sub", "input": ["generator/G_MODEL/b1/SeparableConv2d/InstanceNorm/beta", "generator/G_MODEL/b1/SeparableConv2d/InstanceNorm/instancenorm/mul_2"], "attr": {"T": {"type": "DT_FLOAT"}}}, {"name": "generator/G_MODEL/b1/SeparableConv2d_1/InstanceNorm/moments/variance", "op": "Mean", "input": ["generator/G_MODEL/b1/SeparableConv2d_1/InstanceNorm/moments/SquaredDifference", "generator/G_MODEL/b1/SeparableConv2d_1/InstanceNorm/moments/variance/reduction_indices"], "attr": {"Tidx": {"type": "DT_INT32"}, "T": {"type": "DT_FLOAT"}, "keep_dims": {"b": true}}}, {"name": "generator/G_MODEL/b1/SeparableConv2d/InstanceNorm/instancenorm/add_1", "op": "AddV2", "input": ["generator/G_MODEL/b1/SeparableConv2d/InstanceNorm/instancenorm/mul_1", "generator/G_MODEL/b1/SeparableConv2d/InstanceNorm/instancenorm/sub"], "attr": {"T": {"type": "DT_FLOAT"}}}, {"name": "generator/G_MODEL/b1/SeparableConv2d_1/InstanceNorm/instancenorm/add", "op": "AddV2", "input": ["generator/G_MODEL/b1/SeparableConv2d_1/InstanceNorm/moments/variance", "generator/G_MODEL/b1/SeparableConv2d_1/InstanceNorm/instancenorm/add/y"], "attr": {"T": {"type": "DT_FLOAT"}}}, {"name": "generator/G_MODEL/b1/SeparableConv2d/LeakyRelu", "op": "LeakyRelu", "input": ["generator/G_MODEL/b1/SeparableConv2d/InstanceNorm/instancenorm/add_1"], "attr": {"alpha": {"f": 0.2}, "T": {"type": "DT_FLOAT"}}}, {"name": "generator/G_MODEL/b1/SeparableConv2d_1/InstanceNorm/instancenorm/Rsqrt", "op": "Rsqrt", "input": ["generator/G_MODEL/b1/SeparableConv2d_1/InstanceNorm/instancenorm/add"], "attr": {"T": {"type": "DT_FLOAT"}}}, {"name": "generator/G_MODEL/b1/SeparableConv2d_1/InstanceNorm/instancenorm/mul", "op": "Mul", "input": ["generator/G_MODEL/b1/SeparableConv2d_1/InstanceNorm/instancenorm/Rsqrt", "generator/G_MODEL/b1/SeparableConv2d_1/InstanceNorm/gamma"], "attr": {"T": {"type": "DT_FLOAT"}}}, {"name": "generator/G_MODEL/b1/SeparableConv2d_1/InstanceNorm/instancenorm/mul_2", "op": "Mul", "input": ["generator/G_MODEL/b1/SeparableConv2d_1/InstanceNorm/moments/mean", "generator/G_MODEL/b1/SeparableConv2d_1/InstanceNorm/instancenorm/mul"], "attr": {"T": {"type": "DT_FLOAT"}}}, {"name": "generator/G_MODEL/b1/SeparableConv2d_1/InstanceNorm/instancenorm/mul_1", "op": "Mul", "input": ["generator/G_MODEL/b1/SeparableConv2d_1/separable_conv2d", "generator/G_MODEL/b1/SeparableConv2d_1/InstanceNorm/instancenorm/mul"], "attr": {"T": {"type": "DT_FLOAT"}}}, {"name": "generator/G_MODEL/b1/SeparableConv2d_1/InstanceNorm/instancenorm/sub", "op": "Sub", "input": ["generator/G_MODEL/b1/SeparableConv2d_1/InstanceNorm/beta", "generator/G_MODEL/b1/SeparableConv2d_1/InstanceNorm/instancenorm/mul_2"], "attr": {"T": {"type": "DT_FLOAT"}}}, {"name": "generator/G_MODEL/b1/SeparableConv2d_1/InstanceNorm/instancenorm/add_1", "op": "AddV2", "input": ["generator/G_MODEL/b1/SeparableConv2d_1/InstanceNorm/instancenorm/mul_1", "generator/G_MODEL/b1/SeparableConv2d_1/InstanceNorm/instancenorm/sub"], "attr": {"T": {"type": "DT_FLOAT"}}}, {"name": "generator/G_MODEL/b1/SeparableConv2d_1/LeakyRelu", "op": "LeakyRelu", "input": ["generator/G_MODEL/b1/SeparableConv2d_1/InstanceNorm/instancenorm/add_1"], "attr": {"alpha": {"f": 0.2}, "T": {"type": "DT_FLOAT"}}}, {"name": "generator/G_MODEL/b1/add", "op": "AddV2", "input": ["generator/G_MODEL/b1/SeparableConv2d/LeakyRelu", "generator/G_MODEL/b1/SeparableConv2d_1/LeakyRelu"], "attr": {"T": {"type": "DT_FLOAT"}}}, {"name": "generator/G_MODEL/b2/MirrorPad", "op": "MirrorPad", "input": ["generator/G_MODEL/b1/add", "generator/G_MODEL/b2/MirrorPad/paddings"], "attr": {"T": {"type": "DT_FLOAT"}, "mode": {"s": "UkVGTEVDVA=="}, "Tpaddings": {"type": "DT_INT32"}}}, {"name": "generator/G_MODEL/b2/Conv/Conv2D", "op": "Conv2D", "input": ["generator/G_MODEL/b2/MirrorPad", "generator/G_MODEL/b2/Conv/weights"], "device": "/device:CPU:0", "attr": {"data_format": {"s": "TkhXQw=="}, "strides": {"list": {"i": ["1", "1", "1", "1"]}}, "dilations": {"list": {"i": ["1", "1", "1", "1"]}}, "use_cudnn_on_gpu": {"b": true}, "T": {"type": "DT_FLOAT"}, "padding": {"s": "VkFMSUQ="}, "explicit_paddings": {"list": {}}}}, {"name": "generator/G_MODEL/b2/InstanceNorm/moments/mean", "op": "Mean", "input": ["generator/G_MODEL/b2/Conv/Conv2D", "generator/G_MODEL/b2/InstanceNorm/moments/mean/reduction_indices"], "attr": {"Tidx": {"type": "DT_INT32"}, "keep_dims": {"b": true}, "T": {"type": "DT_FLOAT"}}}, {"name": "generator/G_MODEL/b2/InstanceNorm/moments/SquaredDifference", "op": "SquaredDifference", "input": ["generator/G_MODEL/b2/Conv/Conv2D", "generator/G_MODEL/b2/InstanceNorm/moments/mean"], "attr": {"T": {"type": "DT_FLOAT"}}}, {"name": "generator/G_MODEL/b2/InstanceNorm/moments/variance", "op": "Mean", "input": ["generator/G_MODEL/b2/InstanceNorm/moments/SquaredDifference", "generator/G_MODEL/b2/InstanceNorm/moments/variance/reduction_indices"], "attr": {"T": {"type": "DT_FLOAT"}, "keep_dims": {"b": true}, "Tidx": {"type": "DT_INT32"}}}, {"name": "generator/G_MODEL/b2/InstanceNorm/instancenorm/add", "op": "AddV2", "input": ["generator/G_MODEL/b2/InstanceNorm/moments/variance", "generator/G_MODEL/b2/InstanceNorm/instancenorm/add/y"], "attr": {"T": {"type": "DT_FLOAT"}}}, {"name": "generator/G_MODEL/b2/InstanceNorm/instancenorm/Rsqrt", "op": "Rsqrt", "input": ["generator/G_MODEL/b2/InstanceNorm/instancenorm/add"], "attr": {"T": {"type": "DT_FLOAT"}}}, {"name": "generator/G_MODEL/b2/InstanceNorm/instancenorm/mul", "op": "Mul", "input": ["generator/G_MODEL/b2/InstanceNorm/instancenorm/Rsqrt", "generator/G_MODEL/b2/InstanceNorm/gamma"], "attr": {"T": {"type": "DT_FLOAT"}}}, {"name": "generator/G_MODEL/b2/InstanceNorm/instancenorm/mul_2", "op": "Mul", "input": ["generator/G_MODEL/b2/InstanceNorm/moments/mean", "generator/G_MODEL/b2/InstanceNorm/instancenorm/mul"], "attr": {"T": {"type": "DT_FLOAT"}}}, {"name": "generator/G_MODEL/b2/InstanceNorm/instancenorm/mul_1", "op": "Mul", "input": ["generator/G_MODEL/b2/Conv/Conv2D", "generator/G_MODEL/b2/InstanceNorm/instancenorm/mul"], "attr": {"T": {"type": "DT_FLOAT"}}}, {"name": "generator/G_MODEL/b2/InstanceNorm/instancenorm/sub", "op": "Sub", "input": ["generator/G_MODEL/b2/InstanceNorm/beta", "generator/G_MODEL/b2/InstanceNorm/instancenorm/mul_2"], "attr": {"T": {"type": "DT_FLOAT"}}}, {"name": "generator/G_MODEL/b2/InstanceNorm/instancenorm/add_1", "op": "AddV2", "input": ["generator/G_MODEL/b2/InstanceNorm/instancenorm/mul_1", "generator/G_MODEL/b2/InstanceNorm/instancenorm/sub"], "attr": {"T": {"type": "DT_FLOAT"}}}, {"name": "generator/G_MODEL/b2/LeakyRelu", "op": "LeakyRelu", "input": ["generator/G_MODEL/b2/InstanceNorm/instancenorm/add_1"], "attr": {"T": {"type": "DT_FLOAT"}, "alpha": {"f": 0.2}}}, {"name": "generator/G_MODEL/b2/MirrorPad_1", "op": "MirrorPad", "input": ["generator/G_MODEL/b2/LeakyRelu", "generator/G_MODEL/b2/MirrorPad_1/paddings"], "attr": {"Tpaddings": {"type": "DT_INT32"}, "T": {"type": "DT_FLOAT"}, "mode": {"s": "UkVGTEVDVA=="}}}, {"name": "generator/G_MODEL/b2/SeparableConv2d/separable_conv2d/depthwise", "op": "DepthwiseConv2dNative", "input": ["generator/G_MODEL/b2/MirrorPad_1", "generator/G_MODEL/b2/SeparableConv2d/depthwise_weights"], "attr": {"strides": {"list": {"i": ["1", "1", "1", "1"]}}, "explicit_paddings": {"list": {}}, "data_format": {"s": "TkhXQw=="}, "padding": {"s": "VkFMSUQ="}, "dilations": {"list": {"i": ["1", "1", "1", "1"]}}, "T": {"type": "DT_FLOAT"}}}, {"name": "generator/G_MODEL/b2/SeparableConv2d/separable_conv2d", "op": "Conv2D", "input": ["generator/G_MODEL/b2/SeparableConv2d/separable_conv2d/depthwise", "generator/G_MODEL/b2/SeparableConv2d/pointwise_weights"], "device": "/device:CPU:0", "attr": {"explicit_paddings": {"list": {}}, "padding": {"s": "VkFMSUQ="}, "data_format": {"s": "TkhXQw=="}, "dilations": {"list": {"i": ["1", "1", "1", "1"]}}, "T": {"type": "DT_FLOAT"}, "strides": {"list": {"i": ["1", "1", "1", "1"]}}, "use_cudnn_on_gpu": {"b": true}}}, {"name": "generator/G_MODEL/b2/SeparableConv2d/InstanceNorm/moments/mean", "op": "Mean", "input": ["generator/G_MODEL/b2/SeparableConv2d/separable_conv2d", "generator/G_MODEL/b2/SeparableConv2d/InstanceNorm/moments/mean/reduction_indices"], "attr": {"Tidx": {"type": "DT_INT32"}, "T": {"type": "DT_FLOAT"}, "keep_dims": {"b": true}}}, {"name": "generator/G_MODEL/b2/SeparableConv2d/InstanceNorm/moments/SquaredDifference", "op": "SquaredDifference", "input": ["generator/G_MODEL/b2/SeparableConv2d/separable_conv2d", "generator/G_MODEL/b2/SeparableConv2d/InstanceNorm/moments/mean"], "attr": {"T": {"type": "DT_FLOAT"}}}, {"name": "generator/G_MODEL/b2/SeparableConv2d/InstanceNorm/moments/variance", "op": "Mean", "input": ["generator/G_MODEL/b2/SeparableConv2d/InstanceNorm/moments/SquaredDifference", "generator/G_MODEL/b2/SeparableConv2d/InstanceNorm/moments/variance/reduction_indices"], "attr": {"T": {"type": "DT_FLOAT"}, "Tidx": {"type": "DT_INT32"}, "keep_dims": {"b": true}}}, {"name": "generator/G_MODEL/b2/SeparableConv2d/InstanceNorm/instancenorm/add", "op": "AddV2", "input": ["generator/G_MODEL/b2/SeparableConv2d/InstanceNorm/moments/variance", "generator/G_MODEL/b2/SeparableConv2d/InstanceNorm/instancenorm/add/y"], "attr": {"T": {"type": "DT_FLOAT"}}}, {"name": "generator/G_MODEL/b2/SeparableConv2d/InstanceNorm/instancenorm/Rsqrt", "op": "Rsqrt", "input": ["generator/G_MODEL/b2/SeparableConv2d/InstanceNorm/instancenorm/add"], "attr": {"T": {"type": "DT_FLOAT"}}}, {"name": "generator/G_MODEL/b2/SeparableConv2d/InstanceNorm/instancenorm/mul", "op": "Mul", "input": ["generator/G_MODEL/b2/SeparableConv2d/InstanceNorm/instancenorm/Rsqrt", "generator/G_MODEL/b2/SeparableConv2d/InstanceNorm/gamma"], "attr": {"T": {"type": "DT_FLOAT"}}}, {"name": "generator/G_MODEL/b2/SeparableConv2d/InstanceNorm/instancenorm/mul_2", "op": "Mul", "input": ["generator/G_MODEL/b2/SeparableConv2d/InstanceNorm/moments/mean", "generator/G_MODEL/b2/SeparableConv2d/InstanceNorm/instancenorm/mul"], "attr": {"T": {"type": "DT_FLOAT"}}}, {"name": "generator/G_MODEL/b2/SeparableConv2d/InstanceNorm/instancenorm/mul_1", "op": "Mul", "input": ["generator/G_MODEL/b2/SeparableConv2d/separable_conv2d", "generator/G_MODEL/b2/SeparableConv2d/InstanceNorm/instancenorm/mul"], "attr": {"T": {"type": "DT_FLOAT"}}}, {"name": "generator/G_MODEL/b2/SeparableConv2d/InstanceNorm/instancenorm/sub", "op": "Sub", "input": ["generator/G_MODEL/b2/SeparableConv2d/InstanceNorm/beta", "generator/G_MODEL/b2/SeparableConv2d/InstanceNorm/instancenorm/mul_2"], "attr": {"T": {"type": "DT_FLOAT"}}}, {"name": "generator/G_MODEL/b2/SeparableConv2d/InstanceNorm/instancenorm/add_1", "op": "AddV2", "input": ["generator/G_MODEL/b2/SeparableConv2d/InstanceNorm/instancenorm/mul_1", "generator/G_MODEL/b2/SeparableConv2d/InstanceNorm/instancenorm/sub"], "attr": {"T": {"type": "DT_FLOAT"}}}, {"name": "generator/G_MODEL/b2/SeparableConv2d/LeakyRelu", "op": "LeakyRelu", "input": ["generator/G_MODEL/b2/SeparableConv2d/InstanceNorm/instancenorm/add_1"], "attr": {"alpha": {"f": 0.2}, "T": {"type": "DT_FLOAT"}}}, {"name": "generator/G_MODEL/b2/MirrorPad_2", "op": "MirrorPad", "input": ["generator/G_MODEL/b2/SeparableConv2d/LeakyRelu", "generator/G_MODEL/b2/MirrorPad_2/paddings"], "attr": {"T": {"type": "DT_FLOAT"}, "Tpaddings": {"type": "DT_INT32"}, "mode": {"s": "UkVGTEVDVA=="}}}, {"name": "generator/G_MODEL/b2/Shape", "op": "Shape", "input": ["generator/G_MODEL/b2/SeparableConv2d/LeakyRelu"], "attr": {"T": {"type": "DT_FLOAT"}, "out_type": {"type": "DT_INT32"}}}, {"name": "generator/G_MODEL/b2/Shape_1", "op": "Shape", "input": ["generator/G_MODEL/b2/SeparableConv2d/LeakyRelu"], "attr": {"T": {"type": "DT_FLOAT"}, "out_type": {"type": "DT_INT32"}}}, {"name": "generator/G_MODEL/b2/SeparableConv2d_1/separable_conv2d/depthwise", "op": "DepthwiseConv2dNative", "input": ["generator/G_MODEL/b2/MirrorPad_2", "generator/G_MODEL/b2/SeparableConv2d_1/depthwise_weights"], "attr": {"strides": {"list": {"i": ["1", "2", "2", "1"]}}, "padding": {"s": "VkFMSUQ="}, "dilations": {"list": {"i": ["1", "1", "1", "1"]}}, "data_format": {"s": "TkhXQw=="}, "explicit_paddings": {"list": {}}, "T": {"type": "DT_FLOAT"}}}, {"name": "generator/G_MODEL/b2/strided_slice", "op": "StridedSlice", "input": ["generator/G_MODEL/b2/Shape", "generator/G_MODEL/b2/strided_slice/stack", "generator/G_MODEL/b2/strided_slice/stack_1", "generator/G_MODEL/b2/strided_slice/stack_2"], "attr": {"new_axis_mask": {"i": "0"}, "end_mask": {"i": "0"}, "Index": {"type": "DT_INT32"}, "begin_mask": {"i": "0"}, "T": {"type": "DT_INT32"}, "shrink_axis_mask": {"i": "1"}, "ellipsis_mask": {"i": "0"}}}, {"name": "generator/G_MODEL/b2/strided_slice_1", "op": "StridedSlice", "input": ["generator/G_MODEL/b2/Shape_1", "generator/G_MODEL/b2/strided_slice_1/stack", "generator/G_MODEL/b2/strided_slice_1/stack_1", "generator/G_MODEL/b2/strided_slice_1/stack_2"], "attr": {"ellipsis_mask": {"i": "0"}, "T": {"type": "DT_INT32"}, "Index": {"type": "DT_INT32"}, "shrink_axis_mask": {"i": "1"}, "begin_mask": {"i": "0"}, "new_axis_mask": {"i": "0"}, "end_mask": {"i": "0"}}}, {"name": "generator/G_MODEL/b2/SeparableConv2d_1/separable_conv2d", "op": "Conv2D", "input": ["generator/G_MODEL/b2/SeparableConv2d_1/separable_conv2d/depthwise", "generator/G_MODEL/b2/SeparableConv2d_1/pointwise_weights"], "device": "/device:CPU:0", "attr": {"strides": {"list": {"i": ["1", "1", "1", "1"]}}, "data_format": {"s": "TkhXQw=="}, "explicit_paddings": {"list": {}}, "padding": {"s": "VkFMSUQ="}, "T": {"type": "DT_FLOAT"}, "use_cudnn_on_gpu": {"b": true}, "dilations": {"list": {"i": ["1", "1", "1", "1"]}}}}, {"name": "generator/G_MODEL/b2/floordiv", "op": "FloorDiv", "input": ["generator/G_MODEL/b2/strided_slice", "generator/G_MODEL/b2/floordiv/y"], "attr": {"T": {"type": "DT_INT32"}}}, {"name": "generator/G_MODEL/b2/floordiv_1", "op": "FloorDiv", "input": ["generator/G_MODEL/b2/strided_slice_1", "generator/G_MODEL/b2/floordiv_1/y"], "attr": {"T": {"type": "DT_INT32"}}}, {"name": "generator/G_MODEL/b2/SeparableConv2d_1/InstanceNorm/moments/mean", "op": "Mean", "input": ["generator/G_MODEL/b2/SeparableConv2d_1/separable_conv2d", "generator/G_MODEL/b2/SeparableConv2d_1/InstanceNorm/moments/mean/reduction_indices"], "attr": {"T": {"type": "DT_FLOAT"}, "Tidx": {"type": "DT_INT32"}, "keep_dims": {"b": true}}}, {"name": "generator/G_MODEL/b2/resize/size", "op": "Pack", "input": ["generator/G_MODEL/b2/floordiv", "generator/G_MODEL/b2/floordiv_1"], "attr": {"N": {"i": "2"}, "T": {"type": "DT_INT32"}, "axis": {"i": "0"}}}, {"name": "generator/G_MODEL/b2/SeparableConv2d_1/InstanceNorm/moments/SquaredDifference", "op": "SquaredDifference", "input": ["generator/G_MODEL/b2/SeparableConv2d_1/separable_conv2d", "generator/G_MODEL/b2/SeparableConv2d_1/InstanceNorm/moments/mean"], "attr": {"T": {"type": "DT_FLOAT"}}}, {"name": "generator/G_MODEL/b2/resize/ResizeBilinear", "op": "ResizeBilinear", "input": ["generator/G_MODEL/b2/SeparableConv2d/LeakyRelu", "generator/G_MODEL/b2/resize/size"], "attr": {"T": {"type": "DT_FLOAT"}, "half_pixel_centers": {"b": false}, "align_corners": {"b": false}}}, {"name": "generator/G_MODEL/b2/SeparableConv2d_1/InstanceNorm/moments/variance", "op": "Mean", "input": ["generator/G_MODEL/b2/SeparableConv2d_1/InstanceNorm/moments/SquaredDifference", "generator/G_MODEL/b2/SeparableConv2d_1/InstanceNorm/moments/variance/reduction_indices"], "attr": {"keep_dims": {"b": true}, "T": {"type": "DT_FLOAT"}, "Tidx": {"type": "DT_INT32"}}}, {"name": "generator/G_MODEL/b2/MirrorPad_3", "op": "MirrorPad", "input": ["generator/G_MODEL/b2/resize/ResizeBilinear", "generator/G_MODEL/b2/MirrorPad_3/paddings"], "attr": {"mode": {"s": "UkVGTEVDVA=="}, "T": {"type": "DT_FLOAT"}, "Tpaddings": {"type": "DT_INT32"}}}, {"name": "generator/G_MODEL/b2/SeparableConv2d_1/InstanceNorm/instancenorm/add", "op": "AddV2", "input": ["generator/G_MODEL/b2/SeparableConv2d_1/InstanceNorm/moments/variance", "generator/G_MODEL/b2/SeparableConv2d_1/InstanceNorm/instancenorm/add/y"], "attr": {"T": {"type": "DT_FLOAT"}}}, {"name": "generator/G_MODEL/b2/SeparableConv2d_2/separable_conv2d/depthwise", "op": "DepthwiseConv2dNative", "input": ["generator/G_MODEL/b2/MirrorPad_3", "generator/G_MODEL/b2/SeparableConv2d_2/depthwise_weights"], "attr": {"dilations": {"list": {"i": ["1", "1", "1", "1"]}}, "strides": {"list": {"i": ["1", "1", "1", "1"]}}, "explicit_paddings": {"list": {}}, "padding": {"s": "VkFMSUQ="}, "data_format": {"s": "TkhXQw=="}, "T": {"type": "DT_FLOAT"}}}, {"name": "generator/G_MODEL/b2/SeparableConv2d_1/InstanceNorm/instancenorm/Rsqrt", "op": "Rsqrt", "input": ["generator/G_MODEL/b2/SeparableConv2d_1/InstanceNorm/instancenorm/add"], "attr": {"T": {"type": "DT_FLOAT"}}}, {"name": "generator/G_MODEL/b2/SeparableConv2d_2/separable_conv2d", "op": "Conv2D", "input": ["generator/G_MODEL/b2/SeparableConv2d_2/separable_conv2d/depthwise", "generator/G_MODEL/b2/SeparableConv2d_2/pointwise_weights"], "device": "/device:CPU:0", "attr": {"T": {"type": "DT_FLOAT"}, "strides": {"list": {"i": ["1", "1", "1", "1"]}}, "use_cudnn_on_gpu": {"b": true}, "padding": {"s": "VkFMSUQ="}, "explicit_paddings": {"list": {}}, "dilations": {"list": {"i": ["1", "1", "1", "1"]}}, "data_format": {"s": "TkhXQw=="}}}, {"name": "generator/G_MODEL/b2/SeparableConv2d_1/InstanceNorm/instancenorm/mul", "op": "Mul", "input": ["generator/G_MODEL/b2/SeparableConv2d_1/InstanceNorm/instancenorm/Rsqrt", "generator/G_MODEL/b2/SeparableConv2d_1/InstanceNorm/gamma"], "attr": {"T": {"type": "DT_FLOAT"}}}, {"name": "generator/G_MODEL/b2/SeparableConv2d_2/InstanceNorm/moments/mean", "op": "Mean", "input": ["generator/G_MODEL/b2/SeparableConv2d_2/separable_conv2d", "generator/G_MODEL/b2/SeparableConv2d_2/InstanceNorm/moments/mean/reduction_indices"], "attr": {"T": {"type": "DT_FLOAT"}, "keep_dims": {"b": true}, "Tidx": {"type": "DT_INT32"}}}, {"name": "generator/G_MODEL/b2/SeparableConv2d_1/InstanceNorm/instancenorm/mul_2", "op": "Mul", "input": ["generator/G_MODEL/b2/SeparableConv2d_1/InstanceNorm/moments/mean", "generator/G_MODEL/b2/SeparableConv2d_1/InstanceNorm/instancenorm/mul"], "attr": {"T": {"type": "DT_FLOAT"}}}, {"name": "generator/G_MODEL/b2/SeparableConv2d_1/InstanceNorm/instancenorm/mul_1", "op": "Mul", "input": ["generator/G_MODEL/b2/SeparableConv2d_1/separable_conv2d", "generator/G_MODEL/b2/SeparableConv2d_1/InstanceNorm/instancenorm/mul"], "attr": {"T": {"type": "DT_FLOAT"}}}, {"name": "generator/G_MODEL/b2/SeparableConv2d_2/InstanceNorm/moments/SquaredDifference", "op": "SquaredDifference", "input": ["generator/G_MODEL/b2/SeparableConv2d_2/separable_conv2d", "generator/G_MODEL/b2/SeparableConv2d_2/InstanceNorm/moments/mean"], "attr": {"T": {"type": "DT_FLOAT"}}}, {"name": "generator/G_MODEL/b2/SeparableConv2d_1/InstanceNorm/instancenorm/sub", "op": "Sub", "input": ["generator/G_MODEL/b2/SeparableConv2d_1/InstanceNorm/beta", "generator/G_MODEL/b2/SeparableConv2d_1/InstanceNorm/instancenorm/mul_2"], "attr": {"T": {"type": "DT_FLOAT"}}}, {"name": "generator/G_MODEL/b2/SeparableConv2d_2/InstanceNorm/moments/variance", "op": "Mean", "input": ["generator/G_MODEL/b2/SeparableConv2d_2/InstanceNorm/moments/SquaredDifference", "generator/G_MODEL/b2/SeparableConv2d_2/InstanceNorm/moments/variance/reduction_indices"], "attr": {"T": {"type": "DT_FLOAT"}, "keep_dims": {"b": true}, "Tidx": {"type": "DT_INT32"}}}, {"name": "generator/G_MODEL/b2/SeparableConv2d_1/InstanceNorm/instancenorm/add_1", "op": "AddV2", "input": ["generator/G_MODEL/b2/SeparableConv2d_1/InstanceNorm/instancenorm/mul_1", "generator/G_MODEL/b2/SeparableConv2d_1/InstanceNorm/instancenorm/sub"], "attr": {"T": {"type": "DT_FLOAT"}}}, {"name": "generator/G_MODEL/b2/SeparableConv2d_2/InstanceNorm/instancenorm/add", "op": "AddV2", "input": ["generator/G_MODEL/b2/SeparableConv2d_2/InstanceNorm/moments/variance", "generator/G_MODEL/b2/SeparableConv2d_2/InstanceNorm/instancenorm/add/y"], "attr": {"T": {"type": "DT_FLOAT"}}}, {"name": "generator/G_MODEL/b2/SeparableConv2d_1/LeakyRelu", "op": "LeakyRelu", "input": ["generator/G_MODEL/b2/SeparableConv2d_1/InstanceNorm/instancenorm/add_1"], "attr": {"alpha": {"f": 0.2}, "T": {"type": "DT_FLOAT"}}}, {"name": "generator/G_MODEL/b2/SeparableConv2d_2/InstanceNorm/instancenorm/Rsqrt", "op": "Rsqrt", "input": ["generator/G_MODEL/b2/SeparableConv2d_2/InstanceNorm/instancenorm/add"], "attr": {"T": {"type": "DT_FLOAT"}}}, {"name": "generator/G_MODEL/b2/SeparableConv2d_2/InstanceNorm/instancenorm/mul", "op": "Mul", "input": ["generator/G_MODEL/b2/SeparableConv2d_2/InstanceNorm/instancenorm/Rsqrt", "generator/G_MODEL/b2/SeparableConv2d_2/InstanceNorm/gamma"], "attr": {"T": {"type": "DT_FLOAT"}}}, {"name": "generator/G_MODEL/b2/SeparableConv2d_2/InstanceNorm/instancenorm/mul_2", "op": "Mul", "input": ["generator/G_MODEL/b2/SeparableConv2d_2/InstanceNorm/moments/mean", "generator/G_MODEL/b2/SeparableConv2d_2/InstanceNorm/instancenorm/mul"], "attr": {"T": {"type": "DT_FLOAT"}}}, {"name": "generator/G_MODEL/b2/SeparableConv2d_2/InstanceNorm/instancenorm/mul_1", "op": "Mul", "input": ["generator/G_MODEL/b2/SeparableConv2d_2/separable_conv2d", "generator/G_MODEL/b2/SeparableConv2d_2/InstanceNorm/instancenorm/mul"], "attr": {"T": {"type": "DT_FLOAT"}}}, {"name": "generator/G_MODEL/b2/SeparableConv2d_2/InstanceNorm/instancenorm/sub", "op": "Sub", "input": ["generator/G_MODEL/b2/SeparableConv2d_2/InstanceNorm/beta", "generator/G_MODEL/b2/SeparableConv2d_2/InstanceNorm/instancenorm/mul_2"], "attr": {"T": {"type": "DT_FLOAT"}}}, {"name": "generator/G_MODEL/b2/SeparableConv2d_2/InstanceNorm/instancenorm/add_1", "op": "AddV2", "input": ["generator/G_MODEL/b2/SeparableConv2d_2/InstanceNorm/instancenorm/mul_1", "generator/G_MODEL/b2/SeparableConv2d_2/InstanceNorm/instancenorm/sub"], "attr": {"T": {"type": "DT_FLOAT"}}}, {"name": "generator/G_MODEL/b2/SeparableConv2d_2/LeakyRelu", "op": "LeakyRelu", "input": ["generator/G_MODEL/b2/SeparableConv2d_2/InstanceNorm/instancenorm/add_1"], "attr": {"alpha": {"f": 0.2}, "T": {"type": "DT_FLOAT"}}}, {"name": "generator/G_MODEL/b2/add", "op": "AddV2", "input": ["generator/G_MODEL/b2/SeparableConv2d_1/LeakyRelu", "generator/G_MODEL/b2/SeparableConv2d_2/LeakyRelu"], "attr": {"T": {"type": "DT_FLOAT"}}}, {"name": "generator/G_MODEL/m/MirrorPad", "op": "MirrorPad", "input": ["generator/G_MODEL/b2/add", "generator/G_MODEL/m/MirrorPad/paddings"], "attr": {"mode": {"s": "UkVGTEVDVA=="}, "T": {"type": "DT_FLOAT"}, "Tpaddings": {"type": "DT_INT32"}}}, {"name": "generator/G_MODEL/m/Conv/Conv2D", "op": "Conv2D", "input": ["generator/G_MODEL/m/MirrorPad", "generator/G_MODEL/m/Conv/weights"], "device": "/device:CPU:0", "attr": {"use_cudnn_on_gpu": {"b": true}, "data_format": {"s": "TkhXQw=="}, "explicit_paddings": {"list": {}}, "T": {"type": "DT_FLOAT"}, "dilations": {"list": {"i": ["1", "1", "1", "1"]}}, "strides": {"list": {"i": ["1", "1", "1", "1"]}}, "padding": {"s": "VkFMSUQ="}}}, {"name": "generator/G_MODEL/m/InstanceNorm/moments/mean", "op": "Mean", "input": ["generator/G_MODEL/m/Conv/Conv2D", "generator/G_MODEL/m/InstanceNorm/moments/mean/reduction_indices"], "attr": {"keep_dims": {"b": true}, "Tidx": {"type": "DT_INT32"}, "T": {"type": "DT_FLOAT"}}}, {"name": "generator/G_MODEL/m/InstanceNorm/moments/SquaredDifference", "op": "SquaredDifference", "input": ["generator/G_MODEL/m/Conv/Conv2D", "generator/G_MODEL/m/InstanceNorm/moments/mean"], "attr": {"T": {"type": "DT_FLOAT"}}}, {"name": "generator/G_MODEL/m/InstanceNorm/moments/variance", "op": "Mean", "input": ["generator/G_MODEL/m/InstanceNorm/moments/SquaredDifference", "generator/G_MODEL/m/InstanceNorm/moments/variance/reduction_indices"], "attr": {"Tidx": {"type": "DT_INT32"}, "T": {"type": "DT_FLOAT"}, "keep_dims": {"b": true}}}, {"name": "generator/G_MODEL/m/InstanceNorm/instancenorm/add", "op": "AddV2", "input": ["generator/G_MODEL/m/InstanceNorm/moments/variance", "generator/G_MODEL/m/InstanceNorm/instancenorm/add/y"], "attr": {"T": {"type": "DT_FLOAT"}}}, {"name": "generator/G_MODEL/m/InstanceNorm/instancenorm/Rsqrt", "op": "Rsqrt", "input": ["generator/G_MODEL/m/InstanceNorm/instancenorm/add"], "attr": {"T": {"type": "DT_FLOAT"}}}, {"name": "generator/G_MODEL/m/InstanceNorm/instancenorm/mul", "op": "Mul", "input": ["generator/G_MODEL/m/InstanceNorm/instancenorm/Rsqrt", "generator/G_MODEL/m/InstanceNorm/gamma"], "attr": {"T": {"type": "DT_FLOAT"}}}, {"name": "generator/G_MODEL/m/InstanceNorm/instancenorm/mul_2", "op": "Mul", "input": ["generator/G_MODEL/m/InstanceNorm/moments/mean", "generator/G_MODEL/m/InstanceNorm/instancenorm/mul"], "attr": {"T": {"type": "DT_FLOAT"}}}, {"name": "generator/G_MODEL/m/InstanceNorm/instancenorm/mul_1", "op": "Mul", "input": ["generator/G_MODEL/m/Conv/Conv2D", "generator/G_MODEL/m/InstanceNorm/instancenorm/mul"], "attr": {"T": {"type": "DT_FLOAT"}}}, {"name": "generator/G_MODEL/m/InstanceNorm/instancenorm/sub", "op": "Sub", "input": ["generator/G_MODEL/m/InstanceNorm/beta", "generator/G_MODEL/m/InstanceNorm/instancenorm/mul_2"], "attr": {"T": {"type": "DT_FLOAT"}}}, {"name": "generator/G_MODEL/m/InstanceNorm/instancenorm/add_1", "op": "AddV2", "input": ["generator/G_MODEL/m/InstanceNorm/instancenorm/mul_1", "generator/G_MODEL/m/InstanceNorm/instancenorm/sub"], "attr": {"T": {"type": "DT_FLOAT"}}}, {"name": "generator/G_MODEL/m/LeakyRelu", "op": "LeakyRelu", "input": ["generator/G_MODEL/m/InstanceNorm/instancenorm/add_1"], "attr": {"T": {"type": "DT_FLOAT"}, "alpha": {"f": 0.2}}}, {"name": "generator/G_MODEL/m/r1/Conv/Conv2D", "op": "Conv2D", "input": ["generator/G_MODEL/m/LeakyRelu", "generator/G_MODEL/m/r1/Conv/weights"], "device": "/device:CPU:0", "attr": {"explicit_paddings": {"list": {}}, "dilations": {"list": {"i": ["1", "1", "1", "1"]}}, "padding": {"s": "VkFMSUQ="}, "strides": {"list": {"i": ["1", "1", "1", "1"]}}, "use_cudnn_on_gpu": {"b": true}, "T": {"type": "DT_FLOAT"}, "data_format": {"s": "TkhXQw=="}}}, {"name": "generator/G_MODEL/m/r1/InstanceNorm/moments/mean", "op": "Mean", "input": ["generator/G_MODEL/m/r1/Conv/Conv2D", "generator/G_MODEL/m/r1/InstanceNorm/moments/mean/reduction_indices"], "attr": {"T": {"type": "DT_FLOAT"}, "Tidx": {"type": "DT_INT32"}, "keep_dims": {"b": true}}}, {"name": "generator/G_MODEL/m/r1/InstanceNorm/moments/SquaredDifference", "op": "SquaredDifference", "input": ["generator/G_MODEL/m/r1/Conv/Conv2D", "generator/G_MODEL/m/r1/InstanceNorm/moments/mean"], "attr": {"T": {"type": "DT_FLOAT"}}}, {"name": "generator/G_MODEL/m/r1/InstanceNorm/moments/variance", "op": "Mean", "input": ["generator/G_MODEL/m/r1/InstanceNorm/moments/SquaredDifference", "generator/G_MODEL/m/r1/InstanceNorm/moments/variance/reduction_indices"], "attr": {"T": {"type": "DT_FLOAT"}, "Tidx": {"type": "DT_INT32"}, "keep_dims": {"b": true}}}, {"name": "generator/G_MODEL/m/r1/InstanceNorm/instancenorm/add", "op": "AddV2", "input": ["generator/G_MODEL/m/r1/InstanceNorm/moments/variance", "generator/G_MODEL/m/r1/InstanceNorm/instancenorm/add/y"], "attr": {"T": {"type": "DT_FLOAT"}}}, {"name": "generator/G_MODEL/m/r1/InstanceNorm/instancenorm/Rsqrt", "op": "Rsqrt", "input": ["generator/G_MODEL/m/r1/InstanceNorm/instancenorm/add"], "attr": {"T": {"type": "DT_FLOAT"}}}, {"name": "generator/G_MODEL/m/r1/InstanceNorm/instancenorm/mul", "op": "Mul", "input": ["generator/G_MODEL/m/r1/InstanceNorm/instancenorm/Rsqrt", "generator/G_MODEL/m/r1/InstanceNorm/gamma"], "attr": {"T": {"type": "DT_FLOAT"}}}, {"name": "generator/G_MODEL/m/r1/InstanceNorm/instancenorm/mul_2", "op": "Mul", "input": ["generator/G_MODEL/m/r1/InstanceNorm/moments/mean", "generator/G_MODEL/m/r1/InstanceNorm/instancenorm/mul"], "attr": {"T": {"type": "DT_FLOAT"}}}, {"name": "generator/G_MODEL/m/r1/InstanceNorm/instancenorm/mul_1", "op": "Mul", "input": ["generator/G_MODEL/m/r1/Conv/Conv2D", "generator/G_MODEL/m/r1/InstanceNorm/instancenorm/mul"], "attr": {"T": {"type": "DT_FLOAT"}}}, {"name": "generator/G_MODEL/m/r1/InstanceNorm/instancenorm/sub", "op": "Sub", "input": ["generator/G_MODEL/m/r1/InstanceNorm/beta", "generator/G_MODEL/m/r1/InstanceNorm/instancenorm/mul_2"], "attr": {"T": {"type": "DT_FLOAT"}}}, {"name": "generator/G_MODEL/m/r1/InstanceNorm/instancenorm/add_1", "op": "AddV2", "input": ["generator/G_MODEL/m/r1/InstanceNorm/instancenorm/mul_1", "generator/G_MODEL/m/r1/InstanceNorm/instancenorm/sub"], "attr": {"T": {"type": "DT_FLOAT"}}}, {"name": "generator/G_MODEL/m/r1/LeakyRelu", "op": "LeakyRelu", "input": ["generator/G_MODEL/m/r1/InstanceNorm/instancenorm/add_1"], "attr": {"T": {"type": "DT_FLOAT"}, "alpha": {"f": 0.2}}}, {"name": "generator/G_MODEL/m/r1/MirrorPad", "op": "MirrorPad", "input": ["generator/G_MODEL/m/r1/LeakyRelu", "generator/G_MODEL/m/r1/MirrorPad/paddings"], "attr": {"T": {"type": "DT_FLOAT"}, "Tpaddings": {"type": "DT_INT32"}, "mode": {"s": "UkVGTEVDVA=="}}}, {"name": "generator/G_MODEL/m/r1/r1/r1", "op": "DepthwiseConv2dNative", "input": ["generator/G_MODEL/m/r1/MirrorPad", "generator/G_MODEL/m/r1/r1/w"], "attr": {"T": {"type": "DT_FLOAT"}, "strides": {"list": {"i": ["1", "1", "1", "1"]}}, "explicit_paddings": {"list": {}}, "data_format": {"s": "TkhXQw=="}, "dilations": {"list": {"i": ["1", "1", "1", "1"]}}, "padding": {"s": "VkFMSUQ="}}}, {"name": "generator/G_MODEL/m/r1/1/moments/mean", "op": "Mean", "input": ["generator/G_MODEL/m/r1/r1/r1", "generator/G_MODEL/m/r1/1/moments/mean/reduction_indices"], "attr": {"T": {"type": "DT_FLOAT"}, "keep_dims": {"b": true}, "Tidx": {"type": "DT_INT32"}}}, {"name": "generator/G_MODEL/m/r1/1/moments/SquaredDifference", "op": "SquaredDifference", "input": ["generator/G_MODEL/m/r1/r1/r1", "generator/G_MODEL/m/r1/1/moments/mean"], "attr": {"T": {"type": "DT_FLOAT"}}}, {"name": "generator/G_MODEL/m/r1/1/moments/variance", "op": "Mean", "input": ["generator/G_MODEL/m/r1/1/moments/SquaredDifference", "generator/G_MODEL/m/r1/1/moments/variance/reduction_indices"], "attr": {"T": {"type": "DT_FLOAT"}, "keep_dims": {"b": true}, "Tidx": {"type": "DT_INT32"}}}, {"name": "generator/G_MODEL/m/r1/1/instancenorm/add", "op": "AddV2", "input": ["generator/G_MODEL/m/r1/1/moments/variance", "generator/G_MODEL/m/r1/1/instancenorm/add/y"], "attr": {"T": {"type": "DT_FLOAT"}}}, {"name": "generator/G_MODEL/m/r1/1/instancenorm/Rsqrt", "op": "Rsqrt", "input": ["generator/G_MODEL/m/r1/1/instancenorm/add"], "attr": {"T": {"type": "DT_FLOAT"}}}, {"name": "generator/G_MODEL/m/r1/1/instancenorm/mul", "op": "Mul", "input": ["generator/G_MODEL/m/r1/1/instancenorm/Rsqrt", "generator/G_MODEL/m/r1/1/gamma"], "attr": {"T": {"type": "DT_FLOAT"}}}, {"name": "generator/G_MODEL/m/r1/1/instancenorm/mul_2", "op": "Mul", "input": ["generator/G_MODEL/m/r1/1/moments/mean", "generator/G_MODEL/m/r1/1/instancenorm/mul"], "attr": {"T": {"type": "DT_FLOAT"}}}, {"name": "generator/G_MODEL/m/r1/1/instancenorm/mul_1", "op": "Mul", "input": ["generator/G_MODEL/m/r1/r1/r1", "generator/G_MODEL/m/r1/1/instancenorm/mul"], "attr": {"T": {"type": "DT_FLOAT"}}}, {"name": "generator/G_MODEL/m/r1/1/instancenorm/sub", "op": "Sub", "input": ["generator/G_MODEL/m/r1/1/beta", "generator/G_MODEL/m/r1/1/instancenorm/mul_2"], "attr": {"T": {"type": "DT_FLOAT"}}}, {"name": "generator/G_MODEL/m/r1/1/instancenorm/add_1", "op": "AddV2", "input": ["generator/G_MODEL/m/r1/1/instancenorm/mul_1", "generator/G_MODEL/m/r1/1/instancenorm/sub"], "attr": {"T": {"type": "DT_FLOAT"}}}, {"name": "generator/G_MODEL/m/r1/LeakyRelu_1", "op": "LeakyRelu", "input": ["generator/G_MODEL/m/r1/1/instancenorm/add_1"], "attr": {"T": {"type": "DT_FLOAT"}, "alpha": {"f": 0.2}}}, {"name": "generator/G_MODEL/m/r1/Conv_1/Conv2D", "op": "Conv2D", "input": ["generator/G_MODEL/m/r1/LeakyRelu_1", "generator/G_MODEL/m/r1/Conv_1/weights"], "device": "/device:CPU:0", "attr": {"explicit_paddings": {"list": {}}, "dilations": {"list": {"i": ["1", "1", "1", "1"]}}, "use_cudnn_on_gpu": {"b": true}, "strides": {"list": {"i": ["1", "1", "1", "1"]}}, "T": {"type": "DT_FLOAT"}, "padding": {"s": "VkFMSUQ="}, "data_format": {"s": "TkhXQw=="}}}, {"name": "generator/G_MODEL/m/r1/2/moments/mean", "op": "Mean", "input": ["generator/G_MODEL/m/r1/Conv_1/Conv2D", "generator/G_MODEL/m/r1/2/moments/mean/reduction_indices"], "attr": {"T": {"type": "DT_FLOAT"}, "keep_dims": {"b": true}, "Tidx": {"type": "DT_INT32"}}}, {"name": "generator/G_MODEL/m/r1/2/moments/SquaredDifference", "op": "SquaredDifference", "input": ["generator/G_MODEL/m/r1/Conv_1/Conv2D", "generator/G_MODEL/m/r1/2/moments/mean"], "attr": {"T": {"type": "DT_FLOAT"}}}, {"name": "generator/G_MODEL/m/r1/2/moments/variance", "op": "Mean", "input": ["generator/G_MODEL/m/r1/2/moments/SquaredDifference", "generator/G_MODEL/m/r1/2/moments/variance/reduction_indices"], "attr": {"T": {"type": "DT_FLOAT"}, "Tidx": {"type": "DT_INT32"}, "keep_dims": {"b": true}}}, {"name": "generator/G_MODEL/m/r1/2/instancenorm/add", "op": "AddV2", "input": ["generator/G_MODEL/m/r1/2/moments/variance", "generator/G_MODEL/m/r1/2/instancenorm/add/y"], "attr": {"T": {"type": "DT_FLOAT"}}}, {"name": "generator/G_MODEL/m/r1/2/instancenorm/Rsqrt", "op": "Rsqrt", "input": ["generator/G_MODEL/m/r1/2/instancenorm/add"], "attr": {"T": {"type": "DT_FLOAT"}}}, {"name": "generator/G_MODEL/m/r1/2/instancenorm/mul", "op": "Mul", "input": ["generator/G_MODEL/m/r1/2/instancenorm/Rsqrt", "generator/G_MODEL/m/r1/2/gamma"], "attr": {"T": {"type": "DT_FLOAT"}}}, {"name": "generator/G_MODEL/m/r1/2/instancenorm/mul_2", "op": "Mul", "input": ["generator/G_MODEL/m/r1/2/moments/mean", "generator/G_MODEL/m/r1/2/instancenorm/mul"], "attr": {"T": {"type": "DT_FLOAT"}}}, {"name": "generator/G_MODEL/m/r1/2/instancenorm/mul_1", "op": "Mul", "input": ["generator/G_MODEL/m/r1/Conv_1/Conv2D", "generator/G_MODEL/m/r1/2/instancenorm/mul"], "attr": {"T": {"type": "DT_FLOAT"}}}, {"name": "generator/G_MODEL/m/r1/2/instancenorm/sub", "op": "Sub", "input": ["generator/G_MODEL/m/r1/2/beta", "generator/G_MODEL/m/r1/2/instancenorm/mul_2"], "attr": {"T": {"type": "DT_FLOAT"}}}, {"name": "generator/G_MODEL/m/r1/2/instancenorm/add_1", "op": "AddV2", "input": ["generator/G_MODEL/m/r1/2/instancenorm/mul_1", "generator/G_MODEL/m/r1/2/instancenorm/sub"], "attr": {"T": {"type": "DT_FLOAT"}}}, {"name": "generator/G_MODEL/m/r1/add", "op": "AddV2", "input": ["generator/G_MODEL/m/LeakyRelu", "generator/G_MODEL/m/r1/2/instancenorm/add_1"], "attr": {"T": {"type": "DT_FLOAT"}}}, {"name": "generator/G_MODEL/m/r2/Conv/Conv2D", "op": "Conv2D", "input": ["generator/G_MODEL/m/r1/add", "generator/G_MODEL/m/r2/Conv/weights"], "device": "/device:CPU:0", "attr": {"dilations": {"list": {"i": ["1", "1", "1", "1"]}}, "padding": {"s": "VkFMSUQ="}, "data_format": {"s": "TkhXQw=="}, "strides": {"list": {"i": ["1", "1", "1", "1"]}}, "T": {"type": "DT_FLOAT"}, "use_cudnn_on_gpu": {"b": true}, "explicit_paddings": {"list": {}}}}, {"name": "generator/G_MODEL/m/r2/InstanceNorm/moments/mean", "op": "Mean", "input": ["generator/G_MODEL/m/r2/Conv/Conv2D", "generator/G_MODEL/m/r2/InstanceNorm/moments/mean/reduction_indices"], "attr": {"keep_dims": {"b": true}, "T": {"type": "DT_FLOAT"}, "Tidx": {"type": "DT_INT32"}}}, {"name": "generator/G_MODEL/m/r2/InstanceNorm/moments/SquaredDifference", "op": "SquaredDifference", "input": ["generator/G_MODEL/m/r2/Conv/Conv2D", "generator/G_MODEL/m/r2/InstanceNorm/moments/mean"], "attr": {"T": {"type": "DT_FLOAT"}}}, {"name": "generator/G_MODEL/m/r2/InstanceNorm/moments/variance", "op": "Mean", "input": ["generator/G_MODEL/m/r2/InstanceNorm/moments/SquaredDifference", "generator/G_MODEL/m/r2/InstanceNorm/moments/variance/reduction_indices"], "attr": {"keep_dims": {"b": true}, "Tidx": {"type": "DT_INT32"}, "T": {"type": "DT_FLOAT"}}}, {"name": "generator/G_MODEL/m/r2/InstanceNorm/instancenorm/add", "op": "AddV2", "input": ["generator/G_MODEL/m/r2/InstanceNorm/moments/variance", "generator/G_MODEL/m/r2/InstanceNorm/instancenorm/add/y"], "attr": {"T": {"type": "DT_FLOAT"}}}, {"name": "generator/G_MODEL/m/r2/InstanceNorm/instancenorm/Rsqrt", "op": "Rsqrt", "input": ["generator/G_MODEL/m/r2/InstanceNorm/instancenorm/add"], "attr": {"T": {"type": "DT_FLOAT"}}}, {"name": "generator/G_MODEL/m/r2/InstanceNorm/instancenorm/mul", "op": "Mul", "input": ["generator/G_MODEL/m/r2/InstanceNorm/instancenorm/Rsqrt", "generator/G_MODEL/m/r2/InstanceNorm/gamma"], "attr": {"T": {"type": "DT_FLOAT"}}}, {"name": "generator/G_MODEL/m/r2/InstanceNorm/instancenorm/mul_2", "op": "Mul", "input": ["generator/G_MODEL/m/r2/InstanceNorm/moments/mean", "generator/G_MODEL/m/r2/InstanceNorm/instancenorm/mul"], "attr": {"T": {"type": "DT_FLOAT"}}}, {"name": "generator/G_MODEL/m/r2/InstanceNorm/instancenorm/mul_1", "op": "Mul", "input": ["generator/G_MODEL/m/r2/Conv/Conv2D", "generator/G_MODEL/m/r2/InstanceNorm/instancenorm/mul"], "attr": {"T": {"type": "DT_FLOAT"}}}, {"name": "generator/G_MODEL/m/r2/InstanceNorm/instancenorm/sub", "op": "Sub", "input": ["generator/G_MODEL/m/r2/InstanceNorm/beta", "generator/G_MODEL/m/r2/InstanceNorm/instancenorm/mul_2"], "attr": {"T": {"type": "DT_FLOAT"}}}, {"name": "generator/G_MODEL/m/r2/InstanceNorm/instancenorm/add_1", "op": "AddV2", "input": ["generator/G_MODEL/m/r2/InstanceNorm/instancenorm/mul_1", "generator/G_MODEL/m/r2/InstanceNorm/instancenorm/sub"], "attr": {"T": {"type": "DT_FLOAT"}}}, {"name": "generator/G_MODEL/m/r2/LeakyRelu", "op": "LeakyRelu", "input": ["generator/G_MODEL/m/r2/InstanceNorm/instancenorm/add_1"], "attr": {"alpha": {"f": 0.2}, "T": {"type": "DT_FLOAT"}}}, {"name": "generator/G_MODEL/m/r2/MirrorPad", "op": "MirrorPad", "input": ["generator/G_MODEL/m/r2/LeakyRelu", "generator/G_MODEL/m/r2/MirrorPad/paddings"], "attr": {"T": {"type": "DT_FLOAT"}, "mode": {"s": "UkVGTEVDVA=="}, "Tpaddings": {"type": "DT_INT32"}}}, {"name": "generator/G_MODEL/m/r2/r2/r2", "op": "DepthwiseConv2dNative", "input": ["generator/G_MODEL/m/r2/MirrorPad", "generator/G_MODEL/m/r2/r2/w"], "attr": {"explicit_paddings": {"list": {}}, "padding": {"s": "VkFMSUQ="}, "strides": {"list": {"i": ["1", "1", "1", "1"]}}, "data_format": {"s": "TkhXQw=="}, "dilations": {"list": {"i": ["1", "1", "1", "1"]}}, "T": {"type": "DT_FLOAT"}}}, {"name": "generator/G_MODEL/m/r2/1/moments/mean", "op": "Mean", "input": ["generator/G_MODEL/m/r2/r2/r2", "generator/G_MODEL/m/r2/1/moments/mean/reduction_indices"], "attr": {"Tidx": {"type": "DT_INT32"}, "keep_dims": {"b": true}, "T": {"type": "DT_FLOAT"}}}, {"name": "generator/G_MODEL/m/r2/1/moments/SquaredDifference", "op": "SquaredDifference", "input": ["generator/G_MODEL/m/r2/r2/r2", "generator/G_MODEL/m/r2/1/moments/mean"], "attr": {"T": {"type": "DT_FLOAT"}}}, {"name": "generator/G_MODEL/m/r2/1/moments/variance", "op": "Mean", "input": ["generator/G_MODEL/m/r2/1/moments/SquaredDifference", "generator/G_MODEL/m/r2/1/moments/variance/reduction_indices"], "attr": {"Tidx": {"type": "DT_INT32"}, "keep_dims": {"b": true}, "T": {"type": "DT_FLOAT"}}}, {"name": "generator/G_MODEL/m/r2/1/instancenorm/add", "op": "AddV2", "input": ["generator/G_MODEL/m/r2/1/moments/variance", "generator/G_MODEL/m/r2/1/instancenorm/add/y"], "attr": {"T": {"type": "DT_FLOAT"}}}, {"name": "generator/G_MODEL/m/r2/1/instancenorm/Rsqrt", "op": "Rsqrt", "input": ["generator/G_MODEL/m/r2/1/instancenorm/add"], "attr": {"T": {"type": "DT_FLOAT"}}}, {"name": "generator/G_MODEL/m/r2/1/instancenorm/mul", "op": "Mul", "input": ["generator/G_MODEL/m/r2/1/instancenorm/Rsqrt", "generator/G_MODEL/m/r2/1/gamma"], "attr": {"T": {"type": "DT_FLOAT"}}}, {"name": "generator/G_MODEL/m/r2/1/instancenorm/mul_2", "op": "Mul", "input": ["generator/G_MODEL/m/r2/1/moments/mean", "generator/G_MODEL/m/r2/1/instancenorm/mul"], "attr": {"T": {"type": "DT_FLOAT"}}}, {"name": "generator/G_MODEL/m/r2/1/instancenorm/mul_1", "op": "Mul", "input": ["generator/G_MODEL/m/r2/r2/r2", "generator/G_MODEL/m/r2/1/instancenorm/mul"], "attr": {"T": {"type": "DT_FLOAT"}}}, {"name": "generator/G_MODEL/m/r2/1/instancenorm/sub", "op": "Sub", "input": ["generator/G_MODEL/m/r2/1/beta", "generator/G_MODEL/m/r2/1/instancenorm/mul_2"], "attr": {"T": {"type": "DT_FLOAT"}}}, {"name": "generator/G_MODEL/m/r2/1/instancenorm/add_1", "op": "AddV2", "input": ["generator/G_MODEL/m/r2/1/instancenorm/mul_1", "generator/G_MODEL/m/r2/1/instancenorm/sub"], "attr": {"T": {"type": "DT_FLOAT"}}}, {"name": "generator/G_MODEL/m/r2/LeakyRelu_1", "op": "LeakyRelu", "input": ["generator/G_MODEL/m/r2/1/instancenorm/add_1"], "attr": {"alpha": {"f": 0.2}, "T": {"type": "DT_FLOAT"}}}, {"name": "generator/G_MODEL/m/r2/Conv_1/Conv2D", "op": "Conv2D", "input": ["generator/G_MODEL/m/r2/LeakyRelu_1", "generator/G_MODEL/m/r2/Conv_1/weights"], "device": "/device:CPU:0", "attr": {"data_format": {"s": "TkhXQw=="}, "use_cudnn_on_gpu": {"b": true}, "explicit_paddings": {"list": {}}, "strides": {"list": {"i": ["1", "1", "1", "1"]}}, "T": {"type": "DT_FLOAT"}, "padding": {"s": "VkFMSUQ="}, "dilations": {"list": {"i": ["1", "1", "1", "1"]}}}}, {"name": "generator/G_MODEL/m/r2/2/moments/mean", "op": "Mean", "input": ["generator/G_MODEL/m/r2/Conv_1/Conv2D", "generator/G_MODEL/m/r2/2/moments/mean/reduction_indices"], "attr": {"Tidx": {"type": "DT_INT32"}, "keep_dims": {"b": true}, "T": {"type": "DT_FLOAT"}}}, {"name": "generator/G_MODEL/m/r2/2/moments/SquaredDifference", "op": "SquaredDifference", "input": ["generator/G_MODEL/m/r2/Conv_1/Conv2D", "generator/G_MODEL/m/r2/2/moments/mean"], "attr": {"T": {"type": "DT_FLOAT"}}}, {"name": "generator/G_MODEL/m/r2/2/moments/variance", "op": "Mean", "input": ["generator/G_MODEL/m/r2/2/moments/SquaredDifference", "generator/G_MODEL/m/r2/2/moments/variance/reduction_indices"], "attr": {"Tidx": {"type": "DT_INT32"}, "keep_dims": {"b": true}, "T": {"type": "DT_FLOAT"}}}, {"name": "generator/G_MODEL/m/r2/2/instancenorm/add", "op": "AddV2", "input": ["generator/G_MODEL/m/r2/2/moments/variance", "generator/G_MODEL/m/r2/2/instancenorm/add/y"], "attr": {"T": {"type": "DT_FLOAT"}}}, {"name": "generator/G_MODEL/m/r2/2/instancenorm/Rsqrt", "op": "Rsqrt", "input": ["generator/G_MODEL/m/r2/2/instancenorm/add"], "attr": {"T": {"type": "DT_FLOAT"}}}, {"name": "generator/G_MODEL/m/r2/2/instancenorm/mul", "op": "Mul", "input": ["generator/G_MODEL/m/r2/2/instancenorm/Rsqrt", "generator/G_MODEL/m/r2/2/gamma"], "attr": {"T": {"type": "DT_FLOAT"}}}, {"name": "generator/G_MODEL/m/r2/2/instancenorm/mul_2", "op": "Mul", "input": ["generator/G_MODEL/m/r2/2/moments/mean", "generator/G_MODEL/m/r2/2/instancenorm/mul"], "attr": {"T": {"type": "DT_FLOAT"}}}, {"name": "generator/G_MODEL/m/r2/2/instancenorm/mul_1", "op": "Mul", "input": ["generator/G_MODEL/m/r2/Conv_1/Conv2D", "generator/G_MODEL/m/r2/2/instancenorm/mul"], "attr": {"T": {"type": "DT_FLOAT"}}}, {"name": "generator/G_MODEL/m/r2/2/instancenorm/sub", "op": "Sub", "input": ["generator/G_MODEL/m/r2/2/beta", "generator/G_MODEL/m/r2/2/instancenorm/mul_2"], "attr": {"T": {"type": "DT_FLOAT"}}}, {"name": "generator/G_MODEL/m/r2/2/instancenorm/add_1", "op": "AddV2", "input": ["generator/G_MODEL/m/r2/2/instancenorm/mul_1", "generator/G_MODEL/m/r2/2/instancenorm/sub"], "attr": {"T": {"type": "DT_FLOAT"}}}, {"name": "generator/G_MODEL/m/r2/add", "op": "AddV2", "input": ["generator/G_MODEL/m/r1/add", "generator/G_MODEL/m/r2/2/instancenorm/add_1"], "attr": {"T": {"type": "DT_FLOAT"}}}, {"name": "generator/G_MODEL/m/r3/Conv/Conv2D", "op": "Conv2D", "input": ["generator/G_MODEL/m/r2/add", "generator/G_MODEL/m/r3/Conv/weights"], "device": "/device:CPU:0", "attr": {"use_cudnn_on_gpu": {"b": true}, "T": {"type": "DT_FLOAT"}, "padding": {"s": "VkFMSUQ="}, "dilations": {"list": {"i": ["1", "1", "1", "1"]}}, "data_format": {"s": "TkhXQw=="}, "explicit_paddings": {"list": {}}, "strides": {"list": {"i": ["1", "1", "1", "1"]}}}}, {"name": "generator/G_MODEL/m/r3/InstanceNorm/moments/mean", "op": "Mean", "input": ["generator/G_MODEL/m/r3/Conv/Conv2D", "generator/G_MODEL/m/r3/InstanceNorm/moments/mean/reduction_indices"], "attr": {"Tidx": {"type": "DT_INT32"}, "keep_dims": {"b": true}, "T": {"type": "DT_FLOAT"}}}, {"name": "generator/G_MODEL/m/r3/InstanceNorm/moments/SquaredDifference", "op": "SquaredDifference", "input": ["generator/G_MODEL/m/r3/Conv/Conv2D", "generator/G_MODEL/m/r3/InstanceNorm/moments/mean"], "attr": {"T": {"type": "DT_FLOAT"}}}, {"name": "generator/G_MODEL/m/r3/InstanceNorm/moments/variance", "op": "Mean", "input": ["generator/G_MODEL/m/r3/InstanceNorm/moments/SquaredDifference", "generator/G_MODEL/m/r3/InstanceNorm/moments/variance/reduction_indices"], "attr": {"Tidx": {"type": "DT_INT32"}, "T": {"type": "DT_FLOAT"}, "keep_dims": {"b": true}}}, {"name": "generator/G_MODEL/m/r3/InstanceNorm/instancenorm/add", "op": "AddV2", "input": ["generator/G_MODEL/m/r3/InstanceNorm/moments/variance", "generator/G_MODEL/m/r3/InstanceNorm/instancenorm/add/y"], "attr": {"T": {"type": "DT_FLOAT"}}}, {"name": "generator/G_MODEL/m/r3/InstanceNorm/instancenorm/Rsqrt", "op": "Rsqrt", "input": ["generator/G_MODEL/m/r3/InstanceNorm/instancenorm/add"], "attr": {"T": {"type": "DT_FLOAT"}}}, {"name": "generator/G_MODEL/m/r3/InstanceNorm/instancenorm/mul", "op": "Mul", "input": ["generator/G_MODEL/m/r3/InstanceNorm/instancenorm/Rsqrt", "generator/G_MODEL/m/r3/InstanceNorm/gamma"], "attr": {"T": {"type": "DT_FLOAT"}}}, {"name": "generator/G_MODEL/m/r3/InstanceNorm/instancenorm/mul_2", "op": "Mul", "input": ["generator/G_MODEL/m/r3/InstanceNorm/moments/mean", "generator/G_MODEL/m/r3/InstanceNorm/instancenorm/mul"], "attr": {"T": {"type": "DT_FLOAT"}}}, {"name": "generator/G_MODEL/m/r3/InstanceNorm/instancenorm/mul_1", "op": "Mul", "input": ["generator/G_MODEL/m/r3/Conv/Conv2D", "generator/G_MODEL/m/r3/InstanceNorm/instancenorm/mul"], "attr": {"T": {"type": "DT_FLOAT"}}}, {"name": "generator/G_MODEL/m/r3/InstanceNorm/instancenorm/sub", "op": "Sub", "input": ["generator/G_MODEL/m/r3/InstanceNorm/beta", "generator/G_MODEL/m/r3/InstanceNorm/instancenorm/mul_2"], "attr": {"T": {"type": "DT_FLOAT"}}}, {"name": "generator/G_MODEL/m/r3/InstanceNorm/instancenorm/add_1", "op": "AddV2", "input": ["generator/G_MODEL/m/r3/InstanceNorm/instancenorm/mul_1", "generator/G_MODEL/m/r3/InstanceNorm/instancenorm/sub"], "attr": {"T": {"type": "DT_FLOAT"}}}, {"name": "generator/G_MODEL/m/r3/LeakyRelu", "op": "LeakyRelu", "input": ["generator/G_MODEL/m/r3/InstanceNorm/instancenorm/add_1"], "attr": {"T": {"type": "DT_FLOAT"}, "alpha": {"f": 0.2}}}, {"name": "generator/G_MODEL/m/r3/MirrorPad", "op": "MirrorPad", "input": ["generator/G_MODEL/m/r3/LeakyRelu", "generator/G_MODEL/m/r3/MirrorPad/paddings"], "attr": {"T": {"type": "DT_FLOAT"}, "mode": {"s": "UkVGTEVDVA=="}, "Tpaddings": {"type": "DT_INT32"}}}, {"name": "generator/G_MODEL/m/r3/r3/r3", "op": "DepthwiseConv2dNative", "input": ["generator/G_MODEL/m/r3/MirrorPad", "generator/G_MODEL/m/r3/r3/w"], "attr": {"dilations": {"list": {"i": ["1", "1", "1", "1"]}}, "padding": {"s": "VkFMSUQ="}, "T": {"type": "DT_FLOAT"}, "explicit_paddings": {"list": {}}, "strides": {"list": {"i": ["1", "1", "1", "1"]}}, "data_format": {"s": "TkhXQw=="}}}, {"name": "generator/G_MODEL/m/r3/1/moments/mean", "op": "Mean", "input": ["generator/G_MODEL/m/r3/r3/r3", "generator/G_MODEL/m/r3/1/moments/mean/reduction_indices"], "attr": {"Tidx": {"type": "DT_INT32"}, "keep_dims": {"b": true}, "T": {"type": "DT_FLOAT"}}}, {"name": "generator/G_MODEL/m/r3/1/moments/SquaredDifference", "op": "SquaredDifference", "input": ["generator/G_MODEL/m/r3/r3/r3", "generator/G_MODEL/m/r3/1/moments/mean"], "attr": {"T": {"type": "DT_FLOAT"}}}, {"name": "generator/G_MODEL/m/r3/1/moments/variance", "op": "Mean", "input": ["generator/G_MODEL/m/r3/1/moments/SquaredDifference", "generator/G_MODEL/m/r3/1/moments/variance/reduction_indices"], "attr": {"keep_dims": {"b": true}, "T": {"type": "DT_FLOAT"}, "Tidx": {"type": "DT_INT32"}}}, {"name": "generator/G_MODEL/m/r3/1/instancenorm/add", "op": "AddV2", "input": ["generator/G_MODEL/m/r3/1/moments/variance", "generator/G_MODEL/m/r3/1/instancenorm/add/y"], "attr": {"T": {"type": "DT_FLOAT"}}}, {"name": "generator/G_MODEL/m/r3/1/instancenorm/Rsqrt", "op": "Rsqrt", "input": ["generator/G_MODEL/m/r3/1/instancenorm/add"], "attr": {"T": {"type": "DT_FLOAT"}}}, {"name": "generator/G_MODEL/m/r3/1/instancenorm/mul", "op": "Mul", "input": ["generator/G_MODEL/m/r3/1/instancenorm/Rsqrt", "generator/G_MODEL/m/r3/1/gamma"], "attr": {"T": {"type": "DT_FLOAT"}}}, {"name": "generator/G_MODEL/m/r3/1/instancenorm/mul_2", "op": "Mul", "input": ["generator/G_MODEL/m/r3/1/moments/mean", "generator/G_MODEL/m/r3/1/instancenorm/mul"], "attr": {"T": {"type": "DT_FLOAT"}}}, {"name": "generator/G_MODEL/m/r3/1/instancenorm/mul_1", "op": "Mul", "input": ["generator/G_MODEL/m/r3/r3/r3", "generator/G_MODEL/m/r3/1/instancenorm/mul"], "attr": {"T": {"type": "DT_FLOAT"}}}, {"name": "generator/G_MODEL/m/r3/1/instancenorm/sub", "op": "Sub", "input": ["generator/G_MODEL/m/r3/1/beta", "generator/G_MODEL/m/r3/1/instancenorm/mul_2"], "attr": {"T": {"type": "DT_FLOAT"}}}, {"name": "generator/G_MODEL/m/r3/1/instancenorm/add_1", "op": "AddV2", "input": ["generator/G_MODEL/m/r3/1/instancenorm/mul_1", "generator/G_MODEL/m/r3/1/instancenorm/sub"], "attr": {"T": {"type": "DT_FLOAT"}}}, {"name": "generator/G_MODEL/m/r3/LeakyRelu_1", "op": "LeakyRelu", "input": ["generator/G_MODEL/m/r3/1/instancenorm/add_1"], "attr": {"T": {"type": "DT_FLOAT"}, "alpha": {"f": 0.2}}}, {"name": "generator/G_MODEL/m/r3/Conv_1/Conv2D", "op": "Conv2D", "input": ["generator/G_MODEL/m/r3/LeakyRelu_1", "generator/G_MODEL/m/r3/Conv_1/weights"], "device": "/device:CPU:0", "attr": {"strides": {"list": {"i": ["1", "1", "1", "1"]}}, "explicit_paddings": {"list": {}}, "T": {"type": "DT_FLOAT"}, "dilations": {"list": {"i": ["1", "1", "1", "1"]}}, "use_cudnn_on_gpu": {"b": true}, "data_format": {"s": "TkhXQw=="}, "padding": {"s": "VkFMSUQ="}}}, {"name": "generator/G_MODEL/m/r3/2/moments/mean", "op": "Mean", "input": ["generator/G_MODEL/m/r3/Conv_1/Conv2D", "generator/G_MODEL/m/r3/2/moments/mean/reduction_indices"], "attr": {"T": {"type": "DT_FLOAT"}, "keep_dims": {"b": true}, "Tidx": {"type": "DT_INT32"}}}, {"name": "generator/G_MODEL/m/r3/2/moments/SquaredDifference", "op": "SquaredDifference", "input": ["generator/G_MODEL/m/r3/Conv_1/Conv2D", "generator/G_MODEL/m/r3/2/moments/mean"], "attr": {"T": {"type": "DT_FLOAT"}}}, {"name": "generator/G_MODEL/m/r3/2/moments/variance", "op": "Mean", "input": ["generator/G_MODEL/m/r3/2/moments/SquaredDifference", "generator/G_MODEL/m/r3/2/moments/variance/reduction_indices"], "attr": {"Tidx": {"type": "DT_INT32"}, "T": {"type": "DT_FLOAT"}, "keep_dims": {"b": true}}}, {"name": "generator/G_MODEL/m/r3/2/instancenorm/add", "op": "AddV2", "input": ["generator/G_MODEL/m/r3/2/moments/variance", "generator/G_MODEL/m/r3/2/instancenorm/add/y"], "attr": {"T": {"type": "DT_FLOAT"}}}, {"name": "generator/G_MODEL/m/r3/2/instancenorm/Rsqrt", "op": "Rsqrt", "input": ["generator/G_MODEL/m/r3/2/instancenorm/add"], "attr": {"T": {"type": "DT_FLOAT"}}}, {"name": "generator/G_MODEL/m/r3/2/instancenorm/mul", "op": "Mul", "input": ["generator/G_MODEL/m/r3/2/instancenorm/Rsqrt", "generator/G_MODEL/m/r3/2/gamma"], "attr": {"T": {"type": "DT_FLOAT"}}}, {"name": "generator/G_MODEL/m/r3/2/instancenorm/mul_2", "op": "Mul", "input": ["generator/G_MODEL/m/r3/2/moments/mean", "generator/G_MODEL/m/r3/2/instancenorm/mul"], "attr": {"T": {"type": "DT_FLOAT"}}}, {"name": "generator/G_MODEL/m/r3/2/instancenorm/mul_1", "op": "Mul", "input": ["generator/G_MODEL/m/r3/Conv_1/Conv2D", "generator/G_MODEL/m/r3/2/instancenorm/mul"], "attr": {"T": {"type": "DT_FLOAT"}}}, {"name": "generator/G_MODEL/m/r3/2/instancenorm/sub", "op": "Sub", "input": ["generator/G_MODEL/m/r3/2/beta", "generator/G_MODEL/m/r3/2/instancenorm/mul_2"], "attr": {"T": {"type": "DT_FLOAT"}}}, {"name": "generator/G_MODEL/m/r3/2/instancenorm/add_1", "op": "AddV2", "input": ["generator/G_MODEL/m/r3/2/instancenorm/mul_1", "generator/G_MODEL/m/r3/2/instancenorm/sub"], "attr": {"T": {"type": "DT_FLOAT"}}}, {"name": "generator/G_MODEL/m/r3/add", "op": "AddV2", "input": ["generator/G_MODEL/m/r2/add", "generator/G_MODEL/m/r3/2/instancenorm/add_1"], "attr": {"T": {"type": "DT_FLOAT"}}}, {"name": "generator/G_MODEL/m/r4/Conv/Conv2D", "op": "Conv2D", "input": ["generator/G_MODEL/m/r3/add", "generator/G_MODEL/m/r4/Conv/weights"], "device": "/device:CPU:0", "attr": {"use_cudnn_on_gpu": {"b": true}, "T": {"type": "DT_FLOAT"}, "strides": {"list": {"i": ["1", "1", "1", "1"]}}, "padding": {"s": "VkFMSUQ="}, "data_format": {"s": "TkhXQw=="}, "explicit_paddings": {"list": {}}, "dilations": {"list": {"i": ["1", "1", "1", "1"]}}}}, {"name": "generator/G_MODEL/m/r4/InstanceNorm/moments/mean", "op": "Mean", "input": ["generator/G_MODEL/m/r4/Conv/Conv2D", "generator/G_MODEL/m/r4/InstanceNorm/moments/mean/reduction_indices"], "attr": {"T": {"type": "DT_FLOAT"}, "keep_dims": {"b": true}, "Tidx": {"type": "DT_INT32"}}}, {"name": "generator/G_MODEL/m/r4/InstanceNorm/moments/SquaredDifference", "op": "SquaredDifference", "input": ["generator/G_MODEL/m/r4/Conv/Conv2D", "generator/G_MODEL/m/r4/InstanceNorm/moments/mean"], "attr": {"T": {"type": "DT_FLOAT"}}}, {"name": "generator/G_MODEL/m/r4/InstanceNorm/moments/variance", "op": "Mean", "input": ["generator/G_MODEL/m/r4/InstanceNorm/moments/SquaredDifference", "generator/G_MODEL/m/r4/InstanceNorm/moments/variance/reduction_indices"], "attr": {"keep_dims": {"b": true}, "T": {"type": "DT_FLOAT"}, "Tidx": {"type": "DT_INT32"}}}, {"name": "generator/G_MODEL/m/r4/InstanceNorm/instancenorm/add", "op": "AddV2", "input": ["generator/G_MODEL/m/r4/InstanceNorm/moments/variance", "generator/G_MODEL/m/r4/InstanceNorm/instancenorm/add/y"], "attr": {"T": {"type": "DT_FLOAT"}}}, {"name": "generator/G_MODEL/m/r4/InstanceNorm/instancenorm/Rsqrt", "op": "Rsqrt", "input": ["generator/G_MODEL/m/r4/InstanceNorm/instancenorm/add"], "attr": {"T": {"type": "DT_FLOAT"}}}, {"name": "generator/G_MODEL/m/r4/InstanceNorm/instancenorm/mul", "op": "Mul", "input": ["generator/G_MODEL/m/r4/InstanceNorm/instancenorm/Rsqrt", "generator/G_MODEL/m/r4/InstanceNorm/gamma"], "attr": {"T": {"type": "DT_FLOAT"}}}, {"name": "generator/G_MODEL/m/r4/InstanceNorm/instancenorm/mul_2", "op": "Mul", "input": ["generator/G_MODEL/m/r4/InstanceNorm/moments/mean", "generator/G_MODEL/m/r4/InstanceNorm/instancenorm/mul"], "attr": {"T": {"type": "DT_FLOAT"}}}, {"name": "generator/G_MODEL/m/r4/InstanceNorm/instancenorm/mul_1", "op": "Mul", "input": ["generator/G_MODEL/m/r4/Conv/Conv2D", "generator/G_MODEL/m/r4/InstanceNorm/instancenorm/mul"], "attr": {"T": {"type": "DT_FLOAT"}}}, {"name": "generator/G_MODEL/m/r4/InstanceNorm/instancenorm/sub", "op": "Sub", "input": ["generator/G_MODEL/m/r4/InstanceNorm/beta", "generator/G_MODEL/m/r4/InstanceNorm/instancenorm/mul_2"], "attr": {"T": {"type": "DT_FLOAT"}}}, {"name": "generator/G_MODEL/m/r4/InstanceNorm/instancenorm/add_1", "op": "AddV2", "input": ["generator/G_MODEL/m/r4/InstanceNorm/instancenorm/mul_1", "generator/G_MODEL/m/r4/InstanceNorm/instancenorm/sub"], "attr": {"T": {"type": "DT_FLOAT"}}}, {"name": "generator/G_MODEL/m/r4/LeakyRelu", "op": "LeakyRelu", "input": ["generator/G_MODEL/m/r4/InstanceNorm/instancenorm/add_1"], "attr": {"T": {"type": "DT_FLOAT"}, "alpha": {"f": 0.2}}}, {"name": "generator/G_MODEL/m/r4/MirrorPad", "op": "MirrorPad", "input": ["generator/G_MODEL/m/r4/LeakyRelu", "generator/G_MODEL/m/r4/MirrorPad/paddings"], "attr": {"T": {"type": "DT_FLOAT"}, "mode": {"s": "UkVGTEVDVA=="}, "Tpaddings": {"type": "DT_INT32"}}}, {"name": "generator/G_MODEL/m/r4/r4/r4", "op": "DepthwiseConv2dNative", "input": ["generator/G_MODEL/m/r4/MirrorPad", "generator/G_MODEL/m/r4/r4/w"], "attr": {"padding": {"s": "VkFMSUQ="}, "T": {"type": "DT_FLOAT"}, "data_format": {"s": "TkhXQw=="}, "dilations": {"list": {"i": ["1", "1", "1", "1"]}}, "strides": {"list": {"i": ["1", "1", "1", "1"]}}, "explicit_paddings": {"list": {}}}}, {"name": "generator/G_MODEL/m/r4/1/moments/mean", "op": "Mean", "input": ["generator/G_MODEL/m/r4/r4/r4", "generator/G_MODEL/m/r4/1/moments/mean/reduction_indices"], "attr": {"Tidx": {"type": "DT_INT32"}, "T": {"type": "DT_FLOAT"}, "keep_dims": {"b": true}}}, {"name": "generator/G_MODEL/m/r4/1/moments/SquaredDifference", "op": "SquaredDifference", "input": ["generator/G_MODEL/m/r4/r4/r4", "generator/G_MODEL/m/r4/1/moments/mean"], "attr": {"T": {"type": "DT_FLOAT"}}}, {"name": "generator/G_MODEL/m/r4/1/moments/variance", "op": "Mean", "input": ["generator/G_MODEL/m/r4/1/moments/SquaredDifference", "generator/G_MODEL/m/r4/1/moments/variance/reduction_indices"], "attr": {"T": {"type": "DT_FLOAT"}, "Tidx": {"type": "DT_INT32"}, "keep_dims": {"b": true}}}, {"name": "generator/G_MODEL/m/r4/1/instancenorm/add", "op": "AddV2", "input": ["generator/G_MODEL/m/r4/1/moments/variance", "generator/G_MODEL/m/r4/1/instancenorm/add/y"], "attr": {"T": {"type": "DT_FLOAT"}}}, {"name": "generator/G_MODEL/m/r4/1/instancenorm/Rsqrt", "op": "Rsqrt", "input": ["generator/G_MODEL/m/r4/1/instancenorm/add"], "attr": {"T": {"type": "DT_FLOAT"}}}, {"name": "generator/G_MODEL/m/r4/1/instancenorm/mul", "op": "Mul", "input": ["generator/G_MODEL/m/r4/1/instancenorm/Rsqrt", "generator/G_MODEL/m/r4/1/gamma"], "attr": {"T": {"type": "DT_FLOAT"}}}, {"name": "generator/G_MODEL/m/r4/1/instancenorm/mul_2", "op": "Mul", "input": ["generator/G_MODEL/m/r4/1/moments/mean", "generator/G_MODEL/m/r4/1/instancenorm/mul"], "attr": {"T": {"type": "DT_FLOAT"}}}, {"name": "generator/G_MODEL/m/r4/1/instancenorm/mul_1", "op": "Mul", "input": ["generator/G_MODEL/m/r4/r4/r4", "generator/G_MODEL/m/r4/1/instancenorm/mul"], "attr": {"T": {"type": "DT_FLOAT"}}}, {"name": "generator/G_MODEL/m/r4/1/instancenorm/sub", "op": "Sub", "input": ["generator/G_MODEL/m/r4/1/beta", "generator/G_MODEL/m/r4/1/instancenorm/mul_2"], "attr": {"T": {"type": "DT_FLOAT"}}}, {"name": "generator/G_MODEL/m/r4/1/instancenorm/add_1", "op": "AddV2", "input": ["generator/G_MODEL/m/r4/1/instancenorm/mul_1", "generator/G_MODEL/m/r4/1/instancenorm/sub"], "attr": {"T": {"type": "DT_FLOAT"}}}, {"name": "generator/G_MODEL/m/r4/LeakyRelu_1", "op": "LeakyRelu", "input": ["generator/G_MODEL/m/r4/1/instancenorm/add_1"], "attr": {"T": {"type": "DT_FLOAT"}, "alpha": {"f": 0.2}}}, {"name": "generator/G_MODEL/m/r4/Conv_1/Conv2D", "op": "Conv2D", "input": ["generator/G_MODEL/m/r4/LeakyRelu_1", "generator/G_MODEL/m/r4/Conv_1/weights"], "device": "/device:CPU:0", "attr": {"dilations": {"list": {"i": ["1", "1", "1", "1"]}}, "explicit_paddings": {"list": {}}, "strides": {"list": {"i": ["1", "1", "1", "1"]}}, "padding": {"s": "VkFMSUQ="}, "data_format": {"s": "TkhXQw=="}, "use_cudnn_on_gpu": {"b": true}, "T": {"type": "DT_FLOAT"}}}, {"name": "generator/G_MODEL/m/r4/2/moments/mean", "op": "Mean", "input": ["generator/G_MODEL/m/r4/Conv_1/Conv2D", "generator/G_MODEL/m/r4/2/moments/mean/reduction_indices"], "attr": {"T": {"type": "DT_FLOAT"}, "Tidx": {"type": "DT_INT32"}, "keep_dims": {"b": true}}}, {"name": "generator/G_MODEL/m/r4/2/moments/SquaredDifference", "op": "SquaredDifference", "input": ["generator/G_MODEL/m/r4/Conv_1/Conv2D", "generator/G_MODEL/m/r4/2/moments/mean"], "attr": {"T": {"type": "DT_FLOAT"}}}, {"name": "generator/G_MODEL/m/r4/2/moments/variance", "op": "Mean", "input": ["generator/G_MODEL/m/r4/2/moments/SquaredDifference", "generator/G_MODEL/m/r4/2/moments/variance/reduction_indices"], "attr": {"keep_dims": {"b": true}, "Tidx": {"type": "DT_INT32"}, "T": {"type": "DT_FLOAT"}}}, {"name": "generator/G_MODEL/m/r4/2/instancenorm/add", "op": "AddV2", "input": ["generator/G_MODEL/m/r4/2/moments/variance", "generator/G_MODEL/m/r4/2/instancenorm/add/y"], "attr": {"T": {"type": "DT_FLOAT"}}}, {"name": "generator/G_MODEL/m/r4/2/instancenorm/Rsqrt", "op": "Rsqrt", "input": ["generator/G_MODEL/m/r4/2/instancenorm/add"], "attr": {"T": {"type": "DT_FLOAT"}}}, {"name": "generator/G_MODEL/m/r4/2/instancenorm/mul", "op": "Mul", "input": ["generator/G_MODEL/m/r4/2/instancenorm/Rsqrt", "generator/G_MODEL/m/r4/2/gamma"], "attr": {"T": {"type": "DT_FLOAT"}}}, {"name": "generator/G_MODEL/m/r4/2/instancenorm/mul_2", "op": "Mul", "input": ["generator/G_MODEL/m/r4/2/moments/mean", "generator/G_MODEL/m/r4/2/instancenorm/mul"], "attr": {"T": {"type": "DT_FLOAT"}}}, {"name": "generator/G_MODEL/m/r4/2/instancenorm/mul_1", "op": "Mul", "input": ["generator/G_MODEL/m/r4/Conv_1/Conv2D", "generator/G_MODEL/m/r4/2/instancenorm/mul"], "attr": {"T": {"type": "DT_FLOAT"}}}, {"name": "generator/G_MODEL/m/r4/2/instancenorm/sub", "op": "Sub", "input": ["generator/G_MODEL/m/r4/2/beta", "generator/G_MODEL/m/r4/2/instancenorm/mul_2"], "attr": {"T": {"type": "DT_FLOAT"}}}, {"name": "generator/G_MODEL/m/r4/2/instancenorm/add_1", "op": "AddV2", "input": ["generator/G_MODEL/m/r4/2/instancenorm/mul_1", "generator/G_MODEL/m/r4/2/instancenorm/sub"], "attr": {"T": {"type": "DT_FLOAT"}}}, {"name": "generator/G_MODEL/m/r4/add", "op": "AddV2", "input": ["generator/G_MODEL/m/r3/add", "generator/G_MODEL/m/r4/2/instancenorm/add_1"], "attr": {"T": {"type": "DT_FLOAT"}}}, {"name": "generator/G_MODEL/m/r5/Conv/Conv2D", "op": "Conv2D", "input": ["generator/G_MODEL/m/r4/add", "generator/G_MODEL/m/r5/Conv/weights"], "device": "/device:CPU:0", "attr": {"dilations": {"list": {"i": ["1", "1", "1", "1"]}}, "T": {"type": "DT_FLOAT"}, "strides": {"list": {"i": ["1", "1", "1", "1"]}}, "explicit_paddings": {"list": {}}, "padding": {"s": "VkFMSUQ="}, "data_format": {"s": "TkhXQw=="}, "use_cudnn_on_gpu": {"b": true}}}, {"name": "generator/G_MODEL/m/r5/InstanceNorm/moments/mean", "op": "Mean", "input": ["generator/G_MODEL/m/r5/Conv/Conv2D", "generator/G_MODEL/m/r5/InstanceNorm/moments/mean/reduction_indices"], "attr": {"Tidx": {"type": "DT_INT32"}, "T": {"type": "DT_FLOAT"}, "keep_dims": {"b": true}}}, {"name": "generator/G_MODEL/m/r5/InstanceNorm/moments/SquaredDifference", "op": "SquaredDifference", "input": ["generator/G_MODEL/m/r5/Conv/Conv2D", "generator/G_MODEL/m/r5/InstanceNorm/moments/mean"], "attr": {"T": {"type": "DT_FLOAT"}}}, {"name": "generator/G_MODEL/m/r5/InstanceNorm/moments/variance", "op": "Mean", "input": ["generator/G_MODEL/m/r5/InstanceNorm/moments/SquaredDifference", "generator/G_MODEL/m/r5/InstanceNorm/moments/variance/reduction_indices"], "attr": {"keep_dims": {"b": true}, "Tidx": {"type": "DT_INT32"}, "T": {"type": "DT_FLOAT"}}}, {"name": "generator/G_MODEL/m/r5/InstanceNorm/instancenorm/add", "op": "AddV2", "input": ["generator/G_MODEL/m/r5/InstanceNorm/moments/variance", "generator/G_MODEL/m/r5/InstanceNorm/instancenorm/add/y"], "attr": {"T": {"type": "DT_FLOAT"}}}, {"name": "generator/G_MODEL/m/r5/InstanceNorm/instancenorm/Rsqrt", "op": "Rsqrt", "input": ["generator/G_MODEL/m/r5/InstanceNorm/instancenorm/add"], "attr": {"T": {"type": "DT_FLOAT"}}}, {"name": "generator/G_MODEL/m/r5/InstanceNorm/instancenorm/mul", "op": "Mul", "input": ["generator/G_MODEL/m/r5/InstanceNorm/instancenorm/Rsqrt", "generator/G_MODEL/m/r5/InstanceNorm/gamma"], "attr": {"T": {"type": "DT_FLOAT"}}}, {"name": "generator/G_MODEL/m/r5/InstanceNorm/instancenorm/mul_2", "op": "Mul", "input": ["generator/G_MODEL/m/r5/InstanceNorm/moments/mean", "generator/G_MODEL/m/r5/InstanceNorm/instancenorm/mul"], "attr": {"T": {"type": "DT_FLOAT"}}}, {"name": "generator/G_MODEL/m/r5/InstanceNorm/instancenorm/mul_1", "op": "Mul", "input": ["generator/G_MODEL/m/r5/Conv/Conv2D", "generator/G_MODEL/m/r5/InstanceNorm/instancenorm/mul"], "attr": {"T": {"type": "DT_FLOAT"}}}, {"name": "generator/G_MODEL/m/r5/InstanceNorm/instancenorm/sub", "op": "Sub", "input": ["generator/G_MODEL/m/r5/InstanceNorm/beta", "generator/G_MODEL/m/r5/InstanceNorm/instancenorm/mul_2"], "attr": {"T": {"type": "DT_FLOAT"}}}, {"name": "generator/G_MODEL/m/r5/InstanceNorm/instancenorm/add_1", "op": "AddV2", "input": ["generator/G_MODEL/m/r5/InstanceNorm/instancenorm/mul_1", "generator/G_MODEL/m/r5/InstanceNorm/instancenorm/sub"], "attr": {"T": {"type": "DT_FLOAT"}}}, {"name": "generator/G_MODEL/m/r5/LeakyRelu", "op": "LeakyRelu", "input": ["generator/G_MODEL/m/r5/InstanceNorm/instancenorm/add_1"], "attr": {"T": {"type": "DT_FLOAT"}, "alpha": {"f": 0.2}}}, {"name": "generator/G_MODEL/m/r5/MirrorPad", "op": "MirrorPad", "input": ["generator/G_MODEL/m/r5/LeakyRelu", "generator/G_MODEL/m/r5/MirrorPad/paddings"], "attr": {"Tpaddings": {"type": "DT_INT32"}, "mode": {"s": "UkVGTEVDVA=="}, "T": {"type": "DT_FLOAT"}}}, {"name": "generator/G_MODEL/m/r5/r5/r5", "op": "DepthwiseConv2dNative", "input": ["generator/G_MODEL/m/r5/MirrorPad", "generator/G_MODEL/m/r5/r5/w"], "attr": {"padding": {"s": "VkFMSUQ="}, "strides": {"list": {"i": ["1", "1", "1", "1"]}}, "dilations": {"list": {"i": ["1", "1", "1", "1"]}}, "T": {"type": "DT_FLOAT"}, "data_format": {"s": "TkhXQw=="}, "explicit_paddings": {"list": {}}}}, {"name": "generator/G_MODEL/m/r5/1/moments/mean", "op": "Mean", "input": ["generator/G_MODEL/m/r5/r5/r5", "generator/G_MODEL/m/r5/1/moments/mean/reduction_indices"], "attr": {"T": {"type": "DT_FLOAT"}, "Tidx": {"type": "DT_INT32"}, "keep_dims": {"b": true}}}, {"name": "generator/G_MODEL/m/r5/1/moments/SquaredDifference", "op": "SquaredDifference", "input": ["generator/G_MODEL/m/r5/r5/r5", "generator/G_MODEL/m/r5/1/moments/mean"], "attr": {"T": {"type": "DT_FLOAT"}}}, {"name": "generator/G_MODEL/m/r5/1/moments/variance", "op": "Mean", "input": ["generator/G_MODEL/m/r5/1/moments/SquaredDifference", "generator/G_MODEL/m/r5/1/moments/variance/reduction_indices"], "attr": {"Tidx": {"type": "DT_INT32"}, "T": {"type": "DT_FLOAT"}, "keep_dims": {"b": true}}}, {"name": "generator/G_MODEL/m/r5/1/instancenorm/add", "op": "AddV2", "input": ["generator/G_MODEL/m/r5/1/moments/variance", "generator/G_MODEL/m/r5/1/instancenorm/add/y"], "attr": {"T": {"type": "DT_FLOAT"}}}, {"name": "generator/G_MODEL/m/r5/1/instancenorm/Rsqrt", "op": "Rsqrt", "input": ["generator/G_MODEL/m/r5/1/instancenorm/add"], "attr": {"T": {"type": "DT_FLOAT"}}}, {"name": "generator/G_MODEL/m/r5/1/instancenorm/mul", "op": "Mul", "input": ["generator/G_MODEL/m/r5/1/instancenorm/Rsqrt", "generator/G_MODEL/m/r5/1/gamma"], "attr": {"T": {"type": "DT_FLOAT"}}}, {"name": "generator/G_MODEL/m/r5/1/instancenorm/mul_2", "op": "Mul", "input": ["generator/G_MODEL/m/r5/1/moments/mean", "generator/G_MODEL/m/r5/1/instancenorm/mul"], "attr": {"T": {"type": "DT_FLOAT"}}}, {"name": "generator/G_MODEL/m/r5/1/instancenorm/mul_1", "op": "Mul", "input": ["generator/G_MODEL/m/r5/r5/r5", "generator/G_MODEL/m/r5/1/instancenorm/mul"], "attr": {"T": {"type": "DT_FLOAT"}}}, {"name": "generator/G_MODEL/m/r5/1/instancenorm/sub", "op": "Sub", "input": ["generator/G_MODEL/m/r5/1/beta", "generator/G_MODEL/m/r5/1/instancenorm/mul_2"], "attr": {"T": {"type": "DT_FLOAT"}}}, {"name": "generator/G_MODEL/m/r5/1/instancenorm/add_1", "op": "AddV2", "input": ["generator/G_MODEL/m/r5/1/instancenorm/mul_1", "generator/G_MODEL/m/r5/1/instancenorm/sub"], "attr": {"T": {"type": "DT_FLOAT"}}}, {"name": "generator/G_MODEL/m/r5/LeakyRelu_1", "op": "LeakyRelu", "input": ["generator/G_MODEL/m/r5/1/instancenorm/add_1"], "attr": {"T": {"type": "DT_FLOAT"}, "alpha": {"f": 0.2}}}, {"name": "generator/G_MODEL/m/r5/Conv_1/Conv2D", "op": "Conv2D", "input": ["generator/G_MODEL/m/r5/LeakyRelu_1", "generator/G_MODEL/m/r5/Conv_1/weights"], "device": "/device:CPU:0", "attr": {"explicit_paddings": {"list": {}}, "data_format": {"s": "TkhXQw=="}, "use_cudnn_on_gpu": {"b": true}, "strides": {"list": {"i": ["1", "1", "1", "1"]}}, "T": {"type": "DT_FLOAT"}, "dilations": {"list": {"i": ["1", "1", "1", "1"]}}, "padding": {"s": "VkFMSUQ="}}}, {"name": "generator/G_MODEL/m/r5/2/moments/mean", "op": "Mean", "input": ["generator/G_MODEL/m/r5/Conv_1/Conv2D", "generator/G_MODEL/m/r5/2/moments/mean/reduction_indices"], "attr": {"T": {"type": "DT_FLOAT"}, "keep_dims": {"b": true}, "Tidx": {"type": "DT_INT32"}}}, {"name": "generator/G_MODEL/m/r5/2/moments/SquaredDifference", "op": "SquaredDifference", "input": ["generator/G_MODEL/m/r5/Conv_1/Conv2D", "generator/G_MODEL/m/r5/2/moments/mean"], "attr": {"T": {"type": "DT_FLOAT"}}}, {"name": "generator/G_MODEL/m/r5/2/moments/variance", "op": "Mean", "input": ["generator/G_MODEL/m/r5/2/moments/SquaredDifference", "generator/G_MODEL/m/r5/2/moments/variance/reduction_indices"], "attr": {"T": {"type": "DT_FLOAT"}, "Tidx": {"type": "DT_INT32"}, "keep_dims": {"b": true}}}, {"name": "generator/G_MODEL/m/r5/2/instancenorm/add", "op": "AddV2", "input": ["generator/G_MODEL/m/r5/2/moments/variance", "generator/G_MODEL/m/r5/2/instancenorm/add/y"], "attr": {"T": {"type": "DT_FLOAT"}}}, {"name": "generator/G_MODEL/m/r5/2/instancenorm/Rsqrt", "op": "Rsqrt", "input": ["generator/G_MODEL/m/r5/2/instancenorm/add"], "attr": {"T": {"type": "DT_FLOAT"}}}, {"name": "generator/G_MODEL/m/r5/2/instancenorm/mul", "op": "Mul", "input": ["generator/G_MODEL/m/r5/2/instancenorm/Rsqrt", "generator/G_MODEL/m/r5/2/gamma"], "attr": {"T": {"type": "DT_FLOAT"}}}, {"name": "generator/G_MODEL/m/r5/2/instancenorm/mul_2", "op": "Mul", "input": ["generator/G_MODEL/m/r5/2/moments/mean", "generator/G_MODEL/m/r5/2/instancenorm/mul"], "attr": {"T": {"type": "DT_FLOAT"}}}, {"name": "generator/G_MODEL/m/r5/2/instancenorm/mul_1", "op": "Mul", "input": ["generator/G_MODEL/m/r5/Conv_1/Conv2D", "generator/G_MODEL/m/r5/2/instancenorm/mul"], "attr": {"T": {"type": "DT_FLOAT"}}}, {"name": "generator/G_MODEL/m/r5/2/instancenorm/sub", "op": "Sub", "input": ["generator/G_MODEL/m/r5/2/beta", "generator/G_MODEL/m/r5/2/instancenorm/mul_2"], "attr": {"T": {"type": "DT_FLOAT"}}}, {"name": "generator/G_MODEL/m/r5/2/instancenorm/add_1", "op": "AddV2", "input": ["generator/G_MODEL/m/r5/2/instancenorm/mul_1", "generator/G_MODEL/m/r5/2/instancenorm/sub"], "attr": {"T": {"type": "DT_FLOAT"}}}, {"name": "generator/G_MODEL/m/r5/add", "op": "AddV2", "input": ["generator/G_MODEL/m/r4/add", "generator/G_MODEL/m/r5/2/instancenorm/add_1"], "attr": {"T": {"type": "DT_FLOAT"}}}, {"name": "generator/G_MODEL/m/r6/Conv/Conv2D", "op": "Conv2D", "input": ["generator/G_MODEL/m/r5/add", "generator/G_MODEL/m/r6/Conv/weights"], "device": "/device:CPU:0", "attr": {"T": {"type": "DT_FLOAT"}, "dilations": {"list": {"i": ["1", "1", "1", "1"]}}, "explicit_paddings": {"list": {}}, "use_cudnn_on_gpu": {"b": true}, "padding": {"s": "VkFMSUQ="}, "strides": {"list": {"i": ["1", "1", "1", "1"]}}, "data_format": {"s": "TkhXQw=="}}}, {"name": "generator/G_MODEL/m/r6/InstanceNorm/moments/mean", "op": "Mean", "input": ["generator/G_MODEL/m/r6/Conv/Conv2D", "generator/G_MODEL/m/r6/InstanceNorm/moments/mean/reduction_indices"], "attr": {"Tidx": {"type": "DT_INT32"}, "keep_dims": {"b": true}, "T": {"type": "DT_FLOAT"}}}, {"name": "generator/G_MODEL/m/r6/InstanceNorm/moments/SquaredDifference", "op": "SquaredDifference", "input": ["generator/G_MODEL/m/r6/Conv/Conv2D", "generator/G_MODEL/m/r6/InstanceNorm/moments/mean"], "attr": {"T": {"type": "DT_FLOAT"}}}, {"name": "generator/G_MODEL/m/r6/InstanceNorm/moments/variance", "op": "Mean", "input": ["generator/G_MODEL/m/r6/InstanceNorm/moments/SquaredDifference", "generator/G_MODEL/m/r6/InstanceNorm/moments/variance/reduction_indices"], "attr": {"T": {"type": "DT_FLOAT"}, "Tidx": {"type": "DT_INT32"}, "keep_dims": {"b": true}}}, {"name": "generator/G_MODEL/m/r6/InstanceNorm/instancenorm/add", "op": "AddV2", "input": ["generator/G_MODEL/m/r6/InstanceNorm/moments/variance", "generator/G_MODEL/m/r6/InstanceNorm/instancenorm/add/y"], "attr": {"T": {"type": "DT_FLOAT"}}}, {"name": "generator/G_MODEL/m/r6/InstanceNorm/instancenorm/Rsqrt", "op": "Rsqrt", "input": ["generator/G_MODEL/m/r6/InstanceNorm/instancenorm/add"], "attr": {"T": {"type"…
pe": "uint8", "min": -0.17891062524388818, "scale": 0.0011112461195272557, "original_dtype": "float32"}}, {"name": "generator/G_MODEL/u1/SeparableConv2d/InstanceNorm/beta", "shape": [128], "dtype": "float32", "quantization": {"dtype": "uint8", "min": -0.21357238117386312, "scale": 0.001186513228743684, "original_dtype": "float32"}}, {"name": "generator/G_MODEL/u1/mul/x", "shape": [], "dtype": "int32"}, {"name": "generator/G_MODEL/u1/strided_slice/stack", "shape": [1], "dtype": "int32"}, {"name": "generator/G_MODEL/u1/strided_slice/stack_1", "shape": [1], "dtype": "int32"}, {"name": "generator/G_MODEL/u1/strided_slice/stack_2", "shape": [1], "dtype": "int32"}, {"name": "generator/G_MODEL/u1/mul_1/x", "shape": [], "dtype": "int32"}, {"name": "generator/G_MODEL/u2/InstanceNorm/beta", "shape": [128], "dtype": "float32", "quantization": {"dtype": "uint8", "min": -0.21893946750491272, "scale": 0.0012299970084545659, "original_dtype": "float32"}}, {"name": "generator/G_MODEL/u2/SeparableConv2d_1/InstanceNorm/beta", "shape": [128], "dtype": "float32", "quantization": {"dtype": "uint8", "min": -0.11217598821602616, "scale": 0.0010015713233573764, "original_dtype": "float32"}}, {"name": "generator/G_MODEL/u2/SeparableConv2d/InstanceNorm/beta", "shape": [128], "dtype": "float32", "quantization": {"dtype": "uint8", "min": -0.21008638424031875, "scale": 0.0012732508135776895, "original_dtype": "float32"}}, {"name": "generator/G_MODEL/u2/mul/x", "shape": [], "dtype": "int32"}, {"name": "generator/G_MODEL/u2/strided_slice/stack", "shape": [1], "dtype": "int32"}, {"name": "generator/G_MODEL/u2/strided_slice/stack_1", "shape": [1], "dtype": "int32"}, {"name": "generator/G_MODEL/u2/strided_slice/stack_2", "shape": [1], "dtype": "int32"}, {"name": "generator/G_MODEL/u2/mul_1/x", "shape": [], "dtype": "int32"}, {"name": "generator/G_MODEL/m/InstanceNorm_1/beta", "shape": [256], "dtype": "float32", "quantization": {"dtype": "uint8", "min": -0.2029750143780428, "scale": 0.0015734497238607968, "original_dtype": "float32"}}, {"name": "generator/G_MODEL/m/r8/2/beta", "shape": [256], "dtype": "float32", "quantization": {"dtype": "uint8", "min": -0.037709277123212814, "scale": 0.0002793279786904653, "original_dtype": "float32"}}, {"name": "generator/G_MODEL/m/r8/1/beta", "shape": [512], "dtype": "float32", "quantization": {"dtype": "uint8", "min": -0.32035276083385245, "scale": 0.0016949881525600658, "original_dtype": "float32"}}, {"name": "generator/G_MODEL/m/r8/InstanceNorm/beta", "shape": [512], "dtype": "float32", "quantization": {"dtype": "uint8", "min": -0.3371596324093202, "scale": 0.0017028264263096978, "original_dtype": "float32"}}, {"name": "generator/G_MODEL/m/r7/2/beta", "shape": [256], "dtype": "float32", "quantization": {"dtype": "uint8", "min": -0.03856064291561351, "scale": 0.00030125502277823053, "original_dtype": "float32"}}, {"name": "generator/G_MODEL/m/r7/1/beta", "shape": [512], "dtype": "float32", "quantization": {"dtype": "uint8", "min": -0.29827700046932, "scale": 0.001841216052279753, "original_dtype": "float32"}}, {"name": "generator/G_MODEL/m/r7/InstanceNorm/beta", "shape": [512], "dtype": "float32", "quantization": {"dtype": "uint8", "min": -0.32561194096125806, "scale": 0.0018190611226885926, "original_dtype": "float32"}}, {"name": "generator/G_MODEL/m/r6/2/beta", "shape": [256], "dtype": "float32", "quantization": {"dtype": "uint8", "min": -0.04105813773531539, "scale": 0.00032329242311271965, "original_dtype": "float32"}}, {"name": "generator/G_MODEL/m/r6/1/beta", "shape": [512], "dtype": "float32", "quantization": {"dtype": "uint8", "min": -0.4138571281059115, "scale": 0.002722744263854681, "original_dtype": "float32"}}, {"name": "generator/G_MODEL/m/r6/InstanceNorm/beta", "shape": [512], "dtype": "float32", "quantization": {"dtype": "uint8", "min": -0.3609946399927139, "scale": 0.0019304526202818927, "original_dtype": "float32"}}, {"name": "generator/G_MODEL/m/r5/2/beta", "shape": [256], "dtype": "float32", "quantization": {"dtype": "uint8", "min": -0.04955776693189845, "scale": 0.000330385112879323, "original_dtype": "float32"}}, {"name": "generator/G_MODEL/m/r5/1/beta", "shape": [512], "dtype": "float32", "quantization": {"dtype": "uint8", "min": -0.3262312896111432, "scale": 0.0017924796132480396, "original_dtype": "float32"}}, {"name": "generator/G_MODEL/m/r5/InstanceNorm/beta", "shape": [512], "dtype": "float32", "quantization": {"dtype": "uint8", "min": -0.2694289982318878, "scale": 0.0015848764601875754, "original_dtype": "float32"}}, {"name": "generator/G_MODEL/m/r4/2/beta", "shape": [256], "dtype": "float32", "quantization": {"dtype": "uint8", "min": -0.04388890333619772, "scale": 0.00034558191603305293, "original_dtype": "float32"}}, {"name": "generator/G_MODEL/m/r4/1/beta", "shape": [512], "dtype": "float32", "quantization": {"dtype": "uint8", "min": -0.42035977746926095, "scale": 0.002166802976645675, "original_dtype": "float32"}}, {"name": "generator/G_MODEL/m/r4/InstanceNorm/beta", "shape": [512], "dtype": "float32", "quantization": {"dtype": "uint8", "min": -0.2780283067740646, "scale": 0.0015619567796295764, "original_dtype": "float32"}}, {"name": "generator/G_MODEL/m/r3/2/beta", "shape": [256], "dtype": "float32", "quantization": {"dtype": "uint8", "min": -0.044915684444062846, "scale": 0.00034818360034157247, "original_dtype": "float32"}}, {"name": "generator/G_MODEL/m/r3/1/beta", "shape": [512], "dtype": "float32", "quantization": {"dtype": "uint8", "min": -0.28804979850264156, "scale": 0.0016273999915403477, "original_dtype": "float32"}}, {"name": "generator/G_MODEL/m/r3/InstanceNorm/beta", "shape": [512], "dtype": "float32", "quantization": {"dtype": "uint8", "min": -0.23998671770095828, "scale": 0.0013332595427831015, "original_dtype": "float32"}}, {"name": "generator/G_MODEL/m/r2/2/beta", "shape": [256], "dtype": "float32", "quantization": {"dtype": "uint8", "min": -0.04410225131055888, "scale": 0.0003266833430411769, "original_dtype": "float32"}}, {"name": "generator/G_MODEL/m/r2/1/beta", "shape": [512], "dtype": "float32", "quantization": {"dtype": "uint8", "min": -0.2752277433872223, "scale": 0.0017988741397857665, "original_dtype": "float32"}}, {"name": "generator/G_MODEL/m/r2/InstanceNorm/beta", "shape": [512], "dtype": "float32", "quantization": {"dtype": "uint8", "min": -0.2483399133471882, "scale": 0.0015618862474665923, "original_dtype": "float32"}}, {"name": "generator/G_MODEL/m/r1/2/beta", "shape": [256], "dtype": "float32", "quantization": {"dtype": "uint8", "min": -0.04402294158935547, "scale": 0.0003439292311668396, "original_dtype": "float32"}}, {"name": "generator/G_MODEL/m/r1/1/beta", "shape": [512], "dtype": "float32", "quantization": {"dtype": "uint8", "min": -0.2613016260897412, "scale": 0.001427877738195307, "original_dtype": "float32"}}, {"name": "generator/G_MODEL/m/r1/InstanceNorm/beta", "shape": [512], "dtype": "float32", "quantization": {"dtype": "uint8", "min": -0.1558638991094103, "scale": 0.0011213230151756136, "original_dtype": "float32"}}, {"name": "generator/G_MODEL/m/InstanceNorm/beta", "shape": [256], "dtype": "float32", "quantization": {"dtype": "uint8", "min": -0.06400254368782043, "scale": 0.0007529711022096522, "original_dtype": "float32"}}, {"name": "generator/G_MODEL/b2/SeparableConv2d_1/InstanceNorm/beta", "shape": [256], "dtype": "float32", "quantization": {"dtype": "uint8", "min": -0.0908397940736191, "scale": 0.0009364927224084443, "original_dtype": "float32"}}, {"name": "generator/G_MODEL/b2/MirrorPad_2/paddings", "shape": [4, 2], "dtype": "int32"}, {"name": "generator/G_MODEL/b2/SeparableConv2d_1/depthwise_weights", "shape": [3, 3, 128, 1], "dtype": "float32", "quantization": {"dtype": "uint8", "min": -0.11849086196983562, "scale": 0.0009185338137196559, "original_dtype": "float32"}}, {"name": "generator/G_MODEL/b2/SeparableConv2d_1/pointwise_weights", "shape": [1, 1, 128, 256], "dtype": "float32", "quantization": {"dtype": "uint8", "min": -0.18503905359436482, "scale": 0.0015043825495476815, "original_dtype": "float32"}}, {"name": "generator/G_MODEL/b2/SeparableConv2d_1/InstanceNorm/moments/mean/reduction_indices", "shape": [2], "dtype": "int32"}, {"name": "generator/G_MODEL/b2/SeparableConv2d_1/InstanceNorm/moments/variance/reduction_indices", "shape": [2], "dtype": "int32"}, {"name": "generator/G_MODEL/b2/SeparableConv2d_1/InstanceNorm/instancenorm/add/y", "shape": [], "dtype": "float32", "quantization": {"dtype": "uint8", "min": 9.999999974752427e-07, "scale": 1.0, "original_dtype": "float32"}}, {"name": "generator/G_MODEL/b2/SeparableConv2d_1/InstanceNorm/gamma", "shape": [256], "dtype": "float32", "quantization": {"dtype": "uint8", "min": 0.944047749042511, "scale": 0.0005888857093511843, "original_dtype": "float32"}}, {"name": "generator/G_MODEL/b2/SeparableConv2d_2/InstanceNorm/beta", "shape": [256], "dtype": "float32", "quantization": {"dtype": "uint8", "min": -0.0987788709939695, "scale": 0.0007777863857792874, "original_dtype": "float32"}}, {"name": "generator/G_MODEL/b2/strided_slice/stack", "shape": [1], "dtype": "int32"}, {"name": "generator/G_MODEL/b2/strided_slice/stack_1", "shape": [1], "dtype": "int32"}, {"name": "generator/G_MODEL/b2/strided_slice/stack_2", "shape": [1], "dtype": "int32"}, {"name": "generator/G_MODEL/b2/floordiv/y", "shape": [], "dtype": "int32"}, {"name": "generator/G_MODEL/b2/SeparableConv2d/InstanceNorm/beta", "shape": [128], "dtype": "float32", "quantization": {"dtype": "uint8", "min": -0.08419578443555271, "scale": 0.0010794331337891374, "original_dtype": "float32"}}, {"name": "generator/G_MODEL/b2/InstanceNorm/beta", "shape": [128], "dtype": "float32", "quantization": {"dtype": "uint8", "min": -0.06480663237618466, "scale": 0.0007281644087211758, "original_dtype": "float32"}}, {"name": "generator/G_MODEL/b1/SeparableConv2d/InstanceNorm/beta", "shape": [128], "dtype": "float32", "quantization": {"dtype": "uint8", "min": -0.09811129745315103, "scale": 0.0009713989846846636, "original_dtype": "float32"}}, {"name": "generator/G_MODEL/b1/MirrorPad_2/paddings", "shape": [4, 2], "dtype": "int32"}, {"name": "generator/G_MODEL/b1/SeparableConv2d/depthwise_weights", "shape": [3, 3, 64, 1], "dtype": "float32", "quantization": {"dtype": "uint8", "min": -0.1244873748106115, "scale": 0.0010120924781350528, "original_dtype": "float32"}}, {"name": "generator/G_MODEL/b1/SeparableConv2d/pointwise_weights", "shape": [1, 1, 64, 128], "dtype": "float32", "quantization": {"dtype": "uint8", "min": -0.2650066625838186, "scale": 0.0019776616610732733, "original_dtype": "float32"}}, {"name": "generator/G_MODEL/b1/SeparableConv2d/InstanceNorm/moments/mean/reduction_indices", "shape": [2], "dtype": "int32"}, {"name": "generator/G_MODEL/b1/SeparableConv2d/InstanceNorm/moments/variance/reduction_indices", "shape": [2], "dtype": "int32"}, {"name": "generator/G_MODEL/b1/SeparableConv2d/InstanceNorm/instancenorm/add/y", "shape": [], "dtype": "float32", "quantization": {"dtype": "uint8", "min": 9.999999974752427e-07, "scale": 1.0, "original_dtype": "float32"}}, {"name": "generator/G_MODEL/b1/SeparableConv2d/InstanceNorm/gamma", "shape": [128], "dtype": "float32", "quantization": {"dtype": "uint8", "min": 0.9454305768013, "scale": 0.0004983923014472512, "original_dtype": "float32"}}, {"name": "generator/G_MODEL/b1/SeparableConv2d_1/InstanceNorm/beta", "shape": [128], "dtype": "float32", "quantization": {"dtype": "uint8", "min": -0.10407370679518757, "scale": 0.0007227340749665803, "original_dtype": "float32"}}, {"name": "generator/G_MODEL/b1/strided_slice/stack", "shape": [1], "dtype": "int32"}, {"name": "generator/G_MODEL/b1/strided_slice/stack_1", "shape": [1], "dtype": "int32"}, {"name": "generator/G_MODEL/b1/strided_slice/stack_2", "shape": [1], "dtype": "int32"}, {"name": "generator/G_MODEL/b1/floordiv/y", "shape": [], "dtype": "int32"}, {"name": "generator/G_MODEL/b1/InstanceNorm_1/beta", "shape": [64], "dtype": "float32", "quantization": {"dtype": "uint8", "min": -0.08089914625766231, "scale": 0.0008089914625766231, "original_dtype": "float32"}}, {"name": "generator/G_MODEL/b1/InstanceNorm/beta", "shape": [64], "dtype": "float32", "quantization": {"dtype": "uint8", "min": -0.0740765279414607, "scale": 0.0007122743071294298, "original_dtype": "float32"}}, {"name": "generator/G_MODEL/b1/MirrorPad/paddings", "shape": [4, 2], "dtype": "int32"}, {"name": "generator/G_MODEL/b1/Conv/weights", "shape": [3, 3, 3, 64], "dtype": "float32", "quantization": {"dtype": "uint8", "min": -0.12205973939568387, "scale": 0.0010344045711498634, "original_dtype": "float32"}}, {"name": "generator/G_MODEL/b1/InstanceNorm/moments/mean/reduction_indices", "shape": [2], "dtype": "int32"}, {"name": "generator/G_MODEL/b1/InstanceNorm/moments/variance/reduction_indices", "shape": [2], "dtype": "int32"}, {"name": "generator/G_MODEL/b1/InstanceNorm/instancenorm/add/y", "shape": [], "dtype": "float32", "quantization": {"dtype": "uint8", "min": 9.999999747378752e-06, "scale": 1.0, "original_dtype": "float32"}}, {"name": "generator/G_MODEL/b1/InstanceNorm/gamma", "shape": [64], "dtype": "float32", "quantization": {"dtype": "uint8", "min": 0.9525094628334045, "scale": 0.0004299484047235227, "original_dtype": "float32"}}, {"name": "generator/G_MODEL/b1/MirrorPad_1/paddings", "shape": [4, 2], "dtype": "int32"}, {"name": "generator/G_MODEL/b1/Conv_1/weights", "shape": [3, 3, 64, 64], "dtype": "float32", "quantization": {"dtype": "uint8", "min": -0.1740929182837991, "scale": 0.0012089785991930494, "original_dtype": "float32"}}, {"name": "generator/G_MODEL/b1/InstanceNorm_1/moments/mean/reduction_indices", "shape": [2], "dtype": "int32"}, {"name": "generator/G_MODEL/b1/InstanceNorm_1/moments/variance/reduction_indices", "shape": [2], "dtype": "int32"}, {"name": "generator/G_MODEL/b1/InstanceNorm_1/instancenorm/add/y", "shape": [], "dtype": "float32", "quantization": {"dtype": "uint8", "min": 9.999999747378752e-06, "scale": 1.0, "original_dtype": "float32"}}, {"name": "generator/G_MODEL/b1/InstanceNorm_1/gamma", "shape": [64], "dtype": "float32", "quantization": {"dtype": "uint8", "min": 0.9658322334289551, "scale": 0.0003072715273090437, "original_dtype": "float32"}}, {"name": "generator/G_MODEL/b1/strided_slice_1/stack", "shape": [1], "dtype": "int32"}, {"name": "generator/G_MODEL/b1/strided_slice_1/stack_1", "shape": [1], "dtype": "int32"}, {"name": "generator/G_MODEL/b1/strided_slice_1/stack_2", "shape": [1], "dtype": "int32"}, {"name": "generator/G_MODEL/b1/floordiv_1/y", "shape": [], "dtype": "int32"}, {"name": "generator/G_MODEL/b1/MirrorPad_3/paddings", "shape": [4, 2], "dtype": "int32"}, {"name": "generator/G_MODEL/b1/SeparableConv2d_1/depthwise_weights", "shape": [3, 3, 64, 1], "dtype": "float32", "quantization": {"dtype": "uint8", "min": -0.13590948067459405, "scale": 0.001061792817770266, "original_dtype": "float32"}}, {"name": "generator/G_MODEL/b1/SeparableConv2d_1/pointwise_weights", "shape": [1, 1, 64, 128], "dtype": "float32", "quantization": {"dtype": "uint8", "min": -0.22859067163046667, "scale": 0.0018287253730437335, "original_dtype": "float32"}}, {"name": "generator/G_MODEL/b1/SeparableConv2d_1/InstanceNorm/moments/mean/reduction_indices", "shape": [2], "dtype": "int32"}, {"name": "generator/G_MODEL/b1/SeparableConv2d_1/InstanceNorm/moments/variance/reduction_indices", "shape": [2], "dtype": "int32"}, {"name": "generator/G_MODEL/b1/SeparableConv2d_1/InstanceNorm/instancenorm/add/y", "shape": [], "dtype": "float32", "quantization": {"dtype": "uint8", "min": 9.999999974752427e-07, "scale": 1.0, "original_dtype": "float32"}}, {"name": "generator/G_MODEL/b1/SeparableConv2d_1/InstanceNorm/gamma", "shape": [128], "dtype": "float32", "quantization": {"dtype": "uint8", "min": 0.9448319673538208, "scale": 0.0003232876459757487, "original_dtype": "float32"}}, {"name": "generator/G_MODEL/b2/MirrorPad/paddings", "shape": [4, 2], "dtype": "int32"}, {"name": "generator/G_MODEL/b2/Conv/weights", "shape": [3, 3, 128, 128], "dtype": "float32", "quantization": {"dtype": "uint8", "min": -0.13237162591779933, "scale": 0.0009805305623540692, "original_dtype": "float32"}}, {"name": "generator/G_MODEL/b2/InstanceNorm/moments/mean/reduction_indices", "shape": [2], "dtype": "int32"}, {"name": "generator/G_MODEL/b2/InstanceNorm/moments/variance/reduction_indices", "shape": [2], "dtype": "int32"}, {"name": "generator/G_MODEL/b2/InstanceNorm/instancenorm/add/y", "shape": [], "dtype": "float32", "quantization": {"dtype": "uint8", "min": 9.999999747378752e-06, "scale": 1.0, "original_dtype": "float32"}}, {"name": "generator/G_MODEL/b2/InstanceNorm/gamma", "shape": [128], "dtype": "float32", "quantization": {"dtype": "uint8", "min": 0.9532349705696106, "scale": 0.00038710318359674195, "original_dtype": "float32"}}, {"name": "generator/G_MODEL/b2/MirrorPad_1/paddings", "shape": [4, 2], "dtype": "int32"}, {"name": "generator/G_MODEL/b2/SeparableConv2d/depthwise_weights", "shape": [3, 3, 128, 1], "dtype": "float32", "quantization": {"dtype": "uint8", "min": -0.1173295444133235, "scale": 0.0008821770256640865, "original_dtype": "float32"}}, {"name": "generator/G_MODEL/b2/SeparableConv2d/pointwise_weights", "shape": [1, 1, 128, 128], "dtype": "float32", "quantization": {"dtype": "uint8", "min": -0.2275882562001546, "scale": 0.0017920335133870442, "original_dtype": "float32"}}, {"name": "generator/G_MODEL/b2/SeparableConv2d/InstanceNorm/moments/mean/reduction_indices", "shape": [2], "dtype": "int32"}, {"name": "generator/G_MODEL/b2/SeparableConv2d/InstanceNorm/moments/variance/reduction_indices", "shape": [2], "dtype": "int32"}, {"name": "generator/G_MODEL/b2/SeparableConv2d/InstanceNorm/instancenorm/add/y", "shape": [], "dtype": "float32", "quantization": {"dtype": "uint8", "min": 9.999999974752427e-07, "scale": 1.0, "original_dtype": "float32"}}, {"name": "generator/G_MODEL/b2/SeparableConv2d/InstanceNorm/gamma", "shape": [128], "dtype": "float32", "quantization": {"dtype": "uint8", "min": 0.9676468968391418, "scale": 0.00028085965736239564, "original_dtype": "float32"}}, {"name": "generator/G_MODEL/b2/strided_slice_1/stack", "shape": [1], "dtype": "int32"}, {"name": "generator/G_MODEL/b2/strided_slice_1/stack_1", "shape": [1], "dtype": "int32"}, {"name": "generator/G_MODEL/b2/strided_slice_1/stack_2", "shape": [1], "dtype": "int32"}, {"name": "generator/G_MODEL/b2/floordiv_1/y", "shape": [], "dtype": "int32"}, {"name": "generator/G_MODEL/b2/MirrorPad_3/paddings", "shape": [4, 2], "dtype": "int32"}, {"name": "generator/G_MODEL/b2/SeparableConv2d_2/depthwise_weights", "shape": [3, 3, 128, 1], "dtype": "float32", "quantization": {"dtype": "uint8", "min": -0.1265040709691889, "scale": 0.001004000563247531, "original_dtype": "float32"}}, {"name": "generator/G_MODEL/b2/SeparableConv2d_2/pointwise_weights", "shape": [1, 1, 128, 256], "dtype": "float32", "quantization": {"dtype": "uint8", "min": -0.1986148350379046, "scale": 0.0015046578411962472, "original_dtype": "float32"}}, {"name": "generator/G_MODEL/b2/SeparableConv2d_2/InstanceNorm/moments/mean/reduction_indices", "shape": [2], "dtype": "int32"}, {"name": "generator/G_MODEL/b2/SeparableConv2d_2/InstanceNorm/moments/variance/reduction_indices", "shape": [2], "dtype": "int32"}, {"name": "generator/G_MODEL/b2/SeparableConv2d_2/InstanceNorm/instancenorm/add/y", "shape": [], "dtype": "float32", "quantization": {"dtype": "uint8", "min": 9.999999974752427e-07, "scale": 1.0, "original_dtype": "float32"}}, {"name": "generator/G_MODEL/b2/SeparableConv2d_2/InstanceNorm/gamma", "shape": [256], "dtype": "float32", "quantization": {"dtype": "uint8", "min": 0.9213243722915649, "scale": 0.0004231415542901731, "original_dtype": "float32"}}, {"name": "generator/G_MODEL/m/MirrorPad/paddings", "shape": [4, 2], "dtype": "int32"}, {"name": "generator/G_MODEL/m/Conv/weights", "shape": [3, 3, 256, 256], "dtype": "float32", "quantization": {"dtype": "uint8", "min": -0.11872818183665182, "scale": 0.0008926930965161791, "original_dtype": "float32"}}, {"name": "generator/G_MODEL/m/InstanceNorm/moments/mean/reduction_indices", "shape": [2], "dtype": "int32"}, {"name": "generator/G_MODEL/m/InstanceNorm/moments/variance/reduction_indices", "shape": [2], "dtype": "int32"}, {"name": "generator/G_MODEL/m/InstanceNorm/instancenorm/add/y", "shape": [], "dtype": "float32", "quantization": {"dtype": "uint8", "min": 9.999999747378752e-06, "scale": 1.0, "original_dtype": "float32"}}, {"name": "generator/G_MODEL/m/InstanceNorm/gamma", "shape": [256], "dtype": "float32", "quantization": {"dtype": "uint8", "min": 0.9851398468017578, "scale": 0.0003894357120289522, "original_dtype": "float32"}}, {"name": "generator/G_MODEL/m/r1/Conv/weights", "shape": [1, 1, 256, 512], "dtype": "float32", "quantization": {"dtype": "uint8", "min": -0.17436255403593473, "scale": 0.0012544068635678759, "original_dtype": "float32"}}, {"name": "generator/G_MODEL/m/r1/InstanceNorm/moments/mean/reduction_indices", "shape": [2], "dtype": "int32"}, {"name": "generator/G_MODEL/m/r1/InstanceNorm/moments/variance/reduction_indices", "shape": [2], "dtype": "int32"}, {"name": "generator/G_MODEL/m/r1/InstanceNorm/instancenorm/add/y", "shape": [], "dtype": "float32", "quantization": {"dtype": "uint8", "min": 9.999999747378752e-06, "scale": 1.0, "original_dtype": "float32"}}, {"name": "generator/G_MODEL/m/r1/InstanceNorm/gamma", "shape": [512], "dtype": "float32", "quantization": {"dtype": "uint8", "min": 0.8251610994338989, "scale": 0.0010900740529976639, "original_dtype": "float32"}}, {"name": "generator/G_MODEL/m/r1/MirrorPad/paddings", "shape": [4, 2], "dtype": "int32"}, {"name": "generator/G_MODEL/m/r1/r1/w", "shape": [3, 3, 512, 1], "dtype": "float32", "quantization": {"dtype": "uint8", "min": -0.09553255149546792, "scale": 0.0007766874105322595, "original_dtype": "float32"}}, {"name": "generator/G_MODEL/m/r1/1/moments/mean/reduction_indices", "shape": [2], "dtype": "int32"}, {"name": "generator/G_MODEL/m/r1/1/moments/variance/reduction_indices", "shape": [2], "dtype": "int32"}, {"name": "generator/G_MODEL/m/r1/1/instancenorm/add/y", "shape": [], "dtype": "float32", "quantization": {"dtype": "uint8", "min": 9.999999747378752e-06, "scale": 1.0, "original_dtype": "float32"}}, {"name": "generator/G_MODEL/m/r1/1/gamma", "shape": [512], "dtype": "float32", "quantization": {"dtype": "uint8", "min": 0.9254560470581055, "scale": 0.0005630348242965399, "original_dtype": "float32"}}, {"name": "generator/G_MODEL/m/r1/Conv_1/weights", "shape": [1, 1, 512, 256], "dtype": "float32", "quantization": {"dtype": "uint8", "min": -0.1631694124025457, "scale": 0.001264879165911207, "original_dtype": "float32"}}, {"name": "generator/G_MODEL/m/r1/2/moments/mean/reduction_indices", "shape": [2], "dtype": "int32"}, {"name": "generator/G_MODEL/m/r1/2/moments/variance/reduction_indices", "shape": [2], "dtype": "int32"}, {"name": "generator/G_MODEL/m/r1/2/instancenorm/add/y", "shape": [], "dtype": "float32", "quantization": {"dtype": "uint8", "min": 9.999999747378752e-06, "scale": 1.0, "original_dtype": "float32"}}, {"name": "generator/G_MODEL/m/r1/2/gamma", "shape": [256], "dtype": "float32", "quantization": {"dtype": "uint8", "min": 0.9344831109046936, "scale": 0.0003859882261238846, "original_dtype": "float32"}}, {"name": "generator/G_MODEL/m/r2/Conv/weights", "shape": [1, 1, 256, 512], "dtype": "float32", "quantization": {"dtype": "uint8", "min": -0.15368279101801854, "scale": 0.0012006468048282699, "original_dtype": "float32"}}, {"name": "generator/G_MODEL/m/r2/InstanceNorm/moments/mean/reduction_indices", "shape": [2], "dtype": "int32"}, {"name": "generator/G_MODEL/m/r2/InstanceNorm/moments/variance/reduction_indices", "shape": [2], "dtype": "int32"}, {"name": "generator/G_MODEL/m/r2/InstanceNorm/instancenorm/add/y", "shape": [], "dtype": "float32", "quantization": {"dtype": "uint8", "min": 9.999999747378752e-06, "scale": 1.0, "original_dtype": "float32"}}, {"name": "generator/G_MODEL/m/r2/InstanceNorm/gamma", "shape": [512], "dtype": "float32", "quantization": {"dtype": "uint8", "min": 0.733755350112915, "scale": 0.0015008870293112362, "original_dtype": "float32"}}, {"name": "generator/G_MODEL/m/r2/MirrorPad/paddings", "shape": [4, 2], "dtype": "int32"}, {"name": "generator/G_MODEL/m/r2/r2/w", "shape": [3, 3, 512, 1], "dtype": "float32", "quantization": {"dtype": "uint8", "min": -0.08529871544417213, "scale": 0.0006934854914160336, "original_dtype": "float32"}}, {"name": "generator/G_MODEL/m/r2/1/moments/mean/reduction_indices", "shape": [2], "dtype": "int32"}, {"name": "generator/G_MODEL/m/r2/1/moments/variance/reduction_indices", "shape": [2], "dtype": "int32"}, {"name": "generator/G_MODEL/m/r2/1/instancenorm/add/y", "shape": [], "dtype": "float32", "quantization": {"dtype": "uint8", "min": 9.999999747378752e-06, "scale": 1.0, "original_dtype": "float32"}}, {"name": "generator/G_MODEL/m/r2/1/gamma", "shape": [512], "dtype": "float32", "quantization": {"dtype": "uint8", "min": 0.9267473816871643, "scale": 0.0006853190122866163, "original_dtype": "float32"}}, {"name": "generator/G_MODEL/m/r2/Conv_1/weights", "shape": [1, 1, 512, 256], "dtype": "float32", "quantization": {"dtype": "uint8", "min": -0.18256574723066069, "scale": 0.0014605259778452855, "original_dtype": "float32"}}, {"name": "generator/G_MODEL/m/r2/2/moments/mean/reduction_indices", "shape": [2], "dtype": "int32"}, {"name": "generator/G_MODEL/m/r2/2/moments/variance/reduction_indices", "shape": [2], "dtype": "int32"}, {"name": "generator/G_MODEL/m/r2/2/instancenorm/add/y", "shape": [], "dtype": "float32", "quantization": {"dtype": "uint8", "min": 9.999999747378752e-06, "scale": 1.0, "original_dtype": "float32"}}, {"name": "generator/G_MODEL/m/r2/2/gamma", "shape": [256], "dtype": "float32", "quantization": {"dtype": "uint8", "min": 0.9312936663627625, "scale": 0.00036105759003583125, "original_dtype": "float32"}}, {"name": "generator/G_MODEL/m/r3/Conv/weights", "shape": [1, 1, 256, 512], "dtype": "float32", "quantization": {"dtype": "uint8", "min": -0.15031716548929028, "scale": 0.0012025373239143223, "original_dtype": "float32"}}, {"name": "generator/G_MODEL/m/r3/InstanceNorm/moments/mean/reduction_indices", "shape": [2], "dtype": "int32"}, {"name": "generator/G_MODEL/m/r3/InstanceNorm/moments/variance/reduction_indices", "shape": [2], "dtype": "int32"}, {"name": "generator/G_MODEL/m/r3/InstanceNorm/instancenorm/add/y", "shape": [], "dtype": "float32", "quantization": {"dtype": "uint8", "min": 9.999999747378752e-06, "scale": 1.0, "original_dtype": "float32"}}, {"name": "generator/G_MODEL/m/r3/InstanceNorm/gamma", "shape": [512], "dtype": "float32", "quantization": {"dtype": "uint8", "min": 0.7275182604789734, "scale": 0.0015455781244764141, "original_dtype": "float32"}}, {"name": "generator/G_MODEL/m/r3/MirrorPad/paddings", "shape": [4, 2], "dtype": "int32"}, {"name": "generator/G_MODEL/m/r3/r3/w", "shape": [3, 3, 512, 1], "dtype": "float32", "quantization": {"dtype": "uint8", "min": -0.08113272751078887, "scale": 0.0006761060625899072, "original_dtype": "float32"}}, {"name": "generator/G_MODEL/m/r3/1/moments/mean/reduction_indices", "shape": [2], "dtype": "int32"}, {"name": "generator/G_MODEL/m/r3/1/moments/variance/reduction_indices", "shape": [2], "dtype": "int32"}, {"name": "generator/G_MODEL/m/r3/1/instancenorm/add/y", "shape": [], "dtype": "float32", "quantization": {"dtype": "uint8", "min": 9.999999747378752e-06, "scale": 1.0, "original_dtype": "float32"}}, {"name": "generator/G_MODEL/m/r3/1/gamma", "shape": [512], "dtype": "float32", "quantization": {"dtype": "uint8", "min": 0.9241555333137512, "scale": 0.0007223313929987889, "original_dtype": "float32"}}, {"name": "generator/G_MODEL/m/r3/Conv_1/weights", "shape": [1, 1, 512, 256], "dtype": "float32", "quantization": {"dtype": "uint8", "min": -0.15621944017270034, "scale": 0.0012700767493715474, "original_dtype": "float32"}}, {"name": "generator/G_MODEL/m/r3/2/moments/mean/reduction_indices", "shape": [2], "dtype": "int32"}, {"name": "generator/G_MODEL/m/r3/2/moments/variance/reduction_indices", "shape": [2], "dtype": "int32"}, {"name": "generator/G_MODEL/m/r3/2/instancenorm/add/y", "shape": [], "dtype": "float32", "quantization": {"dtype": "uint8", "min": 9.999999747378752e-06, "scale": 1.0, "original_dtype": "float32"}}, {"name": "generator/G_MODEL/m/r3/2/gamma", "shape": [256], "dtype": "float32", "quantization": {"dtype": "uint8", "min": 0.9383285045623779, "scale": 0.0003362244250727635, "original_dtype": "float32"}}, {"name": "generator/G_MODEL/m/r4/Conv/weights", "shape": [1, 1, 256, 512], "dtype": "float32", "quantization": {"dtype": "uint8", "min": -0.17137232118961856, "scale": 0.001288513693155027, "original_dtype": "float32"}}, {"name": "generator/G_MODEL/m/r4/InstanceNorm/moments/mean/reduction_indices", "shape": [2], "dtype": "int32"}, {"name": "generator/G_MODEL/m/r4/InstanceNorm/moments/variance/reduction_indices", "shape": [2], "dtype": "int32"}, {"name": "generator/G_MODEL/m/r4/InstanceNorm/instancenorm/add/y", "shape": [], "dtype": "float32", "quantization": {"dtype": "uint8", "min": 9.999999747378752e-06, "scale": 1.0, "original_dtype": "float32"}}, {"name": "generator/G_MODEL/m/r4/InstanceNorm/gamma", "shape": [512], "dtype": "float32", "quantization": {"dtype": "uint8", "min": 0.6818837523460388, "scale": 0.001591182923784443, "original_dtype": "float32"}}, {"name": "generator/G_MODEL/m/r4/MirrorPad/paddings", "shape": [4, 2], "dtype": "int32"}, {"name": "generator/G_MODEL/m/r4/r4/w", "shape": [3, 3, 512, 1], "dtype": "float32", "quantization": {"dtype": "uint8", "min": -0.09332702484200983, "scale": 0.0006913112951259987, "original_dtype": "float32"}}, {"name": "generator/G_MODEL/m/r4/1/moments/mean/reduction_indices", "shape": [2], "dtype": "int32"}, {"name": "generator/G_MODEL/m/r4/1/moments/variance/reduction_indices", "shape": [2], "dtype": "int32"}, {"name": "generator/G_MODEL/m/r4/1/instancenorm/add/y", "shape": [], "dtype": "float32", "quantization": {"dtype": "uint8", "min": 9.999999747378752e-06, "scale": 1.0, "original_dtype": "float32"}}, {"name": "generator/G_MODEL/m/r4/1/gamma", "shape": [512], "dtype": "float32", "quantization": {"dtype": "uint8", "min": 0.9120078086853027, "scale": 0.000824740821239995, "original_dtype": "float32"}}, {"name": "generator/G_MODEL/m/r4/Conv_1/weights", "shape": [1, 1, 512, 256], "dtype": "float32", "quantization": {"dtype": "uint8", "min": -0.16890580619082732, "scale": 0.0012699684676002053, "original_dtype": "float32"}}, {"name": "generator/G_MODEL/m/r4/2/moments/mean/reduction_indices", "shape": [2], "dtype": "int32"}, {"name": "generator/G_MODEL/m/r4/2/moments/variance/reduction_indices", "shape": [2], "dtype": "int32"}, {"name": "generator/G_MODEL/m/r4/2/instancenorm/add/y", "shape": [], "dtype": "float32", "quantization": {"dtype": "uint8", "min": 9.999999747378752e-06, "scale": 1.0, "original_dtype": "float32"}}, {"name": "generator/G_MODEL/m/r4/2/gamma", "shape": [256], "dtype": "float32", "quantization": {"dtype": "uint8", "min": 0.9398753046989441, "scale": 0.0003834778187321682, "original_dtype": "float32"}}, {"name": "generator/G_MODEL/m/r5/Conv/weights", "shape": [1, 1, 256, 512], "dtype": "float32", "quantization": {"dtype": "uint8", "min": -0.15808519136671928, "scale": 0.0012447652863521203, "original_dtype": "float32"}}, {"name": "generator/G_MODEL/m/r5/InstanceNorm/moments/mean/reduction_indices", "shape": [2], "dtype": "int32"}, {"name": "generator/G_MODEL/m/r5/InstanceNorm/moments/variance/reduction_indices", "shape": [2], "dtype": "int32"}, {"name": "generator/G_MODEL/m/r5/InstanceNorm/instancenorm/add/y", "shape": [], "dtype": "float32", "quantization": {"dtype": "uint8", "min": 9.999999747378752e-06, "scale": 1.0, "original_dtype": "float32"}}, {"name": "generator/G_MODEL/m/r5/InstanceNorm/gamma", "shape": [512], "dtype": "float32", "quantization": {"dtype": "uint8", "min": 0.7015055418014526, "scale": 0.0014424412858252433, "original_dtype": "float32"}}, {"name": "generator/G_MODEL/m/r5/MirrorPad/paddings", "shape": [4, 2], "dtype": "int32"}, {"name": "generator/G_MODEL/m/r5/r5/w", "shape": [3, 3, 512, 1], "dtype": "float32", "quantization": {"dtype": "uint8", "min": -0.09663196147656909, "scale": 0.0007211340408699186, "original_dtype": "float32"}}, {"name": "generator/G_MODEL/m/r5/1/moments/mean/reduction_indices", "shape": [2], "dtype": "int32"}, {"name": "generator/G_MODEL/m/r5/1/moments/variance/reduction_indices", "shape": [2], "dtype": "int32"}, {"name": "generator/G_MODEL/m/r5/1/instancenorm/add/y", "shape": [], "dtype": "float32", "quantization": {"dtype": "uint8", "min": 9.999999747378752e-06, "scale": 1.0, "original_dtype": "float32"}}, {"name": "generator/G_MODEL/m/r5/1/gamma", "shape": [512], "dtype": "float32", "quantization": {"dtype": "uint8", "min": 0.9129862785339355, "scale": 0.0008411697312897327, "original_dtype": "float32"}}, {"name": "generator/G_MODEL/m/r5/Conv_1/weights", "shape": [1, 1, 512, 256], "dtype": "float32", "quantization": {"dtype": "uint8", "min": -0.18279699367635388, "scale": 0.0014061307205873376, "original_dtype": "float32"}}, {"name": "generator/G_MODEL/m/r5/2/moments/mean/reduction_indices", "shape": [2], "dtype": "int32"}, {"name": "generator/G_MODEL/m/r5/2/moments/variance/reduction_indices", "shape": [2], "dtype": "int32"}, {"name": "generator/G_MODEL/m/r5/2/instancenorm/add/y", "shape": [], "dtype": "float32", "quantization": {"dtype": "uint8", "min": 9.999999747378752e-06, "scale": 1.0, "original_dtype": "float32"}}, {"name": "generator/G_MODEL/m/r5/2/gamma", "shape": [256], "dtype": "float32", "quantization": {"dtype": "uint8", "min": 0.9544998407363892, "scale": 0.0003541712667427811, "original_dtype": "float32"}}, {"name": "generator/G_MODEL/m/r6/Conv/weights", "shape": [1, 1, 256, 512], "dtype": "float32", "quantization": {"dtype": "uint8", "min": -0.16504815127335343, "scale": 0.0012995917423098695, "original_dtype": "float32"}}, {"name": "generator/G_MODEL/m/r6/InstanceNorm/moments/mean/reduction_indices", "shape": [2], "dtype": "int32"}, {"name": "generator/G_MODEL/m/r6/InstanceNorm/moments/variance/reduction_indices", "shape": [2], "dtype": "int32"}, {"name": "generator/G_MODEL/m/r6/InstanceNorm/instancenorm/add/y", "shape": [], "dtype": "float32", "quantization": {"dtype": "uint8", "min": 9.999999747378752e-06, "scale": 1.0, "original_dtype": "float32"}}, {"name": "generator/G_MODEL/m/r6/InstanceNorm/gamma", "shape": [512], "dtype": "float32", "quantization": {"dtype": "uint8", "min": 0.6071329712867737, "scale": 0.0018341618425705853, "original_dtype": "float32"}}, {"name": "generator/G_MODEL/m/r6/MirrorPad/paddings", "shape": [4, 2], "dtype": "int32"}, {"name": "generator/G_MODEL/m/r6/r6/w", "shape": [3, 3, 512, 1], "dtype": "float32", "quantization": {"dtype": "uint8", "min": -0.08317893857465071, "scale": 0.0007109310989286385, "original_dtype": "float32"}}, {"name": "generator/G_MODEL/m/r6/1/moments/mean/reduction_indices", "shape": [2], "dtype": "int32"}, {"name": "generator/G_MODEL/m/r6/1/moments/variance/reduction_indices", "shape": [2], "dtype": "int32"}, {"name": "generator/G_MODEL/m/r6/1/instancenorm/add/y", "shape": [], "dtype": "float32", "quantization": {"dtype": "uint8", "min": 9.999999747378752e-06, "scale": 1.0, "original_dtype": "float32"}}, {"name": "generator/G_MODEL/m/r6/1/gamma", "shape": [512], "dtype": "float32", "quantization": {"dtype": "uint8", "min": 0.8967720866203308, "scale": 0.0006908769701041427, "original_dtype": "float32"}}, {"name": "generator/G_MODEL/m/r6/Conv_1/weights", "shape": [1, 1, 512, 256], "dtype": "float32", "quantization": {"dtype": "uint8", "min": -0.1638389131602119, "scale": 0.0012700690942652085, "original_dtype": "float32"}}, {"name": "generator/G_MODEL/m/r6/2/moments/mean/reduction_indices", "shape": [2], "dtype": "int32"}, {"name": "generator/G_MODEL/m/r6/2/moments/variance/reduction_indices", "shape": [2], "dtype": "int32"}, {"name": "generator/G_MODEL/m/r6/2/instancenorm/add/y", "shape": [], "dtype": "float32", "quantization": {"dtype": "uint8", "min": 9.999999747378752e-06, "scale": 1.0, "original_dtype": "float32"}}, {"name": "generator/G_MODEL/m/r6/2/gamma", "shape": [256], "dtype": "float32", "quantization": {"dtype": "uint8", "min": 0.9430440068244934, "scale": 0.00047114152534335265, "original_dtype": "float32"}}, {"name": "generator/G_MODEL/m/r7/Conv/weights", "shape": [1, 1, 256, 512], "dtype": "float32", "quantization": {"dtype": "uint8", "min": -0.16315328023012945, "scale": 0.0012550252325394574, "original_dtype": "float32"}}, {"name": "generator/G_MODEL/m/r7/InstanceNorm/moments/mean/reduction_indices", "shape": [2], "dtype": "int32"}, {"name": "generator/G_MODEL/m/r7/InstanceNorm/moments/variance/reduction_indices", "shape": [2], "dtype": "int32"}, {"name": "generator/G_MODEL/m/r7/InstanceNorm/instancenorm/add/y", "shape": [], "dtype": "float32", "quantization": {"dtype": "uint8", "min": 9.999999747378752e-06, "scale": 1.0, "original_dtype": "float32"}}, {"name": "generator/G_MODEL/m/r7/InstanceNorm/gamma", "shape": [512], "dtype": "float32", "quantization": {"dtype": "uint8", "min": 0.6417176723480225, "scale": 0.0016632958954455805, "original_dtype": "float32"}}, {"name": "generator/G_MODEL/m/r7/MirrorPad/paddings", "shape": [4, 2], "dtype": "int32"}, {"name": "generator/G_MODEL/m/r7/r7/w", "shape": [3, 3, 512, 1], "dtype": "float32", "quantization": {"dtype": "uint8", "min": -0.07782650689284006, "scale": 0.00063792218764623, "original_dtype": "float32"}}, {"name": "generator/G_MODEL/m/r7/1/moments/mean/reduction_indices", "shape": [2], "dtype": "int32"}, {"name": "generator/G_MODEL/m/r7/1/moments/variance/reduction_indices", "shape": [2], "dtype": "int32"}, {"name": "generator/G_MODEL/m/r7/1/instancenorm/add/y", "shape": [], "dtype": "float32", "quantization": {"dtype": "uint8", "min": 9.999999747378752e-06, "scale": 1.0, "original_dtype": "float32"}}, {"name": "generator/G_MODEL/m/r7/1/gamma", "shape": [512], "dtype": "float32", "quantization": {"dtype": "uint8", "min": 0.9168370962142944, "scale": 0.0005534106609868068, "original_dtype": "float32"}}, {"name": "generator/G_MODEL/m/r7/Conv_1/weights", "shape": [1, 1, 512, 256], "dtype": "float32", "quantization": {"dtype": "uint8", "min": -0.1736778932459214, "scale": 0.0013783959781422334, "original_dtype": "float32"}}, {"name": "generator/G_MODEL/m/r7/2/moments/mean/reduction_indices", "shape": [2], "dtype": "int32"}, {"name": "generator/G_MODEL/m/r7/2/moments/variance/reduction_indices", "shape": [2], "dtype": "int32"}, {"name": "generator/G_MODEL/m/r7/2/instancenorm/add/y", "shape": [], "dtype": "float32", "quantization": {"dtype": "uint8", "min": 9.999999747378752e-06, "scale": 1.0, "original_dtype": "float32"}}, {"name": "generator/G_MODEL/m/r7/2/gamma", "shape": [256], "dtype": "float32", "quantization": {"dtype": "uint8", "min": 0.9627540111541748, "scale": 0.0003772702871584425, "original_dtype": "float32"}}, {"name": "generator/G_MODEL/m/r8/Conv/weights", "shape": [1, 1, 256, 512], "dtype": "float32", "quantization": {"dtype": "uint8", "min": -0.16493941247463226, "scale": 0.0012786000967025756, "original_dtype": "float32"}}, {"name": "generator/G_MODEL/m/r8/InstanceNorm/moments/mean/reduction_indices", "shape": [2], "dtype": "int32"}, {"name": "generator/G_MODEL/m/r8/InstanceNorm/moments/variance/reduction_indices", "shape": [2], "dtype": "int32"}, {"name": "generator/G_MODEL/m/r8/InstanceNorm/instancenorm/add/y", "shape": [], "dtype": "float32", "quantization": {"dtype": "uint8", "min": 9.999999747378752e-06, "scale": 1.0, "original_dtype": "float32"}}, {"name": "generator/G_MODEL/m/r8/InstanceNorm/gamma", "shape": [512], "dtype": "float32", "quantization": {"dtype": "uint8", "min": 0.6314535737037659, "scale": 0.0018471420979967305, "original_dtype": "float32"}}, {"name": "generator/G_MODEL/m/r8/MirrorPad/paddings", "shape": [4, 2], "dtype": "int32"}, {"name": "generator/G_MODEL/m/r8/r8/w", "shape": [3, 3, 512, 1], "dtype": "float32", "quantization": {"dtype": "uint8", "min": -0.07758599747629727, "scale": 0.0007117981419843786, "original_dtype": "float32"}}, {"name": "generator/G_MODEL/m/r8/1/moments/mean/reduction_indices", "shape": [2], "dtype": "int32"}, {"name": "generator/G_MODEL/m/r8/1/moments/variance/reduction_indices", "shape": [2], "dtype": "int32"}, {"name": "generator/G_MODEL/m/r8/1/instancenorm/add/y", "shape": [], "dtype": "float32", "quantization": {"dtype": "uint8", "min": 9.999999747378752e-06, "scale": 1.0, "original_dtype": "float32"}}, {"name": "generator/G_MODEL/m/r8/1/gamma", "shape": [512], "dtype": "float32", "quantization": {"dtype": "uint8", "min": 0.9165688157081604, "scale": 0.0005921450315737257, "original_dtype": "float32"}}, {"name": "generator/G_MODEL/m/r8/Conv_1/weights", "shape": [1, 1, 512, 256], "dtype": "float32", "quantization": {"dtype": "uint8", "min": -0.15894212126731874, "scale": 0.0012515127658843995, "original_dtype": "float32"}}, {"name": "generator/G_MODEL/m/r8/2/moments/mean/reduction_indices", "shape": [2], "dtype": "int32"}, {"name": "generator/G_MODEL/m/r8/2/moments/variance/reduction_indices", "shape": [2], "dtype": "int32"}, {"name": "generator/G_MODEL/m/r8/2/instancenorm/add/y", "shape": [], "dtype": "float32", "quantization": {"dtype": "uint8", "min": 9.999999747378752e-06, "scale": 1.0, "original_dtype": "float32"}}, {"name": "generator/G_MODEL/m/r8/2/gamma", "shape": [256], "dtype": "float32", "quantization": {"dtype": "uint8", "min": 0.9478777647018433, "scale": 0.0006282095815621171, "original_dtype": "float32"}}, {"name": "generator/G_MODEL/m/MirrorPad_1/paddings", "shape": [4, 2], "dtype": "int32"}, {"name": "generator/G_MODEL/m/Conv_1/weights", "shape": [3, 3, 256, 256], "dtype": "float32", "quantization": {"dtype": "uint8", "min": -0.12615408158185434, "scale": 0.0009208327122763091, "original_dtype": "float32"}}, {"name": "generator/G_MODEL/m/InstanceNorm_1/moments/mean/reduction_indices", "shape": [2], "dtype": "int32"}, {"name": "generator/G_MODEL/m/InstanceNorm_1/moments/variance/reduction_indices", "shape": [2], "dtype": "int32"}, {"name": "generator/G_MODEL/m/InstanceNorm_1/instancenorm/add/y", "shape": [], "dtype": "float32", "quantization": {"dtype": "uint8", "min": 9.999999747378752e-06, "scale": 1.0, "original_dtype": "float32"}}, {"name": "generator/G_MODEL/m/InstanceNorm_1/gamma", "shape": [256], "dtype": "float32", "quantization": {"dtype": "uint8", "min": 0.9624312520027161, "scale": 0.0008237934580036238, "original_dtype": "float32"}}, {"name": "generator/G_MODEL/u2/strided_slice_1/stack", "shape": [1], "dtype": "int32"}, {"name": "generator/G_MODEL/u2/strided_slice_1/stack_1", "shape": [1], "dtype": "int32"}, {"name": "generator/G_MODEL/u2/strided_slice_1/stack_2", "shape": [1], "dtype": "int32"}, {"name": "generator/G_MODEL/u2/MirrorPad/paddings", "shape": [4, 2], "dtype": "int32"}, {"name": "generator/G_MODEL/u2/SeparableConv2d/depthwise_weights", "shape": [3, 3, 256, 1], "dtype": "float32", "quantization": {"dtype": "uint8", "min": -0.0954202990321552, "scale": 0.0007174458573846256, "original_dtype": "float32"}}, {"name": "generator/G_MODEL/u2/SeparableConv2d/pointwise_weights", "shape": [1, 1, 256, 128], "dtype": "float32", "quantization": {"dtype": "uint8", "min": -0.31219185847862096, "scale": 0.002691309124815698, "original_dtype": "float32"}}, {"name": "generator/G_MODEL/u2/SeparableConv2d/InstanceNorm/moments/mean/reduction_indices", "shape": [2], "dtype": "int32"}, {"name": "generator/G_MODEL/u2/SeparableConv2d/InstanceNorm/moments/variance/reduction_indices", "shape": [2], "dtype": "int32"}, {"name": "generator/G_MODEL/u2/SeparableConv2d/InstanceNorm/instancenorm/add/y", "shape": [], "dtype": "float32", "quantization": {"dtype": "uint8", "min": 9.999999974752427e-07, "scale": 1.0, "original_dtype": "float32"}}, {"name": "generator/G_MODEL/u2/SeparableConv2d/InstanceNorm/gamma", "shape": [128], "dtype": "float32", "quantization": {"dtype": "uint8", "min": 0.9136114716529846, "scale": 0.000931250114066928, "original_dtype": "float32"}}, {"name": "generator/G_MODEL/u2/MirrorPad_1/paddings", "shape": [4, 2], "dtype": "int32"}, {"name": "generator/G_MODEL/u2/SeparableConv2d_1/depthwise_weights", "shape": [3, 3, 128, 1], "dtype": "float32", "quantization": {"dtype": "uint8", "min": -0.15724193383665647, "scale": 0.0010696730192969828, "original_dtype": "float32"}}, {"name": "generator/G_MODEL/u2/SeparableConv2d_1/pointwise_weights", "shape": [1, 1, 128, 128], "dtype": "float32", "quantization": {"dtype": "uint8", "min": -0.27581223085814827, "scale": 0.002507383916892257, "original_dtype": "float32"}}, {"name": "generator/G_MODEL/u2/SeparableConv2d_1/InstanceNorm/moments/mean/reduction_indices", "shape": [2], "dtype": "int32"}, {"name": "generator/G_MODEL/u2/SeparableConv2d_1/InstanceNorm/moments/variance/reduction_indices", "shape": [2], "dtype": "int32"}, {"name": "generator/G_MODEL/u2/SeparableConv2d_1/InstanceNorm/instancenorm/add/y", "shape": [], "dtype": "float32", "quantization": {"dtype": "uint8", "min": 9.999999974752427e-07, "scale": 1.0, "original_dtype": "float32"}}, {"name": "generator/G_MODEL/u2/SeparableConv2d_1/InstanceNorm/gamma", "shape": [128], "dtype": "float32", "quantization": {"dtype": "uint8", "min": 0.9361810088157654, "scale": 0.000425260440976012, "original_dtype": "float32"}}, {"name": "generator/G_MODEL/u2/MirrorPad_2/paddings", "shape": [4, 2], "dtype": "int32"}, {"name": "generator/G_MODEL/u2/Conv/weights", "shape": [3, 3, 128, 128], "dtype": "float32", "quantization": {"dtype": "uint8", "min": -0.13765531918581794, "scale": 0.0010925025332207774, "original_dtype": "float32"}}, {"name": "generator/G_MODEL/u2/InstanceNorm/moments/mean/reduction_indices", "shape": [2], "dtype": "int32"}, {"name": "generator/G_MODEL/u2/InstanceNorm/moments/variance/reduction_indices", "shape": [2], "dtype": "int32"}, {"name": "generator/G_MODEL/u2/InstanceNorm/instancenorm/add/y", "shape": [], "dtype": "float32", "quantization": {"dtype": "uint8", "min": 9.999999747378752e-06, "scale": 1.0, "original_dtype": "float32"}}, {"name": "generator/G_MODEL/u2/InstanceNorm/gamma", "shape": [128], "dtype": "float32", "quantization": {"dtype": "uint8", "min": 0.9478678703308105, "scale": 0.0006291819553749234, "original_dtype": "float32"}}, {"name": "generator/G_MODEL/u1/strided_slice_1/stack", "shape": [1], "dtype": "int32"}, {"name": "generator/G_MODEL/u1/strided_slice_1/stack_1", "shape": [1], "dtype": "int32"}, {"name": "generator/G_MODEL/u1/strided_slice_1/stack_2", "shape": [1], "dtype": "int32"}, {"name": "generator/G_MODEL/u1/MirrorPad/paddings", "shape": [4, 2], "dtype": "int32"}, {"name": "generator/G_MODEL/u1/SeparableConv2d/depthwise_weights", "shape": [3, 3, 128, 1], "dtype": "float32", "quantization": {"dtype": "uint8", "min": -0.11370781239341286, "scale": 0.0009024429555032767, "original_dtype": "float32"}}, {"name": "generator/G_MODEL/u1/SeparableConv2d/pointwise_weights", "shape": [1, 1, 128, 128], "dtype": "float32", "quantization": {"dtype": "uint8", "min": -0.2941526637357824, "scale": 0.0022284292707256243, "original_dtype": "float32"}}, {"name": "generator/G_MODEL/u1/SeparableConv2d/InstanceNorm/moments/mean/reduction_indices", "shape": [2], "dtype": "int32"}, {"name": "generator/G_MODEL/u1/SeparableConv2d/InstanceNorm/moments/variance/reduction_indices", "shape": [2], "dtype": "int32"}, {"name": "generator/G_MODEL/u1/SeparableConv2d/InstanceNorm/instancenorm/add/y", "shape": [], "dtype": "float32", "quantization": {"dtype": "uint8", "min": 9.999999974752427e-07, "scale": 1.0, "original_dtype": "float32"}}, {"name": "generator/G_MODEL/u1/SeparableConv2d/InstanceNorm/gamma", "shape": [128], "dtype": "float32", "quantization": {"dtype": "uint8", "min": 0.9399603009223938, "scale": 0.0005206400272892971, "original_dtype": "float32"}}, {"name": "generator/G_MODEL/u1/MirrorPad_1/paddings", "shape": [4, 2], "dtype": "int32"}, {"name": "generator/G_MODEL/u1/Conv/weights", "shape": [3, 3, 128, 64], "dtype": "float32", "quantization": {"dtype": "uint8", "min": -0.16922367326184815, "scale": 0.0012174364982866772, "original_dtype": "float32"}}, {"name": "generator/G_MODEL/u1/InstanceNorm/moments/mean/reduction_indices", "shape": [2], "dtype": "int32"}, {"name": "generator/G_MODEL/u1/InstanceNorm/moments/variance/reduction_indices", "shape": [2], "dtype": "int32"}, {"name": "generator/G_MODEL/u1/InstanceNorm/instancenorm/add/y", "shape": [], "dtype": "float32", "quantization": {"dtype": "uint8", "min": 9.999999747378752e-06, "scale": 1.0, "original_dtype": "float32"}}, {"name": "generator/G_MODEL/u1/InstanceNorm/gamma", "shape": [64], "dtype": "float32", "quantization": {"dtype": "uint8", "min": 0.9462944865226746, "scale": 0.00047374823514152975, "original_dtype": "float32"}}, {"name": "generator/G_MODEL/u1/MirrorPad_2/paddings", "shape": [4, 2], "dtype": "int32"}, {"name": "generator/G_MODEL/u1/Conv_1/weights", "shape": [3, 3, 64, 64], "dtype": "float32", "quantization": {"dtype": "uint8", "min": -0.19975928862889608, "scale": 0.0013229091962178548, "original_dtype": "float32"}}, {"name": "generator/G_MODEL/u1/InstanceNorm_1/moments/mean/reduction_indices", "shape": [2], "dtype": "int32"}, {"name": "generator/G_MODEL/u1/InstanceNorm_1/moments/variance/reduction_indices", "shape": [2], "dtype": "int32"}, {"name": "generator/G_MODEL/u1/InstanceNorm_1/instancenorm/add/y", "shape": [], "dtype": "float32", "quantization": {"dtype": "uint8", "min": 9.999999747378752e-06, "scale": 1.0, "original_dtype": "float32"}}, {"name": "generator/G_MODEL/u1/InstanceNorm_1/gamma", "shape": [64], "dtype": "float32", "quantization": {"dtype": "uint8", "min": 0.9642238616943359, "scale": 0.0006583494298598346, "original_dtype": "float32"}}, {"name": "generator/G_MODEL/Conv/weights", "shape": [1, 1, 64, 3], "dtype": "float32", "quantization": {"dtype": "uint8", "min": -0.3615866377073176, "scale": 0.0027186965241151697, "original_dtype": "float32"}}]}]}