{"format": "graph-model", "generatedBy": "1.15.0", "convertedBy": "TensorFlow.js Converter v3.9.0", "signature": {"inputs": {"input": {"name": "generator_input:0", "dtype": "DT_FLOAT", "tensorShape": {"dim": [{"size": "1"}, {"size": "-1"}, {"size": "-1"}, {"size": "3"}]}}}, "outputs": {"output": {"name": "generator/G_MODEL/Tanh:0", "dtype": "DT_FLOAT", "tensorShape": {"dim": [{"size": "1"}, {"size": "-1"}, {"size": "-1"}, {"size": "3"}]}}}}, "modelTopology": {"node": [{"name": "generator/G_MODEL/u1/InstanceNorm_1/beta", "op": "Const", "attr": {"dtype": {"type": "DT_FLOAT"}, "value": {"tensor": {"dtype": "DT_FLOAT", "tensorShape": {"dim": [{"size": "64"}]}}}}}, {"name": "generator/G_MODEL/u1/InstanceNorm/beta", "op": "Const", "attr": {"value": {"tensor": {"dtype": "DT_FLOAT", "tensorShape": {"dim": [{"size": "64"}]}}}, "dtype": {"type": "DT_FLOAT"}}}, {"name": "generator/G_MODEL/u1/SeparableConv2d/InstanceNorm/beta", "op": "Const", "attr": {"value": {"tensor": {"dtype": "DT_FLOAT", "tensorShape": {"dim": [{"size": "128"}]}}}, "dtype": {"type": "DT_FLOAT"}}}, {"name": "generator/G_MODEL/u1/mul/x", "op": "Const", "attr": {"dtype": {"type": "DT_INT32"}, "value": {"tensor": {"dtype": "DT_INT32", "tensorShape": {}}}}}, {"name": "generator/G_MODEL/u1/strided_slice/stack", "op": "Const", "attr": {"value": {"tensor": {"dtype": "DT_INT32", "tensorShape": {"dim": [{"size": "1"}]}}}, "dtype": {"type": "DT_INT32"}}}, {"name": "generator/G_MODEL/u1/strided_slice/stack_1", "op": "Const", "attr": {"value": {"tensor": {"dtype": "DT_INT32", "tensorShape": {"dim": [{"size": "1"}]}}}, "dtype": {"type": "DT_INT32"}}}, {"name": "generator/G_MODEL/u1/strided_slice/stack_2", "op": "Const", "attr": {"dtype": {"type": "DT_INT32"}, "value": {"tensor": {"dtype": "DT_INT32", "tensorShape": {"dim": [{"size": "1"}]}}}}}, {"name": "generator/G_MODEL/u1/mul_1/x", "op": "Const", "attr": {"dtype": {"type": "DT_INT32"}, "value": {"tensor": {"dtype": "DT_INT32", "tensorShape": {}}}}}, {"name": "generator/G_MODEL/u2/InstanceNorm/beta", "op": "Const", "attr": {"dtype": {"type": "DT_FLOAT"}, "value": {"tensor": {"dtype": "DT_FLOAT", "tensorShape": {"dim": [{"size": "128"}]}}}}}, {"name": "generator/G_MODEL/u2/SeparableConv2d_1/InstanceNorm/beta", "op": "Const", "attr": {"value": {"tensor": {"dtype": "DT_FLOAT", "tensorShape": {"dim": [{"size": "128"}]}}}, "dtype": {"type": "DT_FLOAT"}}}, {"name": "generator/G_MODEL/u2/SeparableConv2d/InstanceNorm/beta", "op": "Const", "attr": {"dtype": {"type": "DT_FLOAT"}, "value": {"tensor": {"dtype": "DT_FLOAT", "tensorShape": {"dim": [{"size": "128"}]}}}}}, {"name": "generator/G_MODEL/u2/mul/x", "op": "Const", "attr": {"dtype": {"type": "DT_INT32"}, "value": {"tensor": {"dtype": "DT_INT32", "tensorShape": {}}}}}, {"name": "generator/G_MODEL/u2/strided_slice/stack", "op": "Const", "attr": {"dtype": {"type": "DT_INT32"}, "value": {"tensor": {"dtype": "DT_INT32", "tensorShape": {"dim": [{"size": "1"}]}}}}}, {"name": "generator/G_MODEL/u2/strided_slice/stack_1", "op": "Const", "attr": {"value": {"tensor": {"dtype": "DT_INT32", "tensorShape": {"dim": [{"size": "1"}]}}}, "dtype": {"type": "DT_INT32"}}}, {"name": "generator/G_MODEL/u2/strided_slice/stack_2", "op": "Const", "attr": {"value": {"tensor": {"dtype": "DT_INT32", "tensorShape": {"dim": [{"size": "1"}]}}}, "dtype": {"type": "DT_INT32"}}}, {"name": "generator/G_MODEL/u2/mul_1/x", "op": "Const", "attr": {"value": {"tensor": {"dtype": "DT_INT32", "tensorShape": {}}}, "dtype": {"type": "DT_INT32"}}}, {"name": "generator/G_MODEL/m/InstanceNorm_1/beta", "op": "Const", "attr": {"dtype": {"type": "DT_FLOAT"}, "value": {"tensor": {"dtype": "DT_FLOAT", "tensorShape": {"dim": [{"size": "256"}]}}}}}, {"name": "generator/G_MODEL/m/r8/2/beta", "op": "Const", "attr": {"dtype": {"type": "DT_FLOAT"}, "value": {"tensor": {"dtype": "DT_FLOAT", "tensorShape": {"dim": [{"size": "256"}]}}}}}, {"name": "generator/G_MODEL/m/r8/1/beta", "op": "Const", "attr": {"dtype": {"type": "DT_FLOAT"}, "value": {"tensor": {"dtype": "DT_FLOAT", "tensorShape": {"dim": [{"size": "512"}]}}}}}, {"name": "generator/G_MODEL/m/r8/InstanceNorm/beta", "op": "Const", "attr": {"value": {"tensor": {"dtype": "DT_FLOAT", "tensorShape": {"dim": [{"size": "512"}]}}}, "dtype": {"type": "DT_FLOAT"}}}, {"name": "generator/G_MODEL/m/r7/2/beta", "op": "Const", "attr": {"dtype": {"type": "DT_FLOAT"}, "value": {"tensor": {"dtype": "DT_FLOAT", "tensorShape": {"dim": [{"size": "256"}]}}}}}, {"name": "generator/G_MODEL/m/r7/1/beta", "op": "Const", "attr": {"dtype": {"type": "DT_FLOAT"}, "value": {"tensor": {"dtype": "DT_FLOAT", "tensorShape": {"dim": [{"size": "512"}]}}}}}, {"name": "generator/G_MODEL/m/r7/InstanceNorm/beta", "op": "Const", "attr": {"dtype": {"type": "DT_FLOAT"}, "value": {"tensor": {"dtype": "DT_FLOAT", "tensorShape": {"dim": [{"size": "512"}]}}}}}, {"name": "generator/G_MODEL/m/r6/2/beta", "op": "Const", "attr": {"value": {"tensor": {"dtype": "DT_FLOAT", "tensorShape": {"dim": [{"size": "256"}]}}}, "dtype": {"type": "DT_FLOAT"}}}, {"name": "generator/G_MODEL/m/r6/1/beta", "op": "Const", "attr": {"value": {"tensor": {"dtype": "DT_FLOAT", "tensorShape": {"dim": [{"size": "512"}]}}}, "dtype": {"type": "DT_FLOAT"}}}, {"name": "generator/G_MODEL/m/r6/InstanceNorm/beta", "op": "Const", "attr": {"value": {"tensor": {"dtype": "DT_FLOAT", "tensorShape": {"dim": [{"size": "512"}]}}}, "dtype": {"type": "DT_FLOAT"}}}, {"name": "generator/G_MODEL/m/r5/2/beta", "op": "Const", "attr": {"value": {"tensor": {"dtype": "DT_FLOAT", "tensorShape": {"dim": [{"size": "256"}]}}}, "dtype": {"type": "DT_FLOAT"}}}, {"name": "generator/G_MODEL/m/r5/1/beta", "op": "Const", "attr": {"dtype": {"type": "DT_FLOAT"}, "value": {"tensor": {"dtype": "DT_FLOAT", "tensorShape": {"dim": [{"size": "512"}]}}}}}, {"name": "generator/G_MODEL/m/r5/InstanceNorm/beta", "op": "Const", "attr": {"dtype": {"type": "DT_FLOAT"}, "value": {"tensor": {"dtype": "DT_FLOAT", "tensorShape": {"dim": [{"size": "512"}]}}}}}, {"name": "generator/G_MODEL/m/r4/2/beta", "op": "Const", "attr": {"dtype": {"type": "DT_FLOAT"}, "value": {"tensor": {"dtype": "DT_FLOAT", "tensorShape": {"dim": [{"size": "256"}]}}}}}, {"name": "generator/G_MODEL/m/r4/1/beta", "op": "Const", "attr": {"value": {"tensor": {"dtype": "DT_FLOAT", "tensorShape": {"dim": [{"size": "512"}]}}}, "dtype": {"type": "DT_FLOAT"}}}, {"name": "generator/G_MODEL/m/r4/InstanceNorm/beta", "op": "Const", "attr": {"dtype": {"type": "DT_FLOAT"}, "value": {"tensor": {"dtype": "DT_FLOAT", "tensorShape": {"dim": [{"size": "512"}]}}}}}, {"name": "generator/G_MODEL/m/r3/2/beta", "op": "Const", "attr": {"value": {"tensor": {"dtype": "DT_FLOAT", "tensorShape": {"dim": [{"size": "256"}]}}}, "dtype": {"type": "DT_FLOAT"}}}, {"name": "generator/G_MODEL/m/r3/1/beta", "op": "Const", "attr": {"dtype": {"type": "DT_FLOAT"}, "value": {"tensor": {"dtype": "DT_FLOAT", "tensorShape": {"dim": [{"size": "512"}]}}}}}, {"name": "generator/G_MODEL/m/r3/InstanceNorm/beta", "op": "Const", "attr": {"value": {"tensor": {"dtype": "DT_FLOAT", "tensorShape": {"dim": [{"size": "512"}]}}}, "dtype": {"type": "DT_FLOAT"}}}, {"name": "generator/G_MODEL/m/r2/2/beta", "op": "Const", "attr": {"value": {"tensor": {"dtype": "DT_FLOAT", "tensorShape": {"dim": [{"size": "256"}]}}}, "dtype": {"type": "DT_FLOAT"}}}, {"name": "generator/G_MODEL/m/r2/1/beta", "op": "Const", "attr": {"dtype": {"type": "DT_FLOAT"}, "value": {"tensor": {"dtype": "DT_FLOAT", "tensorShape": {"dim": [{"size": "512"}]}}}}}, {"name": "generator/G_MODEL/m/r2/InstanceNorm/beta", "op": "Const", "attr": {"dtype": {"type": "DT_FLOAT"}, "value": {"tensor": {"dtype": "DT_FLOAT", "tensorShape": {"dim": [{"size": "512"}]}}}}}, {"name": "generator/G_MODEL/m/r1/2/beta", "op": "Const", "attr": {"dtype": {"type": "DT_FLOAT"}, "value": {"tensor": {"dtype": "DT_FLOAT", "tensorShape": {"dim": [{"size": "256"}]}}}}}, {"name": "generator/G_MODEL/m/r1/1/beta", "op": "Const", "attr": {"value": {"tensor": {"dtype": "DT_FLOAT", "tensorShape": {"dim": [{"size": "512"}]}}}, "dtype": {"type": "DT_FLOAT"}}}, {"name": "generator/G_MODEL/m/r1/InstanceNorm/beta", "op": "Const", "attr": {"dtype": {"type": "DT_FLOAT"}, "value": {"tensor": {"dtype": "DT_FLOAT", "tensorShape": {"dim": [{"size": "512"}]}}}}}, {"name": "generator/G_MODEL/m/InstanceNorm/beta", "op": "Const", "attr": {"dtype": {"type": "DT_FLOAT"}, "value": {"tensor": {"dtype": "DT_FLOAT", "tensorShape": {"dim": [{"size": "256"}]}}}}}, {"name": "generator/G_MODEL/b2/SeparableConv2d_1/InstanceNorm/beta", "op": "Const", "attr": {"dtype": {"type": "DT_FLOAT"}, "value": {"tensor": {"dtype": "DT_FLOAT", "tensorShape": {"dim": [{"size": "256"}]}}}}}, {"name": "generator/G_MODEL/b2/MirrorPad_2/paddings", "op": "Const", "attr": {"value": {"tensor": {"dtype": "DT_INT32", "tensorShape": {"dim": [{"size": "4"}, {"size": "2"}]}}}, "dtype": {"type": "DT_INT32"}}}, {"name": "generator/G_MODEL/b2/SeparableConv2d_1/depthwise_weights", "op": "Const", "attr": {"value": {"tensor": {"dtype": "DT_FLOAT", "tensorShape": {"dim": [{"size": "3"}, {"size": "3"}, {"size": "128"}, {"size": "1"}]}}}, "dtype": {"type": "DT_FLOAT"}}}, {"name": "generator/G_MODEL/b2/SeparableConv2d_1/pointwise_weights", "op": "Const", "attr": {"dtype": {"type": "DT_FLOAT"}, "value": {"tensor": {"dtype": "DT_FLOAT", "tensorShape": {"dim": [{"size": "1"}, {"size": "1"}, {"size": "128"}, {"size": "256"}]}}}}}, {"name": "generator/G_MODEL/b2/SeparableConv2d_1/InstanceNorm/moments/mean/reduction_indices", "op": "Const", "attr": {"dtype": {"type": "DT_INT32"}, "value": {"tensor": {"dtype": "DT_INT32", "tensorShape": {"dim": [{"size": "2"}]}}}}}, {"name": "generator/G_MODEL/b2/SeparableConv2d_1/InstanceNorm/moments/variance/reduction_indices", "op": "Const", "attr": {"dtype": {"type": "DT_INT32"}, "value": {"tensor": {"dtype": "DT_INT32", "tensorShape": {"dim": [{"size": "2"}]}}}}}, {"name": "generator/G_MODEL/b2/SeparableConv2d_1/InstanceNorm/instancenorm/add/y", "op": "Const", "attr": {"dtype": {"type": "DT_FLOAT"}, "value": {"tensor": {"dtype": "DT_FLOAT", "tensorShape": {}}}}}, {"name": "generator/G_MODEL/b2/SeparableConv2d_1/InstanceNorm/gamma", "op": "Const", "attr": {"value": {"tensor": {"dtype": "DT_FLOAT", "tensorShape": {"dim": [{"size": "256"}]}}}, "dtype": {"type": "DT_FLOAT"}}}, {"name": "generator/G_MODEL/b2/SeparableConv2d_2/InstanceNorm/beta", "op": "Const", "attr": {"dtype": {"type": "DT_FLOAT"}, "value": {"tensor": {"dtype": "DT_FLOAT", "tensorShape": {"dim": [{"size": "256"}]}}}}}, {"name": "generator/G_MODEL/b2/strided_slice/stack", "op": "Const", "attr": {"value": {"tensor": {"dtype": "DT_INT32", "tensorShape": {"dim": [{"size": "1"}]}}}, "dtype": {"type": "DT_INT32"}}}, {"name": "generator/G_MODEL/b2/strided_slice/stack_1", "op": "Const", "attr": {"value": {"tensor": {"dtype": "DT_INT32", "tensorShape": {"dim": [{"size": "1"}]}}}, "dtype": {"type": "DT_INT32"}}}, {"name": "generator/G_MODEL/b2/strided_slice/stack_2", "op": "Const", "attr": {"value": {"tensor": {"dtype": "DT_INT32", "tensorShape": {"dim": [{"size": "1"}]}}}, "dtype": {"type": "DT_INT32"}}}, {"name": "generator/G_MODEL/b2/floordiv/y", "op": "Const", "attr": {"dtype": {"type": "DT_INT32"}, "value": {"tensor": {"dtype": "DT_INT32", "tensorShape": {}}}}}, {"name": "generator/G_MODEL/b2/SeparableConv2d/InstanceNorm/beta", "op": "Const", "attr": {"dtype": {"type": "DT_FLOAT"}, "value": {"tensor": {"dtype": "DT_FLOAT", "tensorShape": {"dim": [{"size": "128"}]}}}}}, {"name": "generator/G_MODEL/b2/InstanceNorm/beta", "op": "Const", "attr": {"value": {"tensor": {"dtype": "DT_FLOAT", "tensorShape": {"dim": [{"size": "128"}]}}}, "dtype": {"type": "DT_FLOAT"}}}, {"name": "generator/G_MODEL/b1/SeparableConv2d/InstanceNorm/beta", "op": "Const", "attr": {"dtype": {"type": "DT_FLOAT"}, "value": {"tensor": {"dtype": "DT_FLOAT", "tensorShape": {"dim": [{"size": "128"}]}}}}}, {"name": "generator/G_MODEL/b1/MirrorPad_2/paddings", "op": "Const", "attr": {"dtype": {"type": "DT_INT32"}, "value": {"tensor": {"dtype": "DT_INT32", "tensorShape": {"dim": [{"size": "4"}, {"size": "2"}]}}}}}, {"name": "generator/G_MODEL/b1/SeparableConv2d/depthwise_weights", "op": "Const", "attr": {"dtype": {"type": "DT_FLOAT"}, "value": {"tensor": {"dtype": "DT_FLOAT", "tensorShape": {"dim": [{"size": "3"}, {"size": "3"}, {"size": "64"}, {"size": "1"}]}}}}}, {"name": "generator/G_MODEL/b1/SeparableConv2d/pointwise_weights", "op": "Const", "attr": {"dtype": {"type": "DT_FLOAT"}, "value": {"tensor": {"dtype": "DT_FLOAT", "tensorShape": {"dim": [{"size": "1"}, {"size": "1"}, {"size": "64"}, {"size": "128"}]}}}}}, {"name": "generator/G_MODEL/b1/SeparableConv2d/InstanceNorm/moments/mean/reduction_indices", "op": "Const", "attr": {"dtype": {"type": "DT_INT32"}, "value": {"tensor": {"dtype": "DT_INT32", "tensorShape": {"dim": [{"size": "2"}]}}}}}, {"name": "generator/G_MODEL/b1/SeparableConv2d/InstanceNorm/moments/variance/reduction_indices", "op": "Const", "attr": {"value": {"tensor": {"dtype": "DT_INT32", "tensorShape": {"dim": [{"size": "2"}]}}}, "dtype": {"type": "DT_INT32"}}}, {"name": "generator/G_MODEL/b1/SeparableConv2d/InstanceNorm/instancenorm/add/y", "op": "Const", "attr": {"value": {"tensor": {"dtype": "DT_FLOAT", "tensorShape": {}}}, "dtype": {"type": "DT_FLOAT"}}}, {"name": "generator/G_MODEL/b1/SeparableConv2d/InstanceNorm/gamma", "op": "Const", "attr": {"dtype": {"type": "DT_FLOAT"}, "value": {"tensor": {"dtype": "DT_FLOAT", "tensorShape": {"dim": [{"size": "128"}]}}}}}, {"name": "generator/G_MODEL/b1/SeparableConv2d_1/InstanceNorm/beta", "op": "Const", "attr": {"dtype": {"type": "DT_FLOAT"}, "value": {"tensor": {"dtype": "DT_FLOAT", "tensorShape": {"dim": [{"size": "128"}]}}}}}, {"name": "generator/G_MODEL/b1/strided_slice/stack", "op": "Const", "attr": {"value": {"tensor": {"dtype": "DT_INT32", "tensorShape": {"dim": [{"size": "1"}]}}}, "dtype": {"type": "DT_INT32"}}}, {"name": "generator/G_MODEL/b1/strided_slice/stack_1", "op": "Const", "attr": {"dtype": {"type": "DT_INT32"}, "value": {"tensor": {"dtype": "DT_INT32", "tensorShape": {"dim": [{"size": "1"}]}}}}}, {"name": "generator/G_MODEL/b1/strided_slice/stack_2", "op": "Const", "attr": {"dtype": {"type": "DT_INT32"}, "value": {"tensor": {"dtype": "DT_INT32", "tensorShape": {"dim": [{"size": "1"}]}}}}}, {"name": "generator/G_MODEL/b1/floordiv/y", "op": "Const", "attr": {"value": {"tensor": {"dtype": "DT_INT32", "tensorShape": {}}}, "dtype": {"type": "DT_INT32"}}}, {"name": "generator/G_MODEL/b1/InstanceNorm_1/beta", "op": "Const", "attr": {"dtype": {"type": "DT_FLOAT"}, "value": {"tensor": {"dtype": "DT_FLOAT", "tensorShape": {"dim": [{"size": "64"}]}}}}}, {"name": "generator/G_MODEL/b1/InstanceNorm/beta", "op": "Const", "attr": {"value": {"tensor": {"dtype": "DT_FLOAT", "tensorShape": {"dim": [{"size": "64"}]}}}, "dtype": {"type": "DT_FLOAT"}}}, {"name": "generator/G_MODEL/b1/MirrorPad/paddings", "op": "Const", "attr": {"dtype": {"type": "DT_INT32"}, "value": {"tensor": {"dtype": "DT_INT32", "tensorShape": {"dim": [{"size": "4"}, {"size": "2"}]}}}}}, {"name": "generator/G_MODEL/b1/Conv/weights", "op": "Const", "attr": {"dtype": {"type": "DT_FLOAT"}, "value": {"tensor": {"dtype": "DT_FLOAT", "tensorShape": {"dim": [{"size": "3"}, {"size": "3"}, {"size": "3"}, {"size": "64"}]}}}}}, {"name": "generator/G_MODEL/b1/InstanceNorm/moments/mean/reduction_indices", "op": "Const", "attr": {"dtype": {"type": "DT_INT32"}, "value": {"tensor": {"dtype": "DT_INT32", "tensorShape": {"dim": [{"size": "2"}]}}}}}, {"name": "generator/G_MODEL/b1/InstanceNorm/moments/variance/reduction_indices", "op": "Const", "attr": {"dtype": {"type": "DT_INT32"}, "value": {"tensor": {"dtype": "DT_INT32", "tensorShape": {"dim": [{"size": "2"}]}}}}}, {"name": "generator/G_MODEL/b1/InstanceNorm/instancenorm/add/y", "op": "Const", "attr": {"dtype": {"type": "DT_FLOAT"}, "value": {"tensor": {"dtype": "DT_FLOAT", "tensorShape": {}}}}}, {"name": "generator/G_MODEL/b1/InstanceNorm/gamma", "op": "Const", "attr": {"value": {"tensor": {"dtype": "DT_FLOAT", "tensorShape": {"dim": [{"size": "64"}]}}}, "dtype": {"type": "DT_FLOAT"}}}, {"name": "generator/G_MODEL/b1/MirrorPad_1/paddings", "op": "Const", "attr": {"value": {"tensor": {"dtype": "DT_INT32", "tensorShape": {"dim": [{"size": "4"}, {"size": "2"}]}}}, "dtype": {"type": "DT_INT32"}}}, {"name": "generator/G_MODEL/b1/Conv_1/weights", "op": "Const", "attr": {"dtype": {"type": "DT_FLOAT"}, "value": {"tensor": {"dtype": "DT_FLOAT", "tensorShape": {"dim": [{"size": "3"}, {"size": "3"}, {"size": "64"}, {"size": "64"}]}}}}}, {"name": "generator/G_MODEL/b1/InstanceNorm_1/moments/mean/reduction_indices", "op": "Const", "attr": {"value": {"tensor": {"dtype": "DT_INT32", "tensorShape": {"dim": [{"size": "2"}]}}}, "dtype": {"type": "DT_INT32"}}}, {"name": "generator/G_MODEL/b1/InstanceNorm_1/moments/variance/reduction_indices", "op": "Const", "attr": {"dtype": {"type": "DT_INT32"}, "value": {"tensor": {"dtype": "DT_INT32", "tensorShape": {"dim": [{"size": "2"}]}}}}}, {"name": "generator/G_MODEL/b1/InstanceNorm_1/instancenorm/add/y", "op": "Const", "attr": {"dtype": {"type": "DT_FLOAT"}, "value": {"tensor": {"dtype": "DT_FLOAT", "tensorShape": {}}}}}, {"name": "generator/G_MODEL/b1/InstanceNorm_1/gamma", "op": "Const", "attr": {"dtype": {"type": "DT_FLOAT"}, "value": {"tensor": {"dtype": "DT_FLOAT", "tensorShape": {"dim": [{"size": "64"}]}}}}}, {"name": "generator/G_MODEL/b1/strided_slice_1/stack", "op": "Const", "attr": {"value": {"tensor": {"dtype": "DT_INT32", "tensorShape": {"dim": [{"size": "1"}]}}}, "dtype": {"type": "DT_INT32"}}}, {"name": "generator/G_MODEL/b1/strided_slice_1/stack_1", "op": "Const", "attr": {"dtype": {"type": "DT_INT32"}, "value": {"tensor": {"dtype": "DT_INT32", "tensorShape": {"dim": [{"size": "1"}]}}}}}, {"name": "generator/G_MODEL/b1/strided_slice_1/stack_2", "op": "Const", "attr": {"dtype": {"type": "DT_INT32"}, "value": {"tensor": {"dtype": "DT_INT32", "tensorShape": {"dim": [{"size": "1"}]}}}}}, {"name": "generator/G_MODEL/b1/floordiv_1/y", "op": "Const", "attr": {"value": {"tensor": {"dtype": "DT_INT32", "tensorShape": {}}}, "dtype": {"type": "DT_INT32"}}}, {"name": "generator/G_MODEL/b1/MirrorPad_3/paddings", "op": "Const", "attr": {"dtype": {"type": "DT_INT32"}, "value": {"tensor": {"dtype": "DT_INT32", "tensorShape": {"dim": [{"size": "4"}, {"size": "2"}]}}}}}, {"name": "generator/G_MODEL/b1/SeparableConv2d_1/depthwise_weights", "op": "Const", "attr": {"dtype": {"type": "DT_FLOAT"}, "value": {"tensor": {"dtype": "DT_FLOAT", "tensorShape": {"dim": [{"size": "3"}, {"size": "3"}, {"size": "64"}, {"size": "1"}]}}}}}, {"name": "generator/G_MODEL/b1/SeparableConv2d_1/pointwise_weights", "op": "Const", "attr": {"dtype": {"type": "DT_FLOAT"}, "value": {"tensor": {"dtype": "DT_FLOAT", "tensorShape": {"dim": [{"size": "1"}, {"size": "1"}, {"size": "64"}, {"size": "128"}]}}}}}, {"name": "generator/G_MODEL/b1/SeparableConv2d_1/InstanceNorm/moments/mean/reduction_indices", "op": "Const", "attr": {"value": {"tensor": {"dtype": "DT_INT32", "tensorShape": {"dim": [{"size": "2"}]}}}, "dtype": {"type": "DT_INT32"}}}, {"name": "generator/G_MODEL/b1/SeparableConv2d_1/InstanceNorm/moments/variance/reduction_indices", "op": "Const", "attr": {"value": {"tensor": {"dtype": "DT_INT32", "tensorShape": {"dim": [{"size": "2"}]}}}, "dtype": {"type": "DT_INT32"}}}, {"name": "generator/G_MODEL/b1/SeparableConv2d_1/InstanceNorm/instancenorm/add/y", "op": "Const", "attr": {"value": {"tensor": {"dtype": "DT_FLOAT", "tensorShape": {}}}, "dtype": {"type": "DT_FLOAT"}}}, {"name": "generator/G_MODEL/b1/SeparableConv2d_1/InstanceNorm/gamma", "op": "Const", "attr": {"value": {"tensor": {"dtype": "DT_FLOAT", "tensorShape": {"dim": [{"size": "128"}]}}}, "dtype": {"type": "DT_FLOAT"}}}, {"name": "generator/G_MODEL/b2/MirrorPad/paddings", "op": "Const", "attr": {"dtype": {"type": "DT_INT32"}, "value": {"tensor": {"dtype": "DT_INT32", "tensorShape": {"dim": [{"size": "4"}, {"size": "2"}]}}}}}, {"name": "generator/G_MODEL/b2/Conv/weights", "op": "Const", "attr": {"dtype": {"type": "DT_FLOAT"}, "value": {"tensor": {"dtype": "DT_FLOAT", "tensorShape": {"dim": [{"size": "3"}, {"size": "3"}, {"size": "128"}, {"size": "128"}]}}}}}, {"name": "generator/G_MODEL/b2/InstanceNorm/moments/mean/reduction_indices", "op": "Const", "attr": {"value": {"tensor": {"dtype": "DT_INT32", "tensorShape": {"dim": [{"size": "2"}]}}}, "dtype": {"type": "DT_INT32"}}}, {"name": "generator/G_MODEL/b2/InstanceNorm/moments/variance/reduction_indices", "op": "Const", "attr": {"dtype": {"type": "DT_INT32"}, "value": {"tensor": {"dtype": "DT_INT32", "tensorShape": {"dim": [{"size": "2"}]}}}}}, {"name": "generator/G_MODEL/b2/InstanceNorm/instancenorm/add/y", "op": "Const", "attr": {"dtype": {"type": "DT_FLOAT"}, "value": {"tensor": {"dtype": "DT_FLOAT", "tensorShape": {}}}}}, {"name": "generator/G_MODEL/b2/InstanceNorm/gamma", "op": "Const", "attr": {"value": {"tensor": {"dtype": "DT_FLOAT", "tensorShape": {"dim": [{"size": "128"}]}}}, "dtype": {"type": "DT_FLOAT"}}}, {"name": "generator/G_MODEL/b2/MirrorPad_1/paddings", "op": "Const", "attr": {"value": {"tensor": {"dtype": "DT_INT32", "tensorShape": {"dim": [{"size": "4"}, {"size": "2"}]}}}, "dtype": {"type": "DT_INT32"}}}, {"name": "generator/G_MODEL/b2/SeparableConv2d/depthwise_weights", "op": "Const", "attr": {"dtype": {"type": "DT_FLOAT"}, "value": {"tensor": {"dtype": "DT_FLOAT", "tensorShape": {"dim": [{"size": "3"}, {"size": "3"}, {"size": "128"}, {"size": "1"}]}}}}}, {"name": "generator/G_MODEL/b2/SeparableConv2d/pointwise_weights", "op": "Const", "attr": {"value": {"tensor": {"dtype": "DT_FLOAT", "tensorShape": {"dim": [{"size": "1"}, {"size": "1"}, {"size": "128"}, {"size": "128"}]}}}, "dtype": {"type": "DT_FLOAT"}}}, {"name": "generator/G_MODEL/b2/SeparableConv2d/InstanceNorm/moments/mean/reduction_indices", "op": "Const", "attr": {"dtype": {"type": "DT_INT32"}, "value": {"tensor": {"dtype": "DT_INT32", "tensorShape": {"dim": [{"size": "2"}]}}}}}, {"name": "generator/G_MODEL/b2/SeparableConv2d/InstanceNorm/moments/variance/reduction_indices", "op": "Const", "attr": {"dtype": {"type": "DT_INT32"}, "value": {"tensor": {"dtype": "DT_INT32", "tensorShape": {"dim": [{"size": "2"}]}}}}}, {"name": "generator/G_MODEL/b2/SeparableConv2d/InstanceNorm/instancenorm/add/y", "op": "Const", "attr": {"dtype": {"type": "DT_FLOAT"}, "value": {"tensor": {"dtype": "DT_FLOAT", "tensorShape": {}}}}}, {"name": "generator/G_MODEL/b2/SeparableConv2d/InstanceNorm/gamma", "op": "Const", "attr": {"value": {"tensor": {"dtype": "DT_FLOAT", "tensorShape": {"dim": [{"size": "128"}]}}}, "dtype": {"type": "DT_FLOAT"}}}, {"name": "generator/G_MODEL/b2/strided_slice_1/stack", "op": "Const", "attr": {"dtype": {"type": "DT_INT32"}, "value": {"tensor": {"dtype": "DT_INT32", "tensorShape": {"dim": [{"size": "1"}]}}}}}, {"name": "generator/G_MODEL/b2/strided_slice_1/stack_1", "op": "Const", "attr": {"value": {"tensor": {"dtype": "DT_INT32", "tensorShape": {"dim": [{"size": "1"}]}}}, "dtype": {"type": "DT_INT32"}}}, {"name": "generator/G_MODEL/b2/strided_slice_1/stack_2", "op": "Const", "attr": {"dtype": {"type": "DT_INT32"}, "value": {"tensor": {"dtype": "DT_INT32", "tensorShape": {"dim": [{"size": "1"}]}}}}}, {"name": "generator/G_MODEL/b2/floordiv_1/y", "op": "Const", "attr": {"value": {"tensor": {"dtype": "DT_INT32", "tensorShape": {}}}, "dtype": {"type": "DT_INT32"}}}, {"name": "generator/G_MODEL/b2/MirrorPad_3/paddings", "op": "Const", "attr": {"value": {"tensor": {"dtype": "DT_INT32", "tensorShape": {"dim": [{"size": "4"}, {"size": "2"}]}}}, "dtype": {"type": "DT_INT32"}}}, {"name": "generator/G_MODEL/b2/SeparableConv2d_2/depthwise_weights", "op": "Const", "attr": {"dtype": {"type": "DT_FLOAT"}, "value": {"tensor": {"dtype": "DT_FLOAT", "tensorShape": {"dim": [{"size": "3"}, {"size": "3"}, {"size": "128"}, {"size": "1"}]}}}}}, {"name": "generator/G_MODEL/b2/SeparableConv2d_2/pointwise_weights", "op": "Const", "attr": {"value": {"tensor": {"dtype": "DT_FLOAT", "tensorShape": {"dim": [{"size": "1"}, {"size": "1"}, {"size": "128"}, {"size": "256"}]}}}, "dtype": {"type": "DT_FLOAT"}}}, {"name": "generator/G_MODEL/b2/SeparableConv2d_2/InstanceNorm/moments/mean/reduction_indices", "op": "Const", "attr": {"value": {"tensor": {"dtype": "DT_INT32", "tensorShape": {"dim": [{"size": "2"}]}}}, "dtype": {"type": "DT_INT32"}}}, {"name": "generator/G_MODEL/b2/SeparableConv2d_2/InstanceNorm/moments/variance/reduction_indices", "op": "Const", "attr": {"dtype": {"type": "DT_INT32"}, "value": {"tensor": {"dtype": "DT_INT32", "tensorShape": {"dim": [{"size": "2"}]}}}}}, {"name": "generator/G_MODEL/b2/SeparableConv2d_2/InstanceNorm/instancenorm/add/y", "op": "Const", "attr": {"value": {"tensor": {"dtype": "DT_FLOAT", "tensorShape": {}}}, "dtype": {"type": "DT_FLOAT"}}}, {"name": "generator/G_MODEL/b2/SeparableConv2d_2/InstanceNorm/gamma", "op": "Const", "attr": {"value": {"tensor": {"dtype": "DT_FLOAT", "tensorShape": {"dim": [{"size": "256"}]}}}, "dtype": {"type": "DT_FLOAT"}}}, {"name": "generator/G_MODEL/m/MirrorPad/paddings", "op": "Const", "attr": {"dtype": {"type": "DT_INT32"}, "value": {"tensor": {"dtype": "DT_INT32", "tensorShape": {"dim": [{"size": "4"}, {"size": "2"}]}}}}}, {"name": "generator/G_MODEL/m/Conv/weights", "op": "Const", "attr": {"dtype": {"type": "DT_FLOAT"}, "value": {"tensor": {"dtype": "DT_FLOAT", "tensorShape": {"dim": [{"size": "3"}, {"size": "3"}, {"size": "256"}, {"size": "256"}]}}}}}, {"name": "generator/G_MODEL/m/InstanceNorm/moments/mean/reduction_indices", "op": "Const", "attr": {"dtype": {"type": "DT_INT32"}, "value": {"tensor": {"dtype": "DT_INT32", "tensorShape": {"dim": [{"size": "2"}]}}}}}, {"name": "generator/G_MODEL/m/InstanceNorm/moments/variance/reduction_indices", "op": "Const", "attr": {"dtype": {"type": "DT_INT32"}, "value": {"tensor": {"dtype": "DT_INT32", "tensorShape": {"dim": [{"size": "2"}]}}}}}, {"name": "generator/G_MODEL/m/InstanceNorm/instancenorm/add/y", "op": "Const", "attr": {"value": {"tensor": {"dtype": "DT_FLOAT", "tensorShape": {}}}, "dtype": {"type": "DT_FLOAT"}}}, {"name": "generator/G_MODEL/m/InstanceNorm/gamma", "op": "Const", "attr": {"value": {"tensor": {"dtype": "DT_FLOAT", "tensorShape": {"dim": [{"size": "256"}]}}}, "dtype": {"type": "DT_FLOAT"}}}, {"name": "generator/G_MODEL/m/r1/Conv/weights", "op": "Const", "attr": {"value": {"tensor": {"dtype": "DT_FLOAT", "tensorShape": {"dim": [{"size": "1"}, {"size": "1"}, {"size": "256"}, {"size": "512"}]}}}, "dtype": {"type": "DT_FLOAT"}}}, {"name": "generator/G_MODEL/m/r1/InstanceNorm/moments/mean/reduction_indices", "op": "Const", "attr": {"value": {"tensor": {"dtype": "DT_INT32", "tensorShape": {"dim": [{"size": "2"}]}}}, "dtype": {"type": "DT_INT32"}}}, {"name": "generator/G_MODEL/m/r1/InstanceNorm/moments/variance/reduction_indices", "op": "Const", "attr": {"value": {"tensor": {"dtype": "DT_INT32", "tensorShape": {"dim": [{"size": "2"}]}}}, "dtype": {"type": "DT_INT32"}}}, {"name": "generator/G_MODEL/m/r1/InstanceNorm/instancenorm/add/y", "op": "Const", "attr": {"value": {"tensor": {"dtype": "DT_FLOAT", "tensorShape": {}}}, "dtype": {"type": "DT_FLOAT"}}}, {"name": "generator/G_MODEL/m/r1/InstanceNorm/gamma", "op": "Const", "attr": {"value": {"tensor": {"dtype": "DT_FLOAT", "tensorShape": {"dim": [{"size": "512"}]}}}, "dtype": {"type": "DT_FLOAT"}}}, {"name": "generator/G_MODEL/m/r1/MirrorPad/paddings", "op": "Const", "attr": {"value": {"tensor": {"dtype": "DT_INT32", "tensorShape": {"dim": [{"size": "4"}, {"size": "2"}]}}}, "dtype": {"type": "DT_INT32"}}}, {"name": "generator/G_MODEL/m/r1/r1/w", "op": "Const", "attr": {"dtype": {"type": "DT_FLOAT"}, "value": {"tensor": {"dtype": "DT_FLOAT", "tensorShape": {"dim": [{"size": "3"}, {"size": "3"}, {"size": "512"}, {"size": "1"}]}}}}}, {"name": "generator/G_MODEL/m/r1/1/moments/mean/reduction_indices", "op": "Const", "attr": {"value": {"tensor": {"dtype": "DT_INT32", "tensorShape": {"dim": [{"size": "2"}]}}}, "dtype": {"type": "DT_INT32"}}}, {"name": "generator/G_MODEL/m/r1/1/moments/variance/reduction_indices", "op": "Const", "attr": {"value": {"tensor": {"dtype": "DT_INT32", "tensorShape": {"dim": [{"size": "2"}]}}}, "dtype": {"type": "DT_INT32"}}}, {"name": "generator/G_MODEL/m/r1/1/instancenorm/add/y", "op": "Const", "attr": {"dtype": {"type": "DT_FLOAT"}, "value": {"tensor": {"dtype": "DT_FLOAT", "tensorShape": {}}}}}, {"name": "generator/G_MODEL/m/r1/1/gamma", "op": "Const", "attr": {"value": {"tensor": {"dtype": "DT_FLOAT", "tensorShape": {"dim": [{"size": "512"}]}}}, "dtype": {"type": "DT_FLOAT"}}}, {"name": "generator/G_MODEL/m/r1/Conv_1/weights", "op": "Const", "attr": {"value": {"tensor": {"dtype": "DT_FLOAT", "tensorShape": {"dim": [{"size": "1"}, {"size": "1"}, {"size": "512"}, {"size": "256"}]}}}, "dtype": {"type": "DT_FLOAT"}}}, {"name": "generator/G_MODEL/m/r1/2/moments/mean/reduction_indices", "op": "Const", "attr": {"value": {"tensor": {"dtype": "DT_INT32", "tensorShape": {"dim": [{"size": "2"}]}}}, "dtype": {"type": "DT_INT32"}}}, {"name": "generator/G_MODEL/m/r1/2/moments/variance/reduction_indices", "op": "Const", "attr": {"dtype": {"type": "DT_INT32"}, "value": {"tensor": {"dtype": "DT_INT32", "tensorShape": {"dim": [{"size": "2"}]}}}}}, {"name": "generator/G_MODEL/m/r1/2/instancenorm/add/y", "op": "Const", "attr": {"value": {"tensor": {"dtype": "DT_FLOAT", "tensorShape": {}}}, "dtype": {"type": "DT_FLOAT"}}}, {"name": "generator/G_MODEL/m/r1/2/gamma", "op": "Const", "attr": {"dtype": {"type": "DT_FLOAT"}, "value": {"tensor": {"dtype": "DT_FLOAT", "tensorShape": {"dim": [{"size": "256"}]}}}}}, {"name": "generator/G_MODEL/m/r2/Conv/weights", "op": "Const", "attr": {"value": {"tensor": {"dtype": "DT_FLOAT", "tensorShape": {"dim": [{"size": "1"}, {"size": "1"}, {"size": "256"}, {"size": "512"}]}}}, "dtype": {"type": "DT_FLOAT"}}}, {"name": "generator/G_MODEL/m/r2/InstanceNorm/moments/mean/reduction_indices", "op": "Const", "attr": {"value": {"tensor": {"dtype": "DT_INT32", "tensorShape": {"dim": [{"size": "2"}]}}}, "dtype": {"type": "DT_INT32"}}}, {"name": "generator/G_MODEL/m/r2/InstanceNorm/moments/variance/reduction_indices", "op": "Const", "attr": {"dtype": {"type": "DT_INT32"}, "value": {"tensor": {"dtype": "DT_INT32", "tensorShape": {"dim": [{"size": "2"}]}}}}}, {"name": "generator/G_MODEL/m/r2/InstanceNorm/instancenorm/add/y", "op": "Const", "attr": {"dtype": {"type": "DT_FLOAT"}, "value": {"tensor": {"dtype": "DT_FLOAT", "tensorShape": {}}}}}, {"name": "generator/G_MODEL/m/r2/InstanceNorm/gamma", "op": "Const", "attr": {"dtype": {"type": "DT_FLOAT"}, "value": {"tensor": {"dtype": "DT_FLOAT", "tensorShape": {"dim": [{"size": "512"}]}}}}}, {"name": "generator/G_MODEL/m/r2/MirrorPad/paddings", "op": "Const", "attr": {"dtype": {"type": "DT_INT32"}, "value": {"tensor": {"dtype": "DT_INT32", "tensorShape": {"dim": [{"size": "4"}, {"size": "2"}]}}}}}, {"name": "generator/G_MODEL/m/r2/r2/w", "op": "Const", "attr": {"value": {"tensor": {"dtype": "DT_FLOAT", "tensorShape": {"dim": [{"size": "3"}, {"size": "3"}, {"size": "512"}, {"size": "1"}]}}}, "dtype": {"type": "DT_FLOAT"}}}, {"name": "generator/G_MODEL/m/r2/1/moments/mean/reduction_indices", "op": "Const", "attr": {"dtype": {"type": "DT_INT32"}, "value": {"tensor": {"dtype": "DT_INT32", "tensorShape": {"dim": [{"size": "2"}]}}}}}, {"name": "generator/G_MODEL/m/r2/1/moments/variance/reduction_indices", "op": "Const", "attr": {"dtype": {"type": "DT_INT32"}, "value": {"tensor": {"dtype": "DT_INT32", "tensorShape": {"dim": [{"size": "2"}]}}}}}, {"name": "generator/G_MODEL/m/r2/1/instancenorm/add/y", "op": "Const", "attr": {"value": {"tensor": {"dtype": "DT_FLOAT", "tensorShape": {}}}, "dtype": {"type": "DT_FLOAT"}}}, {"name": "generator/G_MODEL/m/r2/1/gamma", "op": "Const", "attr": {"dtype": {"type": "DT_FLOAT"}, "value": {"tensor": {"dtype": "DT_FLOAT", "tensorShape": {"dim": [{"size": "512"}]}}}}}, {"name": "generator/G_MODEL/m/r2/Conv_1/weights", "op": "Const", "attr": {"value": {"tensor": {"dtype": "DT_FLOAT", "tensorShape": {"dim": [{"size": "1"}, {"size": "1"}, {"size": "512"}, {"size": "256"}]}}}, "dtype": {"type": "DT_FLOAT"}}}, {"name": "generator/G_MODEL/m/r2/2/moments/mean/reduction_indices", "op": "Const", "attr": {"dtype": {"type": "DT_INT32"}, "value": {"tensor": {"dtype": "DT_INT32", "tensorShape": {"dim": [{"size": "2"}]}}}}}, {"name": "generator/G_MODEL/m/r2/2/moments/variance/reduction_indices", "op": "Const", "attr": {"dtype": {"type": "DT_INT32"}, "value": {"tensor": {"dtype": "DT_INT32", "tensorShape": {"dim": [{"size": "2"}]}}}}}, {"name": "generator/G_MODEL/m/r2/2/instancenorm/add/y", "op": "Const", "attr": {"value": {"tensor": {"dtype": "DT_FLOAT", "tensorShape": {}}}, "dtype": {"type": "DT_FLOAT"}}}, {"name": "generator/G_MODEL/m/r2/2/gamma", "op": "Const", "attr": {"dtype": {"type": "DT_FLOAT"}, "value": {"tensor": {"dtype": "DT_FLOAT", "tensorShape": {"dim": [{"size": "256"}]}}}}}, {"name": "generator/G_MODEL/m/r3/Conv/weights", "op": "Const", "attr": {"dtype": {"type": "DT_FLOAT"}, "value": {"tensor": {"dtype": "DT_FLOAT", "tensorShape": {"dim": [{"size": "1"}, {"size": "1"}, {"size": "256"}, {"size": "512"}]}}}}}, {"name": "generator/G_MODEL/m/r3/InstanceNorm/moments/mean/reduction_indices", "op": "Const", "attr": {"value": {"tensor": {"dtype": "DT_INT32", "tensorShape": {"dim": [{"size": "2"}]}}}, "dtype": {"type": "DT_INT32"}}}, {"name": "generator/G_MODEL/m/r3/InstanceNorm/moments/variance/reduction_indices", "op": "Const", "attr": {"dtype": {"type": "DT_INT32"}, "value": {"tensor": {"dtype": "DT_INT32", "tensorShape": {"dim": [{"size": "2"}]}}}}}, {"name": "generator/G_MODEL/m/r3/InstanceNorm/instancenorm/add/y", "op": "Const", "attr": {"value": {"tensor": {"dtype": "DT_FLOAT", "tensorShape": {}}}, "dtype": {"type": "DT_FLOAT"}}}, {"name": "generator/G_MODEL/m/r3/InstanceNorm/gamma", "op": "Const", "attr": {"value": {"tensor": {"dtype": "DT_FLOAT", "tensorShape": {"dim": [{"size": "512"}]}}}, "dtype": {"type": "DT_FLOAT"}}}, {"name": "generator/G_MODEL/m/r3/MirrorPad/paddings", "op": "Const", "attr": {"value": {"tensor": {"dtype": "DT_INT32", "tensorShape": {"dim": [{"size": "4"}, {"size": "2"}]}}}, "dtype": {"type": "DT_INT32"}}}, {"name": "generator/G_MODEL/m/r3/r3/w", "op": "Const", "attr": {"dtype": {"type": "DT_FLOAT"}, "value": {"tensor": {"dtype": "DT_FLOAT", "tensorShape": {"dim": [{"size": "3"}, {"size": "3"}, {"size": "512"}, {"size": "1"}]}}}}}, {"name": "generator/G_MODEL/m/r3/1/moments/mean/reduction_indices", "op": "Const", "attr": {"dtype": {"type": "DT_INT32"}, "value": {"tensor": {"dtype": "DT_INT32", "tensorShape": {"dim": [{"size": "2"}]}}}}}, {"name": "generator/G_MODEL/m/r3/1/moments/variance/reduction_indices", "op": "Const", "attr": {"dtype": {"type": "DT_INT32"}, "value": {"tensor": {"dtype": "DT_INT32", "tensorShape": {"dim": [{"size": "2"}]}}}}}, {"name": "generator/G_MODEL/m/r3/1/instancenorm/add/y", "op": "Const", "attr": {"value": {"tensor": {"dtype": "DT_FLOAT", "tensorShape": {}}}, "dtype": {"type": "DT_FLOAT"}}}, {"name": "generator/G_MODEL/m/r3/1/gamma", "op": "Const", "attr": {"dtype": {"type": "DT_FLOAT"}, "value": {"tensor": {"dtype": "DT_FLOAT", "tensorShape": {"dim": [{"size": "512"}]}}}}}, {"name": "generator/G_MODEL/m/r3/Conv_1/weights", "op": "Const", "attr": {"dtype": {"type": "DT_FLOAT"}, "value": {"tensor": {"dtype": "DT_FLOAT", "tensorShape": {"dim": [{"size": "1"}, {"size": "1"}, {"size": "512"}, {"size": "256"}]}}}}}, {"name": "generator/G_MODEL/m/r3/2/moments/mean/reduction_indices", "op": "Const", "attr": {"value": {"tensor": {"dtype": "DT_INT32", "tensorShape": {"dim": [{"size": "2"}]}}}, "dtype": {"type": "DT_INT32"}}}, {"name": "generator/G_MODEL/m/r3/2/moments/variance/reduction_indices", "op": "Const", "attr": {"value": {"tensor": {"dtype": "DT_INT32", "tensorShape": {"dim": [{"size": "2"}]}}}, "dtype": {"type": "DT_INT32"}}}, {"name": "generator/G_MODEL/m/r3/2/instancenorm/add/y", "op": "Const", "attr": {"dtype": {"type": "DT_FLOAT"}, "value": {"tensor": {"dtype": "DT_FLOAT", "tensorShape": {}}}}}, {"name": "generator/G_MODEL/m/r3/2/gamma", "op": "Const", "attr": {"dtype": {"type": "DT_FLOAT"}, "value": {"tensor": {"dtype": "DT_FLOAT", "tensorShape": {"dim": [{"size": "256"}]}}}}}, {"name": "generator/G_MODEL/m/r4/Conv/weights", "op": "Const", "attr": {"dtype": {"type": "DT_FLOAT"}, "value": {"tensor": {"dtype": "DT_FLOAT", "tensorShape": {"dim": [{"size": "1"}, {"size": "1"}, {"size": "256"}, {"size": "512"}]}}}}}, {"name": "generator/G_MODEL/m/r4/InstanceNorm/moments/mean/reduction_indices", "op": "Const", "attr": {"value": {"tensor": {"dtype": "DT_INT32", "tensorShape": {"dim": [{"size": "2"}]}}}, "dtype": {"type": "DT_INT32"}}}, {"name": "generator/G_MODEL/m/r4/InstanceNorm/moments/variance/reduction_indices", "op": "Const", "attr": {"dtype": {"type": "DT_INT32"}, "value": {"tensor": {"dtype": "DT_INT32", "tensorShape": {"dim": [{"size": "2"}]}}}}}, {"name": "generator/G_MODEL/m/r4/InstanceNorm/instancenorm/add/y", "op": "Const", "attr": {"value": {"tensor": {"dtype": "DT_FLOAT", "tensorShape": {}}}, "dtype": {"type": "DT_FLOAT"}}}, {"name": "generator/G_MODEL/m/r4/InstanceNorm/gamma", "op": "Const", "attr": {"dtype": {"type": "DT_FLOAT"}, "value": {"tensor": {"dtype": "DT_FLOAT", "tensorShape": {"dim": [{"size": "512"}]}}}}}, {"name": "generator/G_MODEL/m/r4/MirrorPad/paddings", "op": "Const", "attr": {"value": {"tensor": {"dtype": "DT_INT32", "tensorShape": {"dim": [{"size": "4"}, {"size": "2"}]}}}, "dtype": {"type": "DT_INT32"}}}, {"name": "generator/G_MODEL/m/r4/r4/w", "op": "Const", "attr": {"value": {"tensor": {"dtype": "DT_FLOAT", "tensorShape": {"dim": [{"size": "3"}, {"size": "3"}, {"size": "512"}, {"size": "1"}]}}}, "dtype": {"type": "DT_FLOAT"}}}, {"name": "generator/G_MODEL/m/r4/1/moments/mean/reduction_indices", "op": "Const", "attr": {"dtype": {"type": "DT_INT32"}, "value": {"tensor": {"dtype": "DT_INT32", "tensorShape": {"dim": [{"size": "2"}]}}}}}, {"name": "generator/G_MODEL/m/r4/1/moments/variance/reduction_indices", "op": "Const", "attr": {"value": {"tensor": {"dtype": "DT_INT32", "tensorShape": {"dim": [{"size": "2"}]}}}, "dtype": {"type": "DT_INT32"}}}, {"name": "generator/G_MODEL/m/r4/1/instancenorm/add/y", "op": "Const", "attr": {"value": {"tensor": {"dtype": "DT_FLOAT", "tensorShape": {}}}, "dtype": {"type": "DT_FLOAT"}}}, {"name": "generator/G_MODEL/m/r4/1/gamma", "op": "Const", "attr": {"value": {"tensor": {"dtype": "DT_FLOAT", "tensorShape": {"dim": [{"size": "512"}]}}}, "dtype": {"type": "DT_FLOAT"}}}, {"name": "generator/G_MODEL/m/r4/Conv_1/weights", "op": "Const", "attr": {"value": {"tensor": {"dtype": "DT_FLOAT", "tensorShape": {"dim": [{"size": "1"}, {"size": "1"}, {"size": "512"}, {"size": "256"}]}}}, "dtype": {"type": "DT_FLOAT"}}}, {"name": "generator/G_MODEL/m/r4/2/moments/mean/reduction_indices", "op": "Const", "attr": {"value": {"tensor": {"dtype": "DT_INT32", "tensorShape": {"dim": [{"size": "2"}]}}}, "dtype": {"type": "DT_INT32"}}}, {"name": "generator/G_MODEL/m/r4/2/moments/variance/reduction_indices", "op": "Const", "attr": {"dtype": {"type": "DT_INT32"}, "value": {"tensor": {"dtype": "DT_INT32", "tensorShape": {"dim": [{"size": "2"}]}}}}}, {"name": "generator/G_MODEL/m/r4/2/instancenorm/add/y", "op": "Const", "attr": {"dtype": {"type": "DT_FLOAT"}, "value": {"tensor": {"dtype": "DT_FLOAT", "tensorShape": {}}}}}, {"name": "generator/G_MODEL/m/r4/2/gamma", "op": "Const", "attr": {"value": {"tensor": {"dtype": "DT_FLOAT", "tensorShape": {"dim": [{"size": "256"}]}}}, "dtype": {"type": "DT_FLOAT"}}}, {"name": "generator/G_MODEL/m/r5/Conv/weights", "op": "Const", "attr": {"dtype": {"type": "DT_FLOAT"}, "value": {"tensor": {"dtype": "DT_FLOAT", "tensorShape": {"dim": [{"size": "1"}, {"size": "1"}, {"size": "256"}, {"size": "512"}]}}}}}, {"name": "generator/G_MODEL/m/r5/InstanceNorm/moments/mean/reduction_indices", "op": "Const", "attr": {"dtype": {"type": "DT_INT32"}, "value": {"tensor": {"dtype": "DT_INT32", "tensorShape": {"dim": [{"size": "2"}]}}}}}, {"name": "generator/G_MODEL/m/r5/InstanceNorm/moments/variance/reduction_indices", "op": "Const", "attr": {"value": {"tensor": {"dtype": "DT_INT32", "tensorShape": {"dim": [{"size": "2"}]}}}, "dtype": {"type": "DT_INT32"}}}, {"name": "generator/G_MODEL/m/r5/InstanceNorm/instancenorm/add/y", "op": "Const", "attr": {"value": {"tensor": {"dtype": "DT_FLOAT", "tensorShape": {}}}, "dtype": {"type": "DT_FLOAT"}}}, {"name": "generator/G_MODEL/m/r5/InstanceNorm/gamma", "op": "Const", "attr": {"dtype": {"type": "DT_FLOAT"}, "value": {"tensor": {"dtype": "DT_FLOAT", "tensorShape": {"dim": [{"size": "512"}]}}}}}, {"name": "generator/G_MODEL/m/r5/MirrorPad/paddings", "op": "Const", "attr": {"dtype": {"type": "DT_INT32"}, "value": {"tensor": {"dtype": "DT_INT32", "tensorShape": {"dim": [{"size": "4"}, {"size": "2"}]}}}}}, {"name": "generator/G_MODEL/m/r5/r5/w", "op": "Const", "attr": {"value": {"tensor": {"dtype": "DT_FLOAT", "tensorShape": {"dim": [{"size": "3"}, {"size": "3"}, {"size": "512"}, {"size": "1"}]}}}, "dtype": {"type": "DT_FLOAT"}}}, {"name": "generator/G_MODEL/m/r5/1/moments/mean/reduction_indices", "op": "Const", "attr": {"dtype": {"type": "DT_INT32"}, "value": {"tensor": {"dtype": "DT_INT32", "tensorShape": {"dim": [{"size": "2"}]}}}}}, {"name": "generator/G_MODEL/m/r5/1/moments/variance/reduction_indices", "op": "Const", "attr": {"dtype": {"type": "DT_INT32"}, "value": {"tensor": {"dtype": "DT_INT32", "tensorShape": {"dim": [{"size": "2"}]}}}}}, {"name": "generator/G_MODEL/m/r5/1/instancenorm/add/y", "op": "Const", "attr": {"value": {"tensor": {"dtype": "DT_FLOAT", "tensorShape": {}}}, "dtype": {"type": "DT_FLOAT"}}}, {"name": "generator/G_MODEL/m/r5/1/gamma", "op": "Const", "attr": {"value": {"tensor": {"dtype": "DT_FLOAT", "tensorShape": {"dim": [{"size": "512"}]}}}, "dtype": {"type": "DT_FLOAT"}}}, {"name": "generator/G_MODEL/m/r5/Conv_1/weights", "op": "Const", "attr": {"value": {"tensor": {"dtype": "DT_FLOAT", "tensorShape": {"dim": [{"size": "1"}, {"size": "1"}, {"size": "512"}, {"size": "256"}]}}}, "dtype": {"type": "DT_FLOAT"}}}, {"name": "generator/G_MODEL/m/r5/2/moments/mean/reduction_indices", "op": "Const", "attr": {"dtype": {"type": "DT_INT32"}, "value": {"tensor": {"dtype": "DT_INT32", "tensorShape": {"dim": [{"size": "2"}]}}}}}, {"name": "generator/G_MODEL/m/r5/2/moments/variance/reduction_indices", "op": "Const", "attr": {"dtype": {"type": "DT_INT32"}, "value": {"tensor": {"dtype": "DT_INT32", "tensorShape": {"dim": [{"size": "2"}]}}}}}, {"name": "generator/G_MODEL/m/r5/2/instancenorm/add/y", "op": "Const", "attr": {"dtype": {"type": "DT_FLOAT"}, "value": {"tensor": {"dtype": "DT_FLOAT", "tensorShape": {}}}}}, {"name": "generator/G_MODEL/m/r5/2/gamma", "op": "Const", "attr": {"value": {"tensor": {"dtype": "DT_FLOAT", "tensorShape": {"dim": [{"size": "256"}]}}}, "dtype": {"type": "DT_FLOAT"}}}, {"name": "generator/G_MODEL/m/r6/Conv/weights", "op": "Const", "attr": {"value": {"tensor": {"dtype": "DT_FLOAT", "tensorShape": {"dim": [{"size": "1"}, {"size": "1"}, {"size": "256"}, {"size": "512"}]}}}, "dtype": {"type": "DT_FLOAT"}}}, {"name": "generator/G_MODEL/m/r6/InstanceNorm/moments/mean/reduction_indices", "op": "Const", "attr": {"value": {"tensor": {"dtype": "DT_INT32", "tensorShape": {"dim": [{"size": "2"}]}}}, "dtype": {"type": "DT_INT32"}}}, {"name": "generator/G_MODEL/m/r6/InstanceNorm/moments/variance/reduction_indices", "op": "Const", "attr": {"dtype": {"type": "DT_INT32"}, "value": {"tensor": {"dtype": "DT_INT32", "tensorShape": {"dim": [{"size": "2"}]}}}}}, {"name": "generator/G_MODEL/m/r6/InstanceNorm/instancenorm/add/y", "op": "Const", "attr": {"dtype": {"type": "DT_FLOAT"}, "value": {"tensor": {"dtype": "DT_FLOAT", "tensorShape": {}}}}}, {"name": "generator/G_MODEL/m/r6/InstanceNorm/gamma", "op": "Const", "attr": {"dtype": {"type": "DT_FLOAT"}, "value": {"tensor": {"dtype": "DT_FLOAT", "tensorShape": {"dim": [{"size": "512"}]}}}}}, {"name": "generator/G_MODEL/m/r6/MirrorPad/paddings", "op": "Const", "attr": {"value": {"tensor": {"dtype": "DT_INT32", "tensorShape": {"dim": [{"size": "4"}, {"size": "2"}]}}}, "dtype": {"type": "DT_INT32"}}}, {"name": "generator/G_MODEL/m/r6/r6/w", "op": "Const", "attr": {"dtype": {"type": "DT_FLOAT"}, "value": {"tensor": {"dtype": "DT_FLOAT", "tensorShape": {"dim": [{"size": "3"}, {"size": "3"}, {"size": "512"}, {"size": "1"}]}}}}}, {"name": "generator/G_MODEL/m/r6/1/moments/mean/reduction_indices", "op": "Const", "attr": {"value": {"tensor": {"dtype": "DT_INT32", "tensorShape": {"dim": [{"size": "2"}]}}}, "dtype": {"type": "DT_INT32"}}}, {"name": "generator/G_MODEL/m/r6/1/moments/variance/reduction_indices", "op": "Const", "attr": {"value": {"tensor": {"dtype": "DT_INT32", "tensorShape": {"dim": [{"size": "2"}]}}}, "dtype": {"type": "DT_INT32"}}}, {"name": "generator/G_MODEL/m/r6/1/instancenorm/add/y", "op": "Const", "attr": {"dtype": {"type": "DT_FLOAT"}, "value": {"tensor": {"dtype": "DT_FLOAT", "tensorShape": {}}}}}, {"name": "generator/G_MODEL/m/r6/1/gamma", "op": "Const", "attr": {"value": {"tensor": {"dtype": "DT_FLOAT", "tensorShape": {"dim": [{"size": "512"}]}}}, "dtype": {"type": "DT_FLOAT"}}}, {"name": "generator/G_MODEL/m/r6/Conv_1/weights", "op": "Const", "attr": {"value": {"tensor": {"dtype": "DT_FLOAT", "tensorShape": {"dim": [{"size": "1"}, {"size": "1"}, {"size": "512"}, {"size": "256"}]}}}, "dtype": {"type": "DT_FLOAT"}}}, {"name": "generator/G_MODEL/m/r6/2/moments/mean/reduction_indices", "op": "Const", "attr": {"dtype": {"type": "DT_INT32"}, "value": {"tensor": {"dtype": "DT_INT32", "tensorShape": {"dim": [{"size": "2"}]}}}}}, {"name": "generator/G_MODEL/m/r6/2/moments/variance/reduction_indices", "op": "Const", "attr": {"value": {"tensor": {"dtype": "DT_INT32", "tensorShape": {"dim": [{"size": "2"}]}}}, "dtype": {"type": "DT_INT32"}}}, {"name": "generator/G_MODEL/m/r6/2/instancenorm/add/y", "op": "Const", "attr": {"dtype": {"type": "DT_FLOAT"}, "value": {"tensor": {"dtype": "DT_FLOAT", "tensorShape": {}}}}}, {"name": "generator/G_MODEL/m/r6/2/gamma", "op": "Const", "attr": {"dtype": {"type": "DT_FLOAT"}, "value": {"tensor": {"dtype": "DT_FLOAT", "tensorShape": {"dim": [{"size": "256"}]}}}}}, {"name": "generator/G_MODEL/m/r7/Conv/weights", "op": "Const", "attr": {"dtype": {"type": "DT_FLOAT"}, "value": {"tensor": {"dtype": "DT_FLOAT", "tensorShape": {"dim": [{"size": "1"}, {"size": "1"}, {"size": "256"}, {"size": "512"}]}}}}}, {"name": "generator/G_MODEL/m/r7/InstanceNorm/moments/mean/reduction_indices", "op": "Const", "attr": {"value": {"tensor": {"dtype": "DT_INT32", "tensorShape": {"dim": [{"size": "2"}]}}}, "dtype": {"type": "DT_INT32"}}}, {"name": "generator/G_MODEL/m/r7/InstanceNorm/moments/variance/reduction_indices", "op": "Const", "attr": {"value": {"tensor": {"dtype": "DT_INT32", "tensorShape": {"dim": [{"size": "2"}]}}}, "dtype": {"type": "DT_INT32"}}}, {"name": "generator/G_MODEL/m/r7/InstanceNorm/instancenorm/add/y", "op": "Const", "attr": {"value": {"tensor": {"dtype": "DT_FLOAT", "tensorShape": {}}}, "dtype": {"type": "DT_FLOAT"}}}, {"name": "generator/G_MODEL/m/r7/InstanceNorm/gamma", "op": "Const", "attr": {"dtype": {"type": "DT_FLOAT"}, "value": {"tensor": {"dtype": "DT_FLOAT", "tensorShape": {"dim": [{"size": "512"}]}}}}}, {"name": "generator/G_MODEL/m/r7/MirrorPad/paddings", "op": "Const", "attr": {"dtype": {"type": "DT_INT32"}, "value": {"tensor": {"dtype": "DT_INT32", "tensorShape": {"dim": [{"size": "4"}, {"size": "2"}]}}}}}, {"name": "generator/G_MODEL/m/r7/r7/w", "op": "Const", "attr": {"value": {"tensor": {"dtype": "DT_FLOAT", "tensorShape": {"dim": [{"size": "3"}, {"size": "3"}, {"size": "512"}, {"size": "1"}]}}}, "dtype": {"type": "DT_FLOAT"}}}, {"name": "generator/G_MODEL/m/r7/1/moments/mean/reduction_indices", "op": "Const", "attr": {"value": {"tensor": {"dtype": "DT_INT32", "tensorShape": {"dim": [{"size": "2"}]}}}, "dtype": {"type": "DT_INT32"}}}, {"name": "generator/G_MODEL/m/r7/1/moments/variance/reduction_indices", "op": "Const", "attr": {"dtype": {"type": "DT_INT32"}, "value": {"tensor": {"dtype": "DT_INT32", "tensorShape": {"dim": [{"size": "2"}]}}}}}, {"name": "generator/G_MODEL/m/r7/1/instancenorm/add/y", "op": "Const", "attr": {"value": {"tensor": {"dtype": "DT_FLOAT", "tensorShape": {}}}, "dtype": {"type": "DT_FLOAT"}}}, {"name": "generator/G_MODEL/m/r7/1/gamma", "op": "Const", "attr": {"value": {"tensor": {"dtype": "DT_FLOAT", "tensorShape": {"dim": [{"size": "512"}]}}}, "dtype": {"type": "DT_FLOAT"}}}, {"name": "generator/G_MODEL/m/r7/Conv_1/weights", "op": "Const", "attr": {"dtype": {"type": "DT_FLOAT"}, "value": {"tensor": {"dtype": "DT_FLOAT", "tensorShape": {"dim": [{"size": "1"}, {"size": "1"}, {"size": "512"}, {"size": "256"}]}}}}}, {"name": "generator/G_MODEL/m/r7/2/moments/mean/reduction_indices", "op": "Const", "attr": {"dtype": {"type": "DT_INT32"}, "value": {"tensor": {"dtype": "DT_INT32", "tensorShape": {"dim": [{"size": "2"}]}}}}}, {"name": "generator/G_MODEL/m/r7/2/moments/variance/reduction_indices", "op": "Const", "attr": {"dtype": {"type": "DT_INT32"}, "value": {"tensor": {"dtype": "DT_INT32", "tensorShape": {"dim": [{"size": "2"}]}}}}}, {"name": "generator/G_MODEL/m/r7/2/instancenorm/add/y", "op": "Const", "attr": {"dtype": {"type": "DT_FLOAT"}, "value": {"tensor": {"dtype": "DT_FLOAT", "tensorShape": {}}}}}, {"name": "generator/G_MODEL/m/r7/2/gamma", "op": "Const", "attr": {"value": {"tensor": {"dtype": "DT_FLOAT", "tensorShape": {"dim": [{"size": "256"}]}}}, "dtype": {"type": "DT_FLOAT"}}}, {"name": "generator/G_MODEL/m/r8/Conv/weights", "op": "Const", "attr": {"value": {"tensor": {"dtype": "DT_FLOAT", "tensorShape": {"dim": [{"size": "1"}, {"size": "1"}, {"size": "256"}, {"size": "512"}]}}}, "dtype": {"type": "DT_FLOAT"}}}, {"name": "generator/G_MODEL/m/r8/InstanceNorm/moments/mean/reduction_indices", "op": "Const", "attr": {"dtype": {"type": "DT_INT32"}, "value": {"tensor": {"dtype": "DT_INT32", "tensorShape": {"dim": [{"size": "2"}]}}}}}, {"name": "generator/G_MODEL/m/r8/InstanceNorm/moments/variance/reduction_indices", "op": "Const", "attr": {"value": {"tensor": {"dtype": "DT_INT32", "tensorShape": {"dim": [{"size": "2"}]}}}, "dtype": {"type": "DT_INT32"}}}, {"name": "generator/G_MODEL/m/r8/InstanceNorm/instancenorm/add/y", "op": "Const", "attr": {"dtype": {"type": "DT_FLOAT"}, "value": {"tensor": {"dtype": "DT_FLOAT", "tensorShape": {}}}}}, {"name": "generator/G_MODEL/m/r8/InstanceNorm/gamma", "op": "Const", "attr": {"value": {"tensor": {"dtype": "DT_FLOAT", "tensorShape": {"dim": [{"size": "512"}]}}}, "dtype": {"type": "DT_FLOAT"}}}, {"name": "generator/G_MODEL/m/r8/MirrorPad/paddings", "op": "Const", "attr": {"dtype": {"type": "DT_INT32"}, "value": {"tensor": {"dtype": "DT_INT32", "tensorShape": {"dim": [{"size": "4"}, {"size": "2"}]}}}}}, {"name": "generator/G_MODEL/m/r8/r8/w", "op": "Const", "attr": {"dtype": {"type": "DT_FLOAT"}, "value": {"tensor": {"dtype": "DT_FLOAT", "tensorShape": {"dim": [{"size": "3"}, {"size": "3"}, {"size": "512"}, {"size": "1"}]}}}}}, {"name": "generator/G_MODEL/m/r8/1/moments/mean/reduction_indices", "op": "Const", "attr": {"value": {"tensor": {"dtype": "DT_INT32", "tensorShape": {"dim": [{"size": "2"}]}}}, "dtype": {"type": "DT_INT32"}}}, {"name": "generator/G_MODEL/m/r8/1/moments/variance/reduction_indices", "op": "Const", "attr": {"dtype": {"type": "DT_INT32"}, "value": {"tensor": {"dtype": "DT_INT32", "tensorShape": {"dim": [{"size": "2"}]}}}}}, {"name": "generator/G_MODEL/m/r8/1/instancenorm/add/y", "op": "Const", "attr": {"dtype": {"type": "DT_FLOAT"}, "value": {"tensor": {"dtype": "DT_FLOAT", "tensorShape": {}}}}}, {"name": "generator/G_MODEL/m/r8/1/gamma", "op": "Const", "attr": {"dtype": {"type": "DT_FLOAT"}, "value": {"tensor": {"dtype": "DT_FLOAT", "tensorShape": {"dim": [{"size": "512"}]}}}}}, {"name": "generator/G_MODEL/m/r8/Conv_1/weights", "op": "Const", "attr": {"value": {"tensor": {"dtype": "DT_FLOAT", "tensorShape": {"dim": [{"size": "1"}, {"size": "1"}, {"size": "512"}, {"size": "256"}]}}}, "dtype": {"type": "DT_FLOAT"}}}, {"name": "generator/G_MODEL/m/r8/2/moments/mean/reduction_indices", "op": "Const", "attr": {"value": {"tensor": {"dtype": "DT_INT32", "tensorShape": {"dim": [{"size": "2"}]}}}, "dtype": {"type": "DT_INT32"}}}, {"name": "generator/G_MODEL/m/r8/2/moments/variance/reduction_indices", "op": "Const", "attr": {"dtype": {"type": "DT_INT32"}, "value": {"tensor": {"dtype": "DT_INT32", "tensorShape": {"dim": [{"size": "2"}]}}}}}, {"name": "generator/G_MODEL/m/r8/2/instancenorm/add/y", "op": "Const", "attr": {"value": {"tensor": {"dtype": "DT_FLOAT", "tensorShape": {}}}, "dtype": {"type": "DT_FLOAT"}}}, {"name": "generator/G_MODEL/m/r8/2/gamma", "op": "Const", "attr": {"dtype": {"type": "DT_FLOAT"}, "value": {"tensor": {"dtype": "DT_FLOAT", "tensorShape": {"dim": [{"size": "256"}]}}}}}, {"name": "generator/G_MODEL/m/MirrorPad_1/paddings", "op": "Const", "attr": {"dtype": {"type": "DT_INT32"}, "value": {"tensor": {"dtype": "DT_INT32", "tensorShape": {"dim": [{"size": "4"}, {"size": "2"}]}}}}}, {"name": "generator/G_MODEL/m/Conv_1/weights", "op": "Const", "attr": {"value": {"tensor": {"dtype": "DT_FLOAT", "tensorShape": {"dim": [{"size": "3"}, {"size": "3"}, {"size": "256"}, {"size": "256"}]}}}, "dtype": {"type": "DT_FLOAT"}}}, {"name": "generator/G_MODEL/m/InstanceNorm_1/moments/mean/reduction_indices", "op": "Const", "attr": {"dtype": {"type": "DT_INT32"}, "value": {"tensor": {"dtype": "DT_INT32", "tensorShape": {"dim": [{"size": "2"}]}}}}}, {"name": "generator/G_MODEL/m/InstanceNorm_1/moments/variance/reduction_indices", "op": "Const", "attr": {"value": {"tensor": {"dtype": "DT_INT32", "tensorShape": {"dim": [{"size": "2"}]}}}, "dtype": {"type": "DT_INT32"}}}, {"name": "generator/G_MODEL/m/InstanceNorm_1/instancenorm/add/y", "op": "Const", "attr": {"value": {"tensor": {"dtype": "DT_FLOAT", "tensorShape": {}}}, "dtype": {"type": "DT_FLOAT"}}}, {"name": "generator/G_MODEL/m/InstanceNorm_1/gamma", "op": "Const", "attr": {"value": {"tensor": {"dtype": "DT_FLOAT", "tensorShape": {"dim": [{"size": "256"}]}}}, "dtype": {"type": "DT_FLOAT"}}}, {"name": "generator/G_MODEL/u2/strided_slice_1/stack", "op": "Const", "attr": {"value": {"tensor": {"dtype": "DT_INT32", "tensorShape": {"dim": [{"size": "1"}]}}}, "dtype": {"type": "DT_INT32"}}}, {"name": "generator/G_MODEL/u2/strided_slice_1/stack_1", "op": "Const", "attr": {"dtype": {"type": "DT_INT32"}, "value": {"tensor": {"dtype": "DT_INT32", "tensorShape": {"dim": [{"size": "1"}]}}}}}, {"name": "generator/G_MODEL/u2/strided_slice_1/stack_2", "op": "Const", "attr": {"dtype": {"type": "DT_INT32"}, "value": {"tensor": {"dtype": "DT_INT32", "tensorShape": {"dim": [{"size": "1"}]}}}}}, {"name": "generator/G_MODEL/u2/MirrorPad/paddings", "op": "Const", "attr": {"dtype": {"type": "DT_INT32"}, "value": {"tensor": {"dtype": "DT_INT32", "tensorShape": {"dim": [{"size": "4"}, {"size": "2"}]}}}}}, {"name": "generator/G_MODEL/u2/SeparableConv2d/depthwise_weights", "op": "Const", "attr": {"dtype": {"type": "DT_FLOAT"}, "value": {"tensor": {"dtype": "DT_FLOAT", "tensorShape": {"dim": [{"size": "3"}, {"size": "3"}, {"size": "256"}, {"size": "1"}]}}}}}, {"name": "generator/G_MODEL/u2/SeparableConv2d/pointwise_weights", "op": "Const", "attr": {"value": {"tensor": {"dtype": "DT_FLOAT", "tensorShape": {"dim": [{"size": "1"}, {"size": "1"}, {"size": "256"}, {"size": "128"}]}}}, "dtype": {"type": "DT_FLOAT"}}}, {"name": "generator/G_MODEL/u2/SeparableConv2d/InstanceNorm/moments/mean/reduction_indices", "op": "Const", "attr": {"value": {"tensor": {"dtype": "DT_INT32", "tensorShape": {"dim": [{"size": "2"}]}}}, "dtype": {"type": "DT_INT32"}}}, {"name": "generator/G_MODEL/u2/SeparableConv2d/InstanceNorm/moments/variance/reduction_indices", "op": "Const", "attr": {"dtype": {"type": "DT_INT32"}, "value": {"tensor": {"dtype": "DT_INT32", "tensorShape": {"dim": [{"size": "2"}]}}}}}, {"name": "generator/G_MODEL/u2/SeparableConv2d/InstanceNorm/instancenorm/add/y", "op": "Const", "attr": {"dtype": {"type": "DT_FLOAT"}, "value": {"tensor": {"dtype": "DT_FLOAT", "tensorShape": {}}}}}, {"name": "generator/G_MODEL/u2/SeparableConv2d/InstanceNorm/gamma", "op": "Const", "attr": {"dtype": {"type": "DT_FLOAT"}, "value": {"tensor": {"dtype": "DT_FLOAT", "tensorShape": {"dim": [{"size": "128"}]}}}}}, {"name": "generator/G_MODEL/u2/MirrorPad_1/paddings", "op": "Const", "attr": {"dtype": {"type": "DT_INT32"}, "value": {"tensor": {"dtype": "DT_INT32", "tensorShape": {"dim": [{"size": "4"}, {"size": "2"}]}}}}}, {"name": "generator/G_MODEL/u2/SeparableConv2d_1/depthwise_weights", "op": "Const", "attr": {"value": {"tensor": {"dtype": "DT_FLOAT", "tensorShape": {"dim": [{"size": "3"}, {"size": "3"}, {"size": "128"}, {"size": "1"}]}}}, "dtype": {"type": "DT_FLOAT"}}}, {"name": "generator/G_MODEL/u2/SeparableConv2d_1/pointwise_weights", "op": "Const", "attr": {"value": {"tensor": {"dtype": "DT_FLOAT", "tensorShape": {"dim": [{"size": "1"}, {"size": "1"}, {"size": "128"}, {"size": "128"}]}}}, "dtype": {"type": "DT_FLOAT"}}}, {"name": "generator/G_MODEL/u2/SeparableConv2d_1/InstanceNorm/moments/mean/reduction_indices", "op": "Const", "attr": {"dtype": {"type": "DT_INT32"}, "value": {"tensor": {"dtype": "DT_INT32", "tensorShape": {"dim": [{"size": "2"}]}}}}}, {"name": "generator/G_MODEL/u2/SeparableConv2d_1/InstanceNorm/moments/variance/reduction_indices", "op": "Const", "attr": {"value": {"tensor": {"dtype": "DT_INT32", "tensorShape": {"dim": [{"size": "2"}]}}}, "dtype": {"type": "DT_INT32"}}}, {"name": "generator/G_MODEL/u2/SeparableConv2d_1/InstanceNorm/instancenorm/add/y", "op": "Const", "attr": {"value": {"tensor": {"dtype": "DT_FLOAT", "tensorShape": {}}}, "dtype": {"type": "DT_FLOAT"}}}, {"name": "generator/G_MODEL/u2/SeparableConv2d_1/InstanceNorm/gamma", "op": "Const", "attr": {"dtype": {"type": "DT_FLOAT"}, "value": {"tensor": {"dtype": "DT_FLOAT", "tensorShape": {"dim": [{"size": "128"}]}}}}}, {"name": "generator/G_MODEL/u2/MirrorPad_2/paddings", "op": "Const", "attr": {"value": {"tensor": {"dtype": "DT_INT32", "tensorShape": {"dim": [{"size": "4"}, {"size": "2"}]}}}, "dtype": {"type": "DT_INT32"}}}, {"name": "generator/G_MODEL/u2/Conv/weights", "op": "Const", "attr": {"value": {"tensor": {"dtype": "DT_FLOAT", "tensorShape": {"dim": [{"size": "3"}, {"size": "3"}, {"size": "128"}, {"size": "128"}]}}}, "dtype": {"type": "DT_FLOAT"}}}, {"name": "generator/G_MODEL/u2/InstanceNorm/moments/mean/reduction_indices", "op": "Const", "attr": {"dtype": {"type": "DT_INT32"}, "value": {"tensor": {"dtype": "DT_INT32", "tensorShape": {"dim": [{"size": "2"}]}}}}}, {"name": "generator/G_MODEL/u2/InstanceNorm/moments/variance/reduction_indices", "op": "Const", "attr": {"dtype": {"type": "DT_INT32"}, "value": {"tensor": {"dtype": "DT_INT32", "tensorShape": {"dim": [{"size": "2"}]}}}}}, {"name": "generator/G_MODEL/u2/InstanceNorm/instancenorm/add/y", "op": "Const", "attr": {"dtype": {"type": "DT_FLOAT"}, "value": {"tensor": {"dtype": "DT_FLOAT", "tensorShape": {}}}}}, {"name": "generator/G_MODEL/u2/InstanceNorm/gamma", "op": "Const", "attr": {"dtype": {"type": "DT_FLOAT"}, "value": {"tensor": {"dtype": "DT_FLOAT", "tensorShape": {"dim": [{"size": "128"}]}}}}}, {"name": "generator/G_MODEL/u1/strided_slice_1/stack", "op": "Const", "attr": {"dtype": {"type": "DT_INT32"}, "value": {"tensor": {"dtype": "DT_INT32", "tensorShape": {"dim": [{"size": "1"}]}}}}}, {"name": "generator/G_MODEL/u1/strided_slice_1/stack_1", "op": "Const", "attr": {"dtype": {"type": "DT_INT32"}, "value": {"tensor": {"dtype": "DT_INT32", "tensorShape": {"dim": [{"size": "1"}]}}}}}, {"name": "generator/G_MODEL/u1/strided_slice_1/stack_2", "op": "Const", "attr": {"value": {"tensor": {"dtype": "DT_INT32", "tensorShape": {"dim": [{"size": "1"}]}}}, "dtype": {"type": "DT_INT32"}}}, {"name": "generator/G_MODEL/u1/MirrorPad/paddings", "op": "Const", "attr": {"dtype": {"type": "DT_INT32"}, "value": {"tensor": {"dtype": "DT_INT32", "tensorShape": {"dim": [{"size": "4"}, {"size": "2"}]}}}}}, {"name": "generator/G_MODEL/u1/SeparableConv2d/depthwise_weights", "op": "Const", "attr": {"dtype": {"type": "DT_FLOAT"}, "value": {"tensor": {"dtype": "DT_FLOAT", "tensorShape": {"dim": [{"size": "3"}, {"size": "3"}, {"size": "128"}, {"size": "1"}]}}}}}, {"name": "generator/G_MODEL/u1/SeparableConv2d/pointwise_weights", "op": "Const", "attr": {"dtype": {"type": "DT_FLOAT"}, "value": {"tensor": {"dtype": "DT_FLOAT", "tensorShape": {"dim": [{"size": "1"}, {"size": "1"}, {"size": "128"}, {"size": "128"}]}}}}}, {"name": "generator/G_MODEL/u1/SeparableConv2d/InstanceNorm/moments/mean/reduction_indices", "op": "Const", "attr": {"value": {"tensor": {"dtype": "DT_INT32", "tensorShape": {"dim": [{"size": "2"}]}}}, "dtype": {"type": "DT_INT32"}}}, {"name": "generator/G_MODEL/u1/SeparableConv2d/InstanceNorm/moments/variance/reduction_indices", "op": "Const", "attr": {"dtype": {"type": "DT_INT32"}, "value": {"tensor": {"dtype": "DT_INT32", "tensorShape": {"dim": [{"size": "2"}]}}}}}, {"name": "generator/G_MODEL/u1/SeparableConv2d/InstanceNorm/instancenorm/add/y", "op": "Const", "attr": {"dtype": {"type": "DT_FLOAT"}, "value": {"tensor": {"dtype": "DT_FLOAT", "tensorShape": {}}}}}, {"name": "generator/G_MODEL/u1/SeparableConv2d/InstanceNorm/gamma", "op": "Const", "attr": {"value": {"tensor": {"dtype": "DT_FLOAT", "tensorShape": {"dim": [{"size": "128"}]}}}, "dtype": {"type": "DT_FLOAT"}}}, {"name": "generator/G_MODEL/u1/MirrorPad_1/paddings", "op": "Const", "attr": {"value": {"tensor": {"dtype": "DT_INT32", "tensorShape": {"dim": [{"size": "4"}, {"size": "2"}]}}}, "dtype": {"type": "DT_INT32"}}}, {"name": "generator/G_MODEL/u1/Conv/weights", "op": "Const", "attr": {"dtype": {"type": "DT_FLOAT"}, "value": {"tensor": {"dtype": "DT_FLOAT", "tensorShape": {"dim": [{"size": "3"}, {"size": "3"}, {"size": "128"}, {"size": "64"}]}}}}}, {"name": "generator/G_MODEL/u1/InstanceNorm/moments/mean/reduction_indices", "op": "Const", "attr": {"dtype": {"type": "DT_INT32"}, "value": {"tensor": {"dtype": "DT_INT32", "tensorShape": {"dim": [{"size": "2"}]}}}}}, {"name": "generator/G_MODEL/u1/InstanceNorm/moments/variance/reduction_indices", "op": "Const", "attr": {"value": {"tensor": {"dtype": "DT_INT32", "tensorShape": {"dim": [{"size": "2"}]}}}, "dtype": {"type": "DT_INT32"}}}, {"name": "generator/G_MODEL/u1/InstanceNorm/instancenorm/add/y", "op": "Const", "attr": {"dtype": {"type": "DT_FLOAT"}, "value": {"tensor": {"dtype": "DT_FLOAT", "tensorShape": {}}}}}, {"name": "generator/G_MODEL/u1/InstanceNorm/gamma", "op": "Const", "attr": {"dtype": {"type": "DT_FLOAT"}, "value": {"tensor": {"dtype": "DT_FLOAT", "tensorShape": {"dim": [{"size": "64"}]}}}}}, {"name": "generator/G_MODEL/u1/MirrorPad_2/paddings", "op": "Const", "attr": {"dtype": {"type": "DT_INT32"}, "value": {"tensor": {"dtype": "DT_INT32", "tensorShape": {"dim": [{"size": "4"}, {"size": "2"}]}}}}}, {"name": "generator/G_MODEL/u1/Conv_1/weights", "op": "Const", "attr": {"value": {"tensor": {"dtype": "DT_FLOAT", "tensorShape": {"dim": [{"size": "3"}, {"size": "3"}, {"size": "64"}, {"size": "64"}]}}}, "dtype": {"type": "DT_FLOAT"}}}, {"name": "generator/G_MODEL/u1/InstanceNorm_1/moments/mean/reduction_indices", "op": "Const", "attr": {"value": {"tensor": {"dtype": "DT_INT32", "tensorShape": {"dim": [{"size": "2"}]}}}, "dtype": {"type": "DT_INT32"}}}, {"name": "generator/G_MODEL/u1/InstanceNorm_1/moments/variance/reduction_indices", "op": "Const", "attr": {"value": {"tensor": {"dtype": "DT_INT32", "tensorShape": {"dim": [{"size": "2"}]}}}, "dtype": {"type": "DT_INT32"}}}, {"name": "generator/G_MODEL/u1/InstanceNorm_1/instancenorm/add/y", "op": "Const", "attr": {"value": {"tensor": {"dtype": "DT_FLOAT", "tensorShape": {}}}, "dtype": {"type": "DT_FLOAT"}}}, {"name": "generator/G_MODEL/u1/InstanceNorm_1/gamma", "op": "Const", "attr": {"value": {"tensor": {"dtype": "DT_FLOAT", "tensorShape": {"dim": [{"size": "64"}]}}}, "dtype": {"type": "DT_FLOAT"}}}, {"name": "generator/G_MODEL/Conv/weights", "op": "Const", "attr": {"dtype": {"type": "DT_FLOAT"}, "value": {"tensor": {"dtype": "DT_FLOAT", "tensorShape": {"dim": [{"size": "1"}, {"size": "1"}, {"size": "64"}, {"size": "3"}]}}}}}, {"name": "generator_input", "op": "Placeholder", "attr": {"shape": {"shape": {"dim": [{"size": "1"}, {"size": "-1"}, {"size": "-1"}, {"size": "3"}]}}, "dtype": {"type": "DT_FLOAT"}}}, {"name": "generator/G_MODEL/b1/MirrorPad", "op": "MirrorPad", "input": ["generator_input", "generator/G_MODEL/b1/MirrorPad/paddings"], "attr": {"T": {"type": "DT_FLOAT"}, "mode": {"s": "UkVGTEVDVA=="}, "Tpaddings": {"type": "DT_INT32"}}}, {"name": "generator/G_MODEL/b1/Conv/Conv2D", "op": "Conv2D", "input": ["generator/G_MODEL/b1/MirrorPad", "generator/G_MODEL/b1/Conv/weights"], "device": "/device:CPU:0", "attr": {"strides": {"list": {"i": ["1", "1", "1", "1"]}}, "padding": {"s": "VkFMSUQ="}, "explicit_paddings": {"list": {}}, "data_format": {"s": "TkhXQw=="}, "dilations": {"list": {"i": ["1", "1", "1", "1"]}}, "use_cudnn_on_gpu": {"b": true}, "T": {"type": "DT_FLOAT"}}}, {"name": "generator/G_MODEL/b1/InstanceNorm/moments/mean", "op": "Mean", "input": ["generator/G_MODEL/b1/Conv/Conv2D", "generator/G_MODEL/b1/InstanceNorm/moments/mean/reduction_indices"], "attr": {"T": {"type": "DT_FLOAT"}, "Tidx": {"type": "DT_INT32"}, "keep_dims": {"b": true}}}, {"name": "generator/G_MODEL/b1/InstanceNorm/moments/SquaredDifference", "op": "SquaredDifference", "input": ["generator/G_MODEL/b1/Conv/Conv2D", "generator/G_MODEL/b1/InstanceNorm/moments/mean"], "attr": {"T": {"type": "DT_FLOAT"}}}, {"name": "generator/G_MODEL/b1/InstanceNorm/moments/variance", "op": "Mean", "input": ["generator/G_MODEL/b1/InstanceNorm/moments/SquaredDifference", "generator/G_MODEL/b1/InstanceNorm/moments/variance/reduction_indices"], "attr": {"T": {"type": "DT_FLOAT"}, "keep_dims": {"b": true}, "Tidx": {"type": "DT_INT32"}}}, {"name": "generator/G_MODEL/b1/InstanceNorm/instancenorm/add", "op": "AddV2", "input": ["generator/G_MODEL/b1/InstanceNorm/moments/variance", "generator/G_MODEL/b1/InstanceNorm/instancenorm/add/y"], "attr": {"T": {"type": "DT_FLOAT"}}}, {"name": "generator/G_MODEL/b1/InstanceNorm/instancenorm/Rsqrt", "op": "Rsqrt", "input": ["generator/G_MODEL/b1/InstanceNorm/instancenorm/add"], "attr": {"T": {"type": "DT_FLOAT"}}}, {"name": "generator/G_MODEL/b1/InstanceNorm/instancenorm/mul", "op": "Mul", "input": ["generator/G_MODEL/b1/InstanceNorm/instancenorm/Rsqrt", "generator/G_MODEL/b1/InstanceNorm/gamma"], "attr": {"T": {"type": "DT_FLOAT"}}}, {"name": "generator/G_MODEL/b1/InstanceNorm/instancenorm/mul_2", "op": "Mul", "input": ["generator/G_MODEL/b1/InstanceNorm/moments/mean", "generator/G_MODEL/b1/InstanceNorm/instancenorm/mul"], "attr": {"T": {"type": "DT_FLOAT"}}}, {"name": "generator/G_MODEL/b1/InstanceNorm/instancenorm/mul_1", "op": "Mul", "input": ["generator/G_MODEL/b1/Conv/Conv2D", "generator/G_MODEL/b1/InstanceNorm/instancenorm/mul"], "attr": {"T": {"type": "DT_FLOAT"}}}, {"name": "generator/G_MODEL/b1/InstanceNorm/instancenorm/sub", "op": "Sub", "input": ["generator/G_MODEL/b1/InstanceNorm/beta", "generator/G_MODEL/b1/InstanceNorm/instancenorm/mul_2"], "attr": {"T": {"type": "DT_FLOAT"}}}, {"name": "generator/G_MODEL/b1/InstanceNorm/instancenorm/add_1", "op": "AddV2", "input": ["generator/G_MODEL/b1/InstanceNorm/instancenorm/mul_1", "generator/G_MODEL/b1/InstanceNorm/instancenorm/sub"], "attr": {"T": {"type": "DT_FLOAT"}}}, {"name": "generator/G_MODEL/b1/LeakyRelu", "op": "LeakyRelu", "input": ["generator/G_MODEL/b1/InstanceNorm/instancenorm/add_1"], "attr": {"alpha": {"f": 0.2}, "T": {"type": "DT_FLOAT"}}}, {"name": "generator/G_MODEL/b1/MirrorPad_1", "op": "MirrorPad", "input": ["generator/G_MODEL/b1/LeakyRelu", "generator/G_MODEL/b1/MirrorPad_1/paddings"], "attr": {"mode": {"s": "UkVGTEVDVA=="}, "T": {"type": "DT_FLOAT"}, "Tpaddings": {"type": "DT_INT32"}}}, {"name": "generator/G_MODEL/b1/Conv_1/Conv2D", "op": "Conv2D", "input": ["generator/G_MODEL/b1/MirrorPad_1", "generator/G_MODEL/b1/Conv_1/weights"], "device": "/device:CPU:0", "attr": {"explicit_paddings": {"list": {}}, "T": {"type": "DT_FLOAT"}, "dilations": {"list": {"i": ["1", "1", "1", "1"]}}, "data_format": {"s": "TkhXQw=="}, "use_cudnn_on_gpu": {"b": true}, "padding": {"s": "VkFMSUQ="}, "strides": {"list": {"i": ["1", "1", "1", "1"]}}}}, {"name": "generator/G_MODEL/b1/InstanceNorm_1/moments/mean", "op": "Mean", "input": ["generator/G_MODEL/b1/Conv_1/Conv2D", "generator/G_MODEL/b1/InstanceNorm_1/moments/mean/reduction_indices"], "attr": {"Tidx": {"type": "DT_INT32"}, "keep_dims": {"b": true}, "T": {"type": "DT_FLOAT"}}}, {"name": "generator/G_MODEL/b1/InstanceNorm_1/moments/SquaredDifference", "op": "SquaredDifference", "input": ["generator/G_MODEL/b1/Conv_1/Conv2D", "generator/G_MODEL/b1/InstanceNorm_1/moments/mean"], "attr": {"T": {"type": "DT_FLOAT"}}}, {"name": "generator/G_MODEL/b1/InstanceNorm_1/moments/variance", "op": "Mean", "input": ["generator/G_MODEL/b1/InstanceNorm_1/moments/SquaredDifference", "generator/G_MODEL/b1/InstanceNorm_1/moments/variance/reduction_indices"], "attr": {"Tidx": {"type": "DT_INT32"}, "T": {"type": "DT_FLOAT"}, "keep_dims": {"b": true}}}, {"name": "generator/G_MODEL/b1/InstanceNorm_1/instancenorm/add", "op": "AddV2", "input": ["generator/G_MODEL/b1/InstanceNorm_1/moments/variance", "generator/G_MODEL/b1/InstanceNorm_1/instancenorm/add/y"], "attr": {"T": {"type": "DT_FLOAT"}}}, {"name": "generator/G_MODEL/b1/InstanceNorm_1/instancenorm/Rsqrt", "op": "Rsqrt", "input": ["generator/G_MODEL/b1/InstanceNorm_1/instancenorm/add"], "attr": {"T": {"type": "DT_FLOAT"}}}, {"name": "generator/G_MODEL/b1/InstanceNorm_1/instancenorm/mul", "op": "Mul", "input": ["generator/G_MODEL/b1/InstanceNorm_1/instancenorm/Rsqrt", "generator/G_MODEL/b1/InstanceNorm_1/gamma"], "attr": {"T": {"type": "DT_FLOAT"}}}, {"name": "generator/G_MODEL/b1/InstanceNorm_1/instancenorm/mul_2", "op": "Mul", "input": ["generator/G_MODEL/b1/InstanceNorm_1/moments/mean", "generator/G_MODEL/b1/InstanceNorm_1/instancenorm/mul"], "attr": {"T": {"type": "DT_FLOAT"}}}, {"name": "generator/G_MODEL/b1/InstanceNorm_1/instancenorm/mul_1", "op": "Mul", "input": ["generator/G_MODEL/b1/Conv_1/Conv2D", "generator/G_MODEL/b1/InstanceNorm_1/instancenorm/mul"], "attr": {"T": {"type": "DT_FLOAT"}}}, {"name": "generator/G_MODEL/b1/InstanceNorm_1/instancenorm/sub", "op": "Sub", "input": ["generator/G_MODEL/b1/InstanceNorm_1/beta", "generator/G_MODEL/b1/InstanceNorm_1/instancenorm/mul_2"], "attr": {"T": {"type": "DT_FLOAT"}}}, {"name": "generator/G_MODEL/b1/InstanceNorm_1/instancenorm/add_1", "op": "AddV2", "input": ["generator/G_MODEL/b1/InstanceNorm_1/instancenorm/mul_1", "generator/G_MODEL/b1/InstanceNorm_1/instancenorm/sub"], "attr": {"T": {"type": "DT_FLOAT"}}}, {"name": "generator/G_MODEL/b1/LeakyRelu_1", "op": "LeakyRelu", "input": ["generator/G_MODEL/b1/InstanceNorm_1/instancenorm/add_1"], "attr": {"alpha": {"f": 0.2}, "T": {"type": "DT_FLOAT"}}}, {"name": "generator/G_MODEL/b1/MirrorPad_2", "op": "MirrorPad", "input": ["generator/G_MODEL/b1/LeakyRelu_1", "generator/G_MODEL/b1/MirrorPad_2/paddings"], "attr": {"mode": {"s": "UkVGTEVDVA=="}, "T": {"type": "DT_FLOAT"}, "Tpaddings": {"type": "DT_INT32"}}}, {"name": "generator/G_MODEL/b1/Shape", "op": "Shape", "input": ["generator/G_MODEL/b1/LeakyRelu_1"], "attr": {"out_type": {"type": "DT_INT32"}, "T": {"type": "DT_FLOAT"}}}, {"name": "generator/G_MODEL/b1/Shape_1", "op": "Shape", "input": ["generator/G_MODEL/b1/LeakyRelu_1"], "attr": {"out_type": {"type": "DT_INT32"}, "T": {"type": "DT_FLOAT"}}}, {"name": "generator/G_MODEL/b1/SeparableConv2d/separable_conv2d/depthwise", "op": "DepthwiseConv2dNative", "input": ["generator/G_MODEL/b1/MirrorPad_2", "generator/G_MODEL/b1/SeparableConv2d/depthwise_weights"], "attr": {"padding": {"s": "VkFMSUQ="}, "data_format": {"s": "TkhXQw=="}, "T": {"type": "DT_FLOAT"}, "explicit_paddings": {"list": {}}, "strides": {"list": {"i": ["1", "2", "2", "1"]}}, "dilations": {"list": {"i": ["1", "1", "1", "1"]}}}}, {"name": "generator/G_MODEL/b1/strided_slice", "op": "StridedSlice", "input": ["generator/G_MODEL/b1/Shape", "generator/G_MODEL/b1/strided_slice/stack", "generator/G_MODEL/b1/strided_slice/stack_1", "generator/G_MODEL/b1/strided_slice/stack_2"], "attr": {"new_axis_mask": {"i": "0"}, "end_mask": {"i": "0"}, "Index": {"type": "DT_INT32"}, "shrink_axis_mask": {"i": "1"}, "begin_mask": {"i": "0"}, "ellipsis_mask": {"i": "0"}, "T": {"type": "DT_INT32"}}}, {"name": "generator/G_MODEL/b1/strided_slice_1", "op": "StridedSlice", "input": ["generator/G_MODEL/b1/Shape_1", "generator/G_MODEL/b1/strided_slice_1/stack", "generator/G_MODEL/b1/strided_slice_1/stack_1", "generator/G_MODEL/b1/strided_slice_1/stack_2"], "attr": {"Index": {"type": "DT_INT32"}, "begin_mask": {"i": "0"}, "shrink_axis_mask": {"i": "1"}, "new_axis_mask": {"i": "0"}, "end_mask": {"i": "0"}, "ellipsis_mask": {"i": "0"}, "T": {"type": "DT_INT32"}}}, {"name": "generator/G_MODEL/b1/SeparableConv2d/separable_conv2d", "op": "Conv2D", "input": ["generator/G_MODEL/b1/SeparableConv2d/separable_conv2d/depthwise", "generator/G_MODEL/b1/SeparableConv2d/pointwise_weights"], "device": "/device:CPU:0", "attr": {"dilations": {"list": {"i": ["1", "1", "1", "1"]}}, "strides": {"list": {"i": ["1", "1", "1", "1"]}}, "T": {"type": "DT_FLOAT"}, "use_cudnn_on_gpu": {"b": true}, "explicit_paddings": {"list": {}}, "padding": {"s": "VkFMSUQ="}, "data_format": {"s": "TkhXQw=="}}}, {"name": "generator/G_MODEL/b1/floordiv", "op": "FloorDiv", "input": ["generator/G_MODEL/b1/strided_slice", "generator/G_MODEL/b1/floordiv/y"], "attr": {"T": {"type": "DT_INT32"}}}, {"name": "generator/G_MODEL/b1/floordiv_1", "op": "FloorDiv", "input": ["generator/G_MODEL/b1/strided_slice_1", "generator/G_MODEL/b1/floordiv_1/y"], "attr": {"T": {"type": "DT_INT32"}}}, {"name": "generator/G_MODEL/b1/SeparableConv2d/InstanceNorm/moments/mean", "op": "Mean", "input": ["generator/G_MODEL/b1/SeparableConv2d/separable_conv2d", "generator/G_MODEL/b1/SeparableConv2d/InstanceNorm/moments/mean/reduction_indices"], "attr": {"T": {"type": "DT_FLOAT"}, "Tidx": {"type": "DT_INT32"}, "keep_dims": {"b": true}}}, {"name": "generator/G_MODEL/b1/resize/size", "op": "Pack", "input": ["generator/G_MODEL/b1/floordiv", "generator/G_MODEL/b1/floordiv_1"], "attr": {"T": {"type": "DT_INT32"}, "axis": {"i": "0"}, "N": {"i": "2"}}}, {"name": "generator/G_MODEL/b1/SeparableConv2d/InstanceNorm/moments/SquaredDifference", "op": "SquaredDifference", "input": ["generator/G_MODEL/b1/SeparableConv2d/separable_conv2d", "generator/G_MODEL/b1/SeparableConv2d/InstanceNorm/moments/mean"], "attr": {"T": {"type": "DT_FLOAT"}}}, {"name": "generator/G_MODEL/b1/resize/ResizeBilinear", "op": "ResizeBilinear", "input": ["generator/G_MODEL/b1/LeakyRelu_1", "generator/G_MODEL/b1/resize/size"], "attr": {"half_pixel_centers": {"b": false}, "T": {"type": "DT_FLOAT"}, "align_corners": {"b": false}}}, {"name": "generator/G_MODEL/b1/SeparableConv2d/InstanceNorm/moments/variance", "op": "Mean", "input": ["generator/G_MODEL/b1/SeparableConv2d/InstanceNorm/moments/SquaredDifference", "generator/G_MODEL/b1/SeparableConv2d/InstanceNorm/moments/variance/reduction_indices"], "attr": {"Tidx": {"type": "DT_INT32"}, "T": {"type": "DT_FLOAT"}, "keep_dims": {"b": true}}}, {"name": "generator/G_MODEL/b1/MirrorPad_3", "op": "MirrorPad", "input": ["generator/G_MODEL/b1/resize/ResizeBilinear", "generator/G_MODEL/b1/MirrorPad_3/paddings"], "attr": {"Tpaddings": {"type": "DT_INT32"}, "T": {"type": "DT_FLOAT"}, "mode": {"s": "UkVGTEVDVA=="}}}, {"name": "generator/G_MODEL/b1/SeparableConv2d/InstanceNorm/instancenorm/add", "op": "AddV2", "input": ["generator/G_MODEL/b1/SeparableConv2d/InstanceNorm/moments/variance", "generator/G_MODEL/b1/SeparableConv2d/InstanceNorm/instancenorm/add/y"], "attr": {"T": {"type": "DT_FLOAT"}}}, {"name": "generator/G_MODEL/b1/SeparableConv2d_1/separable_conv2d/depthwise", "op": "DepthwiseConv2dNative", "input": ["generator/G_MODEL/b1/MirrorPad_3", "generator/G_MODEL/b1/SeparableConv2d_1/depthwise_weights"], "attr": {"data_format": {"s": "TkhXQw=="}, "dilations": {"list": {"i": ["1", "1", "1", "1"]}}, "strides": {"list": {"i": ["1", "1", "1", "1"]}}, "explicit_paddings": {"list": {}}, "T": {"type": "DT_FLOAT"}, "padding": {"s": "VkFMSUQ="}}}, {"name": "generator/G_MODEL/b1/SeparableConv2d/InstanceNorm/instancenorm/Rsqrt", "op": "Rsqrt", "input": ["generator/G_MODEL/b1/SeparableConv2d/InstanceNorm/instancenorm/add"], "attr": {"T": {"type": "DT_FLOAT"}}}, {"name": "generator/G_MODEL/b1/SeparableConv2d_1/separable_conv2d", "op": "Conv2D", "input": ["generator/G_MODEL/b1/SeparableConv2d_1/separable_conv2d/depthwise", "generator/G_MODEL/b1/SeparableConv2d_1/pointwise_weights"], "device": "/device:CPU:0", "attr": {"T": {"type": "DT_FLOAT"}, "use_cudnn_on_gpu": {"b": true}, "padding": {"s": "VkFMSUQ="}, "explicit_paddings": {"list": {}}, "dilations": {"list": {"i": ["1", "1", "1", "1"]}}, "strides": {"list": {"i": ["1", "1", "1", "1"]}}, "data_format": {"s": "TkhXQw=="}}}, {"name": "generator/G_MODEL/b1/SeparableConv2d/InstanceNorm/instancenorm/mul", "op": "Mul", "input": ["generator/G_MODEL/b1/SeparableConv2d/InstanceNorm/instancenorm/Rsqrt", "generator/G_MODEL/b1/SeparableConv2d/InstanceNorm/gamma"], "attr": {"T": {"type": "DT_FLOAT"}}}, {"name": "generator/G_MODEL/b1/SeparableConv2d_1/InstanceNorm/moments/mean", "op": "Mean", "input": ["generator/G_MODEL/b1/SeparableConv2d_1/separable_conv2d", "generator/G_MODEL/b1/SeparableConv2d_1/InstanceNorm/moments/mean/reduction_indices"], "attr": {"Tidx": {"type": "DT_INT32"}, "T": {"type": "DT_FLOAT"}, "keep_dims": {"b": true}}}, {"name": "generator/G_MODEL/b1/SeparableConv2d/InstanceNorm/instancenorm/mul_2", "op": "Mul", "input": ["generator/G_MODEL/b1/SeparableConv2d/InstanceNorm/moments/mean", "generator/G_MODEL/b1/SeparableConv2d/InstanceNorm/instancenorm/mul"], "attr": {"T": {"type": "DT_FLOAT"}}}, {"name": "generator/G_MODEL/b1/SeparableConv2d/InstanceNorm/instancenorm/mul_1", "op": "Mul", "input": ["generator/G_MODEL/b1/SeparableConv2d/separable_conv2d", "generator/G_MODEL/b1/SeparableConv2d/InstanceNorm/instancenorm/mul"], "attr": {"T": {"type": "DT_FLOAT"}}}, {"name": "generator/G_MODEL/b1/SeparableConv2d_1/InstanceNorm/moments/SquaredDifference", "op": "SquaredDifference", "input": ["generator/G_MODEL/b1/SeparableConv2d_1/separable_conv2d", "generator/G_MODEL/b1/SeparableConv2d_1/InstanceNorm/moments/mean"], "attr": {"T": {"type": "DT_FLOAT"}}}, {"name": "generator/G_MODEL/b1/SeparableConv2d/InstanceNorm/instancenorm/sub", "op": "Sub", "input": ["generator/G_MODEL/b1/SeparableConv2d/InstanceNorm/beta", "generator/G_MODEL/b1/SeparableConv2d/InstanceNorm/instancenorm/mul_2"], "attr": {"T": {"type": "DT_FLOAT"}}}, {"name": "generator/G_MODEL/b1/SeparableConv2d_1/InstanceNorm/moments/variance", "op": "Mean", "input": ["generator/G_MODEL/b1/SeparableConv2d_1/InstanceNorm/moments/SquaredDifference", "generator/G_MODEL/b1/SeparableConv2d_1/InstanceNorm/moments/variance/reduction_indices"], "attr": {"keep_dims": {"b": true}, "T": {"type": "DT_FLOAT"}, "Tidx": {"type": "DT_INT32"}}}, {"name": "generator/G_MODEL/b1/SeparableConv2d/InstanceNorm/instancenorm/add_1", "op": "AddV2", "input": ["generator/G_MODEL/b1/SeparableConv2d/InstanceNorm/instancenorm/mul_1", "generator/G_MODEL/b1/SeparableConv2d/InstanceNorm/instancenorm/sub"], "attr": {"T": {"type": "DT_FLOAT"}}}, {"name": "generator/G_MODEL/b1/SeparableConv2d_1/InstanceNorm/instancenorm/add", "op": "AddV2", "input": ["generator/G_MODEL/b1/SeparableConv2d_1/InstanceNorm/moments/variance", "generator/G_MODEL/b1/SeparableConv2d_1/InstanceNorm/instancenorm/add/y"], "attr": {"T": {"type": "DT_FLOAT"}}}, {"name": "generator/G_MODEL/b1/SeparableConv2d/LeakyRelu", "op": "LeakyRelu", "input": ["generator/G_MODEL/b1/SeparableConv2d/InstanceNorm/instancenorm/add_1"], "attr": {"T": {"type": "DT_FLOAT"}, "alpha": {"f": 0.2}}}, {"name": "generator/G_MODEL/b1/SeparableConv2d_1/InstanceNorm/instancenorm/Rsqrt", "op": "Rsqrt", "input": ["generator/G_MODEL/b1/SeparableConv2d_1/InstanceNorm/instancenorm/add"], "attr": {"T": {"type": "DT_FLOAT"}}}, {"name": "generator/G_MODEL/b1/SeparableConv2d_1/InstanceNorm/instancenorm/mul", "op": "Mul", "input": ["generator/G_MODEL/b1/SeparableConv2d_1/InstanceNorm/instancenorm/Rsqrt", "generator/G_MODEL/b1/SeparableConv2d_1/InstanceNorm/gamma"], "attr": {"T": {"type": "DT_FLOAT"}}}, {"name": "generator/G_MODEL/b1/SeparableConv2d_1/InstanceNorm/instancenorm/mul_2", "op": "Mul", "input": ["generator/G_MODEL/b1/SeparableConv2d_1/InstanceNorm/moments/mean", "generator/G_MODEL/b1/SeparableConv2d_1/InstanceNorm/instancenorm/mul"], "attr": {"T": {"type": "DT_FLOAT"}}}, {"name": "generator/G_MODEL/b1/SeparableConv2d_1/InstanceNorm/instancenorm/mul_1", "op": "Mul", "input": ["generator/G_MODEL/b1/SeparableConv2d_1/separable_conv2d", "generator/G_MODEL/b1/SeparableConv2d_1/InstanceNorm/instancenorm/mul"], "attr": {"T": {"type": "DT_FLOAT"}}}, {"name": "generator/G_MODEL/b1/SeparableConv2d_1/InstanceNorm/instancenorm/sub", "op": "Sub", "input": ["generator/G_MODEL/b1/SeparableConv2d_1/InstanceNorm/beta", "generator/G_MODEL/b1/SeparableConv2d_1/InstanceNorm/instancenorm/mul_2"], "attr": {"T": {"type": "DT_FLOAT"}}}, {"name": "generator/G_MODEL/b1/SeparableConv2d_1/InstanceNorm/instancenorm/add_1", "op": "AddV2", "input": ["generator/G_MODEL/b1/SeparableConv2d_1/InstanceNorm/instancenorm/mul_1", "generator/G_MODEL/b1/SeparableConv2d_1/InstanceNorm/instancenorm/sub"], "attr": {"T": {"type": "DT_FLOAT"}}}, {"name": "generator/G_MODEL/b1/SeparableConv2d_1/LeakyRelu", "op": "LeakyRelu", "input": ["generator/G_MODEL/b1/SeparableConv2d_1/InstanceNorm/instancenorm/add_1"], "attr": {"T": {"type": "DT_FLOAT"}, "alpha": {"f": 0.2}}}, {"name": "generator/G_MODEL/b1/add", "op": "AddV2", "input": ["generator/G_MODEL/b1/SeparableConv2d/LeakyRelu", "generator/G_MODEL/b1/SeparableConv2d_1/LeakyRelu"], "attr": {"T": {"type": "DT_FLOAT"}}}, {"name": "generator/G_MODEL/b2/MirrorPad", "op": "MirrorPad", "input": ["generator/G_MODEL/b1/add", "generator/G_MODEL/b2/MirrorPad/paddings"], "attr": {"mode": {"s": "UkVGTEVDVA=="}, "Tpaddings": {"type": "DT_INT32"}, "T": {"type": "DT_FLOAT"}}}, {"name": "generator/G_MODEL/b2/Conv/Conv2D", "op": "Conv2D", "input": ["generator/G_MODEL/b2/MirrorPad", "generator/G_MODEL/b2/Conv/weights"], "device": "/device:CPU:0", "attr": {"explicit_paddings": {"list": {}}, "padding": {"s": "VkFMSUQ="}, "dilations": {"list": {"i": ["1", "1", "1", "1"]}}, "use_cudnn_on_gpu": {"b": true}, "T": {"type": "DT_FLOAT"}, "strides": {"list": {"i": ["1", "1", "1", "1"]}}, "data_format": {"s": "TkhXQw=="}}}, {"name": "generator/G_MODEL/b2/InstanceNorm/moments/mean", "op": "Mean", "input": ["generator/G_MODEL/b2/Conv/Conv2D", "generator/G_MODEL/b2/InstanceNorm/moments/mean/reduction_indices"], "attr": {"keep_dims": {"b": true}, "T": {"type": "DT_FLOAT"}, "Tidx": {"type": "DT_INT32"}}}, {"name": "generator/G_MODEL/b2/InstanceNorm/moments/SquaredDifference", "op": "SquaredDifference", "input": ["generator/G_MODEL/b2/Conv/Conv2D", "generator/G_MODEL/b2/InstanceNorm/moments/mean"], "attr": {"T": {"type": "DT_FLOAT"}}}, {"name": "generator/G_MODEL/b2/InstanceNorm/moments/variance", "op": "Mean", "input": ["generator/G_MODEL/b2/InstanceNorm/moments/SquaredDifference", "generator/G_MODEL/b2/InstanceNorm/moments/variance/reduction_indices"], "attr": {"keep_dims": {"b": true}, "T": {"type": "DT_FLOAT"}, "Tidx": {"type": "DT_INT32"}}}, {"name": "generator/G_MODEL/b2/InstanceNorm/instancenorm/add", "op": "AddV2", "input": ["generator/G_MODEL/b2/InstanceNorm/moments/variance", "generator/G_MODEL/b2/InstanceNorm/instancenorm/add/y"], "attr": {"T": {"type": "DT_FLOAT"}}}, {"name": "generator/G_MODEL/b2/InstanceNorm/instancenorm/Rsqrt", "op": "Rsqrt", "input": ["generator/G_MODEL/b2/InstanceNorm/instancenorm/add"], "attr": {"T": {"type": "DT_FLOAT"}}}, {"name": "generator/G_MODEL/b2/InstanceNorm/instancenorm/mul", "op": "Mul", "input": ["generator/G_MODEL/b2/InstanceNorm/instancenorm/Rsqrt", "generator/G_MODEL/b2/InstanceNorm/gamma"], "attr": {"T": {"type": "DT_FLOAT"}}}, {"name": "generator/G_MODEL/b2/InstanceNorm/instancenorm/mul_2", "op": "Mul", "input": ["generator/G_MODEL/b2/InstanceNorm/moments/mean", "generator/G_MODEL/b2/InstanceNorm/instancenorm/mul"], "attr": {"T": {"type": "DT_FLOAT"}}}, {"name": "generator/G_MODEL/b2/InstanceNorm/instancenorm/mul_1", "op": "Mul", "input": ["generator/G_MODEL/b2/Conv/Conv2D", "generator/G_MODEL/b2/InstanceNorm/instancenorm/mul"], "attr": {"T": {"type": "DT_FLOAT"}}}, {"name": "generator/G_MODEL/b2/InstanceNorm/instancenorm/sub", "op": "Sub", "input": ["generator/G_MODEL/b2/InstanceNorm/beta", "generator/G_MODEL/b2/InstanceNorm/instancenorm/mul_2"], "attr": {"T": {"type": "DT_FLOAT"}}}, {"name": "generator/G_MODEL/b2/InstanceNorm/instancenorm/add_1", "op": "AddV2", "input": ["generator/G_MODEL/b2/InstanceNorm/instancenorm/mul_1", "generator/G_MODEL/b2/InstanceNorm/instancenorm/sub"], "attr": {"T": {"type": "DT_FLOAT"}}}, {"name": "generator/G_MODEL/b2/LeakyRelu", "op": "LeakyRelu", "input": ["generator/G_MODEL/b2/InstanceNorm/instancenorm/add_1"], "attr": {"alpha": {"f": 0.2}, "T": {"type": "DT_FLOAT"}}}, {"name": "generator/G_MODEL/b2/MirrorPad_1", "op": "MirrorPad", "input": ["generator/G_MODEL/b2/LeakyRelu", "generator/G_MODEL/b2/MirrorPad_1/paddings"], "attr": {"Tpaddings": {"type": "DT_INT32"}, "mode": {"s": "UkVGTEVDVA=="}, "T": {"type": "DT_FLOAT"}}}, {"name": "generator/G_MODEL/b2/SeparableConv2d/separable_conv2d/depthwise", "op": "DepthwiseConv2dNative", "input": ["generator/G_MODEL/b2/MirrorPad_1", "generator/G_MODEL/b2/SeparableConv2d/depthwise_weights"], "attr": {"strides": {"list": {"i": ["1", "1", "1", "1"]}}, "padding": {"s": "VkFMSUQ="}, "T": {"type": "DT_FLOAT"}, "data_format": {"s": "TkhXQw=="}, "explicit_paddings": {"list": {}}, "dilations": {"list": {"i": ["1", "1", "1", "1"]}}}}, {"name": "generator/G_MODEL/b2/SeparableConv2d/separable_conv2d", "op": "Conv2D", "input": ["generator/G_MODEL/b2/SeparableConv2d/separable_conv2d/depthwise", "generator/G_MODEL/b2/SeparableConv2d/pointwise_weights"], "device": "/device:CPU:0", "attr": {"padding": {"s": "VkFMSUQ="}, "dilations": {"list": {"i": ["1", "1", "1", "1"]}}, "use_cudnn_on_gpu": {"b": true}, "data_format": {"s": "TkhXQw=="}, "T": {"type": "DT_FLOAT"}, "strides": {"list": {"i": ["1", "1", "1", "1"]}}, "explicit_paddings": {"list": {}}}}, {"name": "generator/G_MODEL/b2/SeparableConv2d/InstanceNorm/moments/mean", "op": "Mean", "input": ["generator/G_MODEL/b2/SeparableConv2d/separable_conv2d", "generator/G_MODEL/b2/SeparableConv2d/InstanceNorm/moments/mean/reduction_indices"], "attr": {"T": {"type": "DT_FLOAT"}, "Tidx": {"type": "DT_INT32"}, "keep_dims": {"b": true}}}, {"name": "generator/G_MODEL/b2/SeparableConv2d/InstanceNorm/moments/SquaredDifference", "op": "SquaredDifference", "input": ["generator/G_MODEL/b2/SeparableConv2d/separable_conv2d", "generator/G_MODEL/b2/SeparableConv2d/InstanceNorm/moments/mean"], "attr": {"T": {"type": "DT_FLOAT"}}}, {"name": "generator/G_MODEL/b2/SeparableConv2d/InstanceNorm/moments/variance", "op": "Mean", "input": ["generator/G_MODEL/b2/SeparableConv2d/InstanceNorm/moments/SquaredDifference", "generator/G_MODEL/b2/SeparableConv2d/InstanceNorm/moments/variance/reduction_indices"], "attr": {"keep_dims": {"b": true}, "Tidx": {"type": "DT_INT32"}, "T": {"type": "DT_FLOAT"}}}, {"name": "generator/G_MODEL/b2/SeparableConv2d/InstanceNorm/instancenorm/add", "op": "AddV2", "input": ["generator/G_MODEL/b2/SeparableConv2d/InstanceNorm/moments/variance", "generator/G_MODEL/b2/SeparableConv2d/InstanceNorm/instancenorm/add/y"], "attr": {"T": {"type": "DT_FLOAT"}}}, {"name": "generator/G_MODEL/b2/SeparableConv2d/InstanceNorm/instancenorm/Rsqrt", "op": "Rsqrt", "input": ["generator/G_MODEL/b2/SeparableConv2d/InstanceNorm/instancenorm/add"], "attr": {"T": {"type": "DT_FLOAT"}}}, {"name": "generator/G_MODEL/b2/SeparableConv2d/InstanceNorm/instancenorm/mul", "op": "Mul", "input": ["generator/G_MODEL/b2/SeparableConv2d/InstanceNorm/instancenorm/Rsqrt", "generator/G_MODEL/b2/SeparableConv2d/InstanceNorm/gamma"], "attr": {"T": {"type": "DT_FLOAT"}}}, {"name": "generator/G_MODEL/b2/SeparableConv2d/InstanceNorm/instancenorm/mul_2", "op": "Mul", "input": ["generator/G_MODEL/b2/SeparableConv2d/InstanceNorm/moments/mean", "generator/G_MODEL/b2/SeparableConv2d/InstanceNorm/instancenorm/mul"], "attr": {"T": {"type": "DT_FLOAT"}}}, {"name": "generator/G_MODEL/b2/SeparableConv2d/InstanceNorm/instancenorm/mul_1", "op": "Mul", "input": ["generator/G_MODEL/b2/SeparableConv2d/separable_conv2d", "generator/G_MODEL/b2/SeparableConv2d/InstanceNorm/instancenorm/mul"], "attr": {"T": {"type": "DT_FLOAT"}}}, {"name": "generator/G_MODEL/b2/SeparableConv2d/InstanceNorm/instancenorm/sub", "op": "Sub", "input": ["generator/G_MODEL/b2/SeparableConv2d/InstanceNorm/beta", "generator/G_MODEL/b2/SeparableConv2d/InstanceNorm/instancenorm/mul_2"], "attr": {"T": {"type": "DT_FLOAT"}}}, {"name": "generator/G_MODEL/b2/SeparableConv2d/InstanceNorm/instancenorm/add_1", "op": "AddV2", "input": ["generator/G_MODEL/b2/SeparableConv2d/InstanceNorm/instancenorm/mul_1", "generator/G_MODEL/b2/SeparableConv2d/InstanceNorm/instancenorm/sub"], "attr": {"T": {"type": "DT_FLOAT"}}}, {"name": "generator/G_MODEL/b2/SeparableConv2d/LeakyRelu", "op": "LeakyRelu", "input": ["generator/G_MODEL/b2/SeparableConv2d/InstanceNorm/instancenorm/add_1"], "attr": {"T": {"type": "DT_FLOAT"}, "alpha": {"f": 0.2}}}, {"name": "generator/G_MODEL/b2/MirrorPad_2", "op": "MirrorPad", "input": ["generator/G_MODEL/b2/SeparableConv2d/LeakyRelu", "generator/G_MODEL/b2/MirrorPad_2/paddings"], "attr": {"mode": {"s": "UkVGTEVDVA=="}, "T": {"type": "DT_FLOAT"}, "Tpaddings": {"type": "DT_INT32"}}}, {"name": "generator/G_MODEL/b2/Shape", "op": "Shape", "input": ["generator/G_MODEL/b2/SeparableConv2d/LeakyRelu"], "attr": {"out_type": {"type": "DT_INT32"}, "T": {"type": "DT_FLOAT"}}}, {"name": "generator/G_MODEL/b2/Shape_1", "op": "Shape", "input": ["generator/G_MODEL/b2/SeparableConv2d/LeakyRelu"], "attr": {"T": {"type": "DT_FLOAT"}, "out_type": {"type": "DT_INT32"}}}, {"name": "generator/G_MODEL/b2/SeparableConv2d_1/separable_conv2d/depthwise", "op": "DepthwiseConv2dNative", "input": ["generator/G_MODEL/b2/MirrorPad_2", "generator/G_MODEL/b2/SeparableConv2d_1/depthwise_weights"], "attr": {"dilations": {"list": {"i": ["1", "1", "1", "1"]}}, "padding": {"s": "VkFMSUQ="}, "data_format": {"s": "TkhXQw=="}, "strides": {"list": {"i": ["1", "2", "2", "1"]}}, "explicit_paddings": {"list": {}}, "T": {"type": "DT_FLOAT"}}}, {"name": "generator/G_MODEL/b2/strided_slice", "op": "StridedSlice", "input": ["generator/G_MODEL/b2/Shape", "generator/G_MODEL/b2/strided_slice/stack", "generator/G_MODEL/b2/strided_slice/stack_1", "generator/G_MODEL/b2/strided_slice/stack_2"], "attr": {"ellipsis_mask": {"i": "0"}, "new_axis_mask": {"i": "0"}, "begin_mask": {"i": "0"}, "shrink_axis_mask": {"i": "1"}, "Index": {"type": "DT_INT32"}, "end_mask": {"i": "0"}, "T": {"type": "DT_INT32"}}}, {"name": "generator/G_MODEL/b2/strided_slice_1", "op": "StridedSlice", "input": ["generator/G_MODEL/b2/Shape_1", "generator/G_MODEL/b2/strided_slice_1/stack", "generator/G_MODEL/b2/strided_slice_1/stack_1", "generator/G_MODEL/b2/strided_slice_1/stack_2"], "attr": {"Index": {"type": "DT_INT32"}, "T": {"type": "DT_INT32"}, "begin_mask": {"i": "0"}, "ellipsis_mask": {"i": "0"}, "new_axis_mask": {"i": "0"}, "end_mask": {"i": "0"}, "shrink_axis_mask": {"i": "1"}}}, {"name": "generator/G_MODEL/b2/SeparableConv2d_1/separable_conv2d", "op": "Conv2D", "input": ["generator/G_MODEL/b2/SeparableConv2d_1/separable_conv2d/depthwise", "generator/G_MODEL/b2/SeparableConv2d_1/pointwise_weights"], "device": "/device:CPU:0", "attr": {"padding": {"s": "VkFMSUQ="}, "data_format": {"s": "TkhXQw=="}, "dilations": {"list": {"i": ["1", "1", "1", "1"]}}, "T": {"type": "DT_FLOAT"}, "explicit_paddings": {"list": {}}, "use_cudnn_on_gpu": {"b": true}, "strides": {"list": {"i": ["1", "1", "1", "1"]}}}}, {"name": "generator/G_MODEL/b2/floordiv", "op": "FloorDiv", "input": ["generator/G_MODEL/b2/strided_slice", "generator/G_MODEL/b2/floordiv/y"], "attr": {"T": {"type": "DT_INT32"}}}, {"name": "generator/G_MODEL/b2/floordiv_1", "op": "FloorDiv", "input": ["generator/G_MODEL/b2/strided_slice_1", "generator/G_MODEL/b2/floordiv_1/y"], "attr": {"T": {"type": "DT_INT32"}}}, {"name": "generator/G_MODEL/b2/SeparableConv2d_1/InstanceNorm/moments/mean", "op": "Mean", "input": ["generator/G_MODEL/b2/SeparableConv2d_1/separable_conv2d", "generator/G_MODEL/b2/SeparableConv2d_1/InstanceNorm/moments/mean/reduction_indices"], "attr": {"keep_dims": {"b": true}, "T": {"type": "DT_FLOAT"}, "Tidx": {"type": "DT_INT32"}}}, {"name": "generator/G_MODEL/b2/resize/size", "op": "Pack", "input": ["generator/G_MODEL/b2/floordiv", "generator/G_MODEL/b2/floordiv_1"], "attr": {"T": {"type": "DT_INT32"}, "N": {"i": "2"}, "axis": {"i": "0"}}}, {"name": "generator/G_MODEL/b2/SeparableConv2d_1/InstanceNorm/moments/SquaredDifference", "op": "SquaredDifference", "input": ["generator/G_MODEL/b2/SeparableConv2d_1/separable_conv2d", "generator/G_MODEL/b2/SeparableConv2d_1/InstanceNorm/moments/mean"], "attr": {"T": {"type": "DT_FLOAT"}}}, {"name": "generator/G_MODEL/b2/resize/ResizeBilinear", "op": "ResizeBilinear", "input": ["generator/G_MODEL/b2/SeparableConv2d/LeakyRelu", "generator/G_MODEL/b2/resize/size"], "attr": {"T": {"type": "DT_FLOAT"}, "align_corners": {"b": false}, "half_pixel_centers": {"b": false}}}, {"name": "generator/G_MODEL/b2/SeparableConv2d_1/InstanceNorm/moments/variance", "op": "Mean", "input": ["generator/G_MODEL/b2/SeparableConv2d_1/InstanceNorm/moments/SquaredDifference", "generator/G_MODEL/b2/SeparableConv2d_1/InstanceNorm/moments/variance/reduction_indices"], "attr": {"Tidx": {"type": "DT_INT32"}, "T": {"type": "DT_FLOAT"}, "keep_dims": {"b": true}}}, {"name": "generator/G_MODEL/b2/MirrorPad_3", "op": "MirrorPad", "input": ["generator/G_MODEL/b2/resize/ResizeBilinear", "generator/G_MODEL/b2/MirrorPad_3/paddings"], "attr": {"T": {"type": "DT_FLOAT"}, "mode": {"s": "UkVGTEVDVA=="}, "Tpaddings": {"type": "DT_INT32"}}}, {"name": "generator/G_MODEL/b2/SeparableConv2d_1/InstanceNorm/instancenorm/add", "op": "AddV2", "input": ["generator/G_MODEL/b2/SeparableConv2d_1/InstanceNorm/moments/variance", "generator/G_MODEL/b2/SeparableConv2d_1/InstanceNorm/instancenorm/add/y"], "attr": {"T": {"type": "DT_FLOAT"}}}, {"name": "generator/G_MODEL/b2/SeparableConv2d_2/separable_conv2d/depthwise", "op": "DepthwiseConv2dNative", "input": ["generator/G_MODEL/b2/MirrorPad_3", "generator/G_MODEL/b2/SeparableConv2d_2/depthwise_weights"], "attr": {"strides": {"list": {"i": ["1", "1", "1", "1"]}}, "padding": {"s": "VkFMSUQ="}, "explicit_paddings": {"list": {}}, "dilations": {"list": {"i": ["1", "1", "1", "1"]}}, "T": {"type": "DT_FLOAT"}, "data_format": {"s": "TkhXQw=="}}}, {"name": "generator/G_MODEL/b2/SeparableConv2d_1/InstanceNorm/instancenorm/Rsqrt", "op": "Rsqrt", "input": ["generator/G_MODEL/b2/SeparableConv2d_1/InstanceNorm/instancenorm/add"], "attr": {"T": {"type": "DT_FLOAT"}}}, {"name": "generator/G_MODEL/b2/SeparableConv2d_2/separable_conv2d", "op": "Conv2D", "input": ["generator/G_MODEL/b2/SeparableConv2d_2/separable_conv2d/depthwise", "generator/G_MODEL/b2/SeparableConv2d_2/pointwise_weights"], "device": "/device:CPU:0", "attr": {"T": {"type": "DT_FLOAT"}, "use_cudnn_on_gpu": {"b": true}, "dilations": {"list": {"i": ["1", "1", "1", "1"]}}, "strides": {"list": {"i": ["1", "1", "1", "1"]}}, "data_format": {"s": "TkhXQw=="}, "padding": {"s": "VkFMSUQ="}, "explicit_paddings": {"list": {}}}}, {"name": "generator/G_MODEL/b2/SeparableConv2d_1/InstanceNorm/instancenorm/mul", "op": "Mul", "input": ["generator/G_MODEL/b2/SeparableConv2d_1/InstanceNorm/instancenorm/Rsqrt", "generator/G_MODEL/b2/SeparableConv2d_1/InstanceNorm/gamma"], "attr": {"T": {"type": "DT_FLOAT"}}}, {"name": "generator/G_MODEL/b2/SeparableConv2d_2/InstanceNorm/moments/mean", "op": "Mean", "input": ["generator/G_MODEL/b2/SeparableConv2d_2/separable_conv2d", "generator/G_MODEL/b2/SeparableConv2d_2/InstanceNorm/moments/mean/reduction_indices"], "attr": {"keep_dims": {"b": true}, "Tidx": {"type": "DT_INT32"}, "T": {"type": "DT_FLOAT"}}}, {"name": "generator/G_MODEL/b2/SeparableConv2d_1/InstanceNorm/instancenorm/mul_2", "op": "Mul", "input": ["generator/G_MODEL/b2/SeparableConv2d_1/InstanceNorm/moments/mean", "generator/G_MODEL/b2/SeparableConv2d_1/InstanceNorm/instancenorm/mul"], "attr": {"T": {"type": "DT_FLOAT"}}}, {"name": "generator/G_MODEL/b2/SeparableConv2d_1/InstanceNorm/instancenorm/mul_1", "op": "Mul", "input": ["generator/G_MODEL/b2/SeparableConv2d_1/separable_conv2d", "generator/G_MODEL/b2/SeparableConv2d_1/InstanceNorm/instancenorm/mul"], "attr": {"T": {"type": "DT_FLOAT"}}}, {"name": "generator/G_MODEL/b2/SeparableConv2d_2/InstanceNorm/moments/SquaredDifference", "op": "SquaredDifference", "input": ["generator/G_MODEL/b2/SeparableConv2d_2/separable_conv2d", "generator/G_MODEL/b2/SeparableConv2d_2/InstanceNorm/moments/mean"], "attr": {"T": {"type": "DT_FLOAT"}}}, {"name": "generator/G_MODEL/b2/SeparableConv2d_1/InstanceNorm/instancenorm/sub", "op": "Sub", "input": ["generator/G_MODEL/b2/SeparableConv2d_1/InstanceNorm/beta", "generator/G_MODEL/b2/SeparableConv2d_1/InstanceNorm/instancenorm/mul_2"], "attr": {"T": {"type": "DT_FLOAT"}}}, {"name": "generator/G_MODEL/b2/SeparableConv2d_2/InstanceNorm/moments/variance", "op": "Mean", "input": ["generator/G_MODEL/b2/SeparableConv2d_2/InstanceNorm/moments/SquaredDifference", "generator/G_MODEL/b2/SeparableConv2d_2/InstanceNorm/moments/variance/reduction_indices"], "attr": {"Tidx": {"type": "DT_INT32"}, "keep_dims": {"b": true}, "T": {"type": "DT_FLOAT"}}}, {"name": "generator/G_MODEL/b2/SeparableConv2d_1/InstanceNorm/instancenorm/add_1", "op": "AddV2", "input": ["generator/G_MODEL/b2/SeparableConv2d_1/InstanceNorm/instancenorm/mul_1", "generator/G_MODEL/b2/SeparableConv2d_1/InstanceNorm/instancenorm/sub"], "attr": {"T": {"type": "DT_FLOAT"}}}, {"name": "generator/G_MODEL/b2/SeparableConv2d_2/InstanceNorm/instancenorm/add", "op": "AddV2", "input": ["generator/G_MODEL/b2/SeparableConv2d_2/InstanceNorm/moments/variance", "generator/G_MODEL/b2/SeparableConv2d_2/InstanceNorm/instancenorm/add/y"], "attr": {"T": {"type": "DT_FLOAT"}}}, {"name": "generator/G_MODEL/b2/SeparableConv2d_1/LeakyRelu", "op": "LeakyRelu", "input": ["generator/G_MODEL/b2/SeparableConv2d_1/InstanceNorm/instancenorm/add_1"], "attr": {"T": {"type": "DT_FLOAT"}, "alpha": {"f": 0.2}}}, {"name": "generator/G_MODEL/b2/SeparableConv2d_2/InstanceNorm/instancenorm/Rsqrt", "op": "Rsqrt", "input": ["generator/G_MODEL/b2/SeparableConv2d_2/InstanceNorm/instancenorm/add"], "attr": {"T": {"type": "DT_FLOAT"}}}, {"name": "generator/G_MODEL/b2/SeparableConv2d_2/InstanceNorm/instancenorm/mul", "op": "Mul", "input": ["generator/G_MODEL/b2/SeparableConv2d_2/InstanceNorm/instancenorm/Rsqrt", "generator/G_MODEL/b2/SeparableConv2d_2/InstanceNorm/gamma"], "attr": {"T": {"type": "DT_FLOAT"}}}, {"name": "generator/G_MODEL/b2/SeparableConv2d_2/InstanceNorm/instancenorm/mul_2", "op": "Mul", "input": ["generator/G_MODEL/b2/SeparableConv2d_2/InstanceNorm/moments/mean", "generator/G_MODEL/b2/SeparableConv2d_2/InstanceNorm/instancenorm/mul"], "attr": {"T": {"type": "DT_FLOAT"}}}, {"name": "generator/G_MODEL/b2/SeparableConv2d_2/InstanceNorm/instancenorm/mul_1", "op": "Mul", "input": ["generator/G_MODEL/b2/SeparableConv2d_2/separable_conv2d", "generator/G_MODEL/b2/SeparableConv2d_2/InstanceNorm/instancenorm/mul"], "attr": {"T": {"type": "DT_FLOAT"}}}, {"name": "generator/G_MODEL/b2/SeparableConv2d_2/InstanceNorm/instancenorm/sub", "op": "Sub", "input": ["generator/G_MODEL/b2/SeparableConv2d_2/InstanceNorm/beta", "generator/G_MODEL/b2/SeparableConv2d_2/InstanceNorm/instancenorm/mul_2"], "attr": {"T": {"type": "DT_FLOAT"}}}, {"name": "generator/G_MODEL/b2/SeparableConv2d_2/InstanceNorm/instancenorm/add_1", "op": "AddV2", "input": ["generator/G_MODEL/b2/SeparableConv2d_2/InstanceNorm/instancenorm/mul_1", "generator/G_MODEL/b2/SeparableConv2d_2/InstanceNorm/instancenorm/sub"], "attr": {"T": {"type": "DT_FLOAT"}}}, {"name": "generator/G_MODEL/b2/SeparableConv2d_2/LeakyRelu", "op": "LeakyRelu", "input": ["generator/G_MODEL/b2/SeparableConv2d_2/InstanceNorm/instancenorm/add_1"], "attr": {"T": {"type": "DT_FLOAT"}, "alpha": {"f": 0.2}}}, {"name": "generator/G_MODEL/b2/add", "op": "AddV2", "input": ["generator/G_MODEL/b2/SeparableConv2d_1/LeakyRelu", "generator/G_MODEL/b2/SeparableConv2d_2/LeakyRelu"], "attr": {"T": {"type": "DT_FLOAT"}}}, {"name": "generator/G_MODEL/m/MirrorPad", "op": "MirrorPad", "input": ["generator/G_MODEL/b2/add", "generator/G_MODEL/m/MirrorPad/paddings"], "attr": {"Tpaddings": {"type": "DT_INT32"}, "T": {"type": "DT_FLOAT"}, "mode": {"s": "UkVGTEVDVA=="}}}, {"name": "generator/G_MODEL/m/Conv/Conv2D", "op": "Conv2D", "input": ["generator/G_MODEL/m/MirrorPad", "generator/G_MODEL/m/Conv/weights"], "device": "/device:CPU:0", "attr": {"T": {"type": "DT_FLOAT"}, "use_cudnn_on_gpu": {"b": true}, "explicit_paddings": {"list": {}}, "padding": {"s": "VkFMSUQ="}, "dilations": {"list": {"i": ["1", "1", "1", "1"]}}, "data_format": {"s": "TkhXQw=="}, "strides": {"list": {"i": ["1", "1", "1", "1"]}}}}, {"name": "generator/G_MODEL/m/InstanceNorm/moments/mean", "op": "Mean", "input": ["generator/G_MODEL/m/Conv/Conv2D", "generator/G_MODEL/m/InstanceNorm/moments/mean/reduction_indices"], "attr": {"Tidx": {"type": "DT_INT32"}, "keep_dims": {"b": true}, "T": {"type": "DT_FLOAT"}}}, {"name": "generator/G_MODEL/m/InstanceNorm/moments/SquaredDifference", "op": "SquaredDifference", "input": ["generator/G_MODEL/m/Conv/Conv2D", "generator/G_MODEL/m/InstanceNorm/moments/mean"], "attr": {"T": {"type": "DT_FLOAT"}}}, {"name": "generator/G_MODEL/m/InstanceNorm/moments/variance", "op": "Mean", "input": ["generator/G_MODEL/m/InstanceNorm/moments/SquaredDifference", "generator/G_MODEL/m/InstanceNorm/moments/variance/reduction_indices"], "attr": {"T": {"type": "DT_FLOAT"}, "Tidx": {"type": "DT_INT32"}, "keep_dims": {"b": true}}}, {"name": "generator/G_MODEL/m/InstanceNorm/instancenorm/add", "op": "AddV2", "input": ["generator/G_MODEL/m/InstanceNorm/moments/variance", "generator/G_MODEL/m/InstanceNorm/instancenorm/add/y"], "attr": {"T": {"type": "DT_FLOAT"}}}, {"name": "generator/G_MODEL/m/InstanceNorm/instancenorm/Rsqrt", "op": "Rsqrt", "input": ["generator/G_MODEL/m/InstanceNorm/instancenorm/add"], "attr": {"T": {"type": "DT_FLOAT"}}}, {"name": "generator/G_MODEL/m/InstanceNorm/instancenorm/mul", "op": "Mul", "input": ["generator/G_MODEL/m/InstanceNorm/instancenorm/Rsqrt", "generator/G_MODEL/m/InstanceNorm/gamma"], "attr": {"T": {"type": "DT_FLOAT"}}}, {"name": "generator/G_MODEL/m/InstanceNorm/instancenorm/mul_2", "op": "Mul", "input": ["generator/G_MODEL/m/InstanceNorm/moments/mean", "generator/G_MODEL/m/InstanceNorm/instancenorm/mul"], "attr": {"T": {"type": "DT_FLOAT"}}}, {"name": "generator/G_MODEL/m/InstanceNorm/instancenorm/mul_1", "op": "Mul", "input": ["generator/G_MODEL/m/Conv/Conv2D", "generator/G_MODEL/m/InstanceNorm/instancenorm/mul"], "attr": {"T": {"type": "DT_FLOAT"}}}, {"name": "generator/G_MODEL/m/InstanceNorm/instancenorm/sub", "op": "Sub", "input": ["generator/G_MODEL/m/InstanceNorm/beta", "generator/G_MODEL/m/InstanceNorm/instancenorm/mul_2"], "attr": {"T": {"type": "DT_FLOAT"}}}, {"name": "generator/G_MODEL/m/InstanceNorm/instancenorm/add_1", "op": "AddV2", "input": ["generator/G_MODEL/m/InstanceNorm/instancenorm/mul_1", "generator/G_MODEL/m/InstanceNorm/instancenorm/sub"], "attr": {"T": {"type": "DT_FLOAT"}}}, {"name": "generator/G_MODEL/m/LeakyRelu", "op": "LeakyRelu", "input": ["generator/G_MODEL/m/InstanceNorm/instancenorm/add_1"], "attr": {"T": {"type": "DT_FLOAT"}, "alpha": {"f": 0.2}}}, {"name": "generator/G_MODEL/m/r1/Conv/Conv2D", "op": "Conv2D", "input": ["generator/G_MODEL/m/LeakyRelu", "generator/G_MODEL/m/r1/Conv/weights"], "device": "/device:CPU:0", "attr": {"padding": {"s": "VkFMSUQ="}, "explicit_paddings": {"list": {}}, "use_cudnn_on_gpu": {"b": true}, "data_format": {"s": "TkhXQw=="}, "T": {"type": "DT_FLOAT"}, "strides": {"list": {"i": ["1", "1", "1", "1"]}}, "dilations": {"list": {"i": ["1", "1", "1", "1"]}}}}, {"name": "generator/G_MODEL/m/r1/InstanceNorm/moments/mean", "op": "Mean", "input": ["generator/G_MODEL/m/r1/Conv/Conv2D", "generator/G_MODEL/m/r1/InstanceNorm/moments/mean/reduction_indices"], "attr": {"Tidx": {"type": "DT_INT32"}, "keep_dims": {"b": true}, "T": {"type": "DT_FLOAT"}}}, {"name": "generator/G_MODEL/m/r1/InstanceNorm/moments/SquaredDifference", "op": "SquaredDifference", "input": ["generator/G_MODEL/m/r1/Conv/Conv2D", "generator/G_MODEL/m/r1/InstanceNorm/moments/mean"], "attr": {"T": {"type": "DT_FLOAT"}}}, {"name": "generator/G_MODEL/m/r1/InstanceNorm/moments/variance", "op": "Mean", "input": ["generator/G_MODEL/m/r1/InstanceNorm/moments/SquaredDifference", "generator/G_MODEL/m/r1/InstanceNorm/moments/variance/reduction_indices"], "attr": {"keep_dims": {"b": true}, "T": {"type": "DT_FLOAT"}, "Tidx": {"type": "DT_INT32"}}}, {"name": "generator/G_MODEL/m/r1/InstanceNorm/instancenorm/add", "op": "AddV2", "input": ["generator/G_MODEL/m/r1/InstanceNorm/moments/variance", "generator/G_MODEL/m/r1/InstanceNorm/instancenorm/add/y"], "attr": {"T": {"type": "DT_FLOAT"}}}, {"name": "generator/G_MODEL/m/r1/InstanceNorm/instancenorm/Rsqrt", "op": "Rsqrt", "input": ["generator/G_MODEL/m/r1/InstanceNorm/instancenorm/add"], "attr": {"T": {"type": "DT_FLOAT"}}}, {"name": "generator/G_MODEL/m/r1/InstanceNorm/instancenorm/mul", "op": "Mul", "input": ["generator/G_MODEL/m/r1/InstanceNorm/instancenorm/Rsqrt", "generator/G_MODEL/m/r1/InstanceNorm/gamma"], "attr": {"T": {"type": "DT_FLOAT"}}}, {"name": "generator/G_MODEL/m/r1/InstanceNorm/instancenorm/mul_2", "op": "Mul", "input": ["generator/G_MODEL/m/r1/InstanceNorm/moments/mean", "generator/G_MODEL/m/r1/InstanceNorm/instancenorm/mul"], "attr": {"T": {"type": "DT_FLOAT"}}}, {"name": "generator/G_MODEL/m/r1/InstanceNorm/instancenorm/mul_1", "op": "Mul", "input": ["generator/G_MODEL/m/r1/Conv/Conv2D", "generator/G_MODEL/m/r1/InstanceNorm/instancenorm/mul"], "attr": {"T": {"type": "DT_FLOAT"}}}, {"name": "generator/G_MODEL/m/r1/InstanceNorm/instancenorm/sub", "op": "Sub", "input": ["generator/G_MODEL/m/r1/InstanceNorm/beta", "generator/G_MODEL/m/r1/InstanceNorm/instancenorm/mul_2"], "attr": {"T": {"type": "DT_FLOAT"}}}, {"name": "generator/G_MODEL/m/r1/InstanceNorm/instancenorm/add_1", "op": "AddV2", "input": ["generator/G_MODEL/m/r1/InstanceNorm/instancenorm/mul_1", "generator/G_MODEL/m/r1/InstanceNorm/instancenorm/sub"], "attr": {"T": {"type": "DT_FLOAT"}}}, {"name": "generator/G_MODEL/m/r1/LeakyRelu", "op": "LeakyRelu", "input": ["generator/G_MODEL/m/r1/InstanceNorm/instancenorm/add_1"], "attr": {"alpha": {"f": 0.2}, "T": {"type": "DT_FLOAT"}}}, {"name": "generator/G_MODEL/m/r1/MirrorPad", "op": "MirrorPad", "input": ["generator/G_MODEL/m/r1/LeakyRelu", "generator/G_MODEL/m/r1/MirrorPad/paddings"], "attr": {"mode": {"s": "UkVGTEVDVA=="}, "T": {"type": "DT_FLOAT"}, "Tpaddings": {"type": "DT_INT32"}}}, {"name": "generator/G_MODEL/m/r1/r1/r1", "op": "DepthwiseConv2dNative", "input": ["generator/G_MODEL/m/r1/MirrorPad", "generator/G_MODEL/m/r1/r1/w"], "attr": {"data_format": {"s": "TkhXQw=="}, "T": {"type": "DT_FLOAT"}, "dilations": {"list": {"i": ["1", "1", "1", "1"]}}, "explicit_paddings": {"list": {}}, "strides": {"list": {"i": ["1", "1", "1", "1"]}}, "padding": {"s": "VkFMSUQ="}}}, {"name": "generator/G_MODEL/m/r1/1/moments/mean", "op": "Mean", "input": ["generator/G_MODEL/m/r1/r1/r1", "generator/G_MODEL/m/r1/1/moments/mean/reduction_indices"], "attr": {"Tidx": {"type": "DT_INT32"}, "keep_dims": {"b": true}, "T": {"type": "DT_FLOAT"}}}, {"name": "generator/G_MODEL/m/r1/1/moments/SquaredDifference", "op": "SquaredDifference", "input": ["generator/G_MODEL/m/r1/r1/r1", "generator/G_MODEL/m/r1/1/moments/mean"], "attr": {"T": {"type": "DT_FLOAT"}}}, {"name": "generator/G_MODEL/m/r1/1/moments/variance", "op": "Mean", "input": ["generator/G_MODEL/m/r1/1/moments/SquaredDifference", "generator/G_MODEL/m/r1/1/moments/variance/reduction_indices"], "attr": {"keep_dims": {"b": true}, "Tidx": {"type": "DT_INT32"}, "T": {"type": "DT_FLOAT"}}}, {"name": "generator/G_MODEL/m/r1/1/instancenorm/add", "op": "AddV2", "input": ["generator/G_MODEL/m/r1/1/moments/variance", "generator/G_MODEL/m/r1/1/instancenorm/add/y"], "attr": {"T": {"type": "DT_FLOAT"}}}, {"name": "generator/G_MODEL/m/r1/1/instancenorm/Rsqrt", "op": "Rsqrt", "input": ["generator/G_MODEL/m/r1/1/instancenorm/add"], "attr": {"T": {"type": "DT_FLOAT"}}}, {"name": "generator/G_MODEL/m/r1/1/instancenorm/mul", "op": "Mul", "input": ["generator/G_MODEL/m/r1/1/instancenorm/Rsqrt", "generator/G_MODEL/m/r1/1/gamma"], "attr": {"T": {"type": "DT_FLOAT"}}}, {"name": "generator/G_MODEL/m/r1/1/instancenorm/mul_2", "op": "Mul", "input": ["generator/G_MODEL/m/r1/1/moments/mean", "generator/G_MODEL/m/r1/1/instancenorm/mul"], "attr": {"T": {"type": "DT_FLOAT"}}}, {"name": "generator/G_MODEL/m/r1/1/instancenorm/mul_1", "op": "Mul", "input": ["generator/G_MODEL/m/r1/r1/r1", "generator/G_MODEL/m/r1/1/instancenorm/mul"], "attr": {"T": {"type": "DT_FLOAT"}}}, {"name": "generator/G_MODEL/m/r1/1/instancenorm/sub", "op": "Sub", "input": ["generator/G_MODEL/m/r1/1/beta", "generator/G_MODEL/m/r1/1/instancenorm/mul_2"], "attr": {"T": {"type": "DT_FLOAT"}}}, {"name": "generator/G_MODEL/m/r1/1/instancenorm/add_1", "op": "AddV2", "input": ["generator/G_MODEL/m/r1/1/instancenorm/mul_1", "generator/G_MODEL/m/r1/1/instancenorm/sub"], "attr": {"T": {"type": "DT_FLOAT"}}}, {"name": "generator/G_MODEL/m/r1/LeakyRelu_1", "op": "LeakyRelu", "input": ["generator/G_MODEL/m/r1/1/instancenorm/add_1"], "attr": {"alpha": {"f": 0.2}, "T": {"type": "DT_FLOAT"}}}, {"name": "generator/G_MODEL/m/r1/Conv_1/Conv2D", "op": "Conv2D", "input": ["generator/G_MODEL/m/r1/LeakyRelu_1", "generator/G_MODEL/m/r1/Conv_1/weights"], "device": "/device:CPU:0", "attr": {"T": {"type": "DT_FLOAT"}, "dilations": {"list": {"i": ["1", "1", "1", "1"]}}, "data_format": {"s": "TkhXQw=="}, "explicit_paddings": {"list": {}}, "use_cudnn_on_gpu": {"b": true}, "padding": {"s": "VkFMSUQ="}, "strides": {"list": {"i": ["1", "1", "1", "1"]}}}}, {"name": "generator/G_MODEL/m/r1/2/moments/mean", "op": "Mean", "input": ["generator/G_MODEL/m/r1/Conv_1/Conv2D", "generator/G_MODEL/m/r1/2/moments/mean/reduction_indices"], "attr": {"T": {"type": "DT_FLOAT"}, "keep_dims": {"b": true}, "Tidx": {"type": "DT_INT32"}}}, {"name": "generator/G_MODEL/m/r1/2/moments/SquaredDifference", "op": "SquaredDifference", "input": ["generator/G_MODEL/m/r1/Conv_1/Conv2D", "generator/G_MODEL/m/r1/2/moments/mean"], "attr": {"T": {"type": "DT_FLOAT"}}}, {"name": "generator/G_MODEL/m/r1/2/moments/variance", "op": "Mean", "input": ["generator/G_MODEL/m/r1/2/moments/SquaredDifference", "generator/G_MODEL/m/r1/2/moments/variance/reduction_indices"], "attr": {"Tidx": {"type": "DT_INT32"}, "keep_dims": {"b": true}, "T": {"type": "DT_FLOAT"}}}, {"name": "generator/G_MODEL/m/r1/2/instancenorm/add", "op": "AddV2", "input": ["generator/G_MODEL/m/r1/2/moments/variance", "generator/G_MODEL/m/r1/2/instancenorm/add/y"], "attr": {"T": {"type": "DT_FLOAT"}}}, {"name": "generator/G_MODEL/m/r1/2/instancenorm/Rsqrt", "op": "Rsqrt", "input": ["generator/G_MODEL/m/r1/2/instancenorm/add"], "attr": {"T": {"type": "DT_FLOAT"}}}, {"name": "generator/G_MODEL/m/r1/2/instancenorm/mul", "op": "Mul", "input": ["generator/G_MODEL/m/r1/2/instancenorm/Rsqrt", "generator/G_MODEL/m/r1/2/gamma"], "attr": {"T": {"type": "DT_FLOAT"}}}, {"name": "generator/G_MODEL/m/r1/2/instancenorm/mul_2", "op": "Mul", "input": ["generator/G_MODEL/m/r1/2/moments/mean", "generator/G_MODEL/m/r1/2/instancenorm/mul"], "attr": {"T": {"type": "DT_FLOAT"}}}, {"name": "generator/G_MODEL/m/r1/2/instancenorm/mul_1", "op": "Mul", "input": ["generator/G_MODEL/m/r1/Conv_1/Conv2D", "generator/G_MODEL/m/r1/2/instancenorm/mul"], "attr": {"T": {"type": "DT_FLOAT"}}}, {"name": "generator/G_MODEL/m/r1/2/instancenorm/sub", "op": "Sub", "input": ["generator/G_MODEL/m/r1/2/beta", "generator/G_MODEL/m/r1/2/instancenorm/mul_2"], "attr": {"T": {"type": "DT_FLOAT"}}}, {"name": "generator/G_MODEL/m/r1/2/instancenorm/add_1", "op": "AddV2", "input": ["generator/G_MODEL/m/r1/2/instancenorm/mul_1", "generator/G_MODEL/m/r1/2/instancenorm/sub"], "attr": {"T": {"type": "DT_FLOAT"}}}, {"name": "generator/G_MODEL/m/r1/add", "op": "AddV2", "input": ["generator/G_MODEL/m/LeakyRelu", "generator/G_MODEL/m/r1/2/instancenorm/add_1"], "attr": {"T": {"type": "DT_FLOAT"}}}, {"name": "generator/G_MODEL/m/r2/Conv/Conv2D", "op": "Conv2D", "input": ["generator/G_MODEL/m/r1/add", "generator/G_MODEL/m/r2/Conv/weights"], "device": "/device:CPU:0", "attr": {"use_cudnn_on_gpu": {"b": true}, "T": {"type": "DT_FLOAT"}, "padding": {"s": "VkFMSUQ="}, "strides": {"list": {"i": ["1", "1", "1", "1"]}}, "dilations": {"list": {"i": ["1", "1", "1", "1"]}}, "data_format": {"s": "TkhXQw=="}, "explicit_paddings": {"list": {}}}}, {"name": "generator/G_MODEL/m/r2/InstanceNorm/moments/mean", "op": "Mean", "input": ["generator/G_MODEL/m/r2/Conv/Conv2D", "generator/G_MODEL/m/r2/InstanceNorm/moments/mean/reduction_indices"], "attr": {"Tidx": {"type": "DT_INT32"}, "T": {"type": "DT_FLOAT"}, "keep_dims": {"b": true}}}, {"name": "generator/G_MODEL/m/r2/InstanceNorm/moments/SquaredDifference", "op": "SquaredDifference", "input": ["generator/G_MODEL/m/r2/Conv/Conv2D", "generator/G_MODEL/m/r2/InstanceNorm/moments/mean"], "attr": {"T": {"type": "DT_FLOAT"}}}, {"name": "generator/G_MODEL/m/r2/InstanceNorm/moments/variance", "op": "Mean", "input": ["generator/G_MODEL/m/r2/InstanceNorm/moments/SquaredDifference", "generator/G_MODEL/m/r2/InstanceNorm/moments/variance/reduction_indices"], "attr": {"keep_dims": {"b": true}, "T": {"type": "DT_FLOAT"}, "Tidx": {"type": "DT_INT32"}}}, {"name": "generator/G_MODEL/m/r2/InstanceNorm/instancenorm/add", "op": "AddV2", "input": ["generator/G_MODEL/m/r2/InstanceNorm/moments/variance", "generator/G_MODEL/m/r2/InstanceNorm/instancenorm/add/y"], "attr": {"T": {"type": "DT_FLOAT"}}}, {"name": "generator/G_MODEL/m/r2/InstanceNorm/instancenorm/Rsqrt", "op": "Rsqrt", "input": ["generator/G_MODEL/m/r2/InstanceNorm/instancenorm/add"], "attr": {"T": {"type": "DT_FLOAT"}}}, {"name": "generator/G_MODEL/m/r2/InstanceNorm/instancenorm/mul", "op": "Mul", "input": ["generator/G_MODEL/m/r2/InstanceNorm/instancenorm/Rsqrt", "generator/G_MODEL/m/r2/InstanceNorm/gamma"], "attr": {"T": {"type": "DT_FLOAT"}}}, {"name": "generator/G_MODEL/m/r2/InstanceNorm/instancenorm/mul_2", "op": "Mul", "input": ["generator/G_MODEL/m/r2/InstanceNorm/moments/mean", "generator/G_MODEL/m/r2/InstanceNorm/instancenorm/mul"], "attr": {"T": {"type": "DT_FLOAT"}}}, {"name": "generator/G_MODEL/m/r2/InstanceNorm/instancenorm/mul_1", "op": "Mul", "input": ["generator/G_MODEL/m/r2/Conv/Conv2D", "generator/G_MODEL/m/r2/InstanceNorm/instancenorm/mul"], "attr": {"T": {"type": "DT_FLOAT"}}}, {"name": "generator/G_MODEL/m/r2/InstanceNorm/instancenorm/sub", "op": "Sub", "input": ["generator/G_MODEL/m/r2/InstanceNorm/beta", "generator/G_MODEL/m/r2/InstanceNorm/instancenorm/mul_2"], "attr": {"T": {"type": "DT_FLOAT"}}}, {"name": "generator/G_MODEL/m/r2/InstanceNorm/instancenorm/add_1", "op": "AddV2", "input": ["generator/G_MODEL/m/r2/InstanceNorm/instancenorm/mul_1", "generator/G_MODEL/m/r2/InstanceNorm/instancenorm/sub"], "attr": {"T": {"type": "DT_FLOAT"}}}, {"name": "generator/G_MODEL/m/r2/LeakyRelu", "op": "LeakyRelu", "input": ["generator/G_MODEL/m/r2/InstanceNorm/instancenorm/add_1"], "attr": {"alpha": {"f": 0.2}, "T": {"type": "DT_FLOAT"}}}, {"name": "generator/G_MODEL/m/r2/MirrorPad", "op": "MirrorPad", "input": ["generator/G_MODEL/m/r2/LeakyRelu", "generator/G_MODEL/m/r2/MirrorPad/paddings"], "attr": {"mode": {"s": "UkVGTEVDVA=="}, "Tpaddings": {"type": "DT_INT32"}, "T": {"type": "DT_FLOAT"}}}, {"name": "generator/G_MODEL/m/r2/r2/r2", "op": "DepthwiseConv2dNative", "input": ["generator/G_MODEL/m/r2/MirrorPad", "generator/G_MODEL/m/r2/r2/w"], "attr": {"padding": {"s": "VkFMSUQ="}, "dilations": {"list": {"i": ["1", "1", "1", "1"]}}, "data_format": {"s": "TkhXQw=="}, "T": {"type": "DT_FLOAT"}, "explicit_paddings": {"list": {}}, "strides": {"list": {"i": ["1", "1", "1", "1"]}}}}, {"name": "generator/G_MODEL/m/r2/1/moments/mean", "op": "Mean", "input": ["generator/G_MODEL/m/r2/r2/r2", "generator/G_MODEL/m/r2/1/moments/mean/reduction_indices"], "attr": {"keep_dims": {"b": true}, "T": {"type": "DT_FLOAT"}, "Tidx": {"type": "DT_INT32"}}}, {"name": "generator/G_MODEL/m/r2/1/moments/SquaredDifference", "op": "SquaredDifference", "input": ["generator/G_MODEL/m/r2/r2/r2", "generator/G_MODEL/m/r2/1/moments/mean"], "attr": {"T": {"type": "DT_FLOAT"}}}, {"name": "generator/G_MODEL/m/r2/1/moments/variance", "op": "Mean", "input": ["generator/G_MODEL/m/r2/1/moments/SquaredDifference", "generator/G_MODEL/m/r2/1/moments/variance/reduction_indices"], "attr": {"Tidx": {"type": "DT_INT32"}, "T": {"type": "DT_FLOAT"}, "keep_dims": {"b": true}}}, {"name": "generator/G_MODEL/m/r2/1/instancenorm/add", "op": "AddV2", "input": ["generator/G_MODEL/m/r2/1/moments/variance", "generator/G_MODEL/m/r2/1/instancenorm/add/y"], "attr": {"T": {"type": "DT_FLOAT"}}}, {"name": "generator/G_MODEL/m/r2/1/instancenorm/Rsqrt", "op": "Rsqrt", "input": ["generator/G_MODEL/m/r2/1/instancenorm/add"], "attr": {"T": {"type": "DT_FLOAT"}}}, {"name": "generator/G_MODEL/m/r2/1/instancenorm/mul", "op": "Mul", "input": ["generator/G_MODEL/m/r2/1/instancenorm/Rsqrt", "generator/G_MODEL/m/r2/1/gamma"], "attr": {"T": {"type": "DT_FLOAT"}}}, {"name": "generator/G_MODEL/m/r2/1/instancenorm/mul_2", "op": "Mul", "input": ["generator/G_MODEL/m/r2/1/moments/mean", "generator/G_MODEL/m/r2/1/instancenorm/mul"], "attr": {"T": {"type": "DT_FLOAT"}}}, {"name": "generator/G_MODEL/m/r2/1/instancenorm/mul_1", "op": "Mul", "input": ["generator/G_MODEL/m/r2/r2/r2", "generator/G_MODEL/m/r2/1/instancenorm/mul"], "attr": {"T": {"type": "DT_FLOAT"}}}, {"name": "generator/G_MODEL/m/r2/1/instancenorm/sub", "op": "Sub", "input": ["generator/G_MODEL/m/r2/1/beta", "generator/G_MODEL/m/r2/1/instancenorm/mul_2"], "attr": {"T": {"type": "DT_FLOAT"}}}, {"name": "generator/G_MODEL/m/r2/1/instancenorm/add_1", "op": "AddV2", "input": ["generator/G_MODEL/m/r2/1/instancenorm/mul_1", "generator/G_MODEL/m/r2/1/instancenorm/sub"], "attr": {"T": {"type": "DT_FLOAT"}}}, {"name": "generator/G_MODEL/m/r2/LeakyRelu_1", "op": "LeakyRelu", "input": ["generator/G_MODEL/m/r2/1/instancenorm/add_1"], "attr": {"alpha": {"f": 0.2}, "T": {"type": "DT_FLOAT"}}}, {"name": "generator/G_MODEL/m/r2/Conv_1/Conv2D", "op": "Conv2D", "input": ["generator/G_MODEL/m/r2/LeakyRelu_1", "generator/G_MODEL/m/r2/Conv_1/weights"], "device": "/device:CPU:0", "attr": {"strides": {"list": {"i": ["1", "1", "1", "1"]}}, "data_format": {"s": "TkhXQw=="}, "explicit_paddings": {"list": {}}, "T": {"type": "DT_FLOAT"}, "use_cudnn_on_gpu": {"b": true}, "padding": {"s": "VkFMSUQ="}, "dilations": {"list": {"i": ["1", "1", "1", "1"]}}}}, {"name": "generator/G_MODEL/m/r2/2/moments/mean", "op": "Mean", "input": ["generator/G_MODEL/m/r2/Conv_1/Conv2D", "generator/G_MODEL/m/r2/2/moments/mean/reduction_indices"], "attr": {"T": {"type": "DT_FLOAT"}, "keep_dims": {"b": true}, "Tidx": {"type": "DT_INT32"}}}, {"name": "generator/G_MODEL/m/r2/2/moments/SquaredDifference", "op": "SquaredDifference", "input": ["generator/G_MODEL/m/r2/Conv_1/Conv2D", "generator/G_MODEL/m/r2/2/moments/mean"], "attr": {"T": {"type": "DT_FLOAT"}}}, {"name": "generator/G_MODEL/m/r2/2/moments/variance", "op": "Mean", "input": ["generator/G_MODEL/m/r2/2/moments/SquaredDifference", "generator/G_MODEL/m/r2/2/moments/variance/reduction_indices"], "attr": {"T": {"type": "DT_FLOAT"}, "keep_dims": {"b": true}, "Tidx": {"type": "DT_INT32"}}}, {"name": "generator/G_MODEL/m/r2/2/instancenorm/add", "op": "AddV2", "input": ["generator/G_MODEL/m/r2/2/moments/variance", "generator/G_MODEL/m/r2/2/instancenorm/add/y"], "attr": {"T": {"type": "DT_FLOAT"}}}, {"name": "generator/G_MODEL/m/r2/2/instancenorm/Rsqrt", "op": "Rsqrt", "input": ["generator/G_MODEL/m/r2/2/instancenorm/add"], "attr": {"T": {"type": "DT_FLOAT"}}}, {"name": "generator/G_MODEL/m/r2/2/instancenorm/mul", "op": "Mul", "input": ["generator/G_MODEL/m/r2/2/instancenorm/Rsqrt", "generator/G_MODEL/m/r2/2/gamma"], "attr": {"T": {"type": "DT_FLOAT"}}}, {"name": "generator/G_MODEL/m/r2/2/instancenorm/mul_2", "op": "Mul", "input": ["generator/G_MODEL/m/r2/2/moments/mean", "generator/G_MODEL/m/r2/2/instancenorm/mul"], "attr": {"T": {"type": "DT_FLOAT"}}}, {"name": "generator/G_MODEL/m/r2/2/instancenorm/mul_1", "op": "Mul", "input": ["generator/G_MODEL/m/r2/Conv_1/Conv2D", "generator/G_MODEL/m/r2/2/instancenorm/mul"], "attr": {"T": {"type": "DT_FLOAT"}}}, {"name": "generator/G_MODEL/m/r2/2/instancenorm/sub", "op": "Sub", "input": ["generator/G_MODEL/m/r2/2/beta", "generator/G_MODEL/m/r2/2/instancenorm/mul_2"], "attr": {"T": {"type": "DT_FLOAT"}}}, {"name": "generator/G_MODEL/m/r2/2/instancenorm/add_1", "op": "AddV2", "input": ["generator/G_MODEL/m/r2/2/instancenorm/mul_1", "generator/G_MODEL/m/r2/2/instancenorm/sub"], "attr": {"T": {"type": "DT_FLOAT"}}}, {"name": "generator/G_MODEL/m/r2/add", "op": "AddV2", "input": ["generator/G_MODEL/m/r1/add", "generator/G_MODEL/m/r2/2/instancenorm/add_1"], "attr": {"T": {"type": "DT_FLOAT"}}}, {"name": "generator/G_MODEL/m/r3/Conv/Conv2D", "op": "Conv2D", "input": ["generator/G_MODEL/m/r2/add", "generator/G_MODEL/m/r3/Conv/weights"], "device": "/device:CPU:0", "attr": {"data_format": {"s": "TkhXQw=="}, "dilations": {"list": {"i": ["1", "1", "1", "1"]}}, "T": {"type": "DT_FLOAT"}, "strides": {"list": {"i": ["1", "1", "1", "1"]}}, "use_cudnn_on_gpu": {"b": true}, "padding": {"s": "VkFMSUQ="}, "explicit_paddings": {"list": {}}}}, {"name": "generator/G_MODEL/m/r3/InstanceNorm/moments/mean", "op": "Mean", "input": ["generator/G_MODEL/m/r3/Conv/Conv2D", "generator/G_MODEL/m/r3/InstanceNorm/moments/mean/reduction_indices"], "attr": {"Tidx": {"type": "DT_INT32"}, "keep_dims": {"b": true}, "T": {"type": "DT_FLOAT"}}}, {"name": "generator/G_MODEL/m/r3/InstanceNorm/moments/SquaredDifference", "op": "SquaredDifference", "input": ["generator/G_MODEL/m/r3/Conv/Conv2D", "generator/G_MODEL/m/r3/InstanceNorm/moments/mean"], "attr": {"T": {"type": "DT_FLOAT"}}}, {"name": "generator/G_MODEL/m/r3/InstanceNorm/moments/variance", "op": "Mean", "input": ["generator/G_MODEL/m/r3/InstanceNorm/moments/SquaredDifference", "generator/G_MODEL/m/r3/InstanceNorm/moments/variance/reduction_indices"], "attr": {"keep_dims": {"b": true}, "T": {"type": "DT_FLOAT"}, "Tidx": {"type": "DT_INT32"}}}, {"name": "generator/G_MODEL/m/r3/InstanceNorm/instancenorm/add", "op": "AddV2", "input": ["generator/G_MODEL/m/r3/InstanceNorm/moments/variance", "generator/G_MODEL/m/r3/InstanceNorm/instancenorm/add/y"], "attr": {"T": {"type": "DT_FLOAT"}}}, {"name": "generator/G_MODEL/m/r3/InstanceNorm/instancenorm/Rsqrt", "op": "Rsqrt", "input": ["generator/G_MODEL/m/r3/InstanceNorm/instancenorm/add"], "attr": {"T": {"type": "DT_FLOAT"}}}, {"name": "generator/G_MODEL/m/r3/InstanceNorm/instancenorm/mul", "op": "Mul", "input": ["generator/G_MODEL/m/r3/InstanceNorm/instancenorm/Rsqrt", "generator/G_MODEL/m/r3/InstanceNorm/gamma"], "attr": {"T": {"type": "DT_FLOAT"}}}, {"name": "generator/G_MODEL/m/r3/InstanceNorm/instancenorm/mul_2", "op": "Mul", "input": ["generator/G_MODEL/m/r3/InstanceNorm/moments/mean", "generator/G_MODEL/m/r3/InstanceNorm/instancenorm/mul"], "attr": {"T": {"type": "DT_FLOAT"}}}, {"name": "generator/G_MODEL/m/r3/InstanceNorm/instancenorm/mul_1", "op": "Mul", "input": ["generator/G_MODEL/m/r3/Conv/Conv2D", "generator/G_MODEL/m/r3/InstanceNorm/instancenorm/mul"], "attr": {"T": {"type": "DT_FLOAT"}}}, {"name": "generator/G_MODEL/m/r3/InstanceNorm/instancenorm/sub", "op": "Sub", "input": ["generator/G_MODEL/m/r3/InstanceNorm/beta", "generator/G_MODEL/m/r3/InstanceNorm/instancenorm/mul_2"], "attr": {"T": {"type": "DT_FLOAT"}}}, {"name": "generator/G_MODEL/m/r3/InstanceNorm/instancenorm/add_1", "op": "AddV2", "input": ["generator/G_MODEL/m/r3/InstanceNorm/instancenorm/mul_1", "generator/G_MODEL/m/r3/InstanceNorm/instancenorm/sub"], "attr": {"T": {"type": "DT_FLOAT"}}}, {"name": "generator/G_MODEL/m/r3/LeakyRelu", "op": "LeakyRelu", "input": ["generator/G_MODEL/m/r3/InstanceNorm/instancenorm/add_1"], "attr": {"alpha": {"f": 0.2}, "T": {"type": "DT_FLOAT"}}}, {"name": "generator/G_MODEL/m/r3/MirrorPad", "op": "MirrorPad", "input": ["generator/G_MODEL/m/r3/LeakyRelu", "generator/G_MODEL/m/r3/MirrorPad/paddings"], "attr": {"Tpaddings": {"type": "DT_INT32"}, "mode": {"s": "UkVGTEVDVA=="}, "T": {"type": "DT_FLOAT"}}}, {"name": "generator/G_MODEL/m/r3/r3/r3", "op": "DepthwiseConv2dNative", "input": ["generator/G_MODEL/m/r3/MirrorPad", "generator/G_MODEL/m/r3/r3/w"], "attr": {"strides": {"list": {"i": ["1", "1", "1", "1"]}}, "data_format": {"s": "TkhXQw=="}, "explicit_paddings": {"list": {}}, "padding": {"s": "VkFMSUQ="}, "dilations": {"list": {"i": ["1", "1", "1", "1"]}}, "T": {"type": "DT_FLOAT"}}}, {"name": "generator/G_MODEL/m/r3/1/moments/mean", "op": "Mean", "input": ["generator/G_MODEL/m/r3/r3/r3", "generator/G_MODEL/m/r3/1/moments/mean/reduction_indices"], "attr": {"T": {"type": "DT_FLOAT"}, "Tidx": {"type": "DT_INT32"}, "keep_dims": {"b": true}}}, {"name": "generator/G_MODEL/m/r3/1/moments/SquaredDifference", "op": "SquaredDifference", "input": ["generator/G_MODEL/m/r3/r3/r3", "generator/G_MODEL/m/r3/1/moments/mean"], "attr": {"T": {"type": "DT_FLOAT"}}}, {"name": "generator/G_MODEL/m/r3/1/moments/variance", "op": "Mean", "input": ["generator/G_MODEL/m/r3/1/moments/SquaredDifference", "generator/G_MODEL/m/r3/1/moments/variance/reduction_indices"], "attr": {"Tidx": {"type": "DT_INT32"}, "keep_dims": {"b": true}, "T": {"type": "DT_FLOAT"}}}, {"name": "generator/G_MODEL/m/r3/1/instancenorm/add", "op": "AddV2", "input": ["generator/G_MODEL/m/r3/1/moments/variance", "generator/G_MODEL/m/r3/1/instancenorm/add/y"], "attr": {"T": {"type": "DT_FLOAT"}}}, {"name": "generator/G_MODEL/m/r3/1/instancenorm/Rsqrt", "op": "Rsqrt", "input": ["generator/G_MODEL/m/r3/1/instancenorm/add"], "attr": {"T": {"type": "DT_FLOAT"}}}, {"name": "generator/G_MODEL/m/r3/1/instancenorm/mul", "op": "Mul", "input": ["generator/G_MODEL/m/r3/1/instancenorm/Rsqrt", "generator/G_MODEL/m/r3/1/gamma"], "attr": {"T": {"type": "DT_FLOAT"}}}, {"name": "generator/G_MODEL/m/r3/1/instancenorm/mul_2", "op": "Mul", "input": ["generator/G_MODEL/m/r3/1/moments/mean", "generator/G_MODEL/m/r3/1/instancenorm/mul"], "attr": {"T": {"type": "DT_FLOAT"}}}, {"name": "generator/G_MODEL/m/r3/1/instancenorm/mul_1", "op": "Mul", "input": ["generator/G_MODEL/m/r3/r3/r3", "generator/G_MODEL/m/r3/1/instancenorm/mul"], "attr": {"T": {"type": "DT_FLOAT"}}}, {"name": "generator/G_MODEL/m/r3/1/instancenorm/sub", "op": "Sub", "input": ["generator/G_MODEL/m/r3/1/beta", "generator/G_MODEL/m/r3/1/instancenorm/mul_2"], "attr": {"T": {"type": "DT_FLOAT"}}}, {"name": "generator/G_MODEL/m/r3/1/instancenorm/add_1", "op": "AddV2", "input": ["generator/G_MODEL/m/r3/1/instancenorm/mul_1", "generator/G_MODEL/m/r3/1/instancenorm/sub"], "attr": {"T": {"type": "DT_FLOAT"}}}, {"name": "generator/G_MODEL/m/r3/LeakyRelu_1", "op": "LeakyRelu", "input": ["generator/G_MODEL/m/r3/1/instancenorm/add_1"], "attr": {"alpha": {"f": 0.2}, "T": {"type": "DT_FLOAT"}}}, {"name": "generator/G_MODEL/m/r3/Conv_1/Conv2D", "op": "Conv2D", "input": ["generator/G_MODEL/m/r3/LeakyRelu_1", "generator/G_MODEL/m/r3/Conv_1/weights"], "device": "/device:CPU:0", "attr": {"padding": {"s": "VkFMSUQ="}, "data_format": {"s": "TkhXQw=="}, "dilations": {"list": {"i": ["1", "1", "1", "1"]}}, "T": {"type": "DT_FLOAT"}, "use_cudnn_on_gpu": {"b": true}, "explicit_paddings": {"list": {}}, "strides": {"list": {"i": ["1", "1", "1", "1"]}}}}, {"name": "generator/G_MODEL/m/r3/2/moments/mean", "op": "Mean", "input": ["generator/G_MODEL/m/r3/Conv_1/Conv2D", "generator/G_MODEL/m/r3/2/moments/mean/reduction_indices"], "attr": {"keep_dims": {"b": true}, "T": {"type": "DT_FLOAT"}, "Tidx": {"type": "DT_INT32"}}}, {"name": "generator/G_MODEL/m/r3/2/moments/SquaredDifference", "op": "SquaredDifference", "input": ["generator/G_MODEL/m/r3/Conv_1/Conv2D", "generator/G_MODEL/m/r3/2/moments/mean"], "attr": {"T": {"type": "DT_FLOAT"}}}, {"name": "generator/G_MODEL/m/r3/2/moments/variance", "op": "Mean", "input": ["generator/G_MODEL/m/r3/2/moments/SquaredDifference", "generator/G_MODEL/m/r3/2/moments/variance/reduction_indices"], "attr": {"keep_dims": {"b": true}, "T": {"type": "DT_FLOAT"}, "Tidx": {"type": "DT_INT32"}}}, {"name": "generator/G_MODEL/m/r3/2/instancenorm/add", "op": "AddV2", "input": ["generator/G_MODEL/m/r3/2/moments/variance", "generator/G_MODEL/m/r3/2/instancenorm/add/y"], "attr": {"T": {"type": "DT_FLOAT"}}}, {"name": "generator/G_MODEL/m/r3/2/instancenorm/Rsqrt", "op": "Rsqrt", "input": ["generator/G_MODEL/m/r3/2/instancenorm/add"], "attr": {"T": {"type": "DT_FLOAT"}}}, {"name": "generator/G_MODEL/m/r3/2/instancenorm/mul", "op": "Mul", "input": ["generator/G_MODEL/m/r3/2/instancenorm/Rsqrt", "generator/G_MODEL/m/r3/2/gamma"], "attr": {"T": {"type": "DT_FLOAT"}}}, {"name": "generator/G_MODEL/m/r3/2/instancenorm/mul_2", "op": "Mul", "input": ["generator/G_MODEL/m/r3/2/moments/mean", "generator/G_MODEL/m/r3/2/instancenorm/mul"], "attr": {"T": {"type": "DT_FLOAT"}}}, {"name": "generator/G_MODEL/m/r3/2/instancenorm/mul_1", "op": "Mul", "input": ["generator/G_MODEL/m/r3/Conv_1/Conv2D", "generator/G_MODEL/m/r3/2/instancenorm/mul"], "attr": {"T": {"type": "DT_FLOAT"}}}, {"name": "generator/G_MODEL/m/r3/2/instancenorm/sub", "op": "Sub", "input": ["generator/G_MODEL/m/r3/2/beta", "generator/G_MODEL/m/r3/2/instancenorm/mul_2"], "attr": {"T": {"type": "DT_FLOAT"}}}, {"name": "generator/G_MODEL/m/r3/2/instancenorm/add_1", "op": "AddV2", "input": ["generator/G_MODEL/m/r3/2/instancenorm/mul_1", "generator/G_MODEL/m/r3/2/instancenorm/sub"], "attr": {"T": {"type": "DT_FLOAT"}}}, {"name": "generator/G_MODEL/m/r3/add", "op": "AddV2", "input": ["generator/G_MODEL/m/r2/add", "generator/G_MODEL/m/r3/2/instancenorm/add_1"], "attr": {"T": {"type": "DT_FLOAT"}}}, {"name": "generator/G_MODEL/m/r4/Conv/Conv2D", "op": "Conv2D", "input": ["generator/G_MODEL/m/r3/add", "generator/G_MODEL/m/r4/Conv/weights"], "device": "/device:CPU:0", "attr": {"use_cudnn_on_gpu": {"b": true}, "dilations": {"list": {"i": ["1", "1", "1", "1"]}}, "T": {"type": "DT_FLOAT"}, "strides": {"list": {"i": ["1", "1", "1", "1"]}}, "explicit_paddings": {"list": {}}, "padding": {"s": "VkFMSUQ="}, "data_format": {"s": "TkhXQw=="}}}, {"name": "generator/G_MODEL/m/r4/InstanceNorm/moments/mean", "op": "Mean", "input": ["generator/G_MODEL/m/r4/Conv/Conv2D", "generator/G_MODEL/m/r4/InstanceNorm/moments/mean/reduction_indices"], "attr": {"keep_dims": {"b": true}, "T": {"type": "DT_FLOAT"}, "Tidx": {"type": "DT_INT32"}}}, {"name": "generator/G_MODEL/m/r4/InstanceNorm/moments/SquaredDifference", "op": "SquaredDifference", "input": ["generator/G_MODEL/m/r4/Conv/Conv2D", "generator/G_MODEL/m/r4/InstanceNorm/moments/mean"], "attr": {"T": {"type": "DT_FLOAT"}}}, {"name": "generator/G_MODEL/m/r4/InstanceNorm/moments/variance", "op": "Mean", "input": ["generator/G_MODEL/m/r4/InstanceNorm/moments/SquaredDifference", "generator/G_MODEL/m/r4/InstanceNorm/moments/variance/reduction_indices"], "attr": {"keep_dims": {"b": true}, "Tidx": {"type": "DT_INT32"}, "T": {"type": "DT_FLOAT"}}}, {"name": "generator/G_MODEL/m/r4/InstanceNorm/instancenorm/add", "op": "AddV2", "input": ["generator/G_MODEL/m/r4/InstanceNorm/moments/variance", "generator/G_MODEL/m/r4/InstanceNorm/instancenorm/add/y"], "attr": {"T": {"type": "DT_FLOAT"}}}, {"name": "generator/G_MODEL/m/r4/InstanceNorm/instancenorm/Rsqrt", "op": "Rsqrt", "input": ["generator/G_MODEL/m/r4/InstanceNorm/instancenorm/add"], "attr": {"T": {"type": "DT_FLOAT"}}}, {"name": "generator/G_MODEL/m/r4/InstanceNorm/instancenorm/mul", "op": "Mul", "input": ["generator/G_MODEL/m/r4/InstanceNorm/instancenorm/Rsqrt", "generator/G_MODEL/m/r4/InstanceNorm/gamma"], "attr": {"T": {"type": "DT_FLOAT"}}}, {"name": "generator/G_MODEL/m/r4/InstanceNorm/instancenorm/mul_2", "op": "Mul", "input": ["generator/G_MODEL/m/r4/InstanceNorm/moments/mean", "generator/G_MODEL/m/r4/InstanceNorm/instancenorm/mul"], "attr": {"T": {"type": "DT_FLOAT"}}}, {"name": "generator/G_MODEL/m/r4/InstanceNorm/instancenorm/mul_1", "op": "Mul", "input": ["generator/G_MODEL/m/r4/Conv/Conv2D", "generator/G_MODEL/m/r4/InstanceNorm/instancenorm/mul"], "attr": {"T": {"type": "DT_FLOAT"}}}, {"name": "generator/G_MODEL/m/r4/InstanceNorm/instancenorm/sub", "op": "Sub", "input": ["generator/G_MODEL/m/r4/InstanceNorm/beta", "generator/G_MODEL/m/r4/InstanceNorm/instancenorm/mul_2"], "attr": {"T": {"type": "DT_FLOAT"}}}, {"name": "generator/G_MODEL/m/r4/InstanceNorm/instancenorm/add_1", "op": "AddV2", "input": ["generator/G_MODEL/m/r4/InstanceNorm/instancenorm/mul_1", "generator/G_MODEL/m/r4/InstanceNorm/instancenorm/sub"], "attr": {"T": {"type": "DT_FLOAT"}}}, {"name": "generator/G_MODEL/m/r4/LeakyRelu", "op": "LeakyRelu", "input": ["generator/G_MODEL/m/r4/InstanceNorm/instancenorm/add_1"], "attr": {"T": {"type": "DT_FLOAT"}, "alpha": {"f": 0.2}}}, {"name": "generator/G_MODEL/m/r4/MirrorPad", "op": "MirrorPad", "input": ["generator/G_MODEL/m/r4/LeakyRelu", "generator/G_MODEL/m/r4/MirrorPad/paddings"], "attr": {"Tpaddings": {"type": "DT_INT32"}, "T": {"type": "DT_FLOAT"}, "mode": {"s": "UkVGTEVDVA=="}}}, {"name": "generator/G_MODEL/m/r4/r4/r4", "op": "DepthwiseConv2dNative", "input": ["generator/G_MODEL/m/r4/MirrorPad", "generator/G_MODEL/m/r4/r4/w"], "attr": {"strides": {"list": {"i": ["1", "1", "1", "1"]}}, "data_format": {"s": "TkhXQw=="}, "T": {"type": "DT_FLOAT"}, "padding": {"s": "VkFMSUQ="}, "explicit_paddings": {"list": {}}, "dilations": {"list": {"i": ["1", "1", "1", "1"]}}}}, {"name": "generator/G_MODEL/m/r4/1/moments/mean", "op": "Mean", "input": ["generator/G_MODEL/m/r4/r4/r4", "generator/G_MODEL/m/r4/1/moments/mean/reduction_indices"], "attr": {"T": {"type": "DT_FLOAT"}, "keep_dims": {"b": true}, "Tidx": {"type": "DT_INT32"}}}, {"name": "generator/G_MODEL/m/r4/1/moments/SquaredDifference", "op": "SquaredDifference", "input": ["generator/G_MODEL/m/r4/r4/r4", "generator/G_MODEL/m/r4/1/moments/mean"], "attr": {"T": {"type": "DT_FLOAT"}}}, {"name": "generator/G_MODEL/m/r4/1/moments/variance", "op": "Mean", "input": ["generator/G_MODEL/m/r4/1/moments/SquaredDifference", "generator/G_MODEL/m/r4/1/moments/variance/reduction_indices"], "attr": {"keep_dims": {"b": true}, "Tidx": {"type": "DT_INT32"}, "T": {"type": "DT_FLOAT"}}}, {"name": "generator/G_MODEL/m/r4/1/instancenorm/add", "op": "AddV2", "input": ["generator/G_MODEL/m/r4/1/moments/variance", "generator/G_MODEL/m/r4/1/instancenorm/add/y"], "attr": {"T": {"type": "DT_FLOAT"}}}, {"name": "generator/G_MODEL/m/r4/1/instancenorm/Rsqrt", "op": "Rsqrt", "input": ["generator/G_MODEL/m/r4/1/instancenorm/add"], "attr": {"T": {"type": "DT_FLOAT"}}}, {"name": "generator/G_MODEL/m/r4/1/instancenorm/mul", "op": "Mul", "input": ["generator/G_MODEL/m/r4/1/instancenorm/Rsqrt", "generator/G_MODEL/m/r4/1/gamma"], "attr": {"T": {"type": "DT_FLOAT"}}}, {"name": "generator/G_MODEL/m/r4/1/instancenorm/mul_2", "op": "Mul", "input": ["generator/G_MODEL/m/r4/1/moments/mean", "generator/G_MODEL/m/r4/1/instancenorm/mul"], "attr": {"T": {"type": "DT_FLOAT"}}}, {"name": "generator/G_MODEL/m/r4/1/instancenorm/mul_1", "op": "Mul", "input": ["generator/G_MODEL/m/r4/r4/r4", "generator/G_MODEL/m/r4/1/instancenorm/mul"], "attr": {"T": {"type": "DT_FLOAT"}}}, {"name": "generator/G_MODEL/m/r4/1/instancenorm/sub", "op": "Sub", "input": ["generator/G_MODEL/m/r4/1/beta", "generator/G_MODEL/m/r4/1/instancenorm/mul_2"], "attr": {"T": {"type": "DT_FLOAT"}}}, {"name": "generator/G_MODEL/m/r4/1/instancenorm/add_1", "op": "AddV2", "input": ["generator/G_MODEL/m/r4/1/instancenorm/mul_1", "generator/G_MODEL/m/r4/1/instancenorm/sub"], "attr": {"T": {"type": "DT_FLOAT"}}}, {"name": "generator/G_MODEL/m/r4/LeakyRelu_1", "op": "LeakyRelu", "input": ["generator/G_MODEL/m/r4/1/instancenorm/add_1"], "attr": {"T": {"type": "DT_FLOAT"}, "alpha": {"f": 0.2}}}, {"name": "generator/G_MODEL/m/r4/Conv_1/Conv2D", "op": "Conv2D", "input": ["generator/G_MODEL/m/r4/LeakyRelu_1", "generator/G_MODEL/m/r4/Conv_1/weights"], "device": "/device:CPU:0", "attr": {"data_format": {"s": "TkhXQw=="}, "explicit_paddings": {"list": {}}, "padding": {"s": "VkFMSUQ="}, "T": {"type": "DT_FLOAT"}, "strides": {"list": {"i": ["1", "1", "1", "1"]}}, "dilations": {"list": {"i": ["1", "1", "1", "1"]}}, "use_cudnn_on_gpu": {"b": true}}}, {"name": "generator/G_MODEL/m/r4/2/moments/mean", "op": "Mean", "input": ["generator/G_MODEL/m/r4/Conv_1/Conv2D", "generator/G_MODEL/m/r4/2/moments/mean/reduction_indices"], "attr": {"keep_dims": {"b": true}, "T": {"type": "DT_FLOAT"}, "Tidx": {"type": "DT_INT32"}}}, {"name": "generator/G_MODEL/m/r4/2/moments/SquaredDifference", "op": "SquaredDifference", "input": ["generator/G_MODEL/m/r4/Conv_1/Conv2D", "generator/G_MODEL/m/r4/2/moments/mean"], "attr": {"T": {"type": "DT_FLOAT"}}}, {"name": "generator/G_MODEL/m/r4/2/moments/variance", "op": "Mean", "input": ["generator/G_MODEL/m/r4/2/moments/SquaredDifference", "generator/G_MODEL/m/r4/2/moments/variance/reduction_indices"], "attr": {"keep_dims": {"b": true}, "Tidx": {"type": "DT_INT32"}, "T": {"type": "DT_FLOAT"}}}, {"name": "generator/G_MODEL/m/r4/2/instancenorm/add", "op": "AddV2", "input": ["generator/G_MODEL/m/r4/2/moments/variance", "generator/G_MODEL/m/r4/2/instancenorm/add/y"], "attr": {"T": {"type": "DT_FLOAT"}}}, {"name": "generator/G_MODEL/m/r4/2/instancenorm/Rsqrt", "op": "Rsqrt", "input": ["generator/G_MODEL/m/r4/2/instancenorm/add"], "attr": {"T": {"type": "DT_FLOAT"}}}, {"name": "generator/G_MODEL/m/r4/2/instancenorm/mul", "op": "Mul", "input": ["generator/G_MODEL/m/r4/2/instancenorm/Rsqrt", "generator/G_MODEL/m/r4/2/gamma"], "attr": {"T": {"type": "DT_FLOAT"}}}, {"name": "generator/G_MODEL/m/r4/2/instancenorm/mul_2", "op": "Mul", "input": ["generator/G_MODEL/m/r4/2/moments/mean", "generator/G_MODEL/m/r4/2/instancenorm/mul"], "attr": {"T": {"type": "DT_FLOAT"}}}, {"name": "generator/G_MODEL/m/r4/2/instancenorm/mul_1", "op": "Mul", "input": ["generator/G_MODEL/m/r4/Conv_1/Conv2D", "generator/G_MODEL/m/r4/2/instancenorm/mul"], "attr": {"T": {"type": "DT_FLOAT"}}}, {"name": "generator/G_MODEL/m/r4/2/instancenorm/sub", "op": "Sub", "input": ["generator/G_MODEL/m/r4/2/beta", "generator/G_MODEL/m/r4/2/instancenorm/mul_2"], "attr": {"T": {"type": "DT_FLOAT"}}}, {"name": "generator/G_MODEL/m/r4/2/instancenorm/add_1", "op": "AddV2", "input": ["generator/G_MODEL/m/r4/2/instancenorm/mul_1", "generator/G_MODEL/m/r4/2/instancenorm/sub"], "attr": {"T": {"type": "DT_FLOAT"}}}, {"name": "generator/G_MODEL/m/r4/add", "op": "AddV2", "input": ["generator/G_MODEL/m/r3/add", "generator/G_MODEL/m/r4/2/instancenorm/add_1"], "attr": {"T": {"type": "DT_FLOAT"}}}, {"name": "generator/G_MODEL/m/r5/Conv/Conv2D", "op": "Conv2D", "input": ["generator/G_MODEL/m/r4/add", "generator/G_MODEL/m/r5/Conv/weights"], "device": "/device:CPU:0", "attr": {"dilations": {"list": {"i": ["1", "1", "1", "1"]}}, "use_cudnn_on_gpu": {"b": true}, "padding": {"s": "VkFMSUQ="}, "T": {"type": "DT_FLOAT"}, "data_format": {"s": "TkhXQw=="}, "strides": {"list": {"i": ["1", "1", "1", "1"]}}, "explicit_paddings": {"list": {}}}}, {"name": "generator/G_MODEL/m/r5/InstanceNorm/moments/mean", "op": "Mean", "input": ["generator/G_MODEL/m/r5/Conv/Conv2D", "generator/G_MODEL/m/r5/InstanceNorm/moments/mean/reduction_indices"], "attr": {"T": {"type": "DT_FLOAT"}, "Tidx": {"type": "DT_INT32"}, "keep_dims": {"b": true}}}, {"name": "generator/G_MODEL/m/r5/InstanceNorm/moments/SquaredDifference", "op": "SquaredDifference", "input": ["generator/G_MODEL/m/r5/Conv/Conv2D", "generator/G_MODEL/m/r5/InstanceNorm/moments/mean"], "attr": {"T": {"type": "DT_FLOAT"}}}, {"name": "generator/G_MODEL/m/r5/InstanceNorm/moments/variance", "op": "Mean", "input": ["generator/G_MODEL/m/r5/InstanceNorm/moments/SquaredDifference", "generator/G_MODEL/m/r5/InstanceNorm/moments/variance/reduction_indices"], "attr": {"keep_dims": {"b": true}, "T": {"type": "DT_FLOAT"}, "Tidx": {"type": "DT_INT32"}}}, {"name": "generator/G_MODEL/m/r5/InstanceNorm/instancenorm/add", "op": "AddV2", "input": ["generator/G_MODEL/m/r5/InstanceNorm/moments/variance", "generator/G_MODEL/m/r5/InstanceNorm/instancenorm/add/y"], "attr": {"T": {"type": "DT_FLOAT"}}}, {"name": "generator/G_MODEL/m/r5/InstanceNorm/instancenorm/Rsqrt", "op": "Rsqrt", "input": ["generator/G_MODEL/m/r5/InstanceNorm/instancenorm/add"], "attr": {"T": {"type": "DT_FLOAT"}}}, {"name": "generator/G_MODEL/m/r5/InstanceNorm/instancenorm/mul", "op": "Mul", "input": ["generator/G_MODEL/m/r5/InstanceNorm/instancenorm/Rsqrt", "generator/G_MODEL/m/r5/InstanceNorm/gamma"], "attr": {"T": {"type": "DT_FLOAT"}}}, {"name": "generator/G_MODEL/m/r5/InstanceNorm/instancenorm/mul_2", "op": "Mul", "input": ["generator/G_MODEL/m/r5/InstanceNorm/moments/mean", "generator/G_MODEL/m/r5/InstanceNorm/instancenorm/mul"], "attr": {"T": {"type": "DT_FLOAT"}}}, {"name": "generator/G_MODEL/m/r5/InstanceNorm/instancenorm/mul_1", "op": "Mul", "input": ["generator/G_MODEL/m/r5/Conv/Conv2D", "generator/G_MODEL/m/r5/InstanceNorm/instancenorm/mul"], "attr": {"T": {"type": "DT_FLOAT"}}}, {"name": "generator/G_MODEL/m/r5/InstanceNorm/instancenorm/sub", "op": "Sub", "input": ["generator/G_MODEL/m/r5/InstanceNorm/beta", "generator/G_MODEL/m/r5/InstanceNorm/instancenorm/mul_2"], "attr": {"T": {"type": "DT_FLOAT"}}}, {"name": "generator/G_MODEL/m/r5/InstanceNorm/instancenorm/add_1", "op": "AddV2", "input": ["generator/G_MODEL/m/r5/InstanceNorm/instancenorm/mul_1", "generator/G_MODEL/m/r5/InstanceNorm/instancenorm/sub"], "attr": {"T": {"type": "DT_FLOAT"}}}, {"name": "generator/G_MODEL/m/r5/LeakyRelu", "op": "LeakyRelu", "input": ["generator/G_MODEL/m/r5/InstanceNorm/instancenorm/add_1"], "attr": {"alpha": {"f": 0.2}, "T": {"type": "DT_FLOAT"}}}, {"name": "generator/G_MODEL/m/r5/MirrorPad", "op": "MirrorPad", "input": ["generator/G_MODEL/m/r5/LeakyRelu", "generator/G_MODEL/m/r5/MirrorPad/paddings"], "attr": {"T": {"type": "DT_FLOAT"}, "mode": {"s": "UkVGTEVDVA=="}, "Tpaddings": {"type": "DT_INT32"}}}, {"name": "generator/G_MODEL/m/r5/r5/r5", "op": "DepthwiseConv2dNative", "input": ["generator/G_MODEL/m/r5/MirrorPad", "generator/G_MODEL/m/r5/r5/w"], "attr": {"dilations": {"list": {"i": ["1", "1", "1", "1"]}}, "padding": {"s": "VkFMSUQ="}, "strides": {"list": {"i": ["1", "1", "1", "1"]}}, "data_format": {"s": "TkhXQw=="}, "T": {"type": "DT_FLOAT"}, "explicit_paddings": {"list": {}}}}, {"name": "generator/G_MODEL/m/r5/1/moments/mean", "op": "Mean", "input": ["generator/G_MODEL/m/r5/r5/r5", "generator/G_MODEL/m/r5/1/moments/mean/reduction_indices"], "attr": {"Tidx": {"type": "DT_INT32"}, "T": {"type": "DT_FLOAT"}, "keep_dims": {"b": true}}}, {"name": "generator/G_MODEL/m/r5/1/moments/SquaredDifference", "op": "SquaredDifference", "input": ["generator/G_MODEL/m/r5/r5/r5", "generator/G_MODEL/m/r5/1/moments/mean"], "attr": {"T": {"type": "DT_FLOAT"}}}, {"name": "generator/G_MODEL/m/r5/1/moments/variance", "op": "Mean", "input": ["generator/G_MODEL/m/r5/1/moments/SquaredDifference", "generator/G_MODEL/m/r5/1/moments/variance/reduction_indices"], "attr": {"Tidx": {"type": "DT_INT32"}, "T": {"type": "DT_FLOAT"}, "keep_dims": {"b": true}}}, {"name": "generator/G_MODEL/m/r5/1/instancenorm/add", "op": "AddV2", "input": ["generator/G_MODEL/m/r5/1/moments/variance", "generator/G_MODEL/m/r5/1/instancenorm/add/y"], "attr": {"T": {"type": "DT_FLOAT"}}}, {"name": "generator/G_MODEL/m/r5/1/instancenorm/Rsqrt", "op": "Rsqrt", "input": ["generator/G_MODEL/m/r5/1/instancenorm/add"], "attr": {"T": {"type": "DT_FLOAT"}}}, {"name": "generator/G_MODEL/m/r5/1/instancenorm/mul", "op": "Mul", "input": ["generator/G_MODEL/m/r5/1/instancenorm/Rsqrt", "generator/G_MODEL/m/r5/1/gamma"], "attr": {"T": {"type": "DT_FLOAT"}}}, {"name": "generator/G_MODEL/m/r5/1/instancenorm/mul_2", "op": "Mul", "input": ["generator/G_MODEL/m/r5/1/moments/mean", "generator/G_MODEL/m/r5/1/instancenorm/mul"], "attr": {"T": {"type": "DT_FLOAT"}}}, {"name": "generator/G_MODEL/m/r5/1/instancenorm/mul_1", "op": "Mul", "input": ["generator/G_MODEL/m/r5/r5/r5", "generator/G_MODEL/m/r5/1/instancenorm/mul"], "attr": {"T": {"type": "DT_FLOAT"}}}, {"name": "generator/G_MODEL/m/r5/1/instancenorm/sub", "op": "Sub", "input": ["generator/G_MODEL/m/r5/1/beta", "generator/G_MODEL/m/r5/1/instancenorm/mul_2"], "attr": {"T": {"type": "DT_FLOAT"}}}, {"name": "generator/G_MODEL/m/r5/1/instancenorm/add_1", "op": "AddV2", "input": ["generator/G_MODEL/m/r5/1/instancenorm/mul_1", "generator/G_MODEL/m/r5/1/instancenorm/sub"], "attr": {"T": {"type": "DT_FLOAT"}}}, {"name": "generator/G_MODEL/m/r5/LeakyRelu_1", "op": "LeakyRelu", "input": ["generator/G_MODEL/m/r5/1/instancenorm/add_1"], "attr": {"alpha": {"f": 0.2}, "T": {"type": "DT_FLOAT"}}}, {"name": "generator/G_MODEL/m/r5/Conv_1/Conv2D", "op": "Conv2D", "input": ["generator/G_MODEL/m/r5/LeakyRelu_1", "generator/G_MODEL/m/r5/Conv_1/weights"], "device": "/device:CPU:0", "attr": {"dilations": {"list": {"i": ["1", "1", "1", "1"]}}, "explicit_paddings": {"list": {}}, "strides": {"list": {"i": ["1", "1", "1", "1"]}}, "use_cudnn_on_gpu": {"b": true}, "T": {"type": "DT_FLOAT"}, "padding": {"s": "VkFMSUQ="}, "data_format": {"s": "TkhXQw=="}}}, {"name": "generator/G_MODEL/m/r5/2/moments/mean", "op": "Mean", "input": ["generator/G_MODEL/m/r5/Conv_1/Conv2D", "generator/G_MODEL/m/r5/2/moments/mean/reduction_indices"], "attr": {"keep_dims": {"b": true}, "T": {"type": "DT_FLOAT"}, "Tidx": {"type": "DT_INT32"}}}, {"name": "generator/G_MODEL/m/r5/2/moments/SquaredDifference", "op": "SquaredDifference", "input": ["generator/G_MODEL/m/r5/Conv_1/Conv2D", "generator/G_MODEL/m/r5/2/moments/mean"], "attr": {"T": {"type": "DT_FLOAT"}}}, {"name": "generator/G_MODEL/m/r5/2/moments/variance", "op": "Mean", "input": ["generator/G_MODEL/m/r5/2/moments/SquaredDifference", "generator/G_MODEL/m/r5/2/moments/variance/reduction_indices"], "attr": {"Tidx": {"type": "DT_INT32"}, "T": {"type": "DT_FLOAT"}, "keep_dims": {"b": true}}}, {"name": "generator/G_MODEL/m/r5/2/instancenorm/add", "op": "AddV2", "input": ["generator/G_MODEL/m/r5/2/moments/variance", "generator/G_MODEL/m/r5/2/instancenorm/add/y"], "attr": {"T": {"type": "DT_FLOAT"}}}, {"name": "generator/G_MODEL/m/r5/2/instancenorm/Rsqrt", "op": "Rsqrt", "input": ["generator/G_MODEL/m/r5/2/instancenorm/add"], "attr": {"T": {"type": "DT_FLOAT"}}}, {"name": "generator/G_MODEL/m/r5/2/instancenorm/mul", "op": "Mul", "input": ["generator/G_MODEL/m/r5/2/instancenorm/Rsqrt", "generator/G_MODEL/m/r5/2/gamma"], "attr": {"T": {"type": "DT_FLOAT"}}}, {"name": "generator/G_MODEL/m/r5/2/instancenorm/mul_2", "op": "Mul", "input": ["generator/G_MODEL/m/r5/2/moments/mean", "generator/G_MODEL/m/r5/2/instancenorm/mul"], "attr": {"T": {"type": "DT_FLOAT"}}}, {"name": "generator/G_MODEL/m/r5/2/instancenorm/mul_1", "op": "Mul", "input": ["generator/G_MODEL/m/r5/Conv_1/Conv2D", "generator/G_MODEL/m/r5/2/instancenorm/mul"], "attr": {"T": {"type": "DT_FLOAT"}}}, {"name": "generator/G_MODEL/m/r5/2/instancenorm/sub", "op": "Sub", "input": ["generator/G_MODEL/m/r5/2/beta", "generator/G_MODEL/m/r5/2/instancenorm/mul_2"], "attr": {"T": {"type": "DT_FLOAT"}}}, {"name": "generator/G_MODEL/m/r5/2/instancenorm/add_1", "op": "AddV2", "input": ["generator/G_MODEL/m/r5/2/instancenorm/mul_1", "generator/G_MODEL/m/r5/2/instancenorm/sub"], "attr": {"T": {"type": "DT_FLOAT"}}}, {"name": "generator/G_MODEL/m/r5/add", "op": "AddV2", "input": ["generator/G_MODEL/m/r4/add", "generator/G_MODEL/m/r5/2/instancenorm/add_1"], "attr": {"T": {"type": "DT_FLOAT"}}}, {"name": "generator/G_MODEL/m/r6/Conv/Conv2D", "op": "Conv2D", "input": ["generator/G_MODEL/m/r5/add", "generator/G_MODEL/m/r6/Conv/weights"], "device": "/device:CPU:0", "attr": {"use_cudnn_on_gpu": {"b": true}, "explicit_paddings": {"list": {}}, "dilations": {"list": {"i": ["1", "1", "1", "1"]}}, "padding": {"s": "VkFMSUQ="}, "strides": {"list": {"i": ["1", "1", "1", "1"]}}, "T": {"type": "DT_FLOAT"}, "data_format": {"s": "TkhXQw=="}}}, {"name": "generator/G_MODEL/m/r6/InstanceNorm/moments/mean", "op": "Mean", "input": ["generator/G_MODEL/m/r6/Conv/Conv2D", "generator/G_MODEL/m/r6/InstanceNorm/moments/mean/reduction_indices"], "attr": {"T": {"type": "DT_FLOAT"}, "Tidx": {"type": "DT_INT32"}, "keep_dims": {"b": true}}}, {"name": "generator/G_MODEL/m/r6/InstanceNorm/moments/SquaredDifference", "op": "SquaredDifference", "input": ["generator/G_MODEL/m/r6/Conv/Conv2D", "generator/G_MODEL/m/r6/InstanceNorm/moments/mean"], "attr": {"T": {"type": "DT_FLOAT"}}}, {"name": "generator/G_MODEL/m/r6/InstanceNorm/moments/variance", "op": "Mean", "input": ["generator/G_MODEL/m/r6/InstanceNorm/moments/SquaredDifference", "generator/G_MODEL/m/r6/InstanceNorm/moments/variance/reduction_indices"], "attr": {"T": {"type": "DT_FLOAT"}, "keep_dims": {"b": true}, "Tidx": {"type": "DT_INT32"}}}, {"name": "generator/G_MODEL/m/r6/InstanceNorm/instancenorm/add", "op": "AddV2", "input": ["generator/G_MODEL/m/r6/InstanceNorm/moments/variance", "generator/G_MODEL/m/r6/InstanceNorm/instancenorm/add/y"], "attr": {"T": {"type": "DT_FLOAT"}}}, {"name": "generator/G_MODEL/m/r6/InstanceNorm/instancenorm/Rsqrt", "op": "Rsqrt", "input": ["generator/G_MODEL/m/r6/InstanceNorm/instancenorm/add"], "attr": {"T": {"type"…
 "uint8", "min": -0.187917172908783, "scale": 0.0010439842939376832, "original_dtype": "float32"}}, {"name": "generator/G_MODEL/u1/SeparableConv2d/InstanceNorm/beta", "shape": [128], "dtype": "float32", "quantization": {"dtype": "uint8", "min": -0.18274547495678362, "scale": 0.0010813341713419148, "original_dtype": "float32"}}, {"name": "generator/G_MODEL/u1/mul/x", "shape": [], "dtype": "int32"}, {"name": "generator/G_MODEL/u1/strided_slice/stack", "shape": [1], "dtype": "int32"}, {"name": "generator/G_MODEL/u1/strided_slice/stack_1", "shape": [1], "dtype": "int32"}, {"name": "generator/G_MODEL/u1/strided_slice/stack_2", "shape": [1], "dtype": "int32"}, {"name": "generator/G_MODEL/u1/mul_1/x", "shape": [], "dtype": "int32"}, {"name": "generator/G_MODEL/u2/InstanceNorm/beta", "shape": [128], "dtype": "float32", "quantization": {"dtype": "uint8", "min": -0.16544923098648295, "scale": 0.0010212915492992774, "original_dtype": "float32"}}, {"name": "generator/G_MODEL/u2/SeparableConv2d_1/InstanceNorm/beta", "shape": [128], "dtype": "float32", "quantization": {"dtype": "uint8", "min": -0.1292326251665751, "scale": 0.0010592838128407796, "original_dtype": "float32"}}, {"name": "generator/G_MODEL/u2/SeparableConv2d/InstanceNorm/beta", "shape": [128], "dtype": "float32", "quantization": {"dtype": "uint8", "min": -0.20506292230942672, "scale": 0.0012978665968951058, "original_dtype": "float32"}}, {"name": "generator/G_MODEL/u2/mul/x", "shape": [], "dtype": "int32"}, {"name": "generator/G_MODEL/u2/strided_slice/stack", "shape": [1], "dtype": "int32"}, {"name": "generator/G_MODEL/u2/strided_slice/stack_1", "shape": [1], "dtype": "int32"}, {"name": "generator/G_MODEL/u2/strided_slice/stack_2", "shape": [1], "dtype": "int32"}, {"name": "generator/G_MODEL/u2/mul_1/x", "shape": [], "dtype": "int32"}, {"name": "generator/G_MODEL/m/InstanceNorm_1/beta", "shape": [256], "dtype": "float32", "quantization": {"dtype": "uint8", "min": -0.17159925629110898, "scale": 0.0015052566341325348, "original_dtype": "float32"}}, {"name": "generator/G_MODEL/m/r8/2/beta", "shape": [256], "dtype": "float32", "quantization": {"dtype": "uint8", "min": -0.040638712048530576, "scale": 0.0003762843708197276, "original_dtype": "float32"}}, {"name": "generator/G_MODEL/m/r8/1/beta", "shape": [512], "dtype": "float32", "quantization": {"dtype": "uint8", "min": -0.31144137873369104, "scale": 0.0021331601283129525, "original_dtype": "float32"}}, {"name": "generator/G_MODEL/m/r8/InstanceNorm/beta", "shape": [512], "dtype": "float32", "quantization": {"dtype": "uint8", "min": -0.4149135645698099, "scale": 0.0022307180890849994, "original_dtype": "float32"}}, {"name": "generator/G_MODEL/m/r7/2/beta", "shape": [256], "dtype": "float32", "quantization": {"dtype": "uint8", "min": -0.04284868662556013, "scale": 0.00035412137707074485, "original_dtype": "float32"}}, {"name": "generator/G_MODEL/m/r7/1/beta", "shape": [512], "dtype": "float32", "quantization": {"dtype": "uint8", "min": -0.31199274694218354, "scale": 0.001999953506039638, "original_dtype": "float32"}}, {"name": "generator/G_MODEL/m/r7/InstanceNorm/beta", "shape": [512], "dtype": "float32", "quantization": {"dtype": "uint8", "min": -0.3218516051769257, "scale": 0.0018497218688329061, "original_dtype": "float32"}}, {"name": "generator/G_MODEL/m/r6/2/beta", "shape": [256], "dtype": "float32", "quantization": {"dtype": "uint8", "min": -0.046286641470357485, "scale": 0.00040961629619785386, "original_dtype": "float32"}}, {"name": "generator/G_MODEL/m/r6/1/beta", "shape": [512], "dtype": "float32", "quantization": {"dtype": "uint8", "min": -0.3397457365896188, "scale": 0.0021234108536851174, "original_dtype": "float32"}}, {"name": "generator/G_MODEL/m/r6/InstanceNorm/beta", "shape": [512], "dtype": "float32", "quantization": {"dtype": "uint8", "min": -0.3707900608287138, "scale": 0.0019311982334828844, "original_dtype": "float32"}}, {"name": "generator/G_MODEL/m/r5/2/beta", "shape": [256], "dtype": "float32", "quantization": {"dtype": "uint8", "min": -0.041961743755667816, "scale": 0.0003849701261987873, "original_dtype": "float32"}}, {"name": "generator/G_MODEL/m/r5/1/beta", "shape": [512], "dtype": "float32", "quantization": {"dtype": "uint8", "min": -0.4322431925465079, "scale": 0.0025277379681082333, "original_dtype": "float32"}}, {"name": "generator/G_MODEL/m/r5/InstanceNorm/beta", "shape": [512], "dtype": "float32", "quantization": {"dtype": "uint8", "min": -0.3369399613025142, "scale": 0.0019253712074429382, "original_dtype": "float32"}}, {"name": "generator/G_MODEL/m/r4/2/beta", "shape": [256], "dtype": "float32", "quantization": {"dtype": "uint8", "min": -0.04336206522934577, "scale": 0.00039064923630041236, "original_dtype": "float32"}}, {"name": "generator/G_MODEL/m/r4/1/beta", "shape": [512], "dtype": "float32", "quantization": {"dtype": "uint8", "min": -0.4164292400958491, "scale": 0.002421100233115402, "original_dtype": "float32"}}, {"name": "generator/G_MODEL/m/r4/InstanceNorm/beta", "shape": [512], "dtype": "float32", "quantization": {"dtype": "uint8", "min": -0.34290796211537194, "scale": 0.0018143278418802748, "original_dtype": "float32"}}, {"name": "generator/G_MODEL/m/r3/2/beta", "shape": [256], "dtype": "float32", "quantization": {"dtype": "uint8", "min": -0.044423529797909304, "scale": 0.0003582542725637847, "original_dtype": "float32"}}, {"name": "generator/G_MODEL/m/r3/1/beta", "shape": [512], "dtype": "float32", "quantization": {"dtype": "uint8", "min": -0.312918264725629, "scale": 0.0017481467303107766, "original_dtype": "float32"}}, {"name": "generator/G_MODEL/m/r3/InstanceNorm/beta", "shape": [512], "dtype": "float32", "quantization": {"dtype": "uint8", "min": -0.26823591490586596, "scale": 0.0015504966179529826, "original_dtype": "float32"}}, {"name": "generator/G_MODEL/m/r2/2/beta", "shape": [256], "dtype": "float32", "quantization": {"dtype": "uint8", "min": -0.050227520702516334, "scale": 0.00035622355108167614, "original_dtype": "float32"}}, {"name": "generator/G_MODEL/m/r2/1/beta", "shape": [512], "dtype": "float32", "quantization": {"dtype": "uint8", "min": -0.2900283757378073, "scale": 0.0016960723727357154, "original_dtype": "float32"}}, {"name": "generator/G_MODEL/m/r2/InstanceNorm/beta", "shape": [512], "dtype": "float32", "quantization": {"dtype": "uint8", "min": -0.22360548070248437, "scale": 0.0013551847315302083, "original_dtype": "float32"}}, {"name": "generator/G_MODEL/m/r1/2/beta", "shape": [256], "dtype": "float32", "quantization": {"dtype": "uint8", "min": -0.05088370766709832, "scale": 0.0003415013937389149, "original_dtype": "float32"}}, {"name": "generator/G_MODEL/m/r1/1/beta", "shape": [512], "dtype": "float32", "quantization": {"dtype": "uint8", "min": -0.23453416590597115, "scale": 0.0013325804881021087, "original_dtype": "float32"}}, {"name": "generator/G_MODEL/m/r1/InstanceNorm/beta", "shape": [512], "dtype": "float32", "quantization": {"dtype": "uint8", "min": -0.1770143807518716, "scale": 0.0012920757719114715, "original_dtype": "float32"}}, {"name": "generator/G_MODEL/m/InstanceNorm/beta", "shape": [256], "dtype": "float32", "quantization": {"dtype": "uint8", "min": -0.11290519558915905, "scale": 0.0009254524228619594, "original_dtype": "float32"}}, {"name": "generator/G_MODEL/b2/SeparableConv2d_1/InstanceNorm/beta", "shape": [256], "dtype": "float32", "quantization": {"dtype": "uint8", "min": -0.06051778571278441, "scale": 0.0007036951827067955, "original_dtype": "float32"}}, {"name": "generator/G_MODEL/b2/MirrorPad_2/paddings", "shape": [4, 2], "dtype": "int32"}, {"name": "generator/G_MODEL/b2/SeparableConv2d_1/depthwise_weights", "shape": [3, 3, 128, 1], "dtype": "float32", "quantization": {"dtype": "uint8", "min": -0.1222328641835381, "scale": 0.0009475415828181248, "original_dtype": "float32"}}, {"name": "generator/G_MODEL/b2/SeparableConv2d_1/pointwise_weights", "shape": [1, 1, 128, 256], "dtype": "float32", "quantization": {"dtype": "uint8", "min": -0.18736624396314808, "scale": 0.0014989299517051847, "original_dtype": "float32"}}, {"name": "generator/G_MODEL/b2/SeparableConv2d_1/InstanceNorm/moments/mean/reduction_indices", "shape": [2], "dtype": "int32"}, {"name": "generator/G_MODEL/b2/SeparableConv2d_1/InstanceNorm/moments/variance/reduction_indices", "shape": [2], "dtype": "int32"}, {"name": "generator/G_MODEL/b2/SeparableConv2d_1/InstanceNorm/instancenorm/add/y", "shape": [], "dtype": "float32", "quantization": {"dtype": "uint8", "min": 9.999999974752427e-07, "scale": 1.0, "original_dtype": "float32"}}, {"name": "generator/G_MODEL/b2/SeparableConv2d_1/InstanceNorm/gamma", "shape": [256], "dtype": "float32", "quantization": {"dtype": "uint8", "min": 0.9637406468391418, "scale": 0.0004288652363945456, "original_dtype": "float32"}}, {"name": "generator/G_MODEL/b2/SeparableConv2d_2/InstanceNorm/beta", "shape": [256], "dtype": "float32", "quantization": {"dtype": "uint8", "min": -0.10509601381479525, "scale": 0.0007401127733436285, "original_dtype": "float32"}}, {"name": "generator/G_MODEL/b2/strided_slice/stack", "shape": [1], "dtype": "int32"}, {"name": "generator/G_MODEL/b2/strided_slice/stack_1", "shape": [1], "dtype": "int32"}, {"name": "generator/G_MODEL/b2/strided_slice/stack_2", "shape": [1], "dtype": "int32"}, {"name": "generator/G_MODEL/b2/floordiv/y", "shape": [], "dtype": "int32"}, {"name": "generator/G_MODEL/b2/SeparableConv2d/InstanceNorm/beta", "shape": [128], "dtype": "float32", "quantization": {"dtype": "uint8", "min": -0.07939502772162943, "scale": 0.0009924378465203678, "original_dtype": "float32"}}, {"name": "generator/G_MODEL/b2/InstanceNorm/beta", "shape": [128], "dtype": "float32", "quantization": {"dtype": "uint8", "min": -0.07907797028036678, "scale": 0.0008595431552213781, "original_dtype": "float32"}}, {"name": "generator/G_MODEL/b1/SeparableConv2d/InstanceNorm/beta", "shape": [128], "dtype": "float32", "quantization": {"dtype": "uint8", "min": -0.11276149329017189, "scale": 0.0006960586005566166, "original_dtype": "float32"}}, {"name": "generator/G_MODEL/b1/MirrorPad_2/paddings", "shape": [4, 2], "dtype": "int32"}, {"name": "generator/G_MODEL/b1/SeparableConv2d/depthwise_weights", "shape": [3, 3, 64, 1], "dtype": "float32", "quantization": {"dtype": "uint8", "min": -0.12373462033038045, "scale": 0.0009742883490581138, "original_dtype": "float32"}}, {"name": "generator/G_MODEL/b1/SeparableConv2d/pointwise_weights", "shape": [1, 1, 64, 128], "dtype": "float32", "quantization": {"dtype": "uint8", "min": -0.3711586849362242, "scale": 0.0027698409323598824, "original_dtype": "float32"}}, {"name": "generator/G_MODEL/b1/SeparableConv2d/InstanceNorm/moments/mean/reduction_indices", "shape": [2], "dtype": "int32"}, {"name": "generator/G_MODEL/b1/SeparableConv2d/InstanceNorm/moments/variance/reduction_indices", "shape": [2], "dtype": "int32"}, {"name": "generator/G_MODEL/b1/SeparableConv2d/InstanceNorm/instancenorm/add/y", "shape": [], "dtype": "float32", "quantization": {"dtype": "uint8", "min": 9.999999974752427e-07, "scale": 1.0, "original_dtype": "float32"}}, {"name": "generator/G_MODEL/b1/SeparableConv2d/InstanceNorm/gamma", "shape": [128], "dtype": "float32", "quantization": {"dtype": "uint8", "min": 0.963217556476593, "scale": 0.0005114623144561169, "original_dtype": "float32"}}, {"name": "generator/G_MODEL/b1/SeparableConv2d_1/InstanceNorm/beta", "shape": [128], "dtype": "float32", "quantization": {"dtype": "uint8", "min": -0.0862168624997139, "scale": 0.0007767284909884135, "original_dtype": "float32"}}, {"name": "generator/G_MODEL/b1/strided_slice/stack", "shape": [1], "dtype": "int32"}, {"name": "generator/G_MODEL/b1/strided_slice/stack_1", "shape": [1], "dtype": "int32"}, {"name": "generator/G_MODEL/b1/strided_slice/stack_2", "shape": [1], "dtype": "int32"}, {"name": "generator/G_MODEL/b1/floordiv/y", "shape": [], "dtype": "int32"}, {"name": "generator/G_MODEL/b1/InstanceNorm_1/beta", "shape": [64], "dtype": "float32", "quantization": {"dtype": "uint8", "min": -0.09103487651137745, "scale": 0.0009582618580144995, "original_dtype": "float32"}}, {"name": "generator/G_MODEL/b1/InstanceNorm/beta", "shape": [64], "dtype": "float32", "quantization": {"dtype": "uint8", "min": -0.08298060356401929, "scale": 0.0007543691233092663, "original_dtype": "float32"}}, {"name": "generator/G_MODEL/b1/MirrorPad/paddings", "shape": [4, 2], "dtype": "int32"}, {"name": "generator/G_MODEL/b1/Conv/weights", "shape": [3, 3, 3, 64], "dtype": "float32", "quantization": {"dtype": "uint8", "min": -0.15043550683002846, "scale": 0.0012968578175002452, "original_dtype": "float32"}}, {"name": "generator/G_MODEL/b1/InstanceNorm/moments/mean/reduction_indices", "shape": [2], "dtype": "int32"}, {"name": "generator/G_MODEL/b1/InstanceNorm/moments/variance/reduction_indices", "shape": [2], "dtype": "int32"}, {"name": "generator/G_MODEL/b1/InstanceNorm/instancenorm/add/y", "shape": [], "dtype": "float32", "quantization": {"dtype": "uint8", "min": 9.999999747378752e-06, "scale": 1.0, "original_dtype": "float32"}}, {"name": "generator/G_MODEL/b1/InstanceNorm/gamma", "shape": [64], "dtype": "float32", "quantization": {"dtype": "uint8", "min": 0.9598871469497681, "scale": 0.0003869790656893861, "original_dtype": "float32"}}, {"name": "generator/G_MODEL/b1/MirrorPad_1/paddings", "shape": [4, 2], "dtype": "int32"}, {"name": "generator/G_MODEL/b1/Conv_1/weights", "shape": [3, 3, 64, 64], "dtype": "float32", "quantization": {"dtype": "uint8", "min": -0.14473778126286524, "scale": 0.0011133675481758865, "original_dtype": "float32"}}, {"name": "generator/G_MODEL/b1/InstanceNorm_1/moments/mean/reduction_indices", "shape": [2], "dtype": "int32"}, {"name": "generator/G_MODEL/b1/InstanceNorm_1/moments/variance/reduction_indices", "shape": [2], "dtype": "int32"}, {"name": "generator/G_MODEL/b1/InstanceNorm_1/instancenorm/add/y", "shape": [], "dtype": "float32", "quantization": {"dtype": "uint8", "min": 9.999999747378752e-06, "scale": 1.0, "original_dtype": "float32"}}, {"name": "generator/G_MODEL/b1/InstanceNorm_1/gamma", "shape": [64], "dtype": "float32", "quantization": {"dtype": "uint8", "min": 0.9725874662399292, "scale": 0.000271454044416839, "original_dtype": "float32"}}, {"name": "generator/G_MODEL/b1/strided_slice_1/stack", "shape": [1], "dtype": "int32"}, {"name": "generator/G_MODEL/b1/strided_slice_1/stack_1", "shape": [1], "dtype": "int32"}, {"name": "generator/G_MODEL/b1/strided_slice_1/stack_2", "shape": [1], "dtype": "int32"}, {"name": "generator/G_MODEL/b1/floordiv_1/y", "shape": [], "dtype": "int32"}, {"name": "generator/G_MODEL/b1/MirrorPad_3/paddings", "shape": [4, 2], "dtype": "int32"}, {"name": "generator/G_MODEL/b1/SeparableConv2d_1/depthwise_weights", "shape": [3, 3, 64, 1], "dtype": "float32", "quantization": {"dtype": "uint8", "min": -0.13561647066883012, "scale": 0.001035240234113207, "original_dtype": "float32"}}, {"name": "generator/G_MODEL/b1/SeparableConv2d_1/pointwise_weights", "shape": [1, 1, 64, 128], "dtype": "float32", "quantization": {"dtype": "uint8", "min": -0.24714743407333598, "scale": 0.0020093287323035445, "original_dtype": "float32"}}, {"name": "generator/G_MODEL/b1/SeparableConv2d_1/InstanceNorm/moments/mean/reduction_indices", "shape": [2], "dtype": "int32"}, {"name": "generator/G_MODEL/b1/SeparableConv2d_1/InstanceNorm/moments/variance/reduction_indices", "shape": [2], "dtype": "int32"}, {"name": "generator/G_MODEL/b1/SeparableConv2d_1/InstanceNorm/instancenorm/add/y", "shape": [], "dtype": "float32", "quantization": {"dtype": "uint8", "min": 9.999999974752427e-07, "scale": 1.0, "original_dtype": "float32"}}, {"name": "generator/G_MODEL/b1/SeparableConv2d_1/InstanceNorm/gamma", "shape": [128], "dtype": "float32", "quantization": {"dtype": "uint8", "min": 0.9377704858779907, "scale": 0.0004715419283100203, "original_dtype": "float32"}}, {"name": "generator/G_MODEL/b2/MirrorPad/paddings", "shape": [4, 2], "dtype": "int32"}, {"name": "generator/G_MODEL/b2/Conv/weights", "shape": [3, 3, 128, 128], "dtype": "float32", "quantization": {"dtype": "uint8", "min": -0.12590113588992285, "scale": 0.0009326010065920212, "original_dtype": "float32"}}, {"name": "generator/G_MODEL/b2/InstanceNorm/moments/mean/reduction_indices", "shape": [2], "dtype": "int32"}, {"name": "generator/G_MODEL/b2/InstanceNorm/moments/variance/reduction_indices", "shape": [2], "dtype": "int32"}, {"name": "generator/G_MODEL/b2/InstanceNorm/instancenorm/add/y", "shape": [], "dtype": "float32", "quantization": {"dtype": "uint8", "min": 9.999999747378752e-06, "scale": 1.0, "original_dtype": "float32"}}, {"name": "generator/G_MODEL/b2/InstanceNorm/gamma", "shape": [128], "dtype": "float32", "quantization": {"dtype": "uint8", "min": 0.941044270992279, "scale": 0.0004386249710531796, "original_dtype": "float32"}}, {"name": "generator/G_MODEL/b2/MirrorPad_1/paddings", "shape": [4, 2], "dtype": "int32"}, {"name": "generator/G_MODEL/b2/SeparableConv2d/depthwise_weights", "shape": [3, 3, 128, 1], "dtype": "float32", "quantization": {"dtype": "uint8", "min": -0.1054396386240043, "scale": 0.0008237471767500336, "original_dtype": "float32"}}, {"name": "generator/G_MODEL/b2/SeparableConv2d/pointwise_weights", "shape": [1, 1, 128, 128], "dtype": "float32", "quantization": {"dtype": "uint8", "min": -0.23080966425876992, "scale": 0.00180320050202164, "original_dtype": "float32"}}, {"name": "generator/G_MODEL/b2/SeparableConv2d/InstanceNorm/moments/mean/reduction_indices", "shape": [2], "dtype": "int32"}, {"name": "generator/G_MODEL/b2/SeparableConv2d/InstanceNorm/moments/variance/reduction_indices", "shape": [2], "dtype": "int32"}, {"name": "generator/G_MODEL/b2/SeparableConv2d/InstanceNorm/instancenorm/add/y", "shape": [], "dtype": "float32", "quantization": {"dtype": "uint8", "min": 9.999999974752427e-07, "scale": 1.0, "original_dtype": "float32"}}, {"name": "generator/G_MODEL/b2/SeparableConv2d/InstanceNorm/gamma", "shape": [128], "dtype": "float32", "quantization": {"dtype": "uint8", "min": 0.948371171951294, "scale": 0.00042026744169347427, "original_dtype": "float32"}}, {"name": "generator/G_MODEL/b2/strided_slice_1/stack", "shape": [1], "dtype": "int32"}, {"name": "generator/G_MODEL/b2/strided_slice_1/stack_1", "shape": [1], "dtype": "int32"}, {"name": "generator/G_MODEL/b2/strided_slice_1/stack_2", "shape": [1], "dtype": "int32"}, {"name": "generator/G_MODEL/b2/floordiv_1/y", "shape": [], "dtype": "int32"}, {"name": "generator/G_MODEL/b2/MirrorPad_3/paddings", "shape": [4, 2], "dtype": "int32"}, {"name": "generator/G_MODEL/b2/SeparableConv2d_2/depthwise_weights", "shape": [3, 3, 128, 1], "dtype": "float32", "quantization": {"dtype": "uint8", "min": -0.11279828700364805, "scale": 0.0008676791307972927, "original_dtype": "float32"}}, {"name": "generator/G_MODEL/b2/SeparableConv2d_2/pointwise_weights", "shape": [1, 1, 128, 256], "dtype": "float32", "quantization": {"dtype": "uint8", "min": -0.1965953693670385, "scale": 0.00154799503438613, "original_dtype": "float32"}}, {"name": "generator/G_MODEL/b2/SeparableConv2d_2/InstanceNorm/moments/mean/reduction_indices", "shape": [2], "dtype": "int32"}, {"name": "generator/G_MODEL/b2/SeparableConv2d_2/InstanceNorm/moments/variance/reduction_indices", "shape": [2], "dtype": "int32"}, {"name": "generator/G_MODEL/b2/SeparableConv2d_2/InstanceNorm/instancenorm/add/y", "shape": [], "dtype": "float32", "quantization": {"dtype": "uint8", "min": 9.999999974752427e-07, "scale": 1.0, "original_dtype": "float32"}}, {"name": "generator/G_MODEL/b2/SeparableConv2d_2/InstanceNorm/gamma", "shape": [256], "dtype": "float32", "quantization": {"dtype": "uint8", "min": 0.9430806636810303, "scale": 0.00035729268017937153, "original_dtype": "float32"}}, {"name": "generator/G_MODEL/m/MirrorPad/paddings", "shape": [4, 2], "dtype": "int32"}, {"name": "generator/G_MODEL/m/Conv/weights", "shape": [3, 3, 256, 256], "dtype": "float32", "quantization": {"dtype": "uint8", "min": -0.1306657915021859, "scale": 0.0009751178470312381, "original_dtype": "float32"}}, {"name": "generator/G_MODEL/m/InstanceNorm/moments/mean/reduction_indices", "shape": [2], "dtype": "int32"}, {"name": "generator/G_MODEL/m/InstanceNorm/moments/variance/reduction_indices", "shape": [2], "dtype": "int32"}, {"name": "generator/G_MODEL/m/InstanceNorm/instancenorm/add/y", "shape": [], "dtype": "float32", "quantization": {"dtype": "uint8", "min": 9.999999747378752e-06, "scale": 1.0, "original_dtype": "float32"}}, {"name": "generator/G_MODEL/m/InstanceNorm/gamma", "shape": [256], "dtype": "float32", "quantization": {"dtype": "uint8", "min": 0.9653370976448059, "scale": 0.0004371173241559197, "original_dtype": "float32"}}, {"name": "generator/G_MODEL/m/r1/Conv/weights", "shape": [1, 1, 256, 512], "dtype": "float32", "quantization": {"dtype": "uint8", "min": -0.16625647772760951, "scale": 0.00128880990486519, "original_dtype": "float32"}}, {"name": "generator/G_MODEL/m/r1/InstanceNorm/moments/mean/reduction_indices", "shape": [2], "dtype": "int32"}, {"name": "generator/G_MODEL/m/r1/InstanceNorm/moments/variance/reduction_indices", "shape": [2], "dtype": "int32"}, {"name": "generator/G_MODEL/m/r1/InstanceNorm/instancenorm/add/y", "shape": [], "dtype": "float32", "quantization": {"dtype": "uint8", "min": 9.999999747378752e-06, "scale": 1.0, "original_dtype": "float32"}}, {"name": "generator/G_MODEL/m/r1/InstanceNorm/gamma", "shape": [512], "dtype": "float32", "quantization": {"dtype": "uint8", "min": 0.8171775937080383, "scale": 0.0010589989961362354, "original_dtype": "float32"}}, {"name": "generator/G_MODEL/m/r1/MirrorPad/paddings", "shape": [4, 2], "dtype": "int32"}, {"name": "generator/G_MODEL/m/r1/r1/w", "shape": [3, 3, 512, 1], "dtype": "float32", "quantization": {"dtype": "uint8", "min": -0.09891287111768536, "scale": 0.0007727568056069169, "original_dtype": "float32"}}, {"name": "generator/G_MODEL/m/r1/1/moments/mean/reduction_indices", "shape": [2], "dtype": "int32"}, {"name": "generator/G_MODEL/m/r1/1/moments/variance/reduction_indices", "shape": [2], "dtype": "int32"}, {"name": "generator/G_MODEL/m/r1/1/instancenorm/add/y", "shape": [], "dtype": "float32", "quantization": {"dtype": "uint8", "min": 9.999999747378752e-06, "scale": 1.0, "original_dtype": "float32"}}, {"name": "generator/G_MODEL/m/r1/1/gamma", "shape": [512], "dtype": "float32", "quantization": {"dtype": "uint8", "min": 0.9106545448303223, "scale": 0.000647728115904565, "original_dtype": "float32"}}, {"name": "generator/G_MODEL/m/r1/Conv_1/weights", "shape": [1, 1, 512, 256], "dtype": "float32", "quantization": {"dtype": "uint8", "min": -0.17178272967245065, "scale": 0.001311318547117944, "original_dtype": "float32"}}, {"name": "generator/G_MODEL/m/r1/2/moments/mean/reduction_indices", "shape": [2], "dtype": "int32"}, {"name": "generator/G_MODEL/m/r1/2/moments/variance/reduction_indices", "shape": [2], "dtype": "int32"}, {"name": "generator/G_MODEL/m/r1/2/instancenorm/add/y", "shape": [], "dtype": "float32", "quantization": {"dtype": "uint8", "min": 9.999999747378752e-06, "scale": 1.0, "original_dtype": "float32"}}, {"name": "generator/G_MODEL/m/r1/2/gamma", "shape": [256], "dtype": "float32", "quantization": {"dtype": "uint8", "min": 0.9232588410377502, "scale": 0.00040897598453596524, "original_dtype": "float32"}}, {"name": "generator/G_MODEL/m/r2/Conv/weights", "shape": [1, 1, 256, 512], "dtype": "float32", "quantization": {"dtype": "uint8", "min": -0.16731257970426597, "scale": 0.0013174218874351651, "original_dtype": "float32"}}, {"name": "generator/G_MODEL/m/r2/InstanceNorm/moments/mean/reduction_indices", "shape": [2], "dtype": "int32"}, {"name": "generator/G_MODEL/m/r2/InstanceNorm/moments/variance/reduction_indices", "shape": [2], "dtype": "int32"}, {"name": "generator/G_MODEL/m/r2/InstanceNorm/instancenorm/add/y", "shape": [], "dtype": "float32", "quantization": {"dtype": "uint8", "min": 9.999999747378752e-06, "scale": 1.0, "original_dtype": "float32"}}, {"name": "generator/G_MODEL/m/r2/InstanceNorm/gamma", "shape": [512], "dtype": "float32", "quantization": {"dtype": "uint8", "min": 0.7493017315864563, "scale": 0.0013455982301749435, "original_dtype": "float32"}}, {"name": "generator/G_MODEL/m/r2/MirrorPad/paddings", "shape": [4, 2], "dtype": "int32"}, {"name": "generator/G_MODEL/m/r2/r2/w", "shape": [3, 3, 512, 1], "dtype": "float32", "quantization": {"dtype": "uint8", "min": -0.09170060350614435, "scale": 0.0007837658419328577, "original_dtype": "float32"}}, {"name": "generator/G_MODEL/m/r2/1/moments/mean/reduction_indices", "shape": [2], "dtype": "int32"}, {"name": "generator/G_MODEL/m/r2/1/moments/variance/reduction_indices", "shape": [2], "dtype": "int32"}, {"name": "generator/G_MODEL/m/r2/1/instancenorm/add/y", "shape": [], "dtype": "float32", "quantization": {"dtype": "uint8", "min": 9.999999747378752e-06, "scale": 1.0, "original_dtype": "float32"}}, {"name": "generator/G_MODEL/m/r2/1/gamma", "shape": [512], "dtype": "float32", "quantization": {"dtype": "uint8", "min": 0.9268440008163452, "scale": 0.0005888419992783491, "original_dtype": "float32"}}, {"name": "generator/G_MODEL/m/r2/Conv_1/weights", "shape": [1, 1, 512, 256], "dtype": "float32", "quantization": {"dtype": "uint8", "min": -0.16544583235301225, "scale": 0.001323566658824098, "original_dtype": "float32"}}, {"name": "generator/G_MODEL/m/r2/2/moments/mean/reduction_indices", "shape": [2], "dtype": "int32"}, {"name": "generator/G_MODEL/m/r2/2/moments/variance/reduction_indices", "shape": [2], "dtype": "int32"}, {"name": "generator/G_MODEL/m/r2/2/instancenorm/add/y", "shape": [], "dtype": "float32", "quantization": {"dtype": "uint8", "min": 9.999999747378752e-06, "scale": 1.0, "original_dtype": "float32"}}, {"name": "generator/G_MODEL/m/r2/2/gamma", "shape": [256], "dtype": "float32", "quantization": {"dtype": "uint8", "min": 0.9251828193664551, "scale": 0.00037198674445058786, "original_dtype": "float32"}}, {"name": "generator/G_MODEL/m/r3/Conv/weights", "shape": [1, 1, 256, 512], "dtype": "float32", "quantization": {"dtype": "uint8", "min": -0.1564802146425434, "scale": 0.0012932249144011853, "original_dtype": "float32"}}, {"name": "generator/G_MODEL/m/r3/InstanceNorm/moments/mean/reduction_indices", "shape": [2], "dtype": "int32"}, {"name": "generator/G_MODEL/m/r3/InstanceNorm/moments/variance/reduction_indices", "shape": [2], "dtype": "int32"}, {"name": "generator/G_MODEL/m/r3/InstanceNorm/instancenorm/add/y", "shape": [], "dtype": "float32", "quantization": {"dtype": "uint8", "min": 9.999999747378752e-06, "scale": 1.0, "original_dtype": "float32"}}, {"name": "generator/G_MODEL/m/r3/InstanceNorm/gamma", "shape": [512], "dtype": "float32", "quantization": {"dtype": "uint8", "min": 0.6985247731208801, "scale": 0.00151901735978968, "original_dtype": "float32"}}, {"name": "generator/G_MODEL/m/r3/MirrorPad/paddings", "shape": [4, 2], "dtype": "int32"}, {"name": "generator/G_MODEL/m/r3/r3/w", "shape": [3, 3, 512, 1], "dtype": "float32", "quantization": {"dtype": "uint8", "min": -0.09422867859111113, "scale": 0.0007138536256902358, "original_dtype": "float32"}}, {"name": "generator/G_MODEL/m/r3/1/moments/mean/reduction_indices", "shape": [2], "dtype": "int32"}, {"name": "generator/G_MODEL/m/r3/1/moments/variance/reduction_indices", "shape": [2], "dtype": "int32"}, {"name": "generator/G_MODEL/m/r3/1/instancenorm/add/y", "shape": [], "dtype": "float32", "quantization": {"dtype": "uint8", "min": 9.999999747378752e-06, "scale": 1.0, "original_dtype": "float32"}}, {"name": "generator/G_MODEL/m/r3/1/gamma", "shape": [512], "dtype": "float32", "quantization": {"dtype": "uint8", "min": 0.9242991805076599, "scale": 0.000543664249719358, "original_dtype": "float32"}}, {"name": "generator/G_MODEL/m/r3/Conv_1/weights", "shape": [1, 1, 512, 256], "dtype": "float32", "quantization": {"dtype": "uint8", "min": -0.15750029718174655, "scale": 0.0013016553486094756, "original_dtype": "float32"}}, {"name": "generator/G_MODEL/m/r3/2/moments/mean/reduction_indices", "shape": [2], "dtype": "int32"}, {"name": "generator/G_MODEL/m/r3/2/moments/variance/reduction_indices", "shape": [2], "dtype": "int32"}, {"name": "generator/G_MODEL/m/r3/2/instancenorm/add/y", "shape": [], "dtype": "float32", "quantization": {"dtype": "uint8", "min": 9.999999747378752e-06, "scale": 1.0, "original_dtype": "float32"}}, {"name": "generator/G_MODEL/m/r3/2/gamma", "shape": [256], "dtype": "float32", "quantization": {"dtype": "uint8", "min": 0.9290337562561035, "scale": 0.0003611644109090169, "original_dtype": "float32"}}, {"name": "generator/G_MODEL/m/r4/Conv/weights", "shape": [1, 1, 256, 512], "dtype": "float32", "quantization": {"dtype": "uint8", "min": -0.1663435352783577, "scale": 0.0013097916163650213, "original_dtype": "float32"}}, {"name": "generator/G_MODEL/m/r4/InstanceNorm/moments/mean/reduction_indices", "shape": [2], "dtype": "int32"}, {"name": "generator/G_MODEL/m/r4/InstanceNorm/moments/variance/reduction_indices", "shape": [2], "dtype": "int32"}, {"name": "generator/G_MODEL/m/r4/InstanceNorm/instancenorm/add/y", "shape": [], "dtype": "float32", "quantization": {"dtype": "uint8", "min": 9.999999747378752e-06, "scale": 1.0, "original_dtype": "float32"}}, {"name": "generator/G_MODEL/m/r4/InstanceNorm/gamma", "shape": [512], "dtype": "float32", "quantization": {"dtype": "uint8", "min": 0.6157011985778809, "scale": 0.0018739737716375613, "original_dtype": "float32"}}, {"name": "generator/G_MODEL/m/r4/MirrorPad/paddings", "shape": [4, 2], "dtype": "int32"}, {"name": "generator/G_MODEL/m/r4/r4/w", "shape": [3, 3, 512, 1], "dtype": "float32", "quantization": {"dtype": "uint8", "min": -0.09328318536281585, "scale": 0.0007709354162216186, "original_dtype": "float32"}}, {"name": "generator/G_MODEL/m/r4/1/moments/mean/reduction_indices", "shape": [2], "dtype": "int32"}, {"name": "generator/G_MODEL/m/r4/1/moments/variance/reduction_indices", "shape": [2], "dtype": "int32"}, {"name": "generator/G_MODEL/m/r4/1/instancenorm/add/y", "shape": [], "dtype": "float32", "quantization": {"dtype": "uint8", "min": 9.999999747378752e-06, "scale": 1.0, "original_dtype": "float32"}}, {"name": "generator/G_MODEL/m/r4/1/gamma", "shape": [512], "dtype": "float32", "quantization": {"dtype": "uint8", "min": 0.9252688884735107, "scale": 0.000751336883096134, "original_dtype": "float32"}}, {"name": "generator/G_MODEL/m/r4/Conv_1/weights", "shape": [1, 1, 512, 256], "dtype": "float32", "quantization": {"dtype": "uint8", "min": -0.1622322052717209, "scale": 0.0013632958426195033, "original_dtype": "float32"}}, {"name": "generator/G_MODEL/m/r4/2/moments/mean/reduction_indices", "shape": [2], "dtype": "int32"}, {"name": "generator/G_MODEL/m/r4/2/moments/variance/reduction_indices", "shape": [2], "dtype": "int32"}, {"name": "generator/G_MODEL/m/r4/2/instancenorm/add/y", "shape": [], "dtype": "float32", "quantization": {"dtype": "uint8", "min": 9.999999747378752e-06, "scale": 1.0, "original_dtype": "float32"}}, {"name": "generator/G_MODEL/m/r4/2/gamma", "shape": [256], "dtype": "float32", "quantization": {"dtype": "uint8", "min": 0.9322912096977234, "scale": 0.0004464399580862008, "original_dtype": "float32"}}, {"name": "generator/G_MODEL/m/r5/Conv/weights", "shape": [1, 1, 256, 512], "dtype": "float32", "quantization": {"dtype": "uint8", "min": -0.17444076573147493, "scale": 0.001418217607572967, "original_dtype": "float32"}}, {"name": "generator/G_MODEL/m/r5/InstanceNorm/moments/mean/reduction_indices", "shape": [2], "dtype": "int32"}, {"name": "generator/G_MODEL/m/r5/InstanceNorm/moments/variance/reduction_indices", "shape": [2], "dtype": "int32"}, {"name": "generator/G_MODEL/m/r5/InstanceNorm/instancenorm/add/y", "shape": [], "dtype": "float32", "quantization": {"dtype": "uint8", "min": 9.999999747378752e-06, "scale": 1.0, "original_dtype": "float32"}}, {"name": "generator/G_MODEL/m/r5/InstanceNorm/gamma", "shape": [512], "dtype": "float32", "quantization": {"dtype": "uint8", "min": 0.6315680742263794, "scale": 0.0017158096911860448, "original_dtype": "float32"}}, {"name": "generator/G_MODEL/m/r5/MirrorPad/paddings", "shape": [4, 2], "dtype": "int32"}, {"name": "generator/G_MODEL/m/r5/r5/w", "shape": [3, 3, 512, 1], "dtype": "float32", "quantization": {"dtype": "uint8", "min": -0.09406421815647799, "scale": 0.0007838684846373166, "original_dtype": "float32"}}, {"name": "generator/G_MODEL/m/r5/1/moments/mean/reduction_indices", "shape": [2], "dtype": "int32"}, {"name": "generator/G_MODEL/m/r5/1/moments/variance/reduction_indices", "shape": [2], "dtype": "int32"}, {"name": "generator/G_MODEL/m/r5/1/instancenorm/add/y", "shape": [], "dtype": "float32", "quantization": {"dtype": "uint8", "min": 9.999999747378752e-06, "scale": 1.0, "original_dtype": "float32"}}, {"name": "generator/G_MODEL/m/r5/1/gamma", "shape": [512], "dtype": "float32", "quantization": {"dtype": "uint8", "min": 0.9044878482818604, "scale": 0.000807803284888174, "original_dtype": "float32"}}, {"name": "generator/G_MODEL/m/r5/Conv_1/weights", "shape": [1, 1, 512, 256], "dtype": "float32", "quantization": {"dtype": "uint8", "min": -0.18624377016927682, "scale": 0.001432644385917514, "original_dtype": "float32"}}, {"name": "generator/G_MODEL/m/r5/2/moments/mean/reduction_indices", "shape": [2], "dtype": "int32"}, {"name": "generator/G_MODEL/m/r5/2/moments/variance/reduction_indices", "shape": [2], "dtype": "int32"}, {"name": "generator/G_MODEL/m/r5/2/instancenorm/add/y", "shape": [], "dtype": "float32", "quantization": {"dtype": "uint8", "min": 9.999999747378752e-06, "scale": 1.0, "original_dtype": "float32"}}, {"name": "generator/G_MODEL/m/r5/2/gamma", "shape": [256], "dtype": "float32", "quantization": {"dtype": "uint8", "min": 0.9554381370544434, "scale": 0.0003627262863458372, "original_dtype": "float32"}}, {"name": "generator/G_MODEL/m/r6/Conv/weights", "shape": [1, 1, 256, 512], "dtype": "float32", "quantization": {"dtype": "uint8", "min": -0.16067286624627955, "scale": 0.0012751814781450758, "original_dtype": "float32"}}, {"name": "generator/G_MODEL/m/r6/InstanceNorm/moments/mean/reduction_indices", "shape": [2], "dtype": "int32"}, {"name": "generator/G_MODEL/m/r6/InstanceNorm/moments/variance/reduction_indices", "shape": [2], "dtype": "int32"}, {"name": "generator/G_MODEL/m/r6/InstanceNorm/instancenorm/add/y", "shape": [], "dtype": "float32", "quantization": {"dtype": "uint8", "min": 9.999999747378752e-06, "scale": 1.0, "original_dtype": "float32"}}, {"name": "generator/G_MODEL/m/r6/InstanceNorm/gamma", "shape": [512], "dtype": "float32", "quantization": {"dtype": "uint8", "min": 0.634798526763916, "scale": 0.0017818628572950177, "original_dtype": "float32"}}, {"name": "generator/G_MODEL/m/r6/MirrorPad/paddings", "shape": [4, 2], "dtype": "int32"}, {"name": "generator/G_MODEL/m/r6/r6/w", "shape": [3, 3, 512, 1], "dtype": "float32", "quantization": {"dtype": "uint8", "min": -0.09616113971261418, "scale": 0.0008218900830137964, "original_dtype": "float32"}}, {"name": "generator/G_MODEL/m/r6/1/moments/mean/reduction_indices", "shape": [2], "dtype": "int32"}, {"name": "generator/G_MODEL/m/r6/1/moments/variance/reduction_indices", "shape": [2], "dtype": "int32"}, {"name": "generator/G_MODEL/m/r6/1/instancenorm/add/y", "shape": [], "dtype": "float32", "quantization": {"dtype": "uint8", "min": 9.999999747378752e-06, "scale": 1.0, "original_dtype": "float32"}}, {"name": "generator/G_MODEL/m/r6/1/gamma", "shape": [512], "dtype": "float32", "quantization": {"dtype": "uint8", "min": 0.9087988138198853, "scale": 0.0007450229981366326, "original_dtype": "float32"}}, {"name": "generator/G_MODEL/m/r6/Conv_1/weights", "shape": [1, 1, 512, 256], "dtype": "float32", "quantization": {"dtype": "uint8", "min": -0.18066332445425146, "scale": 0.0013897178804173189, "original_dtype": "float32"}}, {"name": "generator/G_MODEL/m/r6/2/moments/mean/reduction_indices", "shape": [2], "dtype": "int32"}, {"name": "generator/G_MODEL/m/r6/2/moments/variance/reduction_indices", "shape": [2], "dtype": "int32"}, {"name": "generator/G_MODEL/m/r6/2/instancenorm/add/y", "shape": [], "dtype": "float32", "quantization": {"dtype": "uint8", "min": 9.999999747378752e-06, "scale": 1.0, "original_dtype": "float32"}}, {"name": "generator/G_MODEL/m/r6/2/gamma", "shape": [256], "dtype": "float32", "quantization": {"dtype": "uint8", "min": 0.9639549851417542, "scale": 0.00045326807919670556, "original_dtype": "float32"}}, {"name": "generator/G_MODEL/m/r7/Conv/weights", "shape": [1, 1, 256, 512], "dtype": "float32", "quantization": {"dtype": "uint8", "min": -0.16977941873026828, "scale": 0.0013582353498421463, "original_dtype": "float32"}}, {"name": "generator/G_MODEL/m/r7/InstanceNorm/moments/mean/reduction_indices", "shape": [2], "dtype": "int32"}, {"name": "generator/G_MODEL/m/r7/InstanceNorm/moments/variance/reduction_indices", "shape": [2], "dtype": "int32"}, {"name": "generator/G_MODEL/m/r7/InstanceNorm/instancenorm/add/y", "shape": [], "dtype": "float32", "quantization": {"dtype": "uint8", "min": 9.999999747378752e-06, "scale": 1.0, "original_dtype": "float32"}}, {"name": "generator/G_MODEL/m/r7/InstanceNorm/gamma", "shape": [512], "dtype": "float32", "quantization": {"dtype": "uint8", "min": 0.6431461572647095, "scale": 0.0017277021034091127, "original_dtype": "float32"}}, {"name": "generator/G_MODEL/m/r7/MirrorPad/paddings", "shape": [4, 2], "dtype": "int32"}, {"name": "generator/G_MODEL/m/r7/r7/w", "shape": [3, 3, 512, 1], "dtype": "float32", "quantization": {"dtype": "uint8", "min": -0.09697418212890625, "scale": 0.0007576107978820801, "original_dtype": "float32"}}, {"name": "generator/G_MODEL/m/r7/1/moments/mean/reduction_indices", "shape": [2], "dtype": "int32"}, {"name": "generator/G_MODEL/m/r7/1/moments/variance/reduction_indices", "shape": [2], "dtype": "int32"}, {"name": "generator/G_MODEL/m/r7/1/instancenorm/add/y", "shape": [], "dtype": "float32", "quantization": {"dtype": "uint8", "min": 9.999999747378752e-06, "scale": 1.0, "original_dtype": "float32"}}, {"name": "generator/G_MODEL/m/r7/1/gamma", "shape": [512], "dtype": "float32", "quantization": {"dtype": "uint8", "min": 0.9166026711463928, "scale": 0.0006539333100412406, "original_dtype": "float32"}}, {"name": "generator/G_MODEL/m/r7/Conv_1/weights", "shape": [1, 1, 512, 256], "dtype": "float32", "quantization": {"dtype": "uint8", "min": -0.17036207230652078, "scale": 0.0013850574984269983, "original_dtype": "float32"}}, {"name": "generator/G_MODEL/m/r7/2/moments/mean/reduction_indices", "shape": [2], "dtype": "int32"}, {"name": "generator/G_MODEL/m/r7/2/moments/variance/reduction_indices", "shape": [2], "dtype": "int32"}, {"name": "generator/G_MODEL/m/r7/2/instancenorm/add/y", "shape": [], "dtype": "float32", "quantization": {"dtype": "uint8", "min": 9.999999747378752e-06, "scale": 1.0, "original_dtype": "float32"}}, {"name": "generator/G_MODEL/m/r7/2/gamma", "shape": [256], "dtype": "float32", "quantization": {"dtype": "uint8", "min": 0.9565014839172363, "scale": 0.0005984764473111021, "original_dtype": "float32"}}, {"name": "generator/G_MODEL/m/r8/Conv/weights", "shape": [1, 1, 256, 512], "dtype": "float32", "quantization": {"dtype": "uint8", "min": -0.18101242535254536, "scale": 0.0014480994028203628, "original_dtype": "float32"}}, {"name": "generator/G_MODEL/m/r8/InstanceNorm/moments/mean/reduction_indices", "shape": [2], "dtype": "int32"}, {"name": "generator/G_MODEL/m/r8/InstanceNorm/moments/variance/reduction_indices", "shape": [2], "dtype": "int32"}, {"name": "generator/G_MODEL/m/r8/InstanceNorm/instancenorm/add/y", "shape": [], "dtype": "float32", "quantization": {"dtype": "uint8", "min": 9.999999747378752e-06, "scale": 1.0, "original_dtype": "float32"}}, {"name": "generator/G_MODEL/m/r8/InstanceNorm/gamma", "shape": [512], "dtype": "float32", "quantization": {"dtype": "uint8", "min": 0.5226717591285706, "scale": 0.002190538247426351, "original_dtype": "float32"}}, {"name": "generator/G_MODEL/m/r8/MirrorPad/paddings", "shape": [4, 2], "dtype": "int32"}, {"name": "generator/G_MODEL/m/r8/r8/w", "shape": [3, 3, 512, 1], "dtype": "float32", "quantization": {"dtype": "uint8", "min": -0.09015369327629315, "scale": 0.0008586066026313633, "original_dtype": "float32"}}, {"name": "generator/G_MODEL/m/r8/1/moments/mean/reduction_indices", "shape": [2], "dtype": "int32"}, {"name": "generator/G_MODEL/m/r8/1/moments/variance/reduction_indices", "shape": [2], "dtype": "int32"}, {"name": "generator/G_MODEL/m/r8/1/instancenorm/add/y", "shape": [], "dtype": "float32", "quantization": {"dtype": "uint8", "min": 9.999999747378752e-06, "scale": 1.0, "original_dtype": "float32"}}, {"name": "generator/G_MODEL/m/r8/1/gamma", "shape": [512], "dtype": "float32", "quantization": {"dtype": "uint8", "min": 0.9168932437896729, "scale": 0.0005685918471392464, "original_dtype": "float32"}}, {"name": "generator/G_MODEL/m/r8/Conv_1/weights", "shape": [1, 1, 512, 256], "dtype": "float32", "quantization": {"dtype": "uint8", "min": -0.16800427454359393, "scale": 0.0013658884109235278, "original_dtype": "float32"}}, {"name": "generator/G_MODEL/m/r8/2/moments/mean/reduction_indices", "shape": [2], "dtype": "int32"}, {"name": "generator/G_MODEL/m/r8/2/moments/variance/reduction_indices", "shape": [2], "dtype": "int32"}, {"name": "generator/G_MODEL/m/r8/2/instancenorm/add/y", "shape": [], "dtype": "float32", "quantization": {"dtype": "uint8", "min": 9.999999747378752e-06, "scale": 1.0, "original_dtype": "float32"}}, {"name": "generator/G_MODEL/m/r8/2/gamma", "shape": [256], "dtype": "float32", "quantization": {"dtype": "uint8", "min": 0.9466155171394348, "scale": 0.0007807509571898217, "original_dtype": "float32"}}, {"name": "generator/G_MODEL/m/MirrorPad_1/paddings", "shape": [4, 2], "dtype": "int32"}, {"name": "generator/G_MODEL/m/Conv_1/weights", "shape": [3, 3, 256, 256], "dtype": "float32", "quantization": {"dtype": "uint8", "min": -0.13342348734537762, "scale": 0.0009810550540101295, "original_dtype": "float32"}}, {"name": "generator/G_MODEL/m/InstanceNorm_1/moments/mean/reduction_indices", "shape": [2], "dtype": "int32"}, {"name": "generator/G_MODEL/m/InstanceNorm_1/moments/variance/reduction_indices", "shape": [2], "dtype": "int32"}, {"name": "generator/G_MODEL/m/InstanceNorm_1/instancenorm/add/y", "shape": [], "dtype": "float32", "quantization": {"dtype": "uint8", "min": 9.999999747378752e-06, "scale": 1.0, "original_dtype": "float32"}}, {"name": "generator/G_MODEL/m/InstanceNorm_1/gamma", "shape": [256], "dtype": "float32", "quantization": {"dtype": "uint8", "min": 0.9668073058128357, "scale": 0.0007784943954617369, "original_dtype": "float32"}}, {"name": "generator/G_MODEL/u2/strided_slice_1/stack", "shape": [1], "dtype": "int32"}, {"name": "generator/G_MODEL/u2/strided_slice_1/stack_1", "shape": [1], "dtype": "int32"}, {"name": "generator/G_MODEL/u2/strided_slice_1/stack_2", "shape": [1], "dtype": "int32"}, {"name": "generator/G_MODEL/u2/MirrorPad/paddings", "shape": [4, 2], "dtype": "int32"}, {"name": "generator/G_MODEL/u2/SeparableConv2d/depthwise_weights", "shape": [3, 3, 256, 1], "dtype": "float32", "quantization": {"dtype": "uint8", "min": -0.09911117600459679, "scale": 0.0007992836774564257, "original_dtype": "float32"}}, {"name": "generator/G_MODEL/u2/SeparableConv2d/pointwise_weights", "shape": [1, 1, 256, 128], "dtype": "float32", "quantization": {"dtype": "uint8", "min": -0.26094938726986155, "scale": 0.0023299052434809066, "original_dtype": "float32"}}, {"name": "generator/G_MODEL/u2/SeparableConv2d/InstanceNorm/moments/mean/reduction_indices", "shape": [2], "dtype": "int32"}, {"name": "generator/G_MODEL/u2/SeparableConv2d/InstanceNorm/moments/variance/reduction_indices", "shape": [2], "dtype": "int32"}, {"name": "generator/G_MODEL/u2/SeparableConv2d/InstanceNorm/instancenorm/add/y", "shape": [], "dtype": "float32", "quantization": {"dtype": "uint8", "min": 9.999999974752427e-07, "scale": 1.0, "original_dtype": "float32"}}, {"name": "generator/G_MODEL/u2/SeparableConv2d/InstanceNorm/gamma", "shape": [128], "dtype": "float32", "quantization": {"dtype": "uint8", "min": 0.9510771036148071, "scale": 0.0008268973406623392, "original_dtype": "float32"}}, {"name": "generator/G_MODEL/u2/MirrorPad_1/paddings", "shape": [4, 2], "dtype": "int32"}, {"name": "generator/G_MODEL/u2/SeparableConv2d_1/depthwise_weights", "shape": [3, 3, 128, 1], "dtype": "float32", "quantization": {"dtype": "uint8", "min": -0.13798903729401382, "scale": 0.0011404052668926763, "original_dtype": "float32"}}, {"name": "generator/G_MODEL/u2/SeparableConv2d_1/pointwise_weights", "shape": [1, 1, 128, 128], "dtype": "float32", "quantization": {"dtype": "uint8", "min": -0.2792933045649061, "scale": 0.0021484100351146624, "original_dtype": "float32"}}, {"name": "generator/G_MODEL/u2/SeparableConv2d_1/InstanceNorm/moments/mean/reduction_indices", "shape": [2], "dtype": "int32"}, {"name": "generator/G_MODEL/u2/SeparableConv2d_1/InstanceNorm/moments/variance/reduction_indices", "shape": [2], "dtype": "int32"}, {"name": "generator/G_MODEL/u2/SeparableConv2d_1/InstanceNorm/instancenorm/add/y", "shape": [], "dtype": "float32", "quantization": {"dtype": "uint8", "min": 9.999999974752427e-07, "scale": 1.0, "original_dtype": "float32"}}, {"name": "generator/G_MODEL/u2/SeparableConv2d_1/InstanceNorm/gamma", "shape": [128], "dtype": "float32", "quantization": {"dtype": "uint8", "min": 0.9565825462341309, "scale": 0.00033760631785673253, "original_dtype": "float32"}}, {"name": "generator/G_MODEL/u2/MirrorPad_2/paddings", "shape": [4, 2], "dtype": "int32"}, {"name": "generator/G_MODEL/u2/Conv/weights", "shape": [3, 3, 128, 128], "dtype": "float32", "quantization": {"dtype": "uint8", "min": -0.19703033566474915, "scale": 0.001287779971665027, "original_dtype": "float32"}}, {"name": "generator/G_MODEL/u2/InstanceNorm/moments/mean/reduction_indices", "shape": [2], "dtype": "int32"}, {"name": "generator/G_MODEL/u2/InstanceNorm/moments/variance/reduction_indices", "shape": [2], "dtype": "int32"}, {"name": "generator/G_MODEL/u2/InstanceNorm/instancenorm/add/y", "shape": [], "dtype": "float32", "quantization": {"dtype": "uint8", "min": 9.999999747378752e-06, "scale": 1.0, "original_dtype": "float32"}}, {"name": "generator/G_MODEL/u2/InstanceNorm/gamma", "shape": [128], "dtype": "float32", "quantization": {"dtype": "uint8", "min": 0.977744996547699, "scale": 0.00035364931704951266, "original_dtype": "float32"}}, {"name": "generator/G_MODEL/u1/strided_slice_1/stack", "shape": [1], "dtype": "int32"}, {"name": "generator/G_MODEL/u1/strided_slice_1/stack_1", "shape": [1], "dtype": "int32"}, {"name": "generator/G_MODEL/u1/strided_slice_1/stack_2", "shape": [1], "dtype": "int32"}, {"name": "generator/G_MODEL/u1/MirrorPad/paddings", "shape": [4, 2], "dtype": "int32"}, {"name": "generator/G_MODEL/u1/SeparableConv2d/depthwise_weights", "shape": [3, 3, 128, 1], "dtype": "float32", "quantization": {"dtype": "uint8", "min": -0.11639242844254362, "scale": 0.0008196649890319974, "original_dtype": "float32"}}, {"name": "generator/G_MODEL/u1/SeparableConv2d/pointwise_weights", "shape": [1, 1, 128, 128], "dtype": "float32", "quantization": {"dtype": "uint8", "min": -0.2555563440509871, "scale": 0.002094724131565468, "original_dtype": "float32"}}, {"name": "generator/G_MODEL/u1/SeparableConv2d/InstanceNorm/moments/mean/reduction_indices", "shape": [2], "dtype": "int32"}, {"name": "generator/G_MODEL/u1/SeparableConv2d/InstanceNorm/moments/variance/reduction_indices", "shape": [2], "dtype": "int32"}, {"name": "generator/G_MODEL/u1/SeparableConv2d/InstanceNorm/instancenorm/add/y", "shape": [], "dtype": "float32", "quantization": {"dtype": "uint8", "min": 9.999999974752427e-07, "scale": 1.0, "original_dtype": "float32"}}, {"name": "generator/G_MODEL/u1/SeparableConv2d/InstanceNorm/gamma", "shape": [128], "dtype": "float32", "quantization": {"dtype": "uint8", "min": 0.9317359924316406, "scale": 0.00046880619198668235, "original_dtype": "float32"}}, {"name": "generator/G_MODEL/u1/MirrorPad_1/paddings", "shape": [4, 2], "dtype": "int32"}, {"name": "generator/G_MODEL/u1/Conv/weights", "shape": [3, 3, 128, 64], "dtype": "float32", "quantization": {"dtype": "uint8", "min": -0.17649232762701372, "scale": 0.0012517186356525796, "original_dtype": "float32"}}, {"name": "generator/G_MODEL/u1/InstanceNorm/moments/mean/reduction_indices", "shape": [2], "dtype": "int32"}, {"name": "generator/G_MODEL/u1/InstanceNorm/moments/variance/reduction_indices", "shape": [2], "dtype": "int32"}, {"name": "generator/G_MODEL/u1/InstanceNorm/instancenorm/add/y", "shape": [], "dtype": "float32", "quantization": {"dtype": "uint8", "min": 9.999999747378752e-06, "scale": 1.0, "original_dtype": "float32"}}, {"name": "generator/G_MODEL/u1/InstanceNorm/gamma", "shape": [64], "dtype": "float32", "quantization": {"dtype": "uint8", "min": 0.9496634006500244, "scale": 0.0003985297446157418, "original_dtype": "float32"}}, {"name": "generator/G_MODEL/u1/MirrorPad_2/paddings", "shape": [4, 2], "dtype": "int32"}, {"name": "generator/G_MODEL/u1/Conv_1/weights", "shape": [3, 3, 64, 64], "dtype": "float32", "quantization": {"dtype": "uint8", "min": -0.2169845709029366, "scale": 0.0013999004574383007, "original_dtype": "float32"}}, {"name": "generator/G_MODEL/u1/InstanceNorm_1/moments/mean/reduction_indices", "shape": [2], "dtype": "int32"}, {"name": "generator/G_MODEL/u1/InstanceNorm_1/moments/variance/reduction_indices", "shape": [2], "dtype": "int32"}, {"name": "generator/G_MODEL/u1/InstanceNorm_1/instancenorm/add/y", "shape": [], "dtype": "float32", "quantization": {"dtype": "uint8", "min": 9.999999747378752e-06, "scale": 1.0, "original_dtype": "float32"}}, {"name": "generator/G_MODEL/u1/InstanceNorm_1/gamma", "shape": [64], "dtype": "float32", "quantization": {"dtype": "uint8", "min": 0.9735540747642517, "scale": 0.0007028591399099313, "original_dtype": "float32"}}, {"name": "generator/G_MODEL/Conv/weights", "shape": [1, 1, 64, 3], "dtype": "float32", "quantization": {"dtype": "uint8", "min": -0.36432872578209524, "scale": 0.002781135311313704, "original_dtype": "float32"}}]}]}